DRL-course/MADDPG/model_dir/episode-29996.pt (torch_old, 71203 bytes, 99 tensors)

fc1.weight f4 [16, 14]
00000000: 6bb2 dabf a157 b73f c268 cbbf 9c9c b03f
00000010: 6d81 3fbe d329 ff3d 3112 9f3e 40f6 a1be
00000020: 6bdf a93c 8a2a c23d 6a4c 963e fb6b c0be
00000030: 0d4b cfbc 0562 8e3e a4cf aa3f 4f3b 0140
00000040: caf9 953f f6ed f93f 6409 e23c d974 92bd
00000050: 53f8 37bf f74d 1bbe fa53 453e 6d46 623e
00000060: 187e 4dbf 7a85 99bd ddaa 203c 7951 883e
00000070: 34bb 8ebf f795 153e d26f 9ebf 0a21 063e
00000080: 39e9 1fbe 0aa4 0ebe 709d 193f d695 a5be
00000090: 2acf 013f cbe1 00bf 6e79 dc3f 5489 873e
000000a0: 5fed 163f 40fa aabd 8aff afbe 74d1 863e
000000b0: 439c cabe 8af8 923e e33f 2e3e a1e9 96bd
000000c0: c330 e63d 7400 883e b576 77bf bc4b 103e
000000d0: f8c0 75be 8bd2 373c 5ae0 bfbe c587 27be
000000e0: 3906 533f 11a8 36bd 5b9f 5e3f 7c7b d8bc
000000f0: bd7e a23d c52d c63d 9a61 dcbe 31b1 c13e
00000100: 1ca4 263d bd74 293e da16 a4bf a526 1b3f
00000110: d1e1 cebe f8a0 5a3e 3b34 46bf bca1 723e
00000120: 99f1 48bf 439d 783e 6d68 43be 190a eabd
00000130: 8069 2c40 bad7 15bd 42da e23d d851 4b3d
00000140: d8e4 c03c 3ba6 55bd 6b60 9f3e 8a7e bcbd
00000150: 3470 a4bf d2fc 30bc 38cb b3bf 28b2 28be
00000160: 1818 633c 3c00 083e ef8e a73f 0a8c f03e
00000170: 1fdd 03be 3b86 363e dec2 9fbe 67bf 5abf
00000180: 2922 e1bc 63b5 57be a099 673f 0156 a3be
00000190: 71e4 803f fa98 12bf df00 173e f10b f63c
000001a0: 7ccf da3e 8cba 013f 35fd 933e e96e 383f
000001b0: e84d 4bbf 59f1 bbbf df82 56be 393d 53bf
000001c0: 8cd8 ad3f 8205 d43d c953 b43f ef1b 993c
000001d0: eb64 583d dd3f 0a3e dda5 703e d4dc 0dbf
000001e0: c8d5 e83d 86aa ecbe 3c11 bfbf 36ea bd3e
000001f0: e3f8 11bf 0b60 9c3e b5d6 493f afcd cdbf
00000200: 1c4a 873f 5109 d1bf 2034 ac3e c95b 12bf
00000210: bb00 22be b72d 10bf 3756 b63d 6afd 72bf
00000220: a301 08bd 5e35 1abc b331 7e3b e87e fabe
00000230: f9ea e73e fc1d 7a3e dadd c33e 96b1 903e
00000240: 8c8a a7be eb89 d8bd d53f ce3e 7043 663d
00000250: 6c4a 0240 bb27 3dbf b66b 863e 6dcd 30bf
00000260: 2667 a5bd af70 10bf 629e 09bf 98fd 753e
00000270: 5c78 1ebf f85f 8f3e afa3 8ebd e149 c1bc
00000280: e76c c63e f7d9 753e 412c a63d 75ec 37be
00000290: 9f6e ae3f 0ec4 bbbf fb9d 873e af63 49be
000002a0: b9a7 30c0 9d12 70bf 9053 36c0 172b 91bf
000002b0: 1f55 1cbf ce74 f8be ad73 d0be 695e 07bf
000002c0: c91d 6fbe 60ea cbbe 161e 4fbe 530a 01bf
000002d0: 4a51 3cbd 7e09 0dbf 25b1 17be 0d42 4a3e
000002e0: 8786 edbd 0fa5 703e a8d5 e1bd bd27 21be
000002f0: eb02 783f eb02 d1bf fd03 2b3e 7b9a 07bf
00000300: 7e80 da3e a9f1 193f bede 3f3e 4c45 423e
00000310: bf49 ce3e 8a55 5e3d d09d ed3e 6d76 ab3c
00000320: 7100 88be 5529 5abe c6cd 363e d33d d2be
00000330: 638b 823d f702 9abd 8105 823f 536e 05bf
00000340: 9ab1 a43f 7cb4 a3bf 247d 3f3f 3681 933e
00000350: 569f 3a3f 6320 643e 99b5 923b 5c03 9bbd
00000360: f9e2 72bf e7cc 8a3e bcaf 70bc a176 3e3e
00000370: 89a7 8f3f 916a 1abd 46ea 48bd b0c1 b3ba
-1.7085699 1.4323617 -1.5891345 1.3797793 -0.18701716 0.12459149 0.31068566 -0.31633186
0.020736417 0.0948077 0.29355174 -0.37582383 -0.025304342 0.27809158 1.3344617 2.019245
1.1716855 1.9525745 0.027592368 -0.07151193 -0.7186329 -0.1516646 0.19270316 0.22097178
-0.8027053 -0.07496162 0.009806362 0.2662466 -1.115088 0.14607988 -1.2377875 0.13098541
-0.15616311 -0.13929763 0.60005856 -0.32340878 0.5070673 -0.5034453 1.7224557 0.2647196
0.5895595 -0.08348513 -0.34374648 0.26331675 -0.39572343 0.28705245 0.17016558 -0.0736878
0.11239769 0.26562846 -0.9666551 0.1409139 -0.23999393 0.011219631 -0.37475854 -0.16360386
0.8243137 -0.044593874 0.8696191 -0.02642607 0.0793433 0.096766986 -0.43043214 0.378305
0.04068385 0.16548438 -1.2819474 0.6060584 -0.4040666 0.21350467 -0.7742345 0.2369451
-0.7849365 0.2427874 -0.19082804 -0.11427707 2.6939392 -0.036582686 0.110767856 0.0496386
0.023546621 -0.052160483 0.3112825 -0.09203823 -1.2846742 -0.010802465 -1.4046392 -0.16474211
0.013860725 0.1328134 1.3090495 0.4698184 -0.1287732 0.17824642 -0.3120336 -0.85448307
-0.02748211 -0.21065287 0.9046879 -0.31901553 1.0069715 -0.57264674 0.14746426 0.030034991
0.42736423 0.5067527 0.2890412 0.72044235 -0.7941575 -1.4683028 -0.20948361 -0.82515293
1.358171 0.10352613 1.4088069 0.018690078 0.052830618 0.13500924 0.23500772 -0.5541508
0.113689005 -0.4622385 -1.4927135 0.3709275 -0.57020396 0.30542025 0.7884324 -1.6078395
1.0569491 -1.6330968 0.33633518 -0.57171303 -0.15820591 -0.56319755 0.08903163 -0.9491793
-0.033204686 -0.009412138 0.0038786947 -0.48924947 0.45296457 0.244255 0.38255197 0.28260487
-0.3272289 -0.10573181 0.40283075 0.056216657 2.0357924 -0.7388875 0.26254052 -0.69063455
-0.08076315 -0.5642194 -0.537573 0.2402252 -0.61902404 0.28002906 -0.06964814 -0.023594799
0.3875496 0.24008928 0.081139095 -0.17961295 1.3627509 -1.4669206 0.26487717 -0.19666933
-2.760237 -0.937784 -2.8488503 -1.1341275 -0.61067384 -0.48526615 -0.40713254 -0.52878433
-0.23351206 -0.3982725 -0.2022632 -0.5040638 -0.04597596 -0.5509261 -0.14813669 0.19751759
-0.11597925 0.23500465 -0.1102708 -0.15737815 0.9687945 -1.6329015 0.1670074 -0.52970093
0.42676157 0.6013437 0.18737313 0.18971747 0.4029064 0.054280795 0.46409464 0.020930493
-0.26562837 -0.2130483 0.17851934 -0.41062793 0.06374242 -0.07520097 1.015793 -0.52121466
1.28667 -1.2789454 0.74800324 0.28809518 0.7289938 0.2227798 0.0044772145 -0.07569
-0.9487758 0.27109453 -0.014690336 0.18599941 1.1223003 -0.037699286 -0.049051546 -0.001371434

fc1.bias f4 [16]
00000000: adaa 45bf 49c2 83bf 4bbb 5f3e fedf ab3e
00000010: f6d9 b5bc bd91 1c3f b1cd 01be 6691 c2be
00000020: dd71 b2be 4281 ccbf b33a be3e e352 b03e
00000030: 4fae b5bf 06e3 e53e 3e48 6ebd 91f7 84bd
-0.77213556 -1.0293666 0.2184879 0.3356933 -0.022198658 0.6115988 -0.12676121 -0.38001555
-0.34852496 -1.5976946 0.3715416 0.34438238 -1.419382 0.44899768 -0.058174364 -0.06492532

fc2.weight f4 [8, 16]
00000000: e269 abbe 11de 68bf e901 bebc 7cf5 4b3e
00000010: e642 b13d 4a88 83be 4c33 ce3e 919d 5f3f
00000020: b2b0 653c 5f92 ec3f f2b2 f23d 9ec8 4b3f
00000030: 1afb e43f 6f24 5d3f 65f9 5e3e a614 1dbf
00000040: c1f9 0ebf 080d cb3f 44a9 96bd 1632 963e
00000050: 6cf2 28be 8dfc a93f 764d 88bf e2b6 a4be
00000060: 2626 2c3f a237 86be 6b8a f03e 9ea1 6cbc
00000070: ac8f fcbd 41ef 62be e4cf 9d3e 4bdc 033f
00000080: 2bed a13d c0e5 8c3e bae3 21bf 0432 f0be
00000090: ca72 e2be 6ef5 82be b0de 11bf ba3f ee3e
000000a0: ad3e 73bf 9d08 f23e 07a7 17bd f6a8 b3bc
000000b0: 3651 67be f459 013e f143 95bf c6a5 af3e
000000c0: 0d0a 46be 1b1b 4cbe 67db c83d 44c3 bfbc
000000d0: abb0 fb3c 20a1 41bd d536 ac3d c55f c4be
000000e0: b292 46be c018 63be 6a20 b3bd 5331 5cbe
000000f0: 787c 37bd 2e9a 5cbe 4602 fbbd b824 72be
00000100: 541c 19be 22d3 943e f994 92bf 0f9e c43e
00000110: acb5 abbf c03d 673f f7ce dd3e e815 8cbe
00000120: 2124 1ebf fe36 f3be bae4 963f 896c f4bf
00000130: a252 0ebe 8a96 d03e 502c 2abf 030e 6cbe
00000140: 4060 46be ed34 8d3e 646d 913f 5740 a0be
00000150: f9aa 7fbd 6795 333e c51e edbe 0ff8 62bf
00000160: f9a9 843e 1444 d2be 1577 37bf 4ad8 ab3d
00000170: e6e1 9bbe e8c7 b4bf 6287 0a3f a87b 38bd
00000180: c5d6 9f3e 0701 70be 6f24 f7bf 69c2 473e
00000190: 8e4a 6fbf 329e 23bf 7fbf 3c3f 95d5 ab3e
000001a0: ab48 a93f 0635 9f3f 1546 21be 7c1d d1be
000001b0: 86d9 59be 9771 f7be 8cf0 5e3f 7ee1 6f3f
000001c0: 2283 da3f 5246 253f 3cd4 2d3f b56c dc3e
000001d0: 57da 623f 86e7 96be 1424 d63e 33f8 783e
000001e0: fbe9 e9be fa1b 31be 5988 0fbe 6f2b 39be
000001f0: ed17 903f 6aaa 0ebf de86 21be ec75 06be
-0.3347922 -0.90963846 -0.02319427 0.19917864 0.08655338 -0.25689918 0.4027351 0.873498
0.014019178 1.8482169 0.11850537 0.7960299 1.788913 0.8638372 0.21774824 -0.6135963
-0.55849844 1.5863352 -0.073565036 0.29335088 -0.16498727 1.3280197 -1.0648639 -0.3217078
0.6724571 -0.2621432 0.46980605 -0.014442829 -0.12332091 -0.2216158 0.3082267 0.51508015
0.07906564 0.27519035 -0.6323811 -0.4691316 -0.44228202 -0.25577873 -0.5698042 0.46532995
-0.9501751 0.47272196 -0.037024524 -0.021931153 -0.22589573 0.1263197 -1.1661359 0.34306163
-0.19339772 -0.19932215 0.09807473 -0.02340854 0.03072389 -0.0472728 0.08408896 -0.38354316
-0.19391897 -0.2217741 -0.08746417 -0.2150319 -0.044796437 -0.2154319 -0.12256293 -0.2364682
-0.14952213 0.29067332 -1.1451713 0.3840184 -1.3414817 0.903286 0.43321964 -0.27360463
-0.6177388 -0.47502893 1.1788552 -1.9095622 -0.1389871 0.40739852 -0.66473866 -0.2305222
-0.19372654 0.27579442 1.1361508 -0.31299087 -0.06241891 0.17537461 -0.46312538 -0.8865976
0.2591093 -0.41067564 -0.7166608 0.08390863 -0.30445784 -1.4123507 0.5411283 -0.045039803
0.31218544 -0.23437892 -1.9307994 0.19507755 -0.93473136 -0.6391326 0.737297 0.33561388
1.3225302 1.2438056 -0.1574939 -0.40842807 -0.21274385 -0.4832885 0.87085795 0.9370345
1.7071269 0.64560425 0.6790197 0.43051687 0.8861441 -0.29473513 0.418244 0.2431343
-0.45686325 -0.17295828 -0.14016856 -0.18082975 1.1257302 -0.5572878 -0.15774104 -0.13130921

fc2.bias f4 [8]
00000000: f5f7 233f 2451 ed3e 6075 82bf cded bebd
00000010: a10f 21be 9b2a 6c3f c413 2f3f 8903 d03e
0.6405023 0.46350968 -1.019207 -0.09322701 -0.15728618 0.9225251 0.68389535 0.40627697

fc3.weight f4 [2, 8]
00000000: 4a62 56be 48be 543f e4a1 dc3e 8574 f33d
00000010: b4c8 99bf 3ce7 13bf 93b6 6e3f da0e 0dbf
00000020: a4ad 67bf 168b 013f 29d2 f9be 6ec3 8f3c
00000030: 3719 993d 46d7 cd3e e5e9 31be 3004 353f
-0.20935932 0.83102846 0.43092263 0.11887459 -1.2014375 -0.5777471 0.93247336 -0.55100787
-0.9049933 0.50602853 -0.48793152 0.017549243 0.074755125 0.40203303 -0.1737438 0.70709515

fc3.bias f4 [2]
00000000: 3050 93bd ee68 22be
-0.07193029 -0.1586034

exp_avg f4 [16, 14]
00000000: b39a 6bb8 3ee8 2538 49a5 84b8 18c5 df37
00000010: 3403 4cb8 e8c3 9b36 5ffb acb8 60c7 cbb6
00000020: 7643 c5b7 58b6 20b7 a858 32b8 86ae 98b7
00000030: 94bb 2537 7634 2bb8 66fc b3b8 5aca dcb7
00000040: b6a9 bab7 4c47 8638 a397 3837 bc7e cb36
00000050: a8be 6e37 d17e ba38 7ff8 6737 9667 95b7
00000060: d196 0039 6cc8 ef38 9cdb 6837 91db 5738
00000070: 49fd d8b8 7054 1fb7 5f3e 8db8 6815 7cb8
00000080: 5dc3 86b8 02cc a1b8 a986 17b9 9bfb b5b8
00000090: 68a5 d234 8845 b3b8 673b 81b9 d425 ac38
000000a0: 1e74 fc37 d8fa 5138 06ba 89b7 1c14 f2b6
000000b0: 2cc6 b8b7 78f5 1b36 863a 2d36 b09c db34
000000c0: 0a08 dfb6 d28a 0738 77c0 03b6 7564 8c37
000000d0: 5353 b2b7 c0e1 2538 3f37 37b7 e827 b637
000000e0: f54a 95b8 fc22 df36 7a20 ddb7 aaed 91b7
000000f0: 8eab 1138 71ac bfb7 e4ab d937 967d 3738
00000100: 2fc3 1336 79d8 ce35 96b8 3037 e6f2 2a38
00000110: f0ef c737 2ec9 92b7 ee94 4bb8 6c49 9437
00000120: ec88 95b8 389e bc38 2d95 8eb8 8405 9937
00000130: fede 89b8 39d5 0438 f97d a2b6 2603 a336
00000140: 2011 5cb8 f1ec 7339 65a6 2a37 492b 4f38
00000150: d2ff 7a38 43f2 0c38 77e1 7b37 877d dbb7
00000160: ea15 4637 9992 ed37 676e 3b38 91b4 42b9
00000170: 3688 3b38 26e5 f6b7 9602 cc37 8772 50b8
00000180: b00c 3f37 c010 6fb8 fc48 5837 d40c 8935
00000190: 6b6b ab37 50aa 0437 7531 4c38 e343 3bb6
000001a0: 2834 23b9 d04b d4b8 07ab 1db8 dd40 c7b6
000001b0: 9288 ad37 d0c9 bbb8 c991 1c37 4ad0 00b8
000001c0: cc89 ed37 17e1 8ab8 b850 3e36 6ec2 4bb7
000001d0: 8574 2937 c0df 66b8 26b8 12b8 7976 7238
000001e0: 0492 4936 c088 c1b7 fb54 5a38 caaf 6538
000001f0: 4ee2 c8b7 167f a7b7 8ffe 8d38 33e8 bd38
00000200: 69d4 3e38 347c 6cb7 cd80 4d38 2021 c237
00000210: 0543 0439 2ac5 abb7 1bc4 0738 cc6a 84b5
00000220: d410 2e38 c081 1438 47f5 41b8 bedd 2038
00000230: d8ad 8938 9ed6 af36 4403 05b8 b1cd af37
00000240: 1e76 9db6 823c 7f37 00f8 2037 5fb5 f937
00000250: b049 1b38 82af 84b7 70e6 e738 3e9f beb6
00000260: 60b6 d4b5 67d0 9637 8749 ecb7 f6a0 dab7
00000270: 7358 8138 d78f d237 dfe8 0538 40ee 3fb8
00000280: e090 2fb7 f4d6 00b9 888e 82b8 900d 8737
00000290: 7620 9eb7 d28a 3e38 b4e9 7237 d69a 9637
000002a0: 1e87 f437 785d 7c36 a722 2337 7554 b737
000002b0: f868 c936 e56d 5c37 aa15 5db8 3e4a 9237
000002c0: 5b06 15b8 a902 39b8 0b29 8cb7 9d0e 8937
000002d0: 3151 20b7 fa98 6737 942a 1439 cc21 5636
000002e0: d4d2 3638 5a77 dab7 bb72 bb38 54b8 3338
000002f0: 694a 13b9 ca5e 24b7 4506 8bb7 4612 13b8
00000300: c94f 1839 183f d5b8 af7c 3a38 ca7b f037
00000310: ba66 bbb7 deb5 b4b6 3317 6cb7 ba4d 9e37
00000320: d57c 3636 4651 aa36 3897 b2b7 a1b9 0138
00000330: 9064 c3b7 af62 6738 bb3b 48b7 77c5 beb7
00000340: 7a0f be37 68a7 6b35 6d04 8cb8 3092 67b6
00000350: d228 11b8 1243 0538 86d8 edb7 1b4e 1638
00000360: 6cb1 9837 9db8 5239 f1fd 86b7 5ea4 a538
00000370: fada 3737 bc46 b437 b8f8 1436 2091 ae37
-5.617244e-05 3.9555358e-05 -6.325037e-05 2.667545e-05 -4.8640373e-05 4.6421665e-06 -8.2484206e-05 -6.0730817e-06
-2.3515644e-05 -9.579198e-06 -4.2521075e-05 -1.820108e-05 9.87844e-06 -4.0818435e-05 -8.582398e-05 -2.6320271e-05
-2.2251956e-05 6.402898e-05 1.100256e-05 6.0646253e-06 1.4230296e-05 8.8927925e-05 1.382653e-05 -1.781042e-05
0.00012263215 0.000114337396 1.3879409e-05 5.146448e-05 -0.00010346861 -9.496798e-06 -6.7350215e-05 -6.0101418e-05
-6.426007e-05 -7.715078e-05 -0.00014450647 -8.677618e-05 3.9235897e-07 -8.548336e-05 -0.00024649056 8.208645e-05
3.0094812e-05 5.00631e-05 -1.6418297e-05 -7.214503e-06 -2.202679e-05 2.3239681e-06 2.5813074e-06 4.0905934e-07
-6.6468538e-06 3.2315795e-05 -1.963255e-06 1.673608e-05 -2.1258054e-05 3.954931e-05 -1.0920513e-05 2.1714673e-05
-7.1188355e-05 6.6499906e-06 -2.6360376e-05 -1.7396018e-05 3.4730467e-05 -2.2849274e-05 2.5948459e-05 4.374756e-05
2.2018319e-06 1.5411198e-06 1.0533395e-05 4.0757375e-05 2.3834378e-05 -1.7498238e-05 -4.8537673e-05 1.7677165e-05
-7.130377e-05 8.994009e-05 -6.798874e-05 1.824159e-05 -6.5742046e-05 3.166983e-05 -4.8426414e-06 4.858145e-06
-5.2468036e-05 0.00023262553 1.0171531e-05 4.939296e-05 5.9842896e-05 3.3604225e-05 1.5013261e-05 -2.6165288e-05
1.1806822e-05 2.8320866e-05 4.4687094e-05 -0.00018568548 4.471113e-05 -2.943219e-05 2.43199e-05 -4.9697726e-05
1.1387441e-05 -5.699764e-05 1.2891596e-05 1.0211029e-06 2.0434809e-05 7.907467e-06 4.868345e-05 -2.7904687e-06
-0.00015564321 -0.00010123069 -3.7591e-05 -5.9382132e-06 2.0686803e-05 -8.9544454e-05 9.332268e-06 -3.0711562e-05
2.8316768e-05 -6.622279e-05 2.835919e-06 -1.2145012e-05 1.0100314e-05 -5.5044657e-05 -3.4980614e-05 5.7807632e-05
3.0036326e-06 -2.3071072e-05 5.2054394e-05 5.476157e-05 -2.394724e-05 -1.996713e-05 6.770819e-05 9.055473e-05
4.5497352e-05 -1.40956145e-05 4.8995764e-05 2.3142027e-05 0.00012613468 -2.04766e-05 3.2369146e-05 -9.865848e-07
4.1500505e-05 3.540679e-05 -4.6243218e-05 3.8353486e-05 6.56505e-05 5.240391e-06 -3.1712712e-05 2.0957408e-05
-4.6927153e-06 1.52132725e-05 9.594485e-06 2.976757e-05 3.7023507e-05 -1.5817353e-05 0.00011057861 -5.6809795e-06
-1.5848309e-06 1.7978438e-05 -2.8167631e-05 -2.6062578e-05 6.167674e-05 2.5100931e-05 3.192655e-05 -4.5759836e-05
-1.0464544e-05 -0.00012287108 -6.2254316e-05 1.609957e-05 -1.8850184e-05 4.5428817e-05 1.4478737e-05 1.7953495e-05
2.9149985e-05 3.7605332e-06 9.723625e-06 2.1854628e-05 6.0024868e-06 1.3138609e-05 -5.2710682e-05 1.7439128e-05
-3.5530287e-05 -4.4109915e-05 -1.6708413e-05 1.6338478e-05 -9.555647e-06 1.3804291e-05 0.00014130241 3.1908157e-06
4.358853e-05 -2.6043203e-05 8.938225e-05 4.2848595e-05 -0.00014046732 -9.7972315e-06 -1.657301e-05 -3.506455e-05
0.00014525572 -0.000101683836 4.4461976e-05 2.8667873e-05 -2.2339973e-05 -5.38559e-06 -1.4072098e-05 1.8871262e-05
2.7192775e-06 5.0758563e-06 -2.128967e-05 3.0928877e-05 -2.329264e-05 5.5166598e-05 -1.1934836e-05 -2.2741717e-05
2.2656972e-05 8.778793e-07 -6.6765446e-05 -3.4506775e-06 -3.460871e-05 3.1772135e-05 -2.8353428e-05 3.583553e-05
1.820243e-05 0.00020095934 -1.6092295e-05 7.898429e-05 1.0958634e-05 2.149061e-05 2.2198492e-06 2.0809995e-05

exp_avg_sq f4 [16, 14]
00000000: ef5e 2233 966b 3733 d431 1e33 eb21 3a33
00000010: c138 9d32 4e62 aa32 0f6a 0933 31f4 c933
00000020: 6c36 4f32 c1e8 5732 57ee 3e33 e62a 9533
00000030: 3d3c 4a32 6013 6e32 addc f233 bd40 9433
00000040: 1cf4 e933 aa02 9a33 dfb9 9d32 70a1 0533
00000050: 9e8b c833 374a 0635 aad1 aa32 4538 1f33
00000060: 81c7 ed33 9ac5 0435 4aca a132 47a9 2333
00000070: 0bee 3933 0515 5533 0bfe 4433 07ec 5733
00000080: 60ca a032 d110 9e32 99d1 1334 83d5 1034
00000090: 254f a132 6f67 a432 e4d0 4e34 fd25 6834
000000a0: 26fd d732 3fea a632 cfed 6433 8843 7e33
000000b0: 7ffc 5333 67e0 7933 53ee c231 383b 9e31
000000c0: 2e83 0634 38fd c734 f129 ef31 d0ec 7c32
000000d0: 2ece bd33 c47a c034 f1af b031 a209 6a32
000000e0: 8c01 0133 be2e af33 747c f232 09b1 c433
000000f0: 44fc 3532 267a 2032 326f 5135 c491 8535
00000100: 0dbf d032 d810 8633 0db2 d134 771d a034
00000110: afce 9f32 ceda e032 1dd4 3633 4e7d 7133
00000120: 32f6 3333 92bf 7a33 cb99 8e32 3acc a232
00000130: f7ba 0934 75d2 5734 bf29 aa32 0668 9032
00000140: 292b 2f35 e706 9835 5211 0633 31f8 8933
00000150: 5014 fc32 23df ea32 ea17 de32 ab77 ff32
00000160: 6753 7d32 1927 5a32 954e 9e34 1563 5334
00000170: 8f1f a532 0ac2 ac32 7572 5133 84fc 7133
00000180: c327 7932 b3cd 4d32 a3b4 a933 5e1a 9c33
00000190: 3fab a933 e9ee a933 7161 7132 5cb0 6532
000001a0: 8a41 0f35 b19d 3135 fba5 fa32 b0a6 5633
000001b0: e16c dc33 64dc 5634 14a0 4732 26b1 4332
000001c0: c46a 5333 11c5 4533 5790 3f33 71e0 5633
000001d0: 556d 9032 a6c4 5332 41bb 2834 3544 f033
000001e0: 65c1 8432 fc2b 2932 9fea d334 934d 2d35
000001f0: 82e4 db32 2714 3633 dbc7 4433 e038 8333
00000200: 4b48 4733 b0eb 8733 4168 7a32 7346 9232
00000210: 32c7 8e33 fe81 cc33 3fd8 4632 519c 3732
00000220: 3778 d633 89f2 0c34 aa18 4732 dbde 5832
00000230: 5439 8d32 1314 9732 c8b7 8832 3e46 9532
00000240: 1f24 de31 dbb0 b631 facc e033 fa4c c033
00000250: 754c 1532 6d4f ed31 d3ce 8333 8c20 e033
00000260: d8bd 0a32 75a0 0732 2d0b 3033 d7d6 1633
00000270: ea57 3233 06af 1133 4b98 7a32 1dcc 6532
00000280: 22cf f234 5ba1 9634 577e f132 86df c032
00000290: 3071 ad33 d47a b133 6048 8532 7a34 5232
000002a0: de7d a632 d495 0e33 5d36 a932 fafa 1433
000002b0: ecba 8132 3302 fb31 fbdc 1434 e363 a933
000002c0: f39a 3e32 ebf8 1a32 97ad 6734 bd31 6d34
000002d0: ece6 4932 7560 8532 94cc 6d33 372f 6933
000002e0: 8d4c 7233 b35f 6333 e8b7 a932 9b68 9b32
000002f0: e602 1c34 0744 3034 a59e c932 3274 7632
00000300: 4d2f 1f35 cd0d 7f35 ceeb 1633 aeb2 8233
00000310: cb3c 4c33 2806 ff32 a98f 4533 4f72 0333
00000320: 6d39 5732 d621 3432 8eec 4334 a7bd 9e34
00000330: 3445 9a32 13ec cf32 0922 3733 a307 a933
00000340: ec15 4032 e4ca 2232 c85c 4b33 c1b2 3733
00000350: 10f9 4933 910a 4133 e857 6332 a033 1a32
00000360: 1a34 2135 489f 8235 d62d ea32 1918 7233
00000370: 66b0 f233 8a64 1e34 c93c 4932 98c9 0432
3.7804906e-08 4.2705857e-08 3.683256e-08 4.3337348e-08 1.8303014e-08 1.9835309e-08 3.1994258e-08 9.40421e-08
1.206136e-08 1.2567569e-08 4.445459e-08 6.9461564e-08 1.1771644e-08 1.3857829e-08 1.1309144e-07 6.903563e-08
1.0894311e-07 7.1716684e-08 1.836173e-08 3.1113302e-08 9.338622e-08 5.0026887e-07 1.9885949e-08 3.707125e-08
1.1072462e-07 4.946138e-07 1.8834857e-08 3.810535e-08 4.3290168e-08 4.9612044e-08 4.5865857e-08 5.0273254e-08
1.8718481e-08 1.8401268e-08 1.3766693e-07 1.348872e-07 1.8778858e-08 1.9139149e-08 1.9261239e-07 2.1620504e-07
2.5144413e-08 1.9431466e-08 5.3301672e-08 5.9200403e-08 4.935691e-08 5.8178923e-08 5.6732374e-09 4.6051376e-09
1.2527445e-07 3.725088e-07 6.9605837e-09 1.47221755e-08 8.838502e-08 3.585211e-07 5.1422764e-09 1.3622783e-08
3.003656e-08 8.157575e-08 2.8229103e-08 9.159164e-08 1.0592945e-08 9.340999e-09 7.802038e-07 9.951696e-07
2.4301267e-08 6.242925e-08 3.9058833e-07 2.982376e-07 1.8604025e-08 2.6176533e-08 4.2568093e-08 5.622615e-08
4.19006e-08 5.8381893e-08 1.6600913e-08 1.8952154e-08 1.2827137e-07 2.0099999e-07 1.9809589e-08 1.681111e-08
6.5255387e-07 1.1326891e-06 3.121506e-08 6.4247054e-08 2.9345898e-08 2.7342656e-08 2.5855076e-08 2.9740326e-08
1.4745502e-08 1.269816e-08 2.948697e-07 1.9686952e-07 1.922288e-08 2.0111674e-08 4.8765703e-08 5.6341847e-08
1.4502748e-08 1.1979341e-08 7.9025334e-08 7.269112e-08 7.900825e-08 7.913133e-08 1.4050202e-08 1.3369654e-08
5.3367023e-07 6.616711e-07 2.917931e-08 4.997736e-08 1.0264353e-07 2.0010481e-07 1.1619722e-08 1.1390773e-08
4.922437e-08 4.6046868e-08 4.460193e-08 5.0029886e-08 1.6813525e-08 1.2326529e-08 1.5714342e-07 1.1188278e-07
1.5454768e-08 9.847096e-09 3.9472522e-07 6.456041e-07 2.5598869e-08 4.2393506e-08 4.5816574e-08 6.1105084e-08
4.6399048e-08 6.329299e-08 1.457562e-08 1.7028674e-08 6.648624e-08 9.523136e-08 1.15742855e-08 1.0687544e-08
9.9870185e-08 1.312675e-07 1.15889325e-08 1.2623526e-08 1.644063e-08 1.7587842e-08 1.5916058e-08 1.7377825e-08
6.465157e-09 5.3170033e-09 1.0468098e-07 8.954699e-08 8.690326e-09 6.9066375e-09 6.137784e-08 1.0436733e-07
8.075823e-09 7.894518e-09 4.0988358e-08 3.5119992e-08 4.1523812e-08 3.3919626e-08 1.4586543e-08 1.3375964e-08
4.5226722e-07 2.805708e-07 2.8113545e-08 2.2453388e-08 8.076529e-08 8.264547e-08 1.551615e-08 1.2235541e-08
1.9382181e-08 3.319822e-08 1.9698911e-08 3.4687197e-08 1.5102579e-08 7.3053115e-09 1.3863966e-07 7.887845e-08
1.1094687e-08 9.020577e-09 2.1576703e-07 2.209044e-07 1.1752245e-08 1.5527101e-08 5.5366925e-08 5.429248e-08
5.641464e-08 5.2939594e-08 1.975782e-08 1.8091944e-08 1.4529687e-07 1.6416026e-07 2.3471623e-08 1.4345504e-08
5.930095e-07 9.5014985e-07 3.513906e-08 6.0860984e-08 4.7552742e-08 2.9688707e-08 4.5998295e-08 3.0604777e-08
1.2527704e-08 1.0485072e-08 1.8246848e-07 2.9567784e-07 1.795943e-08 2.4205326e-08 4.2638963e-08 7.871065e-08
1.1180855e-08 9.475773e-09 4.7349005e-08 4.2770584e-08 4.702548e-08 4.4945924e-08 1.3233127e-08 8.975718e-09
6.005299e-07 9.732112e-07 2.7262029e-08 5.6366932e-08 1.130109e-07 1.4751473e-07 1.1713561e-08 7.729248e-09

exp_avg f4 [16]
00000000: f069 6938 6872 27b9 2575 c038 9229 0938
00000010: 0edf 8b38 a48c a539 2fd7 60b9 e8cd 41b8
00000020: 0578 db38 60a5 90b6 7a08 fb38 f657 50b9
00000030: a18d cfb8 e6f9 b8b9 105a 8738 747d 2939
5.565019e-05 -0.00015968981 9.177093e-05 3.270206e-05 6.669584e-05 0.00031576038 -0.00021442467 -4.620655e-05
0.00010465089 -4.3107866e-06 0.000119701916 -0.00019869194 -9.8969096e-05 -0.00035281404 6.454077e-05 0.00016163831

exp_avg_sq f4 [16]
00000000: 9da0 8534 f199 1535 9ed7 8635 625f 0a35
00000010: ab29 c235 8117 0936 3bda 2535 ffb2 4335
00000020: 773c 2a35 6957 5534 10e5 aa34 376e a035
00000030: bd6c 8e34 e0c4 fa35 58c6 2135 e08c 8135
2.4890042e-07 5.573084e-07 1.0046531e-06 5.1547806e-07 1.4466253e-06 2.0428272e-06 6.1784857e-07 7.2903634e-07
6.3417923e-07 1.986897e-07 3.1831632e-07 1.1953006e-06 2.652868e-07 1.868375e-06 6.02658e-07 9.652249e-07

exp_avg f4 [8, 16]
00000000: 2fd3 fbb8 4852 1438 9880 6fb8 393e 4eb9
00000010: 1c6e 7cb7 c776 80b8 a295 27b9 9e70 3438
00000020: 4dca 4738 48b9 a237 be15 fbb8 cae3 a5b9
00000030: b018 42b9 2350 0db9 cef6 6fb8 b8b4 5ab7
00000040: affc 9b38 b08e 8eb6 09d7 3f39 7ca6 1f39
00000050: 72da 0138 1243 cd38 66c5 f937 b887 83b8
00000060: 7c25 f2b7 3a11 dfb7 c350 2539 f684 aa39
00000070: aafe 2537 7167 0339 f822 a738 abee 5238
00000080: abbf 2ab3 9bf5 0536 915a 6fb3 6b5d d034
00000090: e8da 7335 9dde d3b3 6f02 08b1 1e92 8d35
000000a0: 1d9d b835 2eba e536 7e61 1e35 d13d b8b4
000000b0: d892 9235 d51c c1b4 fc46 5f35 5dc4 b935
000000c0: 2ec7 07a1 0400 0080 7cfe b62a c872 012a
000000d0: 4dc2 c6a8 0925 1b2a 04f6 9729 0400 0000
000000e0: 0400 0080 0400 0000 484c c799 79a6 2e29
000000f0: 663e 062a c380 9624 9e10 6fa1 94e3 68a8
00000100: b70e c2b6 a804 2138 7231 9a37 b113 39b8
00000110: bb21 5b38 60f7 67b7 4959 8c38 dc6a d837
00000120: 9332 8538 f251 1236 1afd 5338 cce5 c4b7
00000130: 1ea6 0238 c0c2 ea37 d164 9137 26fe 4137
00000140: 4e56 9a37 d2b2 3737 f872 b9b8 b82d ceb6
00000150: 5247 17b8 0e5d 90b7 f5b4 d336 19a7 87b7
00000160: 97bc 1bb7 73ee 6a36 60ff b0b8 cfd4 a2b8
00000170: d249 8037 b880 c237 b6c5 27b8 d67e 27b8
00000180: 70bf cc37 24e1 feb7 f848 9eb7 e0ec 86b7
00000190: ad89 2c38 10a2 7038 3c23 f1b6 2620 ca37
000001a0: 9241 4b37 797d 50b8 f789 8138 3838 35b6
000001b0: db12 e9b8 6714 beb7 9ce8 8eb7 259d 87b8
000001c0: 8c5d 0639 5864 5138 ce10 b1b8 f157 fe38
000001d0: 2f0e 2738 48a6 96b7 d6c3 a038 aa01 8eb8
000001e0: b0e0 8a37 0d88 9b37 4a6c cab8 02df 04b8
000001f0: 03d0 9a39 def9 4139 4de9 d6b8 80e1 cdb8
-0.00012007949 3.536258e-05 -5.7101803e-05 -0.0001966887 -1.5046007e-05 -6.1256396e-05 -0.00015982104 4.3020227e-05
4.7633705e-05 1.9398183e-05 -0.000119726625 -0.00031640969 -0.00018510479 -0.00013476661 -5.7211895e-05 -1.3035889e-05
7.438042e-05 -4.248541e-06 0.00018295286 0.00015225442 3.095944e-05 9.7876546e-05 2.9775034e-05 -6.271846e-05
-2.8866103e-05 -2.6591693e-05 0.00015765712 0.0003252399 9.89406e-06 0.00012531668 7.969694e-05 5.029018e-05
-3.975553e-08 1.9961506e-06 -5.5728893e-08 3.881099e-07 9.0843105e-07 -9.865946e-08 -1.9791988e-09 1.0547844e-06
1.3754794e-06 6.846406e-06 5.9001457e-07 -3.4317648e-07 1.0920585e-06 -3.597003e-07 8.317727e-07 1.3840723e-06
-4.600339e-19 -6e-45 3.2506278e-13 1.1497324e-13 -2.206668e-14 1.3779615e-13 6.748424e-14 6e-45
-6e-45 6e-45 -2.0606927e-23 3.8780153e-14 1.192324e-13 6.527026e-17 -8.099834e-19 -1.2927935e-14
-5.7833636e-06 3.8389728e-05 1.8381255e-05 -4.4125776e-05 5.2245083e-05 -1.3826269e-05 6.692351e-05 2.5798967e-05
6.3513544e-05 2.1803394e-06 5.054204e-05 -2.3472028e-05 3.1149124e-05 2.7985661e-05 1.7332293e-05 1.156287e-05
1.839842e-05 1.0949285e-05 -8.842902e-05 -6.144601e-06 -3.6067628e-05 -1.720947e-05 6.309356e-06 -1.6171065e-05
-9.282629e-06 3.5007513e-06 -8.439901e-05 -7.764401e-05 1.5293164e-05 2.3186542e-05 -4.0000035e-05 -3.9934028e-05
2.440784e-05 -3.0383999e-05 -1.8869046e-05 -1.6084348e-05 4.1136216e-05 5.737139e-05 -7.1864615e-06 2.4095247e-05
1.211501e-05 -4.970792e-05 6.176897e-05 -2.7003825e-06 -0.00011113818 -2.2659266e-05 -1.7036036e-05 -6.466572e-05
0.00012814085 4.9922935e-05 -8.443148e-05 0.00012128044 3.9829112e-05 -1.7958824e-05 7.665872e-05 -6.7713976e-05
1.655551e-05 1.8540793e-05 -9.652281e-05 -3.1678945e-05 0.0002952815 0.00018498997 -0.00010247771 -9.8171644e-05

exp_avg_sq f4 [8, 16]
00000000: 154c a733 e405 bb34 83f8 6035 ce56 7435
00000010: cd66 0a36 b25a 1d36 a246 8a34 07bb 9534
00000020: 9575 b235 3f33 d933 8d1f 7535 48e3 8f35
00000030: d461 a534 d761 d435 3cee 5635 6288 1235
00000040: 7f65 c433 c089 4635 ad27 4b35 7e03 9035
00000050: eed0 4636 1c68 3636 de8d 7834 1d89 b234
00000060: c4b4 f435 9137 c733 37a1 9235 b775 8c35
00000070: af16 8734 9f28 eb35 3c61 5d35 66f3 4b35
00000080: e288 d031 67cc 2235 cf85 7031 f7a3 ee31
00000090: 963f b231 500d f432 c14e 1631 40f1 9231
000000a0: 2720 2931 d03a bc32 17c9 3733 a530 5033
000000b0: 85e5 2632 8cfb f131 0119 0e31 bf0e 8933
000000c0: ce0b ae30 ff78 fc2f 9987 6c30 cd20 9f30
000000d0: 67e4 8530 ff5b 8130 7279 bb2f cac1 c22f
000000e0: 890b 5132 d731 0531 b419 1830 83d3 c42f
000000f0: fb30 592f 0922 b92e 7a59 ca31 f32c 652f
00000100: 7e81 f532 cd14 7333 5086 f533 db8e e633
00000110: 24fd ee33 9538 a735 068e 3934 a8b1 9832
00000120: 69ec c033 cfd5 ae31 5b79 e534 b232 8b33
00000130: f5b7 eb32 ac84 0f35 3ff6 0333 8f94 3133
00000140: e7eb a032 ffd3 2535 cf56 a834 813d 5e34
00000150: 6f19 ba34 7a24 fe34 8b84 7032 2c02 7932
00000160: 8141 8934 632d 9432 3eba 4234 b00a 0935
00000170: a089 8532 00fe 1a34 91c2 db34 d90f 6a34
00000180: 2504 3131 fb8c bc32 0d9a ea31 70fe be33
00000190: fca5 2834 7cbd 9a33 c6f7 ae32 d8ea 5d34
000001a0: 0172 3034 d4a0 a233 fa2d 9933 5852 2333
000001b0: 53e3 2d33 699b f532 5f8c 4734 5da3 8434
000001c0: b10a 0a34 eec5 ad35 3fd6 5635 01ab 8d35
000001d0: 537c 0a36 50fe d835 07cc 3f34 2ff6 2134
000001e0: 7648 6a35 a9ac 3033 544c 4d35 0345 8735
000001f0: 46c1 c834 2c75 ba35 f0cb d234 0930 1b35
7.790383e-08 3.483575e-07 8.3808135e-07 9.10234e-07 2.062344e-06 2.3447615e-06 2.5755895e-07 2.7889493e-07
1.3296254e-06 1.01141715e-07 9.1315525e-07 1.0720478e-06 3.0804824e-07 1.5823706e-06 8.006789e-07 5.45877e-07
9.145423e-08 7.39612e-07 7.568113e-07 1.0729852e-06 2.9625912e-06 2.7180713e-06 2.3148411e-07 3.3254847e-07
1.8232026e-06 9.276767e-08 1.0924767e-06 1.0465072e-06 2.5162214e-07 1.7520687e-06 8.247041e-07 7.5977584e-07
6.0691585e-09 6.064715e-07 3.5000658e-09 6.9453523e-09 5.1877107e-09 2.8411392e-08 2.187264e-09 4.276586e-09
2.4611013e-09 2.1912825e-08 4.2790898e-08 4.8473016e-08 9.714658e-09 7.0426207e-09 2.0677933e-09 6.382242e-08
1.2663521e-09 4.5924506e-10 8.6048996e-10 1.1578095e-09 9.74194e-10 9.412132e-10 3.4101394e-10 3.542609e-10
1.2168024e-08 1.9382378e-09 5.5333804e-10 3.580248e-10 1.9753436e-10 8.418872e-11 5.889146e-09 2.0843398e-10
2.858064e-08 5.6596765e-08 1.1433133e-07 1.0736195e-07 1.1128785e-07 1.2458937e-06 1.7281135e-07 1.7775918e-08
8.9836995e-08 5.0883737e-09 4.2742872e-07 6.481913e-08 2.7441255e-08 5.3464714e-07 3.0724774e-08 4.1346137e-08
1.8733727e-08 6.1775785e-07 3.13556e-07 2.0697736e-07 3.4663705e-07 4.7337727e-07 1.3999975e-08 1.4494201e-08
2.55659e-07 1.7250107e-08 1.8135412e-07 5.105203e-07 1.5545822e-08 1.4434772e-07 4.0933494e-07 2.1798714e-07
2.5759246e-09 2.1950191e-08 6.82781e-09 8.8938464e-08 1.5706604e-07 7.205651e-08 2.036894e-08 2.0667665e-07
1.6432752e-07 7.572967e-08 7.132981e-08 3.8026286e-08 4.048645e-08 2.8592426e-08 1.8584386e-07 2.4705778e-07
1.2856141e-07 1.294711e-06 8.003298e-07 1.0555087e-06 2.0635969e-06 1.6167269e-06 1.7862486e-07 1.5083855e-07
8.727724e-07 4.1135227e-08 7.6479523e-07 1.0078369e-06 3.7393528e-07 1.3892181e-06 3.9263932e-07 5.78119e-07

exp_avg f4 [8]
00000000: 28e7 a7b9 9018 cd39 1c80 5135 acfe 2e2a
00000010: f859 9bb8 f285 7bb8 468d 3eb7 681e dc38
-0.00032024947 0.00039118947 7.804499e-07 1.5542662e-13 -7.407734e-05 -5.996781e-05 -1.1357775e-05 0.00010496081

exp_avg_sq f4 [8]
00000000: 72a4 3b36 253d 6736 4ce6 1333 100a 0d32
00000010: 3d13 e534 5ac6 4c35 0203 9e34 82fb 3836
2.7960891e-06 3.4457273e-06 3.443556e-08 8.209568e-09 4.2668572e-07 7.628456e-07 2.9431982e-07 2.7564533e-06

exp_avg f4 [2, 8]
00000000: c838 84b9 c1d0 9539 2160 bc35 5842 0229
00000010: c822 1fb8 f536 a139 9f9a 01b9 7ab8 52b9
00000020: 92d5 883a 858b 8739 e2d9 58b5 67c7 1329
00000030: 54c5 3339 d5d5 f938 0880 8db8 b08b 483a
-0.00025219307 0.00028575028 1.4035069e-06 2.8923343e-14 -3.7940947e-05 0.0003074926 -0.0001236 -0.00020095884
0.0010439625 0.00025853157 -8.078333e-07 3.281351e-14 0.0001714428 0.000119130746 -6.7472516e-05 0.00076502096

exp_avg_sq f4 [2, 8]
00000000: 8650 dd37 600a 8637 8d58 c334 16ca 8233
00000010: 4669 9135 665a 8a35 b3fd ca35 e9d8 2337
00000020: feb0 ec37 19b0 b737 b0e8 cd34 d2f7 4933
00000030: 7d42 8935 c520 9d35 970a 0e36 6c69 3137
2.638275e-05 1.5978876e-05 3.638601e-07 6.090356e-08 1.083398e-06 1.0308111e-06 1.5124009e-06 9.76606e-06
2.821581e-05 2.1897302e-05 3.8353528e-07 4.702435e-08 1.0226646e-06 1.1706949e-06 2.1165813e-06 1.0574568e-05

exp_avg f4 [2]
00000000: 4f42 9139 e09f ae39
0.0002770596 0.00033306982

exp_avg_sq f4 [2]
00000000: 0172 c636 f609 fb36
5.9141316e-06 7.4815425e-06

fc1.weight f4 [32, 20]
00000000: 1fb1 46bf 391a 523e e285 303f 7470 eabe
00000010: 7267 4bbf 5a7a 653e cf11 cbbe 43ac d83e
00000020: 2fc7 39be 2653 873e da4e d03e 3c9d 5ebf
00000030: e869 81be 02d8 053f 7106 6cbd d6dd 2d3d
00000040: 8c45 f9ba 3a4f 273d 977c 653c b20a 6b3d
00000050: e2e6 b0be 4904 523e bb62 b7bf 5a14 1b3f
00000060: ef10 5abe 901c 343e e4ce 7abd 0c51 003e
00000070: 007b b93d 0ad0 fd3d d232 9bbe 9738 5a3e
00000080: 0723 9abc 656c 43bd 0242 babc 9c6b a13b
00000090: 5ccb 9a3b 16a7 c43b cac2 60bb fc7a cdba
000000a0: 5def 8ebe f884 63be b327 143f 9d59 a3bf
000000b0: 1fd9 9abe dab0 86be 46ae f7be 3c87 a0bd
000000c0: e0a0 42be 9d5c a2be 2288 8f3d 4eeb 763e
000000d0: 5121 29be 8959 b73e 3fd1 cabc 637a 18bc
000000e0: f1b5 58bc 0a38 1a3c a826 433b 839c 6f3a
000000f0: fda3 073e 9c5d 8fbe 357f 803e 74f8 cabf
00000100: a962 eb3c 7683 54be 5761 33be f7d1 f63a
00000110: bbf0 a73c c205 74be cfdc f63d 3f51 823e
00000120: fa01 e2bd eae5 0ebd 440a 5c3c b992 7cbb
00000130: 43c4 5a3b 6274 473b 07f2 b73c fc28 60bc
00000140: 1f6a ad3e a709 c13e fc5c 1e3f fe87 efbe
00000150: 7227 073f 3b46 35bf fc73 3c3e c88b 54bf
00000160: 76b2 87bf a4de 30be cdc0 2f3d c0e7 3fbf
00000170: 33e3 b1bd 1e6c ce3d f6b4 573d fc85 dabc
00000180: 8cc2 a1bd a717 98bd 4b7b 2f3d 7646 f6bc
00000190: 547b dcbe d5c8 0fbe c601 f2bd 9fc2 4dbf
000001a0: 6176 423e d261 51be d046 c0be 00c8 36be
000001b0: fb92 e03d 0f56 07bc 111f ebbe 9cdd 343e
000001c0: 5e5e 01bf 5283 16bd 7574 fc3b ce07 c1bd
000001d0: 4bec 113c 6b84 083c 49ca 76bc b82b cfbc
000001e0: 471a 063d 7559 0abe f153 85bf 5e96 bbbf
000001f0: f048 1ebe f225 0abd 30d3 2fbd dd3f 64bd
00000200: b85b 873b f829 25be 472d 73be fd04 67be
00000210: b456 87be 5d01 0abe d715 d3bc 6a18 d3bb
00000220: 89a5 f4bb bb19 3ebb 6725 1dbc 5f13 193b
00000230: 79be 233d d22d e63d fb46 4b40 ff68 be3f
00000240: 68c5 163f b435 13be 3b8f acbd f164 713e
00000250: ec09 893d ba7b 3d3e 715e 443e b861 e5bd
00000260: 257c 8abd 2cf3 ca3e 054f 213d 1892 943c
00000270: 957d bd3b e657 783b 5af0 bd3b 0ca7 dc3b
00000280: 47d4 3ebe b356 97bd af32 2dbe ea8e 0f3f
00000290: d817 0f3f 7e9e bcbe 3143 30bf b093 343d
000002a0: ca01 c4bd 2e40 98be 32fa 6e3d b7f0 02bf
000002b0: fbeb a63e b9c6 b13e ede1 d53c e412 00bc
000002c0: acb5 bb3d 997a 0e3d d901 cabc 5f99 cebc
000002d0: 4706 a83e cba4 a5bd 45bf 9bbe 2fc6 9fbf
000002e0: a1c4 cabd b098 a3bd e021 423e 42b8 2e3e
000002f0: 35fb 563d 1130 c4bb 27dc 913e f42c e63a
00000300: 3934 2ebe 8a8e afbe 9458 9e39 5aa0 a4bb
00000310: 43ab ca3a 9528 a6bb 20fc 2a39 66fe 8b3c
00000320: 691b 2cbe a87e 70be 3cca 493f ff7c afbe
00000330: f4f7 ea3d 2c6c afbd e472 e9bd 2b69 403e
00000340: 04fe 693e f7cd 233e 5851 80be 5d8b a3be
00000350: ed06 38be b180 293e d0d1 7bbc 808c 74b8
00000360: 7780 8f3b 383b 313c 9591 9a3b 0a05 0c3b
00000370: 761a d33e dca7 4abe 77e6 4040 a948 10bf
00000380: 27b8 b03e 1cac 2dbe ddc0 b13d 23ec 7abd
00000390: 9bac 50be 7662 15be 2d45 943e bc78 573e
000003a0: 4346 c53e 5453 b8bd b7bf 443d 9be6 97bb
000003b0: 445a d9ba 4dfc e53b aef0 7f3b aedf 893b
000003c0: c134 8bbd 02e9 5c3e 7834 95bf 3f28 263f
000003d0: d383 76be 88b8 323d e3ab 573c edea 323d
000003e0: 6845 bb3d cfb7 063e 0bc1 25be e4f7 813d
000003f0: 1da0 a83d 1e95 3c3e 128f 0dbd 54cf 693c
-0.77614015 0.20517816 0.6895429 -0.4578892 -0.7945472 0.22409955 -0.39662024 0.42318925
-0.18142389 0.26430625 0.4068516 -0.8695867 -0.25276113 0.52282727 -0.05762333 0.042447887
-0.0019017919 0.04084704 0.014006755 0.057383247 -0.3455115 0.20509447 -1.4327005 0.6057793
-0.21295522 0.1758902 -0.061232463 0.12530917 0.090566635 0.12393196 -0.3031221 0.2131065
-0.01881553 -0.047710795 -0.022736553 0.004926158 0.0047239494 0.0060013635 -0.003429579 -0.0015676911
-0.27916995 -0.22218692 0.57873076 -1.2761723 -0.30243775 -0.26306802 -0.48375148 -0.07838294
-0.19006681 -0.31711283 0.07008387 0.24113199 -0.16516615 0.35810497 -0.02475798 -0.009306523
-0.013226972 0.009412775 0.002977768 0.00091404485 0.1324615 -0.28001106 0.2509705 -1.5857072
0.028733568 -0.20753273 -0.17517601 0.0018830885 0.020500531 -0.23830321 0.12053835 0.2545261
-0.11035533 -0.034887232 0.013430182 -0.0038539602 0.0033381141 0.003043436 0.022454275 -0.013681646
0.33870026 0.37702677 0.6186063 -0.4678344 0.52794564 -0.7081029 0.1840362 -0.8302579
-1.0601337 -0.1727243 0.04290848 -0.74963 -0.08685913 0.100792155 0.052662812 -0.026675217
-0.07898435 -0.07426386 0.04284219 -0.030062895 -0.43062842 -0.14041455 -0.118167445 -0.80375093
0.1899047 -0.20447472 -0.37554026 -0.17849731 0.10965534 -0.008260264 -0.4592214 0.17662662
-0.5053462 -0.03674633 0.0077043124 -0.09425317 0.008906434 0.008332352 -0.015062877 -0.025289401
0.032739904 -0.13510688 -1.0416242 -1.4655263 -0.15457511 -0.033727594 -0.042926013 -0.055724967
0.004130807 -0.16129291 -0.2374774 -0.22560497 -0.26433337 -0.13477083 -0.02576725 -0.0064421194
-0.0074660224 -0.0029007036 -0.009591437 0.0023357493 0.03997657 0.11239208 3.1762073 1.4875792
0.5889497 -0.14375955 -0.084257565 0.23573662 0.066913456 0.18504229 0.19176652 -0.11200279
-0.0676196 0.3963865 0.039382 0.01813607 0.005782793 0.0037894188 0.0057964744 0.0067337807
-0.18635665 -0.073895834 -0.16913866 0.56077445 0.5589576 -0.3683967 -0.68852526 0.04408616
-0.09570654 -0.29736465 0.058344074 -0.5114855 0.32601914 0.34721926 0.026108706 -0.007817004
0.091655105 0.034784887 -0.024659084 -0.025219617 0.3281729 -0.080880724 -0.30419365 -1.2482356
-0.09900785 -0.07988107 0.18958235 0.17062476 0.052485663 -0.0059871753 0.28488275 0.0017561004
-0.17012109 -0.34288436 0.00030202104 -0.005023998 0.0015462417 -0.0050707557 0.00016306387 0.01708908
-0.16807331 -0.23485816 0.7882421 -0.34275052 0.114730746 -0.08565554 -0.11398867 0.18790118
0.22850806 0.15996538 -0.2506206 -0.31942263 -0.17971392 0.16552998 -0.015369847 -5.8304984e-05
0.004379328 0.0108173415 0.0047170618 0.0021365308 0.41231126 -0.19790596 3.0140665 -0.5636087
0.34515497 -0.16960186 0.08679364 -0.061260354 -0.20378344 -0.14588341 0.28959027 0.2104215
0.38530168 -0.090002686 0.048034396 -0.0046356446 -0.0016582687 0.007018602 0.0039053368 0.004207573
-0.067971714 0.2157326 -1.1656637 0.6490516 -0.24073724 0.043633014 0.01316354 0.043681074
0.091440976 0.13156055 -0.16186921 0.063461095 0.08233664 0.18416259 -0.03456027 0.014270622

fc1.bias f4 [32]
00000000: d9f3 173e d3f1 05bf d246 16bf be53 01bf
00000010: 5b1b da3e d94d 843f b51f 7cbf 7ff9 26bf
00000020: 3022 9bbf a05d 16bf b31c 7d3f 8355 06bf
00000030: 8949 69bd c2d6 e7be 6fc5 a9bf 2765 32bf
00000040: 2346 283f 11b2 bebf 9df7 f33f 527a 38bf
00000050: d36e 9abf a8fa 3abe 228a deba 68f3 27bf
00000060: c4ce cabe 80c6 61be b049 82bf 9671 2f3f
00000070: dcf9 90bf d975 e0be 1bc0 4abe 0466 44be
0.14839114 -0.5232212 -0.58701813 -0.50518405 0.42598996 1.0336257 -0.9848588 -0.6522445
-1.2119808 -0.5873661 0.98871917 -0.5247423 -0.056954894 -0.45281035 -1.3263377 -0.69685596
0.6573202 -1.4898092 1.905994 -0.72061646 -1.2065071 -0.1825968 -0.0016978423 -0.65605783
-0.39610875 -0.22048378 -1.0178738 0.68532693 -1.1326251 -0.4383991 -0.19799845 -0.19179541

fc2.weight f4 [16, 32]
00000000: 88ea e43b 2302 db3e b0b4 483c cb7f 0d3f
00000010: 1efd 653d e8ac 663d a848 7f3f 09e6 c83e
00000020: 19db b9bd c647 883e d8d4 6ebd 87c1 443f
00000030: 5231 e93d a625 c23e b674 5e3f 8b4e 3c3f
00000040: 6e48 0c3d 10be 863f c7eb 123e 86a4 aa3e
00000050: 3dc1 343f 8236 1f3f cb03 ce3d 5bb1 3f3f
00000060: 80c2 e73d 7521 ca3e aee6 7c3f c27d 34bd
00000070: c975 623f d2d1 953c 9748 61bc a599 343f
00000080: 3f4c e0bd a8d5 0f3f 9486 a53e 1cc4 313f
00000090: 825f 8c3a aa0f eebc 92fb 883f 2582 2e3f
000000a0: b5d6 bf3d 8a47 fd3e e530 383d 6918 4b3f
000000b0: dc89 aa3b 5ebc d43e e46e 283f fbee 6e3f
000000c0: b9d6 15bd ac74 9c3f 329b e0bd 758d 1c3e
000000d0: 507e 533f f1ce 493f 650b 9b3e 054e 4c3f
000000e0: 9f23 a63d d8c0 d63e 903d 9a3f 9153 bcbd
000000f0: d4c9 5a3f 489b b23d f5e4 1dbd 1384 5c3f
00000100: a3b0 3bbc 9fd1 af3c 32ed 1dbe 4dc7 393d
00000110: bd60 53bd defb 85bd 2625 b33c 0503 803c
00000120: 129b a299 c889 9d3c 4b49 e4bc da4b 4c3d
00000130: 4140 2f3b b145 a8ba c824 1aa9 0c2c b0bd
00000140: 0275 29bd ea6a d3bb 0e87 68bd c828 00be
00000150: 8e25 38bd 06fb 21bc da8e 43bd 91cf 6ebd
00000160: 89e5 7dbc e6fc e0bd fab8 a23c 5c11 cdbd
00000170: 799d 2eba 4730 9fbc 559b a4bd f0ce 5a3c
00000180: 22db bcbb 84c4 9cba bd27 cbbc d0c4 613c
00000190: 986e 1eb8 c831 34bc 21c0 08ba 1fa2 fbb6
000001a0: 86d3 f987 96bf 43bb d3bd 17b9 8239 16b3
000001b0: b925 a5b9 c485 91b3 e663 102a c6a7 e53c
000001c0: 555c 88b9 a697 85b8 86c1 d8bb 9f82 e43b
000001d0: 62a1 e538 5987 e5b2 77e5 3aba 68bb e438
000001e0: 0aea ddb9 d81a 20bb 3b70 26b8 8477 85bb
000001f0: b9b5 c1b6 777b 90ba ca05 e6bb 933a 05bd
00000200: 6134 6cbc edb1 2839 96b6 4f3c 3cf7 3abc
00000210: b7b8 b4ad 046a c8b9 2adc 6838 002c 3d36
00000220: cacf 1f80 e48a dcb9 83b0 92ba 09f7 c9b3
00000230: cc86 c4b5 9486 4cb2 bd5c 2900 fb9e a0bd
00000240: 6d3f 54af 5f68 49b8 84fa 02ba 3dc5 8bbb
00000250: 670e 7b3a e12d 2637 2db1 f037 6482 33b6
00000260: a09c 1fb9 4cc3 b6bc c6d6 13b1 d93d 40b8
00000270: 8008 5231 40f6 c63b d3c4 f83a 4ca6 f1bc
00000280: c4e1 2ebf 26c7 4c3f 7eca d53d e61b 153e
00000290: 4cba d73d 2603 08bf 7035 683f a9e1 883f
000002a0: 7d50 01be 9477 043d daeb d1be 8f28 2c3e
000002b0: 20df 973e 3f3f 233f 2584 6f3f f778 b03e
000002c0: 64dd b1bd bbac 783f b9f2 adbe 5a57 b83e
000002d0: 8651 263f 7be6 f13e 3c78 2ebf 73ce 093f
000002e0: 494b a4be 457e f83e f5f2 473f 6df2 85bf
000002f0: e353 dc3e 61e8 1b3e 0fa9 173d 311e 193e
00000300: 5be7 c6bc ce35 733f c7f9 123f 37d9 95bd
00000310: 4a4b aabe f8f7 0ebf c67d 8e3f b49c 903e
00000320: d8ab 363d 781f c53e 9057 1abf e8c6 5f3e
00000330: 7a95 5e3e 3061 263f fd76 873f 7d8d e43e
00000340: 63c7 00bf c8a7 8f3f de01 7abf c270 d93e
00000350: 4f87 683f 9019 5c3e 206a c2be 3079 a63e
00000360: 0731 e5be 36d7 7e3e 07bc df3e 6802 85be
00000370: 91dd 8a3e 6331 b23e b316 d0be 6ccf 253e
00000380: 17d3 b1be 53aa 663f cbdf 9e3e 7369 113d
00000390: f1a7 1abe a840 b83d ccfb 673f 7295 e5bd
000003a0: 1b4d 433e e42f 8e3e 0c3f f8be 73e8 c3ba
000003b0: 82a7 b93e 8e53 1d3f 63e7 843f e960 aa3e
000003c0: 4164 74be cde7 a73f 8a65 9abe f053 083f
000003d0: 860f 7d3f ea00 2b3e cd50 29be 3a27 153f
000003e0: cc29 d2be 7037 bd3e 835d 48be 1c3e b6be
000003f0: efbd 8f3d d21a d33d f833 fcbd 5856 a03e
0.006985966 0.42775068 0.0122501105 0.5527312 0.056149594 0.05631724 0.9972024 0.39238003
-0.09074993 0.2661726 -0.058308452 0.768578 0.1138636 0.37919348 0.86896837 0.7355735
0.03424876 1.0526752 0.14347754 0.33328646 0.7060736 0.6219255 0.10059317 0.7488
0.11316395 0.3947865 0.9878949 -0.044065244 0.88460976 0.018288527 -0.013750217 0.7054694
-0.10952043 0.5618539 0.32329237 0.69439864 0.0010709616 -0.029060204 1.0701773 0.68167335
0.09367124 0.49468642 0.044968504 0.7933412 0.0052044224 0.41549963 0.65794206 0.93333405
-0.03658173 1.2223105 -0.10967101 0.15288337 0.8261461 0.7883139 0.3028213 0.7980655
0.08112263 0.41944003 1.2050037 -0.091956265 0.85464215 0.08721024 -0.03854843 0.8613903
-0.011455688 0.02146226 -0.15422514 0.045356084 -0.05160593 -0.065421805 0.0218683 0.01562644
-1.681304e-23 0.019230738 -0.02786698 0.049877025 0.002674118 -0.0012838152 -3.4226772e-14 -0.08602151
-0.041371353 -0.006451954 -0.056769423 -0.12515557 -0.04495769 -0.009886509 -0.047743656 -0.05830342
-0.01549662 -0.109857365 0.019863594 -0.10013077 -0.00066610385 -0.0194322 -0.0803744 0.013355002
-0.0057634274 -0.0011960422 -0.024799222 0.013779834 -3.7773134e-05 -0.010998197 -0.0005216618 -7.4992563e-06
-3.7589678e-34 -0.0029868833 -0.00014471197 -3.49769e-08 -0.00031499358 -6.7764205e-08 1.2824428e-13 0.028034102
-0.00026008734 -6.370181e-05 -0.0066148667 0.006973579 0.00010949631 -2.6720658e-08 -0.000712953 0.00010906794
-0.00042326777 -0.0024430063 -3.9682007e-05 -0.0040730853 -5.7730035e-06 -0.0011023124 -0.007019733 -0.032526564
-0.014416785 0.00016088011 0.012677809 -0.011411484 -2.054566e-11 -0.0003822596 5.5518154e-05 2.8188806e-06
-2.921441e-39 -0.00042065152 -0.0011191521 -9.404727e-08 -1.4642369e-06 -1.1904962e-08 3.798524e-39 -0.07842823
-1.9303821e-10 -4.8019338e-05 -0.0004996436 -0.004265456 0.0009577036 9.905053e-06 2.8692733e-05 -2.6748976e-06
-0.00015221769 -0.022309922 -2.15134e-09 -4.5833967e-05 3.0563854e-09 0.0060718358 0.0018979557 -0.029498242
-0.6831324 0.79991376 0.10439013 0.14561424 0.1053358 -0.53129804 0.9070654 1.0693866
-0.1262836 0.0323406 -0.41000253 0.16812347 0.29662418 0.6376838 0.9356101 0.3446729
-0.08684805 0.97138566 -0.33974245 0.36004144 0.64968145 0.47246155 -0.68152213 0.5383064
-0.32088688 0.48533836 0.781051 -1.0464607 0.4303275 0.15225364 0.03702646 0.14952923
-0.02428024 0.95003974 0.5741238 -0.07316821 -0.33260566 -0.5584712 1.1132133 0.28244555
0.044597477 0.3850057 -0.6028986 0.2185322 0.21736708 0.64992046 1.0583187 0.44639197
-0.5030424 1.1223078 -0.976591 0.4246884 0.90831465 0.21494126 -0.37971592 0.32514334
-0.44763967 0.24886784 0.4369814 -0.25978398 0.27122167 0.34803304 -0.40642318 0.16192406
-0.3473136 0.90103644 0.31030115 0.035500955 -0.15103127 0.08996707 0.90618587 -0.11210145
0.19072382 0.27770913 -0.484856 -0.0014946595 0.3626061 0.6145562 1.0383114 0.33277062
-0.23866369 1.3117615 -0.30155593 0.5325308 0.9885181 0.16699567 -0.1653473 0.5826298
-0.41047513 0.36956358 -0.19566922 -0.3559426 0.07018649 0.1030785 -0.123146 0.31315875

fc2.bias f4 [16]
00000000: 8121 813e ebfb 1a3e 11d7 903c 6c00 00bd
00000010: 4a14 a8bc 6f8c 31bf 5047 acbf 9122 31bf
00000020: d29a d0be b6e0 27be 38b3 403c 21c7 7b3e
00000030: f3ee 363d 7d4e 31bd 2906 9bbc 42b5 87be
0.25220874 0.15135162 0.017680677 -0.031250402 -0.020517487 -0.6935491 -1.3459263 -0.6919337
-0.4074312 -0.16394314 0.011761479 0.2458768 0.044661473 -0.043287743 -0.018923836 -0.26505476

fc3.weight f4 [1, 16]
00000000: d57f f5be 4a43 0dbf 8ab3 3fbd dcd5 9dbd
00000010: 2075 6a39 2a0c 69bf 6839 a0bf 8d07 44bf
00000020: 1e20 6abf 743a 8a3d b066 903d 95a4 f1be
00000030: 8c12 913d ddd8 8a3d 9113 33bf fd02 12bf
-0.4794909 -0.551808 -0.04680208 -0.07706806 0.00022359611 -0.91034186 -1.2517519 -0.7657402
-0.91455257 0.0674943 0.07050836 -0.4719588 0.07083616 0.06779645 -0.6995173 -0.5703581
