DRL-course/MADDPG/model_dir/episode-28000.pt (torch_old, 71203 bytes, 99 tensors)

fc1.weight f4 [16, 14]
0	0xbfce4852	-1.611582
1	0x3fd9cb64	1.7015195
2	0xbfbd4e1e	-1.4789464
3	0x3fd5c511	1.6700765
4	0xbe81a2bc	-0.2531947
5	0x3ea43868	0.32074285
6	0x3ec434c2	0.383215
7	0xbeb4263d	-0.35185423
8	0xbdcf12ae	-0.10110985
9	0xbd42e46c	-0.04758112
10	0x3e529d9b	0.20567934
11	0xbeacdf01	-0.33763888
12	0x3d458b06	0.048228286
13	0x3dfe05c0	0.124034405
14	0x3f901273	1.125563
15	0x40072671	2.1117213
16	0x3f92d39b	1.1470827
17	0x40050a05	2.0787365
18	0x3e109545	0.14119442
19	0x3c6835b8	0.014172964
20	0xbed542a1	-0.41652396
21	0xbe38e772	-0.1805704
22	0x3e643167	0.2228447
23	0x3f048b30	0.51774883
24	0xbe995d7f	-0.29954144
25	0xbdefb272	-0.117039576
26	0x3e41edcb	0.18938367
27	0x3f05b5a7	0.52230304
28	0xbf84b1e5	-1.0366789
29	0x3ed7a662	0.42119128
30	0xbf924106	-1.1426094
31	0x3ec6c42d	0.38821545
32	0xbe1fa6b9	-0.15590943
33	0x3d95c06f	0.073120944
34	0x3e74b94a	0.23898807
35	0xbecf804d	-0.40527573
36	0x3f0db38c	0.5535209
37	0xbf2990da	-0.6623665
38	0x3fc09e8d	1.5048386
39	0x3e7d39d3	0.2472909
40	0x3ee115dd	0.43961993
41	0xbc548810	-0.012971893
42	0xbebd73d9	-0.37002447
43	0x3e90853e	0.28226656
44	0xbef608cf	-0.48053595
45	0x3ea9ab61	0.33138564
46	0x3e85822c	0.26075876
47	0xbed5d276	-0.4176213
48	0x3d8b20d3	0.0679337
49	0x3e5e216b	0.21692435
50	0xbf4fd138	-0.8117862
51	0x3e0bd505	0.13655479
52	0xbe7d769f	-0.24752282
53	0xbb472c91	-0.0030391554
54	0xbeefcf67	-0.46837923
55	0xbe6e951b	-0.23299067
56	0x3f2fa486	0.6861042
57	0x3daf13f1	0.085487254
58	0x3f31b0d7	0.6941046
59	0x3d5fb36b	0.054614466
60	0x3e2d8d14	0.16948348
61	0xbe096328	-0.13416731
62	0xbe828402	-0.2549134
63	0x3e718b50	0.235883
64	0x3e40ec6f	0.18840192
65	0x3daf3d55	0.0855662
66	0xbfaee723	-1.3664287
67	0x3f12b8b2	0.5731307
68	0xbe70ca10	-0.2351458
69	0x3e29a2ef	0.1656606
70	0xbf3bfaab	-0.73429364
71	0x3e9d7ad1	0.30757764
72	0xbf3b67ad	-0.7320507
73	0x3e9f3e11	0.3110204
74	0xbdd0cf3b	-0.10195776
75	0xbd997d58	-0.074946105
76	0x401450f6	2.3174415
77	0xbe47f0ee	-0.19525501
78	0x3c6dc1e3	0.014511558
79	0xbb84cdb5	-0.0040528425
80	0xbc8b653e	-0.01701605
81	0x3e6ed3b3	0.23322944
82	0x3e4c9db5	0.19982035
83	0xbcc6f960	-0.024288833
84	0xbfa0ca09	-1.2561656
85	0x3e5d597c	0.21616167
86	0xbfa3852e	-1.2775018
87	0x3e289c4d	0.16465874
88	0xbdb9c44c	-0.09070644
89	0x3d56aaf1	0.052409116
90	0x3fbca292	1.4737113
91	0x3e4030eb	0.1876866
92	0xbe0c03ed	-0.13673373
93	0x3dd2c30a	0.10291107
94	0xbe3f7a13	-0.18698911
95	0xbf37bfd0	-0.7177706
96	0x3e48b052	0.19598511
97	0xbf0f720c	-0.56033397
98	0x3f525118	0.8215499
99	0xbea5d1c8	-0.32386613
100	0x3f527549	0.8221021
101	0xbec07cb9	-0.37595156
102	0x3d04b947	0.032403257
103	0xbd043e65	-0.032286067
104	0xbc2a8c2d	-0.010409397
105	0x3ebdcc4e	0.37069935
106	0xbe49dfd2	-0.19714287
107	0x3f401739	0.75035435
108	0xbf6e7a9b	-0.9315583
109	0xbfc91b6e	-1.5711496
110	0x3d820fb6	0.06350653
111	0xbfadce9e	-1.357868
112	0x3fa7f9ce	1.3123109
113	0xbdff5c81	-0.124688156
114	0x3facc28a	1.3496869
115	0xbe77f9ed	-0.24216433
116	0x3ddea369	0.10871012
117	0xbde82e7f	-0.113369934
118	0x3e57ee60	0.21087027
119	0xbf36df66	-0.7143463
120	0x3ee21fa3	0.44164762
121	0xbf5e0bdc	-0.86736846
122	0xbf9c66f1	-1.2218915
123	0x3edb58dd	0.42841235
124	0xbefaf567	-0.49015352
125	0x3e592082	0.21203807
126	0x3f3b6a6d	0.7320927
127	0xbfb5cbf6	-1.4202869
128	0x3f5fae4f	0.8737535
129	0xbfc4577c	-1.5339198
130	0x3dff34e7	0.12461262
131	0xbf152ac3	-0.58268374
132	0xbd9ab0fd	-0.07553289
133	0xbf24ff2c	-0.6445186
134	0x3f3855a9	0.7200571
135	0xbfa4ee1f	-1.2885169
136	0x3c803018	0.015647933
137	0xbce8b657	-0.028407259
138	0xbd419b5f	-0.047267314
139	0xbea88fe3	-0.32922277
140	0x3e9d0838	0.30670333
141	0x3ea49875	0.32147565
142	0x3e795ca6	0.24351749
143	0x3e7900c6	0.24316701
144	0xbea7b7c0	-0.32757378
145	0xbe6ba386	-0.23011598
146	0x3ec3a5f7	0.3821256
147	0x3e796133	0.24353485
148	0x4008bd87	2.1365678
149	0xbf4cf907	-0.80067486
150	0x3e922893	0.2854658
151	0xbf1f62e7	-0.6226029
152	0xbdd78f87	-0.105254225
153	0xbe7cd267	-0.24689637
154	0xbf2353ef	-0.6379995
155	0x3e84246b	0.25809035
156	0xbf29e23f	-0.6636085
157	0x3e85cd1b	0.26133046
158	0xbcfb87da	-0.030704428
159	0xbda7dfed	-0.08197007
160	0x3edac406	0.4272768
161	0x3e6447b2	0.22292975
162	0x3dc39240	0.09549379
163	0xbe4ea2a2	-0.20179227
164	0x3f9b06b3	1.211142
165	0xbfa8a38c	-1.317491
166	0x3eada50f	0.33914992
167	0xbeaa3852	-0.33246094
168	0xc017ac30	-2.3698845
169	0xbf6b6d72	-0.91963875
170	0xc01d2761	-2.4555285
171	0xbf86595e	-1.0496023
172	0xbf6445bb	-0.891689
173	0xbeee6a73	-0.4656559
174	0xbf32bb3e	-0.6981696
175	0xbefaa0a8	-0.48950696
176	0xbe340983	-0.17581753
177	0xbf4817e4	-0.78161454
178	0xbe5b1c81	-0.21397592
179	0xbec7b375	-0.39004102
180	0xbecd4699	-0.40092924
181	0xbea4e11b	-0.32202992
182	0xbe826c69	-0.25473335
183	0x3eadaaa2	0.33919245
184	0xbe8fe2aa	-0.28102618
185	0x3eb05b84	0.3444482
186	0xbd94fa09	-0.07274253
187	0xbc3bd4c1	-0.011464299
188	0x3f051fb7	0.5200152
189	0xbfe0a0aa	-1.7549031
190	0x3de5b409	0.112159796
191	0xbf4477f5	-0.7674554
192	0x3ebac1b9	0.36475924
193	0x3effd49a	0.4996689
194	0x3e0c4a05	0.13700111
195	0x3eaca224	0.33717453
196	0x3ea5a7cf	0.3235459
197	0x3e404840	0.18777561
198	0x3eb01428	0.34390378
199	0x3e1c4adc	0.15262932
200	0xbe8a6a55	-0.2703425
201	0x3cdf3a4d	0.02724948
202	0x3def944f	0.116982095
203	0xbed8c2e3	-0.42336187
204	0x3cba118e	0.022713449
205	0x3d0db257	0.034593906
206	0x3f86f594	1.0543694
207	0xbf18a9aa	-0.59633887
208	0x3fc44433	1.5333313
209	0xbfd2e8b4	-1.6477265
210	0x3f2a8b32	0.66618645
211	0x3e557a11	0.20847346
212	0x3f44c08b	0.768563
213	0x3e532656	0.20620093
214	0x3e5481b3	0.20752601
215	0xbdcaf3c4	-0.09909776
216	0xbf24c2f1	-0.64359957
217	0x3edabb33	0.42720947
218	0xbcfadd46	-0.03062309
219	0x3e7ab360	0.24482489
220	0x3f778af5	0.96696407
221	0xbb9689c8	-0.0045940615
222	0xbcc8bc17	-0.02450375
223	0xbd9b8f96	-0.07595746

fc1.bias f4 [16]
0	0xbf2add70	-0.66744137
1	0xbf9f5110	-1.2446613
2	0x3ee2b9fb	0.44282517
3	0x3eb6762c	0.35637033
4	0x3e01c5b3	0.12673073
5	0x3f38fc21	0.7225972
6	0x3d303bee	0.043025903
7	0xbf2378c5	-0.63856155
8	0xbed06d98	-0.40708613
9	0xbfc764de	-1.5577657
10	0x3f144704	0.5792086
11	0x3e728e94	0.23687202
12	0xbfc2ed73	-1.5228714
13	0x3e8a182a	0.2697156
14	0x3d41d8d0	0.04732591
15	0xbdab287d	-0.08357332

fc2.weight f4 [8, 16]
0	0xbf2982f3	-0.6621544
1	0xbf661fcb	-0.8989226
2	0x3e616cc0	0.22014141
3	0x3e7d6d85	0.2474881
4	0x3e9ef7ec	0.31048524
5	0xbd3715a2	-0.044698365
6	0x3ee8eccb	0.4549316
7	0x3f7e6d74	0.9938576
8	0x3e35177e	0.17684743
9	0x3fd787f9	1.683837
10	0x3e1d21d1	0.15344931
11	0x3f2d8bdc	0.67791533
12	0x3fd0f80b	1.6325697
13	0x3f660178	0.8984599
14	0x3e7741e1	0.24146225
15	0xbec92c4a	-0.39291602
16	0xbe90ffd7	-0.2832019
17	0x3fd5c175	1.6699663
18	0xbe03a0c5	-0.12854297
19	0x3e51a511	0.20473124
20	0xbeaa0872	-0.33209568
21	0x3fa5a7e7	1.2941865
22	0xbf8fb965	-1.1228453
23	0xbed66fbe	-0.41882128
24	0x3f17ce1a	0.5929886
25	0xbe1bd809	-0.1521913
26	0x3f09ec19	0.5387588
27	0x3dc14a1c	0.09437963
28	0xbd98352c	-0.07432017
29	0xbe3d259d	-0.1847138
30	0x3eba0019	0.363282
31	0x3eb251b1	0.3482795
32	0x3da1a25d	0.078922965
33	0x3e8f6600	0.28007507
34	0xbf1e3431	-0.6179839
35	0xbeeea751	-0.46612027
36	0xbedb1803	-0.42791757
37	0xbe82dae8	-0.25557637
38	0xbf1101ed	-0.56643564
39	0x3f005d3c	0.50142264
40	0xbf70835b	-0.9395043
41	0x3f0042ce	0.50101936
42	0xbc8f4f43	-0.01749385
43	0xbc0631bb	-0.008190568
44	0xbe5d12d9	-0.21589221
45	0x3e06eaab	0.13175456
46	0xbf937975	-1.1521441
47	0x3ebb7e5a	0.36619836
48	0xbe460e8a	-0.19341484
49	0xbe4c1b1b	-0.19932215
50	0x3dd248f2	0.102678195
51	0xbcb62d45	-0.022238383
52	0x3cfd5712	0.030925307
53	0xbd42b200	-0.047533035
54	0x3dabc751	0.08387626
55	0xbec45fc5	-0.38354316
56	0xbe4692b2	-0.19391897
57	0xbe6318c0	-0.2217741
58	0xbdb3206a	-0.08746417
59	0xbe5bde40	-0.214715
60	0xbd1df07f	-0.038559433
61	0xbe5c1c1a	-0.21495095
62	0xbdfb0953	-0.12257638
63	0xbe723d43	-0.23656182
64	0xbd42e20b	-0.047578853
65	0x3ec32367	0.38112947
66	0xbf90601e	-1.1279333
67	0x3eb58784	0.35454953
68	0xbf83ebcd	-1.0306336
69	0x3f31de43	0.6947977
70	0x3eec4d69	0.4615281
71	0xbec1360e	-0.37736553
72	0xbf095914	-0.5365155
73	0xbf199316	-0.5999006
74	0x3f93d9b7	1.1550816
75	0xbffb4afa	-1.9632256
76	0xbd44c09d	-0.048035253
77	0x3ed92fbf	0.4241924
78	0xbf358e34	-0.7092011
79	0xbd1ba853	-0.038002323
80	0xbe832ca2	-0.2561999
81	0x3e8ca2f4	0.27468073
82	0x3f7fe26b	0.9995486
83	0xbed64180	-0.41846848
84	0xbe194006	-0.14965829
85	0x3e0025ea	0.12514463
86	0xbf1a9a54	-0.60391736
87	0xbf81f847	-1.0153893
88	0x3ea9b1ad	0.33143368
89	0xbeda48af	-0.42633578
90	0xbf405897	-0.7513518
91	0x3da9865d	0.08277581
92	0xbf094770	-0.5362463
93	0xbfb43220	-1.4077797
94	0x3f05da75	0.52286464
95	0x3dc9b334	0.098486334
96	0x3f5885cb	0.8457915
97	0xbe880dee	-0.26573128
98	0xbfe9136b	-1.8209051
99	0x3d180dae	0.03712242
100	0xbf6fb050	-0.93628407
101	0xbf55a376	-0.83452547
102	0x3f2a1d5c	0.6645105
103	0x3ea7e76a	0.32793742
104	0x3f919db9	1.1376258
105	0x3fa1c9c7	1.2639703
106	0xbd896d3f	-0.0671029
107	0xbe628d93	-0.22124319
108	0xbde4e2a0	-0.11176038
109	0xbebd1f7b	-0.3693808
110	0x3f7ceb9d	0.9879702
111	0x3f451337	0.76982445
112	0x3febc920	1.8420753
113	0x3f299f08	0.6625829
114	0x3f1ddda0	0.616663
115	0x3edb8d00	0.42881012
116	0x3f50f9b4	0.81631017
117	0xbe99d20a	-0.3004306
118	0x3ebdc373	0.37063178
119	0x3de91bc3	0.11382248
120	0xbf0214e2	-0.50813115
121	0xbe4facfc	-0.20280832
122	0xbe11f1ae	-0.1425235
123	0xbe1bb77d	-0.15206714
124	0x3f8e934c	1.1138701
125	0xbeb3356d	-0.35001698
126	0xbe806237	-0.25074932
127	0xbe878c57	-0.26474258

fc2.bias f4 [8]
0	0x3f2b9251	0.67020136
1	0x3ef16072	0.47143894
2	0xbf805b4a	-1.0027859
3	0xbdbd816e	-0.092532024
4	0xbde21254	-0.11038652
5	0x3f5c59a0	0.86074257
6	0x3f0f1af7	0.5590052
7	0x3ed74f7f	0.42052838

fc3.weight f4 [2, 8]
0	0xbe40b085	-0.18817337
1	0x3f5ea753	0.86974066
2	0x3edd92ab	0.4327596
3	0x3df39196	0.11893003
4	0xbf82885f	-1.0197867
5	0xbf03052b	-0.5117976
6	0x3f53fc30	0.8280668
7	0xbf041af1	-0.5160361
8	0xbf6923ab	-0.9107005
9	0x3ef8caf4	0.4859234
10	0xbefa17ec	-0.48846376
11	0x3c90c5d6	0.01767246
12	0x3cccf832	0.025020692
13	0x3ec8bf4f	0.39208457
14	0xbe2bc55d	-0.16774507
15	0x3f374860	0.7159481

fc3.bias f4 [2]
0	0xbd5cc1fb	-0.05389593
1	0xbe1efff2	-0.15527323

exp_avg f4 [16, 14]
0	0x37f92cb0	2.9703922e-05
1	0x3863a4c6	5.4274475e-05
2	0xb7184063	-9.074897e-06
3	0x38af14a0	8.348492e-05
4	0x377434df	1.4555843e-05
5	0x38a7daee	8.0039594e-05
6	0x38b54d0c	8.645104e-05
7	0x38ae4450	8.309691e-05
8	0x36ea410b	6.9813154e-06
9	0xb7166025	-8.963082e-06
10	0xb70a7d1e	-8.254572e-06
11	0x37539ff8	1.2613826e-05
12	0x37a6e83c	1.9896885e-05
13	0x37a0a315	1.9149427e-05
14	0x379c7fe3	1.8656201e-05
15	0x38939480	7.0371665e-05
16	0x3889531a	6.548148e-05
17	0x38189993	3.638265e-05
18	0x380bce49	3.33323e-05
19	0x38954aa1	7.1187744e-05
20	0x390708c6	0.00012877872
21	0xb58e1b20	-1.0587719e-06
22	0x3853ea77	5.0524683e-05
23	0x383d2fc2	4.510559e-05
24	0x38ce16a3	9.827062e-05
25	0x380d38e2	3.3669996e-05
26	0x3801e585	3.0969753e-05
27	0x3631f3b4	2.651691e-06
28	0x383ac3e6	4.45283e-05
29	0x374aa3b0	1.207825e-05
30	0x3894c624	7.0940965e-05
31	0xb826778c	-3.968882e-05
32	0x37c35fef	2.3290484e-05
33	0x36bb5169	5.5825117e-06
34	0xb8d450d8	-0.00010124006
35	0x379b7d04	1.8535655e-05
36	0xb596a9e0	-1.1225311e-06
37	0x385f0ee8	5.3181226e-05
38	0x391ebbca	0.00015138011
39	0xb78005ae	-1.5261434e-05
40	0x38d714e0	0.00010255887
41	0xb783c442	-1.5707807e-05
42	0xb6356f6c	-2.7035958e-06
43	0xb615838c	-2.22793e-06
44	0xb665c9cb	-3.4241118e-06
45	0xb6b08f88	-5.261918e-06
46	0x35b5930a	1.3528345e-06
47	0x36c6172a	5.9035565e-06
48	0x38378f40	4.3764012e-05
49	0xb7b8e154	-2.2039436e-05
50	0x36b3ee64	5.362368e-06
51	0xb46fc620	-2.2330687e-07
52	0xb5af6588	-1.3068066e-06
53	0xb73870c5	-1.0993511e-05
54	0xb47f805a	-2.379542e-07
55	0x36eb3866	7.0101114e-06
56	0x3702215f	7.756374e-06
57	0x36ee15e8	7.095503e-06
58	0x37a5d838	1.9770217e-05
59	0xb68e3414	-4.2379925e-06
60	0x337c93d0	5.8807757e-08
61	0xb683c4c2	-3.92701e-06
62	0xb8eb7cae	-0.000112288966
63	0x38bef8ba	9.106235e-05
64	0xb7dc652a	-2.6273152e-05
65	0x37d21fc0	2.5048736e-05
66	0xb78fe833	-1.7155055e-05
67	0x3875e190	5.8622623e-05
68	0x37b770dd	2.1867856e-05
69	0x3731f4cd	1.0607019e-05
70	0xb7d77aee	-2.568724e-05
71	0x37ad7161	2.0676003e-05
72	0x37a23c53	1.9339996e-05
73	0x382b0cd5	4.0781528e-05
74	0x37d35fa6	2.51977e-05
75	0x374b9804	1.2135137e-05
76	0xb89e895f	-7.5596145e-05
77	0xb8ca8524	-9.65691e-05
78	0x36a4f244	4.9157843e-06
79	0xb6aa1152	-5.068411e-06
80	0xb850f0f2	-4.9815462e-05
81	0xb9072939	-0.0001288996
82	0xb705b0a8	-7.968549e-06
83	0xb8496c93	-4.8023252e-05
84	0x37a3b46d	1.9515131e-05
85	0x3590b518	1.0781541e-06
86	0x37efa2c8	2.8566821e-05
87	0xb899c60d	-7.332498e-05
88	0xb7e0a7c9	-2.6781012e-05
89	0x36ad98ff	5.173613e-06
90	0x398e97ab	0.00027197352
91	0x38abd1bb	8.192981e-05
92	0x3811ada8	3.4732424e-05
93	0x37686372	1.38514315e-05
94	0xb82b13a7	-4.078788e-05
95	0x382ae78a	4.0746796e-05
96	0xb7a30207	-1.9432058e-05
97	0x37973f52	1.8030089e-05
98	0x3786435d	1.6005413e-05
99	0x37c2e81a	2.3234683e-05
100	0xb835f400	-4.3381006e-05
101	0x37e03d34	2.673138e-05
102	0xb7fce795	-3.014858e-05
103	0x37bef8e9	2.2765673e-05
104	0x384edb04	4.93182e-05
105	0xb8b4ac3c	-8.61515e-05
106	0x37daf57e	2.6101941e-05
107	0x37696910	1.3912344e-05
108	0xb7a49957	-1.9621728e-05
109	0x38122f96	3.485343e-05
110	0xb789f77a	-1.6446913e-05
111	0x373c417c	1.122092e-05
112	0xb8888137	-6.5090535e-05
113	0x37d45f43	2.5316729e-05
114	0xb89dbe47	-7.521785e-05
115	0x38819b3b	6.180113e-05
116	0xb8476b28	-4.7545094e-05
117	0x3619ce9c	2.291904e-06
118	0xb91c1a93	-0.00014887219
119	0xb80ade21	-3.3108638e-05
120	0xb79120b1	-1.730057e-05
121	0xb757b97e	-1.2858187e-05
122	0x381fd756	3.81091e-05
123	0xb8c30fac	-9.301244e-05
124	0xb81ce6af	-3.740814e-05
125	0xb8788154	-5.9248254e-05
126	0xb82c3521	-4.1057476e-05
127	0x382cb71f	4.117854e-05
128	0xb8ba1877	-8.873728e-05
129	0x38a09e07	7.6588294e-05
130	0xb8989c74	-7.2770665e-05
131	0x3827f134	4.004054e-05
132	0xb86799c4	-5.5217897e-05
133	0x38036c64	3.133378e-05
134	0x3823a5d9	3.9016686e-05
135	0x372c70d0	1.0278265e-05
136	0x3712c25b	8.74753e-06
137	0x370c34e2	8.356963e-06
138	0xb7f4adb1	-2.9167948e-05
139	0xb8620a05	-5.389193e-05
140	0xb75d5ec3	-1.319469e-05
141	0xb6a1d310	-4.822745e-06
142	0xb6df5372	-6.655632e-06
143	0xb6fb8d22	-7.496813e-06
144	0xb6fe13f0	-7.572111e-06
145	0x365480b5	3.166538e-06
146	0x391e55bd	0.00015099994
147	0xb718bad1	-9.103403e-06
148	0x37816744	1.5426085e-05
149	0xb740e252	-1.1496786e-05
150	0xb8a974a0	-8.080271e-05
151	0xb82de5cc	-4.146043e-05
152	0xb73d4eae	-1.1283597e-05
153	0x37ef27e6	2.85096e-05
154	0xb8c3d204	-9.337443e-05
155	0x36c3ad31	5.831615e-06
156	0xb8b3e788	-8.578511e-05
157	0xb3ef3f80	-1.1140855e-07
158	0xb83200bc	-4.243919e-05
159	0xb8489bec	-4.782893e-05
160	0xb9bd2ebc	-0.0003608371
161	0xb9187af8	-0.00014541659
162	0xb80d3b5f	-3.3672313e-05
163	0xb81b5458	-3.703343e-05
164	0x36aa3bb2	5.0733443e-06
165	0x38cb168b	9.683993e-05
166	0xb695fd36	-4.4700237e-06
167	0xb62b998b	-2.557036e-06
168	0xb84a226c	-4.819261e-05
169	0xb81cf441	-3.7420778e-05
170	0xb786c14b	-1.6064054e-05
171	0xb6fb8a89	-7.4965105e-06
172	0xb81964e2	-3.6571997e-05
173	0xb794dd3c	-1.7745995e-05
174	0xb8dabbf1	-0.00010430057
175	0x3709c0ee	8.210756e-06
176	0x3648dbdc	2.9930297e-06
177	0xb75e1c8b	-1.3238877e-05
178	0xb7d4d7bb	-2.5372827e-05
179	0x3892b17e	6.994883e-05
180	0xb80555d3	-3.17896e-05
181	0x37639069	1.35638775e-05
182	0xb83a25a6	-4.438092e-05
183	0xb7a8e53b	-2.0133904e-05
184	0xb87742a5	-5.8951457e-05
185	0xb6dcbc90	-6.5784625e-06
186	0xb855b895	-5.0955063e-05
187	0xb7f4d757	-2.9187342e-05
188	0x37b208ef	2.1223414e-05
189	0x38848906	6.319773e-05
190	0x3808cb3e	3.261421e-05
191	0x36df77e8	6.659877e-06
192	0x37412bb5	1.1513873e-05
193	0xb822410b	-3.8684386e-05
194	0x370746fc	8.063154e-06
195	0xb6f771b0	-7.3744086e-06
196	0xb8215670	-3.8465892e-05
197	0x37f3c466	2.9059313e-05
198	0xb8765912	-5.8733924e-05
199	0x383fd1c2	4.57333e-05
200	0xb735a476	-1.0826732e-05
201	0xb696b734	-4.491676e-06
202	0xb92268c5	-0.00015488554
203	0xb8617470	-5.375262e-05
204	0xb7781762	-1.4787396e-05
205	0xb7feaf0a	-3.0360668e-05
206	0xb815f9ab	-3.575689e-05
207	0xb66efa5b	-3.561049e-06
208	0xb7f09277	-2.8678432e-05
209	0xb7fd4146	-3.0190346e-05
210	0xb81b239c	-3.6988044e-05
211	0x378a5fc3	1.6495474e-05
212	0xb785346a	-1.5879243e-05
213	0x37c77336	2.3776298e-05
214	0xb7238478	-9.7464e-06
215	0x36328a51	2.6604578e-06
216	0x3877b904	5.90617e-05
217	0xb90706b6	-0.00012877103
218	0x3757245c	1.2823464e-05
219	0xb80f3076	-3.413899e-05
220	0xb8b9e8de	-8.864862e-05
221	0xb8c14ea8	-9.217608e-05
222	0xb72489b8	-9.807227e-06
223	0xb71ae207	-9.231741e-06

exp_avg_sq f4 [16, 14]
0	0x33226c81	3.7817248e-08
1	0x3337f397	4.282955e-08
2	0x33216b8b	3.7583543e-08
3	0x33376b04	4.2705338e-08
4	0x328f47ed	1.6680099e-08
5	0x32aa5803	1.9830628e-08
6	0x3302b002	3.0428062e-08
7	0x33ed8a2a	1.10613044e-07
8	0x32406c12	1.1200443e-08
9	0x325ee022	1.2973063e-08
10	0x33205c4e	3.7336854e-08
11	0x33a40dcd	7.6393555e-08
12	0x324351fb	1.1369134e-08
13	0x32680885	1.35061144e-08
14	0x3415774b	1.3920105e-07
15	0x33a3c8f6	7.6268336e-08
16	0x340f6876	1.3355915e-07
17	0x33aa7822	7.938094e-08
18	0x32b0f862	2.0602048e-08
19	0x3314aac6	3.4614253e-08
20	0x33dd70e0	1.0311646e-07
21	0x35291efc	6.3002494e-07
22	0x32b38915	2.090068e-08
23	0x333dca36	4.41889e-08
24	0x34082bf1	1.2681973e-07
25	0x35268aa1	6.204155e-07
26	0x32af2f29	2.0394127e-08
27	0x33410eff	4.4949953e-08
28	0x334843eb	4.66279e-08
29	0x336a57c9	5.456221e-08
30	0x335da2ae	5.160353e-08
31	0x336d4f9b	5.5253263e-08
32	0x32963e63	1.7490668e-08
33	0x3297516c	1.761574e-08
34	0x33afd623	8.188024e-08
35	0x341c6407	1.4565022e-07
36	0x3289fd95	1.6064215e-08
37	0x329d902f	1.8342773e-08
38	0x34227ea8	1.5133503e-07
39	0x34884eaf	2.5389224e-07
40	0x32b850c7	2.1457152e-08
41	0x32ab5714	1.9946619e-08
42	0x33912edd	6.760613e-08
43	0x33a1d528	7.5359196e-08
44	0x3386a56c	6.269951e-08
45	0x339eeed4	7.400891e-08
46	0x31ea783e	6.8239663e-09
47	0x31bd557d	5.510343e-09
48	0x3429484d	1.5765654e-07
49	0x34ff51d5	4.7556992e-07
50	0x32123961	8.511365e-09
51	0x329f3b0c	1.8536888e-08
52	0x33efdc97	1.116943e-07
53	0x34f601f4	4.5822492e-07
54	0x31d595ad	6.216132e-09
55	0x32930950	1.7117287e-08
56	0x3313c035	3.4400916e-08
57	0x33d93d2c	1.0115977e-07
58	0x330c3fd2	3.2654334e-08
59	0x33f4f10a	1.140598e-07
60	0x3236de35	1.0644318e-08
61	0x3227c30f	9.765031e-09
62	0x3582f1b2	9.756097e-07
63	0x35a503e8	1.2294595e-06
64	0x32f4271e	2.8423127e-08
65	0x33a6a151	7.759321e-08
66	0x3504fc0d	4.9540614e-07
67	0x34c5ad74	3.6820313e-07
68	0x32b74d33	2.133911e-08
69	0x33092cf5	3.1938686e-08
70	0x3350abf0	4.858515e-08
71	0x33906df0	6.72552e-08
72	0x3348f44f	4.6788326e-08
73	0x33958b1e	6.9636584e-08
74	0x32975c9f	1.7620833e-08
75	0x32afab38	2.0450543e-08
76	0x33cb21de	9.4590845e-08
77	0x3483da37	2.4559424e-07
78	0x32b5dcc4	2.1171566e-08
79	0x32a0ec42	1.8733889e-08
80	0x3552ea51	7.857207e-07
81	0x35bbbd0b	1.3987604e-06
82	0x33199c2e	3.5765133e-08
83	0x33a6feaf	7.776304e-08
84	0x33012721	3.007074e-08
85	0x32f12961	2.807491e-08
86	0x32e29566	2.6377801e-08
87	0x33051a1c	3.0990222e-08
88	0x325d4464	1.2879443e-08
89	0x32455b4f	1.148767e-08
90	0x342aad1a	1.5895458e-07
91	0x345e182f	2.0684159e-07
92	0x328e4660	1.6562979e-08
93	0x32b018d5	2.0500389e-08
94	0x334cc023	4.76722e-08
95	0x3381db71	6.046947e-08
96	0x326db6df	1.3836796e-08
97	0x32368c1d	1.0625652e-08
98	0x33d21b27	9.783826e-08
99	0x33c2bc65	9.068098e-08
100	0x33d00d07	9.6881244e-08
101	0x33d2f918	9.824197e-08
102	0x3288466d	1.586451e-08
103	0x328440bb	1.5396258e-08
104	0x352ef3ef	6.517502e-07
105	0x355f0dce	8.309406e-07
106	0x3316da15	3.512294e-08
107	0x33858907	6.21822e-08
108	0x340277f2	1.215083e-07
109	0x3485eebc	2.4946883e-07
110	0x3260b9e9	1.3080787e-08
111	0x32473480	1.1595262e-08
112	0x335b27c0	5.1026063e-08
113	0x335e49dd	5.175558e-08
114	0x33437137	4.5504944e-08
115	0x3371789e	5.6221886e-08
116	0x3282041f	1.5135866e-08
117	0x32434c8b	1.1367898e-08
118	0x33b72a19	8.529259e-08
119	0x340ef0b8	1.3312354e-07
120	0x3267c2b7	1.3490243e-08
121	0x321e03d4	9.197681e-09
122	0x35049fca	4.9406356e-07
123	0x35589633	8.068484e-07
124	0x32f410e8	2.8413027e-08
125	0x335689bb	4.9951023e-08
126	0x335d96e4	5.1592806e-08
127	0x338a6a04	6.44541e-08
128	0x335dc972	5.1638786e-08
129	0x3390f776	6.7505354e-08
130	0x327f8d90	1.4875141e-08
131	0x3283096a	1.5254688e-08
132	0x33979a5a	7.059562e-08
133	0x33f09d27	1.1204457e-07
134	0x323b7eba	1.0913647e-08
135	0x323e5761	1.1079323e-08
136	0x33f72f91	1.1510486e-07
137	0x342c4063	1.6042172e-07
138	0x32489891	1.1676222e-08
139	0x3263efad	1.3267635e-08
140	0x3298f7f6	1.7807888e-08
141	0x32afaadc	2.045038e-08
142	0x32973930	1.760472e-08
143	0x32b0ac74	2.056752e-08
144	0x31d7d628	6.2816703e-09
145	0x31b3b03f	5.2296225e-09
146	0x33861c4d	6.245009e-08
147	0x33e96521	1.0868303e-07
148	0x320adc36	8.082727e-09
149	0x31fd1497	7.36561e-09
150	0x333efa38	4.4465395e-08
151	0x340b6527	1.2982183e-07
152	0x32025a12	7.5874755e-09
153	0x321519b4	8.678786e-09
154	0x333184e7	4.1331898e-08
155	0x3324711d	3.82871e-08
156	0x33393d5d	4.312948e-08
157	0x331cb0ba	3.6482312e-08
158	0x32763996	1.4332178e-08
159	0x3251608b	1.21873525e-08
160	0x346a02c9	2.1793961e-07
161	0x34ae4586	3.246061e-07
162	0x32b199e9	2.0675502e-08
163	0x32c67837	2.3104901e-08
164	0x338550c0	6.2079835e-08
165	0x33d4833d	9.8958914e-08
166	0x32846b30	1.5415566e-08
167	0x323e9db8	1.1095317e-08
168	0x32a784a0	1.950167e-08
169	0x33299e49	3.949234e-08
170	0x32ae5698	2.0295644e-08
171	0x33327f1f	4.155947e-08
172	0x3289683f	1.5996305e-08
173	0x31fd3af3	7.369971e-09
174	0x3437ddce	1.7123895e-07
175	0x33d0d506	9.7245035e-08
176	0x3251f057	1.2220048e-08
177	0x3227535a	9.739631e-09
178	0x34917f85	2.7101137e-07
179	0x3495eaf3	2.792436e-07
180	0x32593e5d	1.2645242e-08
181	0x329dcb6f	1.8369716e-08
182	0x33826f02	6.073789e-08
183	0x3386ac8e	6.271249e-08
184	0x338361ac	6.117929e-08
185	0x33841697	6.150838e-08
186	0x329e1c86	1.8406592e-08
187	0x329fa7d6	1.858636e-08
188	0x33e6ab46	1.0741364e-07
189	0x345637da	1.9950622e-07
190	0x32c63faf	2.3079194e-08
191	0x32737c47	1.4172719e-08
192	0x351c19ea	5.815224e-07
193	0x359a4848	1.1494931e-06
194	0x33147d3c	3.4572835e-08
195	0x3397b5f0	7.06458e-08
196	0x336f1efc	5.5674704e-08
197	0x3313f764	3.4451105e-08
198	0x33628598	5.274123e-08
199	0x33196a5a	3.5719815e-08
200	0x326df708	1.3851384e-08
201	0x323d12c1	1.1005512e-08
202	0x34335fb6	1.6705494e-07
203	0x34c8532a	3.7313413e-07
204	0x32b00834	2.0492827e-08
205	0x32fb685d	2.9267705e-08
206	0x3355819e	4.9710813e-08
207	0x33d153e0	9.747578e-08
208	0x324d77ba	1.1959793e-08
209	0x3232170f	1.0366207e-08
210	0x3368c75d	5.419803e-08
211	0x335dc417	5.1633915e-08
212	0x3362b97b	5.278842e-08
213	0x3365d55d	5.351227e-08
214	0x325f418f	1.2995215e-08
215	0x3216a834	8.769394e-09
216	0x354b6fd0	7.57861e-07
217	0x35a0b2cc	1.1972966e-06
218	0x330bfa6d	3.259122e-08
219	0x3392ec02	6.8415844e-08
220	0x33c68677	9.2445525e-08
221	0x34443f4c	1.827695e-07
222	0x324ab163	1.1798281e-08
223	0x32080fdb	7.919847e-09

exp_avg f4 [16]
0	0x392c65be	0.000164411
1	0x38df592e	0.0001065008
2	0x3935537e	0.00017292608
3	0x3804dcb3	3.1676795e-05
4	0x39197fe2	0.00014638857
5	0xb976b3f0	-0.0002352742
6	0x396e7e60	0.00022744527
7	0xb93afcdd	-0.00017832541
8	0xb99396d2	-0.00028150395
9	0xb8f2e8a9	-0.000115827956
10	0xb7ae575e	-2.07831e-05
11	0xb9c05f04	-0.00036691886
12	0x387fc362	6.0978702e-05
13	0xb82cb2b6	-4.1174433e-05
14	0xb944dedc	-0.00018775038
15	0xb9573ed4	-0.00020527403

exp_avg_sq f4 [16]
0	0x347919fc	2.3199385e-07
1	0x353166a4	6.6087e-07
2	0x359aa054	1.1520556e-06
3	0x352e98af	6.5042235e-07
4	0x35f0df05	1.7946301e-06
5	0x361c6291	2.3303185e-06
6	0x3507a0ad	5.0525233e-07
7	0x35691e37	8.684323e-07
8	0x35361422	6.782958e-07
9	0x34666ab7	2.1459242e-07
10	0x34cad279	3.777857e-07
11	0x359a95ea	1.1517525e-06
12	0x34aabdd5	3.1803089e-07
13	0x35fc6e65	1.8807592e-06
14	0x3540e0fb	7.1852963e-07
15	0x35933550	1.096787e-06

exp_avg f4 [8, 16]
0	0xb88b25d8	-6.6350854e-05
1	0xb81a7631	-3.6826536e-05
2	0x38f76815	0.000117972646
3	0x3822e911	3.884087e-05
4	0x3889eb92	6.5765475e-05
5	0x38e6e8b6	0.000110106004
6	0x3828fa39	4.028736e-05
7	0x35f3f128	1.8175097e-06
8	0xb886e4b9	-6.432221e-05
9	0xb8412661	-4.605053e-05
10	0x37c68098	2.366332e-05
11	0xb8272846	-3.985341e-05
12	0x39073be4	0.00012896914
13	0xb882d181	-6.237906e-05
14	0xb7bf3c93	-2.2797181e-05
15	0x382812eb	4.007194e-05
16	0x383fc662	4.5722707e-05
17	0x38b205bc	8.4887695e-05
18	0xb994c6d4	-0.00028376898
19	0xb93f700e	-0.00018256923
20	0xb975b68a	-0.00023433022
21	0xba05d65a	-0.0005105488
22	0xb9437a93	-0.00018642312
23	0xb7a18c7c	-1.9258114e-05
24	0xb86581ba	-5.4718672e-05
25	0x3804646b	3.1564774e-05
26	0xb9842bca	-0.00025209627
27	0xb9062b9d	-0.00012795483
28	0xb8c478fc	-9.3685434e-05
29	0xb9256f6a	-0.00015777131
30	0xb884853f	-6.3190695e-05
31	0xb951b128	-0.00019997789
32	0xb2851f6b	-1.5497525e-08
33	0x36a48b37	4.9037876e-06
34	0xb4ef0698	-4.4522017e-07
35	0x3382e04f	6.094398e-08
36	0x35fcae5c	1.8826208e-06
37	0x3318f853	3.5616107e-08
38	0x33bd2a7e	8.8087276e-08
39	0x36049121	1.975401e-06
40	0x3516b426	5.6141505e-07
41	0x35f86c60	1.8508981e-06
42	0x352ce3fa	6.440674e-07
43	0x354da9ab	7.661535e-07
44	0x35809a3c	9.581631e-07
45	0x31300681	2.5615068e-09
46	0x33d3cfd2	9.8632555e-08
47	0x36919253	4.338371e-06
48	0xab96a951	-1.0705136e-12
49	0x800002a9	-9.54e-43
50	0xadc29c4b	-2.2124655e-11
51	0xad00267c	-7.284503e-12
52	0xad9b967e	-1.7688292e-11
53	0xad49fd21	-1.1481733e-11
54	0x0b25eae3	3.1954553e-32
55	0x00000004	6e-45
56	0x80000004	-6e-45
57	0x00000004	6e-45
58	0xacb3772c	-5.1007167e-12
59	0x2ae286f1	4.02393e-13
60	0x2d84d4ff	1.5101252e-11
61	0x2c1a4299	2.1921685e-12
62	0x2ba81e31	1.1945498e-12
63	0xaa0af87d	-1.2343074e-13
64	0xb7fe03e9	-3.028098e-05
65	0xb81e9b2b	-3.7814647e-05
66	0x388dc69e	6.760399e-05
67	0x3801ff9c	3.099405e-05
68	0x38843038	6.303232e-05
69	0x39f655ba	0.00046984648
70	0x3949edf4	0.00019257498
71	0x37deab42	2.654421e-05
72	0x38858a14	6.367653e-05
73	0x36a69d92	4.965529e-06
74	0x39865ad0	0.00025626132
75	0x38d90fe8	0.00010350329
76	0x387237d8	5.7749305e-05
77	0x38c3a6b8	9.3293784e-05
78	0x37413926	1.1517002e-05
79	0x380db74e	3.3787735e-05
80	0xb68000b7	-3.8147805e-06
81	0xb69b1200	-4.6214554e-06
82	0x382e28b2	4.1522733e-05
83	0x37a8afa6	2.0108953e-05
84	0x385692b2	5.1158197e-05
85	0x3868712f	5.541852e-05
86	0x377b568c	1.4980917e-05
87	0x36da5d54	6.507771e-06
88	0x38950009	7.10488e-05
89	0x37490b2c	1.1983135e-05
90	0x38c6ae44	9.473835e-05
91	0x389f5309	7.597177e-05
92	0xb713043e	-8.7628705e-06
93	0x3841edb6	4.623617e-05
94	0x38c0f8d3	9.2016206e-05
95	0x39195cb0	0.00014625746
96	0x37571023	1.2818756e-05
97	0xb7b7a0ca	-2.1890173e-05
98	0xb82ad866	-4.0732695e-05
99	0xb87b92b4	-5.997969e-05
100	0xb88720a1	-6.443379e-05
101	0xb847c05f	-4.7624457e-05
102	0xb71e5866	-9.438116e-06
103	0x374b173f	1.2105155e-05
104	0xb891d392	-6.953547e-05
105	0xb756233e	-1.2763599e-05
106	0xb87e2943	-6.0596747e-05
107	0xb82cf1e6	-4.123328e-05
108	0xb817250b	-3.6035704e-05
109	0xb8445be0	-4.6815607e-05
110	0xb8440edb	-4.6743877e-05
111	0xb914dc34	-0.00014196412
112	0x382f1afc	4.1748383e-05
113	0xb700bb1b	-7.672958e-06
114	0x388b1ff0	6.633985e-05
115	0x3889fe4a	6.580034e-05
116	0x3894cdeb	7.095545e-05
117	0x392e036c	0.00016595208
118	0x38950bfc	7.107106e-05
119	0x3791b13e	1.7367882e-05
120	0x389a7eea	7.366932e-05
121	0x3795ddf0	1.7865532e-05
122	0x39275e88	0.00015961577
123	0x39259178	0.00015789818
124	0xb7633598	-1.3542733e-05
125	0x3946b156	0.00018948814
126	0x3861a70a	5.3799748e-05
127	0x389dffbe	7.533979e-05

exp_avg_sq f4 [8, 16]
0	0x33a9c9c3	7.906376e-08
1	0x34eea487	4.4450664e-07
2	0x35308923	6.576467e-07
3	0x35922f51	1.0891619e-06
4	0x362cc0f8	2.574232e-06
5	0x360c5cdf	2.0915684e-06
6	0x345b3ba9	2.0417669e-07
7	0x34ae7fe8	3.250309e-07
8	0x35dd32b3	1.6480539e-06
9	0x33ff7902	1.1896374e-07
10	0x355c0227	8.195952e-07
11	0x35896b56	1.0238534e-06
12	0x34b78cbf	3.4188812e-07
13	0x35e7f678	1.7282573e-06
14	0x3553ec8e	7.894786e-07
15	0x350d69ea	5.268072e-07
16	0x33d0a1a0	9.715154e-08
17	0x3579affe	9.301583e-07
18	0x35409f77	7.1757626e-07
19	0x35aeb11a	1.3015554e-06
20	0x3678d4b8	3.7078698e-06
21	0x362d4ec8	2.5824866e-06
22	0x3455ae9a	1.990069e-07
23	0x34d575b6	3.9759988e-07
24	0x3618cec0	2.277011e-06
25	0x33ecca5b	1.10264146e-07
26	0x359315ca	1.0958695e-06
27	0x3597ce1c	1.1310362e-06
28	0x34a895f6	3.140155e-07
29	0x36071449	2.0128375e-06
30	0x357291ba	9.0364085e-07
31	0x35610b1d	8.3835204e-07
32	0x3205b6b6	7.783163e-09
33	0x3550d698	7.7798313e-07
34	0x319a2eae	4.4872968e-09
35	0x32191097	8.909544e-09
36	0x31e4901f	6.652058e-09
37	0x331c8bef	3.644885e-08
38	0x3140d064	2.8058134e-09
39	0x31b9e2b8	5.4099836e-09
40	0x3158c40c	3.1543577e-09
41	0x32f04209	2.7969707e-08
42	0x336b8c5a	5.484285e-08
43	0x33857ee5	6.216377e-08
44	0x3255bfa5	1.2441807e-08
45	0x321b31f9	9.03355e-09
46	0x31357892	2.6407503e-09
47	0x33afb4b0	8.1819394e-08
48	0x30df488a	1.6246002e-09
49	0x3021f2ba	5.8916394e-10
50	0x3097b402	1.1037857e-09
51	0x30cc24c7	1.4853406e-09
52	0x30abc50f	1.2497895e-09
53	0x30a5f321	1.2074431e-09
54	0x2ff0819c	4.374784e-10
55	0x2ff9da6e	4.544804e-10
56	0x3286177e	1.5610336e-08
57	0x312ae008	2.4865603e-09
58	0x3043211c	7.098764e-10
59	0x2ffc81ff	4.59309e-10
60	0x2f8b4a3f	2.5336708e-10
61	0x2eed8189	1.0800522e-10
62	0x3201cc00	7.5551725e-09
63	0x2f93011b	2.673993e-10
64	0x32c7f0a9	2.3276089e-08
65	0x3382713f	6.074196e-08
66	0x33dfffce	1.0430777e-07
67	0x33f87275	1.15692195e-07
68	0x3406d80d	1.2558321e-07
69	0x352a3c76	6.341792e-07
70	0x33e05420	1.0446115e-07
71	0x31ff3e40	7.4285538e-09
72	0x33a9ee4e	7.913023e-08
73	0x31ccc731	5.959827e-09
74	0x34c82ad2	3.728406e-07
75	0x33812ef1	6.015569e-08
76	0x32ac801f	2.0081698e-08
77	0x3510dbe5	5.396417e-07
78	0x32e41bf8	2.6555412e-08
79	0x3351684a	4.8756455e-08
80	0x329bd3f4	1.814076e-08
81	0x35526ba5	7.838774e-07
82	0x34a6b569	3.1051903e-07
83	0x348a1eb6	2.5726848e-07
84	0x34eaf577	4.3764496e-07
85	0x351c4177	5.820979e-07
86	0x3286f2ab	1.5710006e-08
87	0x329d9bc2	1.8348036e-08
88	0x34aed6c4	3.2566288e-07
89	0x32bc4ef2	2.192198e-08
90	0x345a1707	2.031121e-07
91	0x351bfa9d	5.810669e-07
92	0x32a1b2e3	1.8824215e-08
93	0x3438fecc	1.722903e-07
94	0x34fc31bb	4.6974841e-07
95	0x3473eb50	2.2716745e-07
96	0x310d3710	2.05495e-09
97	0x32c44850	2.2850287e-08
98	0x31cf4d14	6.0332557e-09
99	0x33d0e7fb	9.727952e-08
100	0x34493c00	1.8741412e-07
101	0x33a08cf6	7.476221e-08
102	0x32a2008e	1.8859534e-08
103	0x3487bce8	2.5283157e-07
104	0x3457258c	2.0037095e-07
105	0x33bc900b	8.7806335e-08
106	0x339f18e7	7.408544e-08
107	0x33212d8b	3.7527155e-08
108	0x332c3420	4.0094278e-08
109	0x33086e1c	3.176511e-08
110	0x3474bda1	2.2793257e-07
111	0x349f31a7	2.9652185e-07
112	0x34135459	1.3721127e-07
113	0x35dc66f1	1.6421237e-06
114	0x35604d39	8.3558876e-07
115	0x35acc794	1.2873084e-06
116	0x362de605	2.5912898e-06
117	0x35ff12d6	1.9004463e-06
118	0x3449bbea	1.8787946e-07
119	0x3445cc41	1.8421362e-07
120	0x3594e7df	1.1094343e-06
121	0x335508b1	4.9600832e-08
122	0x356d078e	8.8300374e-07
123	0x359c776a	1.165766e-06
124	0x34e43344	4.250561e-07
125	0x35e56fc4	1.7094358e-06
126	0x34e9b8d3	4.353411e-07
127	0x352f5012	6.53091e-07

exp_avg f4 [8]
0	0x386c3b7e	5.632219e-05
1	0xb9e27f3b	-0.00043200873
2	0x3624e6d5	2.4572266e-06
3	0xad890bcd	-1.5580337e-11
4	0x3966a7d0	0.00021997024
5	0x390dcce0	0.0001352313
6	0xb920734e	-0.00015301743
7	0x396ba5a5	0.00022473054

exp_avg_sq f4 [8]
0	0x3653080f	3.144614e-06
1	0x36874f8e	4.032575e-06
2	0x333da712	4.415694e-08
3	0x3234f034	1.0531995e-08
4	0x34eb6a6f	4.3849602e-07
5	0x3578471d	9.2490683e-07
6	0x34b50d6b	3.372364e-07
7	0x365d4c0e	3.2975836e-06

exp_avg f4 [2, 8]
0	0xbab913a9	-0.0014120239
1	0xba7f7942	-0.0009745547
2	0x34e1c724	4.205441e-07
3	0xad414f46	-1.0988382e-11
4	0xb9b00b97	-0.0003357797
5	0xb97f4443	-0.00024344125
6	0xb8a9964c	-8.086543e-05
7	0xb9d654e4	-0.0004088051
8	0x387c5d46	6.016835e-05
9	0x39be6b4b	0.00036319564
10	0xb5defb7e	-1.6613483e-06
11	0x2cf6331c	6.997415e-12
12	0xb81e07fa	-3.7677564e-05
13	0xb8aea4f9	-8.327695e-05
14	0x39859e04	0.00025485468
15	0xb941f725	-0.00018497983

exp_avg_sq f4 [2, 8]
0	0x38032144	3.1263815e-05
1	0x3793c8ba	1.7617236e-05
2	0x34fa9aff	4.6678903e-07
3	0x33a7ca11	7.813299e-08
4	0x356dac45	8.8540065e-07
5	0x35997518	1.1433467e-06
6	0x35f5429d	1.827331e-06
7	0x37444278	1.1697986e-05
8	0x38063047	3.199305e-05
9	0x37c99b81	2.403348e-05
10	0x35041430	4.920321e-07
11	0x33818d59	6.0327416e-08
12	0x3555f969	7.9711623e-07
13	0x35922fec	1.0891795e-06
14	0x362c1c36	2.5646418e-06
15	0x3752edda	1.25723545e-05

exp_avg f4 [2]
0	0xba11cd1a	-0.00055618735
1	0x389c4e7a	7.453277e-05

exp_avg_sq f4 [2]
0	0x36f23d1c	7.219276e-06
1	0x3717cb3f	9.047623e-06

fc1.weight f4 [32, 20]
0	0xbf394090	-0.7236414
1	0x3e2c7f6c	0.16845483
2	0x3f3c60fb	0.7358548
3	0xbeed5c64	-0.4635955
4	0xbf665a6e	-0.89981735
5	0x3eadb591	0.33927587
6	0xbec6049c	-0.38675392
7	0x3ed6c9a6	0.4195072
8	0xbe13062b	-0.14357822
9	0x3e7e96a6	0.24862155
10	0x3ed2341a	0.41055375
11	0xbf414401	-0.7549439
12	0xbe2809dc	-0.16410011
13	0x3f2feb82	0.6871873
14	0xbd78d0c6	-0.060745977
15	0x3cb8f149	0.022575991
16	0xbbbfd826	-0.0058546243
17	0xbc8a4e28	-0.01688297
18	0xbc01e369	-0.007927754
19	0xbc009dc9	-0.007850119
20	0xbeaadbbe	-0.33370775
21	0x3e42d643	0.19027047
22	0xbfb51d6c	-1.4149604
23	0x3f200f6d	0.6252354
24	0xbe477d7f	-0.19481467
25	0x3e0dc65c	0.138452
26	0xbd7e0cd5	-0.062023956
27	0x3e0b905e	0.1362929
28	0x3dd6a9e5	0.104816236
29	0x3d9ae392	0.07562937
30	0xbe998218	-0.29982066
31	0x3e3dc93d	0.18533798
32	0xbda07f57	-0.07836788
33	0xbe015d15	-0.12633164
34	0xbc9f7a8e	-0.019467618
35	0x3c3001b6	0.010742595
36	0x3af7926a	0.0018888239
37	0x3c09c8af	0.008409663
38	0x38f1ab60	0.000115236966
39	0x3bcef9f4	0.006316418
40	0xbea99381	-0.3312035
41	0xbdfa36ce	-0.122174844
42	0x3f0d6ab6	0.5524095
43	0xbf9fe564	-1.249188
44	0xbe4b798c	-0.19870585
45	0xbe861cd4	-0.2619387
46	0xbefe9a3d	-0.4972705
47	0xbd8e45f9	-0.0694694
48	0xbe9eaae5	-0.30989757
49	0xbe70c1fc	-0.23511499
50	0x3cc9ed14	0.02464918
51	0x3e8f2938	0.27961135
52	0xbd0a845f	-0.033817645
53	0x3e9a9bc8	0.30196977
54	0x3c9253a6	0.017862152
55	0xbd08d0a2	-0.033402093
56	0x3bf00bb5	0.0073256143
57	0x3d1056b1	0.035238925
58	0xbb36b96d	-0.0027881518
59	0xbc316a50	-0.0108285695
60	0x3e081d86	0.13292512
61	0xbe3d6499	-0.18495406
62	0x3e63e436	0.22255024
63	0xbfc893cb	-1.5670103
64	0x3b4dcd6b	0.0031402956
65	0xbe20d891	-0.15707614
66	0xbde4ae1d	-0.11166022
67	0xbbf51a29	-0.007479925
68	0x3ddbd4b2	0.10733928
69	0xbe1e041e	-0.15431258
70	0x3d94f27e	0.07272814
71	0x3e5163ff	0.20448302
72	0x3c4bf54f	0.012448623
73	0xbd9ca587	-0.07648759
74	0x3b0c3ae0	0.0021397397
75	0xbc9dfd32	-0.019285772
76	0x3bf72a56	0.0075428886
77	0xbb421f5a	-0.0029620738
78	0x3bc80966	0.006104636
79	0x3c0e2755	0.00867637
80	0x3ea8f8d1	0.33002332
81	0x3ebf7788	0.37395883
82	0x3f1f461c	0.62216353
83	0xbefc35a9	-0.4925969
84	0x3f1db28b	0.6160056
85	0xbf3c1d34	-0.7348206
86	0x3e0da408	0.13832104
87	0xbf48fae2	-0.78507817
88	0xbf8c64b4	-1.0968232
89	0xbdde1511	-0.10843862
90	0x3df46bcc	0.11934623
91	0xbf433d6e	-0.7626561
92	0xbd229ed1	-0.03970224
93	0x3e37ab00	0.17936325
94	0x3d5919c2	0.05300308
95	0x3c89ed26	0.016836714
96	0xbdf16531	-0.11786879
97	0xbcf21f82	-0.02955604
98	0x3d8a218d	0.067446806
99	0x3d76ef23	0.060286652
100	0xbed3c20b	-0.4135898
101	0xbdd08b9a	-0.10182877
102	0xbdef72d6	-0.11691825
103	0xbf4e0033	-0.80469054
104	0x3e8c0e65	0.27354732
105	0xbe82dcf9	-0.25559214
106	0xbeba143c	-0.36343563
107	0xbe038f09	-0.12847532
108	0x3db6669d	0.08906291
109	0x3d1f3662	0.038870223
110	0xbec34171	-0.38135865
111	0x3e5f408d	0.21801968
112	0xbf137597	-0.576013
113	0xbe6659e3	-0.22495227
114	0x3d2c3c4d	0.042049695
115	0xbdd92536	-0.106028005
116	0xbd4a96b4	-0.049460128
117	0xbb18632a	-0.0023252466
118	0xbd18b760	-0.037284255
119	0xbd82a033	-0.06378212
120	0x3d293eef	0.041319784
121	0xbe0df291	-0.13862063
122	0xbf85632d	-1.0420891
123	0xbfbe1cb7	-1.4852513
124	0xbe965b13	-0.2936636
125	0x3d1a9aa8	0.037745148
126	0xbd508e18	-0.05091676
127	0xbd60ba52	-0.05486519
128	0x3c535202	0.01289797
129	0xbdec6294	-0.1154224
130	0xbe94fbea	-0.29098445
131	0xbe5f5d5c	-0.21812958
132	0xbe6659f8	-0.22495258
133	0xbd245cca	-0.040127553
134	0xbc663070	-0.014049634
135	0xbca069ac	-0.019581638
136	0xbb88397b	-0.004157243
137	0xbb73dd16	-0.0037210635
138	0xbbce49db	-0.0062954254
139	0x3c016539	0.0078976685
140	0x3d16c617	0.036810007
141	0x3ddb6922	0.10713412
142	0x404c7470	3.1946068
143	0x3fb19425	1.3873335
144	0x3f05e4d7	0.52302307
145	0xbdac8aa5	-0.08424882
146	0xbde56dbd	-0.112025715
147	0x3e521987	0.2051755
148	0xbbe9eb40	-0.0071386397
149	0x3e820543	0.2539464
150	0x3e13edb9	0.14446153
151	0xbdd132f8	-0.102148
152	0xbd5ed342	-0.05440069
153	0x3f08803f	0.5332069
154	0x3ce7d78e	0.028301027
155	0x3c85b075	0.016319493
156	0x3c4c0792	0.012452977
157	0xba77a4f4	-0.0009446882
158	0x3b8491f2	0.0040457183
159	0x3b657e52	0.003501792
160	0xbe5594c4	-0.20857531
161	0xbca600f8	-0.020264134
162	0xbe2fbd8f	-0.17162155
163	0x3f19d210	0.60086155
164	0x3f294903	0.6612703
165	0xbee484af	-0.4463248
166	0xbf3222a5	-0.69584113
167	0x3d8b06cc	0.06788406
168	0xbdd5e07a	-0.10443206
169	0xbe9fcef6	-0.31212586
170	0x3d6277c1	0.055289987
171	0xbf0626a9	-0.5240274
172	0x3eb92c17	0.3616645
173	0x3e90aacf	0.28255317
174	0x3cb5cb90	0.022191793
175	0xbb7d287a	-0.0038628862
176	0x3dc3574d	0.09538136
177	0x3d67ca54	0.05658944
178	0xbd10f6d9	-0.035391662
179	0xbd6b9582	-0.05751563
180	0x3ec9eb39	0.39437273
181	0xbe3cc148	-0.18433106
182	0xbea04fe6	-0.31310958
183	0xbf9e28ec	-1.2356238
184	0xbe8aeee0	-0.27135372
185	0xbe18acea	-0.14909711
186	0x3e18c8a9	0.14920296
187	0x3e2be1de	0.1678538
188	0xbbd04652	-0.006356039
189	0xbd95abf4	-0.07308188
190	0x3e843e4d	0.25828782
191	0xbd872d2b	-0.06600412
192	0xbe697c0f	-0.22801231
193	0xbe26c53a	-0.16286173
194	0xbc47eaad	-0.012201947
195	0x3b14a5ac	0.0022681756
196	0x36507300	3.1061354e-06
197	0xbc93ab37	-0.018025978
198	0x3bb5ef74	0.0055522267
199	0x3c14a9de	0.009073703
200	0xbe1f798e	-0.15573713
201	0xbe4c4d17	-0.19951282
202	0x3f481fe2	0.7817365
203	0xbea90347	-0.33010313
204	0x3e14befd	0.14525981
205	0xbd4ab9d5	-0.04949363
206	0xbddfd184	-0.10928634
207	0x3e4da86d	0.2008378
208	0x3e692643	0.22768502
209	0x3e513632	0.2043083
210	0xbe6fcbd0	-0.23417592
211	0xbe9a7653	-0.301684
212	0xbdce8e9c	-0.10085794
213	0x3e45c354	0.19312793
214	0x3c7f00b4	0.0155641325
215	0xbc247074	-0.010036577
216	0xbbc1412c	-0.0058976617
217	0x3bdf2feb	0.006811132
218	0xbc9ef5bf	-0.01940429
219	0xbc8818d4	-0.016613401
220	0x3ebfe4bb	0.37479195
221	0xbe59ccf9	-0.21269597
222	0x403be218	2.9356747
223	0xbef6cbcf	-0.4820237
224	0x3ec20e7f	0.37901685
225	0xbde8cf5a	-0.11367674
226	0x3dfddab1	0.12395228
227	0xbd70e87f	-0.058815476
228	0xbe5f1cf2	-0.21788386
229	0xbe294340	-0.1652956
230	0x3e9e5431	0.30923608
231	0x3e61b5d2	0.22042015
232	0x3e30a9bc	0.17252249
233	0xbe5526e1	-0.20815612
234	0x3d1d3a5c	0.038385734
235	0xbbaef941	-0.005339772
236	0x3bb83b67	0.0056223157
237	0x3b7da7d2	0.0038704765
238	0x3c1f894a	0.009737322
239	0x3b8c9fec	0.004291525
240	0xbd518d05	-0.051159877
241	0x3e583c03	0.21116643
242	0xbf92fc5b	-1.1483263
243	0x3f23b78b	0.6395194
244	0xbe9ae3ce	-0.30251926
245	0xb8761000	-5.866587e-05
246	0x3c12d178	0.008961074
247	0x3d18e9f0	0.037332475
248	0x3df83e9d	0.121213175
249	0x3dcdd34f	0.100500695
250	0xbe1abf3a	-0.1511201
251	0x3d91a013	0.0711061
252	0x3d1f7683	0.03893138
253	0x3e2bc39b	0.16773836
254	0xbc8b6c45	-0.0170194
255	0xbb284a01	-0.0025678875

fc1.bias f4 [32]
0	0x3dc627c6	0.09675555
1	0xbf076b45	-0.52898055
2	0xbf0c927e	-0.5491103
3	0xbee1f292	-0.4413038
4	0x3ef0bb1f	0.47017762
5	0x3f8328c4	1.0246816
6	0xbf7453f2	-0.9544059
7	0xbf1e5160	-0.6184292
8	0xbf985b73	-1.1902908
9	0xbf0d289a	-0.5514008
10	0x3f79dc4c	0.9760177
11	0xbf07480e	-0.5284432
12	0xbd8add8f	-0.0678054
13	0xbef1e327	-0.47243616
14	0xbfa58939	-1.2932502
15	0xbf244fb2	-0.64184105
16	0x3f24d008	0.6437993
17	0xbfbe276b	-1.485578
18	0x3ff2b995	1.8962885
19	0xbf39cd21	-0.72578627
20	0xbf95902e	-1.1684625
21	0xbe2dc8ac	-0.16971081
22	0x3c2de1c4	0.010612909
23	0xbf21d0d6	-0.63209283
24	0xbeb53c2e	-0.35397476
25	0xbe806f60	-0.25084972
26	0xbf7d0edf	-0.98850816
27	0x3f2ec609	0.6827093
28	0xbf935760	-1.151104
29	0xbed8f50e	-0.42374462
30	0xbe07c984	-0.13260466
31	0xbe520243	-0.20508675

fc2.weight f4 [16, 32]
0	0xbba98fb6	-0.0051746024
1	0x3ee27b8b	0.4423488
2	0xbd47c470	-0.04877132
3	0x3f0ddfac	0.5541942
4	0x3d55cf05	0.052199382
5	0x3d61cd00	0.055127144
6	0x3f83e454	1.0304055
7	0x3ece7993	0.4032713
8	0xbd5de51a	-0.054173566
9	0x3e9da953	0.30793247
10	0xbd99f8c2	-0.0751815
11	0x3f42687d	0.75940686
12	0x3ddd84ee	0.1081637
13	0x3ebbd62b	0.36686835
14	0x3f6521c5	0.89504653
15	0x3f414be0	0.755064
16	0x3c8b854d	0.017031336
17	0x3f89059e	1.0704839
18	0x3e185432	0.14875868
19	0x3ea9179f	0.33025834
20	0x3f3bb482	0.7332231
21	0x3f1c79aa	0.61123145
22	0x3db79391	0.08963693
23	0x3f4364d5	0.7632573
24	0x3d99945f	0.07499003
25	0x3ec2764b	0.37980875
26	0x3f78ab95	0.97136813
27	0xbcfad2f7	-0.030618174
28	0x3f6517b9	0.8948932
29	0x3cb30105	0.021851072
30	0xbce1c686	-0.027560484
31	0x3f387ddc	0.72067046
32	0xbdea5808	-0.11442572
33	0x3f13dfbf	0.57763284
34	0x3e8406f7	0.25786564
35	0x3f326cbd	0.6969717
36	0xbcf9b576	-0.030482035
37	0xbd40b859	-0.047050808
38	0x3f8da03a	1.1064522
39	0x3f31d9b6	0.69472826
40	0x3e12758a	0.1430265
41	0x3f0a7906	0.5409092
42	0x3d3051ff	0.043046948
43	0x3f48f97f	0.785057
44	0xbaee9572	-0.0018202497
45	0x3ecf1c17	0.40451118
46	0x3f2ec6d6	0.6827215
47	0x3f74f5f2	0.9568778
48	0xbd9451b1	-0.07242144
49	0x3f9f2bf3	1.2435287
50	0xbdc711b9	-0.09720177
51	0x3e18a8aa	0.1490809
52	0x3f5b35cc	0.8562896
53	0x3f4703c4	0.7774012
54	0x3e978273	0.29591712
55	0x3f504a86	0.81363714
56	0x3d6bdbf0	0.057582796
57	0x3ecf228b	0.40456042
58	0x3f9817ba	1.1882241
59	0xbd83718c	-0.06418142
60	0x3f5d1e20	0.8637409
61	0x3dbbc13d	0.09167717
62	0xbd4fb602	-0.050710686
63	0x3f604ef0	0.8762045
64	0xbc4915a7	-0.012273229
65	0x3ccc3d4b	0.02493157
66	0xbe28e4ba	-0.16493502
67	0x3d44f68f	0.0480867
68	0xbd988be7	-0.07448559
69	0xbd9879ce	-0.074451074
70	0x3cdae17d	0.02671885
71	0x3c9fe3ad	0.019517744
72	0x24729800	5.2604134e-17
73	0x3cb2a4f3	0.02180717
74	0xbd2efe90	-0.04272324
75	0x3d8b1777	0.06791585
76	0x3b65f988	0.003509136
77	0xbb85e6b7	-0.0040863412
78	0xac7636aa	-3.4989047e-12
79	0xbdb77fc1	-0.08959914
80	0xbda0e99e	-0.07857059
81	0xbc2992d8	-0.010349952
82	0xbd8c42ae	-0.06848656
83	0xbe0b76f5	-0.13619597
84	0xbd688b68	-0.056773573
85	0xbcda7c62	-0.026670638
86	0xbd78f73a	-0.06078265
87	0xbd8c8079	-0.06860442
88	0xbcb0d614	-0.021586455
89	0xbdef2074	-0.11676112
90	0x3cc3c55d	0.023897821
91	0xbdf015f8	-0.1172294
92	0xba8387c8	-0.0010034973
93	0xbcd3de6b	-0.025862893
94	0xbdbd8da7	-0.09255534
95	0x3c65bc5c	0.014021959
96	0xbc005098	-0.007831715
97	0xbb3deb0f	-0.0028979217
98	0xbd03c287	-0.032167938
99	0x3c97f93d	0.018551463
100	0xb985d75d	-0.00025528195
101	0xbc9221fa	-0.017838467
102	0xbaa2942a	-0.0012403775
103	0xb89c3824	-7.449117e-05
104	0x9333e158	-2.270408e-27
105	0xbbb6bf8b	-0.005577033
106	0xba7998da	-0.0009521373
107	0xb5c46307	-1.4631959e-06
108	0xbaa96c96	-0.0012926038
109	0xb6101ae0	-2.1473315e-06
110	0x2d341e86	1.0238593e-11
111	0x3d0906d5	0.03345378
112	0xba8c0a92	-0.0010684303
113	0xb95fb1a9	-0.00021333121
114	0xbc83dd31	-0.016096683
115	0x3c2a550b	0.010396252
116	0x399db072	0.00030076836
117	0xb5cf2602	-1.5433764e-06
118	0xbb0306dc	-0.0019993102
119	0x397a2353	0.00023855017
120	0xbaadcd12	-0.0013259968
121	0xbb57ba3d	-0.0032917403
122	0xb9052d8e	-0.00012700839
123	0xbc0299b2	-0.007971214
124	0xb83bd752	-4.4784807e-05
125	0xbb2ac1a4	-0.002605536
126	0xbc433d48	-0.011916466
127	0xbd273bdb	-0.040828567
128	0xbc8dc7a6	-0.017307114
129	0x39d83cb0	0.00041243946
130	0x3c78318b	0.015148531
131	0xbc8821ec	-0.016617738
132	0xb0329d64	-6.497969e-10
133	0xba493f27	-0.0007676952
134	0x38c3492d	9.311955e-05
135	0x3726fd08	9.9532845e-06
136	0x801fcfca	-2.921441e-39
137	0xba2493c5	-0.0006278123
138	0xbb2a1bfc	-0.0025956621
139	0xb553d203	-7.890923e-07
140	0xb7159f30	-8.918156e-06
141	0xb4078bff	-1.2623785e-07
142	0x00295cbd	3.798524e-39
143	0xbdbb2887	-0.09138589
144	0xb1a74a3c	-4.868779e-09
145	0xb8a50570	-7.868826e-05
146	0xbaa3da11	-0.0012500902
147	0xbbcab4ef	-0.0061861197
148	0x3ae1a159	0.0017214223
149	0x38121328	3.4826953e-05
150	0x38ce3b50	9.833893e-05
151	0xb76d2a58	-1.413616e-05
152	0xb9dbc172	-0.00041915063
153	0xbcff34fe	-0.031153198
154	0xb32b50e4	-3.988761e-08
155	0xb92b4502	-0.00016333538
156	0x3355f70f	4.9817626e-08
157	0x3c02e8a0	0.007990032
158	0x3b30788d	0.0026927323
159	0xbd1b28ed	-0.037880827
160	0xbf276bc7	-0.6539883
161	0x3f4f109d	0.80884725
162	0x3daae757	0.08344906
163	0x3e11c479	0.14235105
164	0x3e3635ae	0.17793915
165	0xbf07a24d	-0.52982026
166	0x3f68f1c8	0.9099393
167	0x3f8bd133	1.0923218
168	0xbd835dcc	-0.06414375
169	0x3d05569c	0.0325533
170	0xbecd7087	-0.40124914
171	0x3e6784b4	0.22609216
172	0x3e9ac10e	0.30225414
173	0x3f28fa37	0.660068
174	0x3f70cdc9	0.94064003
175	0x3eb94830	0.36187887
176	0xbdde88c4	-0.1086593
177	0x3f7b8504	0.9824984
178	0xbeaf52b8	-0.34242797
179	0x3ebb118e	0.3653683
180	0x3f275671	0.65366274
181	0x3ee81082	0.45325094
182	0xbf2352cf	-0.6379823
183	0x3f0abc7f	0.5419387
184	0xbea693e3	-0.32534704
185	0x3f00ee81	0.5036393
186	0x3f416be3	0.7555525
187	0xbf8d9d7a	-1.1063683
188	0x3ef2acbe	0.47397417
189	0x3e1ac932	0.15115812
190	0x3d2ba760	0.041907668
191	0x3e19297e	0.14957234
192	0xbcd5e02d	-0.026107872
193	0x3f759d9e	0.9594363
194	0x3f12a9f9	0.5729061
195	0xbd9b5e54	-0.07586351
196	0xbe99a0a7	-0.3000538
197	0xbf0cb84a	-0.549687
198	0x3f8f5ade	1.1199605
199	0x3e8817c3	0.2658063
200	0x3d19e5c8	0.037572652
201	0x3ec5f43d	0.38662902
202	0xbf1b9a80	-0.60782623
203	0x3e68c52a	0.22731462
204	0x3e62007c	0.22070497
205	0x3f29e083	0.663582
206	0x3f876fcf	1.0580996
207	0x3ee36091	0.44409612
208	0xbf0576ad	-0.5213421
209	0x3f91557a	1.135421
210	0xbf7b01b8	-0.980495
211	0x3ee07eab	0.4384664
212	0x3f694cfa	0.9113308
213	0x3e535cbd	0.20640846
214	0xbeacb156	-0.33729047
215	0x3ea9bdfa	0.33152753
216	0xbeeafcb7	-0.4589593
217	0x3e84df80	0.25951767
218	0x3ebd33fd	0.36953726
219	0xbe84fff8	-0.2597654
220	0x3e90d912	0.28290612
221	0x3eb71355	0.35756937
222	0xbec8633b	-0.39138207
223	0x3e2a5f66	0.16637954
224	0xbeba968b	-0.3644298
225	0x3f646b97	0.8922667
226	0x3ed08311	0.40724996
227	0x3d91a106	0.07110791
228	0xbdfba8a9	-0.12288029
229	0x3d987248	0.074436724
230	0x3f6b6aa9	0.91959625
231	0xbd94f8ba	-0.07274003
232	0x3e80173b	0.25017723
233	0x3e9371d4	0.2879778
234	0xbef8ce69	-0.48594978
235	0x3cce119e	0.025154885
236	0x3eb69779	0.3566244
237	0x3f221d33	0.63325804
238	0x3f86039e	1.0469854
239	0x3ed92c69	0.42416695
240	0xbe86b542	-0.26310164
241	0x3faac689	1.3341838
242	0xbe98e057	-0.29858658
243	0x3f093618	0.53598166
244	0x3f808378	1.0040121
245	0x3e413461	0.18867637
246	0xbe144042	-0.14477637
247	0x3f16f266	0.5896362
248	0xbee5eb11	-0.44905904
249	0x3ec8896e	0.3916735
250	0xbe0055d1	-0.12532736
251	0xbeafa1c8	-0.34303117
252	0x3dab1941	0.08354426
253	0x3dc9daad	0.09856162
254	0xbe086153	-0.13318376
255	0x3ea3fbfc	0.32028186

fc2.bias f4 [16]
0	0x3e81eeee	0.253776
1	0x3e29f6b8	0.16598022
2	0x3c974c56	0.018469017
3	0xbd1e0cd4	-0.038586453
4	0xbccc71b4	-0.024956562
5	0xbf2ce7c6	-0.6754116
6	0xbfab8ff4	-1.3403306
7	0xbf2ec01c	-0.68261886
8	0xbebd1fa9	-0.36938217
9	0xbe318504	-0.17335898
10	0x3c4b3fe6	0.012405371
11	0x3e7da4ac	0.24769849
12	0x3d4222c5	0.04739644
13	0xbd3a6cb3	-0.04551382
14	0x3c16d9b2	0.009207176
15	0xbe6d48ea	-0.23172346

fc3.weight f4 [1, 16]
0	0xbefdfacc	-0.49605405
1	0xbf11f024	-0.5700705
2	0xbd4d3334	-0.05009766
3	0xbd9fa6ed	-0.077955104
4	0x39cd61b0	0.0003917343
5	0xbf6d11db	-0.9260537
6	0xbfa10fe1	-1.2582971
7	0xbf483d0e	-0.7821816
8	0xbf6d25ee	-0.92636
9	0x3d968779	0.07350058
10	0x3d9912b3	0.0747427
11	0xbefa25c7	-0.48856947
12	0x3da2423d	0.0792279
13	0x3d9f3dbc	0.07775447
14	0xbf379f74	-0.7172768
15	0xbf171273	-0.59012526
