DRL-course/MADDPG/model_dir/episode-6000.pt (torch_old, 71203 bytes, 99 tensors)

fc1.weight f4 [16, 14]
00000000: c018 cebe d9ef d23e 5da0 0abf 317a 2c3f
00000010: 09d2 dd3e a67f 15be ad2d 823c 57ba 6e3e
00000020: c6b6 ba3e 2841 5e3e bbe1 f73d ddfb 98be
00000030: 9b74 a63e 5fc2 11bd aff9 113f 67bf 593f
00000040: 3b98 173f a39c 703f d442 efbe b633 1abe
00000050: 9c85 de3c d914 003e 1342 ad3b b2de b93e
00000060: f2a5 873d f6f1 a13d fe6a f43d 7b73 f23e
00000070: 3a1c 44bf a829 ff3e 407d aebd 46fa 1c3e
00000080: 2425 cdbd 15b8 35be 4e58 09be eeed fdbd
00000090: d9ec f4bd 1924 01be 3e61 3d3e 8fa8 eabd
000000a0: f750 34be 2fb2 613e 7d64 a4be 8d66 153e
000000b0: 5d53 21bf 99e4 ff3d a2e1 b2bd d5dd f43d
000000c0: 77cb a0be b1bf a7bc cd94 f3be 72ae 78be
000000d0: 2c73 0fbe 9a27 143c 9451 81be 7d5e 3f3e
000000e0: ee7f 10bf 8468 423e f076 fbbe 717e 9d3e
000000f0: c9d7 e2bd 5554 9cbc 074e e13d c755 bf3c
00000100: e5d0 53be bc80 1a3d 6125 5abe 57b4 ddbd
00000110: fc44 95be de62 1dbe ba3f da3e f8f7 db3e
00000120: 0861 9b3e ba52 913e 513e 093f d67c 28bf
00000130: 7090 843e fbc6 12be 39f2 573d 4599 053f
00000140: c824 583e 85a4 86be a9a3 063e 7635 043f
00000150: 7eb4 34be 87d2 053e 453e 2cbf 0765 d03e
00000160: e6c9 3d3e 8c3f 8dbe cd8b e83e e0e1 b1bd
00000170: 4685 38bf a331 5e3f f4bb 57be edf2 07be
00000180: dcef 83be 8421 4bbf bfe9 3d3f 5ad6 bbbe
00000190: dca4 543f 087f 8bbe 960b e9be 5274 09be
000001a0: e4ae 3f3e 5ffa 4bbe 76df b7bd 2ec9 54bf
000001b0: bc71 923e 7a4e 43be e2ef 9f3d 8aa4 40bf
000001c0: f95b 5b3f 34ae 2dbf 51fc 363f b37c 4dbf
000001d0: eba5 c6bd 6385 8cbe 2e4c 6d3e 825d 41bf
000001e0: 6cd7 65bc f179 6ebf 000e a6be 28e9 883e
000001f0: f731 4ebe 29e3 c93e 1b5a 823e 7e06 35bf
00000200: 18e5 d13e edbf abbe 8ef0 bfbd 0b57 f63e
00000210: 065f 2a3d 9c8b f3bc 143b 893d ab31 6dbe
00000220: 08a4 82bb 8b38 90bd f4c5 fcbc 2335 8dbe
00000230: 3740 c7bb a29d 933b 3a30 a8bd 71a5 5ebd
00000240: 5e1c 01bf a9c5 05bf 74cb 443e 3ff7 82bd
00000250: dd8b 053f 4b3f 343f 345b c63d fd83 bb3d
00000260: 6d7b 253e 768e 0b3f 9dd7 d1be 2572 77be
00000270: 73e6 0bbe 69b8 1ebe ef60 e2be e428 4f3e
00000280: f8e2 e5be c87d f03e 0295 8a3e 2bf2 2b3f
00000290: 94d8 253d 6ebd 37bf 9711 6f3e 44f4 03bd
000002a0: 922f ffbe 37db cbbe a249 20bf ca9b 70be
000002b0: 318d 053f 2328 aebe d11d a3be e422 80be
000002c0: 7452 b9be abe8 9cbe f75d 48be 8736 37be
000002d0: 4180 a1be cf76 c2be 1711 7abd c6fe d1bc
000002e0: 4353 36be 1bd9 653e 35b4 133b 45f7 8c3e
000002f0: ddf9 8b3e 6126 91bf 3548 423f 1de7 78bf
00000300: 8d9a 05bf a3bd 193f 9c4d 013d e37f 7e3f
00000310: 4bd3 233f 02d2 03bf 2f5d 233f e364 04bf
00000320: e475 153d 6d2a 8d3e f9df 91be b597 283e
00000330: 5268 fbbd eb5a 083f e945 c73e 4fbc 22bf
00000340: 28a6 b53e 8a18 10bf 3df3 953e e768 083f
00000350: 0c0e 1e3e 516e 2e3f e4f6 e93d 7045 24bf
00000360: aee8 003e 896e 60be 2aa1 aebd 4954 fabe
00000370: 1b96 ccbd ce7a fabc 1621 48be 4a2e 87bf
-0.40253258 0.41198614 -0.54150945 0.6737395 0.43324307 -0.14599475 0.01589092 0.2331327
0.3646757 0.21704543 0.121036015 -0.29879656 0.32510838 -0.035585757 0.5702161 0.8505768
0.5921666 0.9398901 -0.46730673 -0.15058789 0.02716332 0.12507953 0.0052874177 0.36302716
0.066234484 0.079074785 0.1193447 0.4735373 -0.7660557 0.4983647 -0.08519983 0.15329847
-0.1001685 -0.17746003 -0.13412592 -0.12398897 -0.119592376 -0.12611426 0.18494126 -0.11457931
-0.1760901 0.22040628 -0.32107916 0.14589901 -0.6301783 0.124947734 -0.08734442 0.119563736
-0.3140523 -0.020477148 -0.47574463 -0.24285296 -0.14008778 0.009042645 -0.25257552 0.18688388
-0.56445205 0.18985182 -0.4911418 0.3076053 -0.11076314 -0.019083181 0.11001211 0.023356332
-0.20685156 0.037720427 -0.21303321 -0.10825413 -0.29154193 -0.15369746 0.42626745 0.42962623
0.30347466 0.28383428 0.5361071 -0.65815485 0.25891447 -0.14333718 0.052721236 0.52186996
0.21107781 -0.26297393 0.13148369 0.51644075 -0.17646977 0.13068591 -0.67282516 0.40702078
0.1853405 -0.27587545 0.4541916 -0.0868566 -0.7207836 0.8679449 -0.21067792 -0.13276263
-0.25768936 -0.79348016 0.74184793 -0.36686975 0.83064055 -0.27245355 -0.45516652 -0.13423279
0.18719059 -0.19919728 -0.08978169 -0.83119476 0.28602397 -0.19072905 0.07809426 -0.75251067
0.85687214 -0.6784394 0.71478754 -0.802684 -0.09699615 -0.27445516 0.23173591 -0.75533307
-0.014028411 -0.9315482 -0.32432556 0.26740384 -0.20136248 0.39431122 0.2545937 -0.7071303
0.40995097 -0.33544865 -0.09372054 0.48113284 0.041594528 -0.029729657 0.067007214 -0.23163478
-0.003986839 -0.07042035 -0.03085611 -0.27579603 -0.006080653 0.0045048753 -0.082123235 -0.054356996
-0.5043391 -0.5225473 0.19218236 -0.06394815 0.5216654 0.7040908 0.09685364 0.09156034
0.16160364 0.54514253 -0.40984812 -0.24164636 -0.13662128 -0.15500034 -0.4421458 0.20230442
-0.44899726 0.46970963 0.2706681 0.67166394 0.040489748 -0.7177342 0.23346554 -0.03221537
-0.4984098 -0.39815685 -0.62612355 -0.23496929 0.52168566 -0.34014997 -0.31858686 -0.2502662
-0.3619572 -0.30646262 -0.19567095 -0.17891894 -0.31543162 -0.3798127 -0.061051454 -0.02563418
-0.178052 0.224461 0.0022537832 0.27532402 0.27339068 -1.1339837 0.7589143 -0.9722765
-0.5218895 0.6005499 0.031568155 0.9941389 0.6399428 -0.5149232 0.6381406 -0.5171644
0.036489382 0.2757143 -0.2849119 0.16464122 -0.12275757 0.5326373 0.38920525 -0.63568586
0.3547833 -0.56287444 0.2928714 0.5328507 0.15435046 0.6813708 0.11424044 -0.64168453
0.1258876 -0.21917166 -0.08526833 -0.4889243 -0.09989568 -0.030576136 -0.19543871 -1.0561001

fc1.bias f4 [16]
00000000: 97ba 67be 4fd4 003d c72d 413f 6f2e 783f
00000010: 10ed e73e aa1c 4f3f 1e79 f43e c5d3 a6bf
00000020: f2cb 46be 09b7 5fbf bd96 a43e cba3 0b3f
00000030: e7dd c6bd e887 953e 4161 903d 6e9a e3be
-0.22629772 0.031452473 0.75460476 0.9694585 0.45298052 0.8090311 0.47748655 -1.3033377
-0.19413736 -0.87388664 0.32146254 0.54546803 -0.09710293 0.2920525 0.070498 -0.44453758

fc2.weight f4 [8, 16]
00000000: 08ec cabd d098 a5be 262d 143d 74f8 833d
00000010: 6a74 3dbe 2ab0 083f 5250 cd3d 16f6 fe3e
00000020: 3099 183e 5ede f63e 0276 f63b 88c0 d53e
00000030: 8e35 5e3e 237a 0e3f c940 aa3e e43e dbbe
00000040: afd8 d53d d641 4c3f 6619 3ebe 1d52 ccbe
00000050: 72fa 373d 36c9 273f a853 0dbe 7426 2a3e
00000060: 4083 343e 260a eabd 6d2b ae3e 3b60 55bd
00000070: c237 81bc 2da9 dd3d b300 8b3e c473 3e3d
00000080: acba 253e a3c0 b03e 796b 05bf a9c4 e9be
00000090: 894c aebe 0508 58be 5e36 0dbf 331c 833e
000000a0: 76e5 74bf e092 013f 53d3 283d 9e8c 1a3c
000000b0: 91af a6bd f967 2f3e 469b 92bf 6e88 f83e
000000c0: 4349 46be 2486 4dbe 00c2 d53d d385 01bc
000000d0: 7c17 3e3d 9101 2dbd 9a39 b43d 6b35 c4be
000000e0: 6594 46be 3300 63be 3d8c babd 60a2 61be
000000f0: 9aa7 b7bb b3ed 55be b4cc fabd bdb5 71be
00000100: 597a 93be 2095 2ebf dc66 8abc 7bbb b33e
00000110: 4f2a 20be dab9 08be caac 98be 28d0 9fbe
00000120: 44f6 11bf 4e3a 81be 018b d93d ee46 e6be
00000130: 87d9 0d3d e550 0f3f f687 83bd 469f 443d
00000140: 2964 50bf 899b 193e 6d58 b2bd 7057 22be
00000150: 83c6 ae3b 798d 27be 7ac5 2fbe 6c9e e1bf
00000160: 06b4 003e b035 23bd a25e b8bc 4aad 24be
00000170: 91a7 143e ad26 7bbf 92d0 15bf 8ff5 0f3e
00000180: 24f6 393c 32e9 15bf e27a d8be 83b3 12bf
00000190: 06ea 6ebe 6188 2cbd b16c 3dbf b008 e93e
000001a0: 6ebb 103f b231 423d c68e a53e eec2 08c0
000001b0: 427c 12bf f063 00c0 b4ce f53e 81c2 0b3f
000001c0: d5c9 ddbc 79e9 c43d 5147 e43e df0f da3e
000001d0: 4a10 d23e 148d ff3d ecda b43e dd1d 9abf
000001e0: e48d a7be 0e0e 84be bbb1 863e 9290 b93d
000001f0: efbb c73e ed0f 84bc 8f07 e1be 320f 45bd
-0.09908301 -0.3234315 0.03617587 0.06443873 -0.1850144 0.53393805 0.100250855 0.49797124
0.14902186 0.48216528 0.007521392 0.41748452 0.21700117 0.55655116 0.33252552 -0.4282142
0.1044172 0.7978796 -0.18564376 -0.39906397 0.044916578 0.655414 -0.13801444 0.16616231
0.17628193 -0.11427717 0.34017506 -0.052093726 -0.015773658 0.10823283 0.2714897 0.04649712
0.16184491 0.3452197 -0.52117115 -0.45657852 -0.34042767 -0.21096809 -0.5516108 0.25607452
-0.9566263 0.5061474 0.04121716 0.00943294 -0.081389554 0.17129506 -1.1453636 0.48541588
-0.19363885 -0.20070702 0.10437393 -0.007905441 0.046409115 -0.042237822 0.08800049 -0.38322005
-0.19392546 -0.22168045 -0.091087796 -0.22034597 -0.0056046965 -0.20891456 -0.12246075 -0.23604484
-0.2880428 -0.68196297 -0.01689475 0.35103974 -0.1564114 -0.13352147 -0.29819328 -0.31213498
-0.57016397 -0.25239795 0.10622216 -0.4497599 0.03463128 0.5598281 -0.06422417 0.048003457
-0.8140283 0.15000738 -0.08708272 -0.15853667 0.005333723 -0.16362561 -0.17165175 -1.7626472
0.12568673 -0.039846122 -0.022506062 -0.1608173 0.14517047 -0.9810589 -0.5852138 0.14058517
0.011350188 -0.5855895 -0.42281252 -0.57305163 -0.2333146 -0.04212225 -0.73993975 0.4551444
0.56535995 0.047410674 0.3233549 -2.1368976 -0.5722085 -2.0060997 0.48009264 0.54593664
-0.02707378 0.09614844 0.4458566 0.42590234 0.41028053 0.124780804 0.35323274 -1.2040364
-0.3272544 -0.25791973 0.26307473 0.09060778 0.3901057 -0.016120875 -0.4395108 -0.048110195

fc2.bias f4 [8]
00000000: 00ca e93e c3ee 5e3e 8118 70bf b3b5 afbd
00000010: 8aef 03be 8ec5 0c3f e497 a53e df89 ea3e
0.45661926 0.21770768 -0.9378739 -0.08579578 -0.12884346 0.54988945 0.32342446 0.45808312

fc3.weight f4 [2, 8]
00000000: 0b4e 3ebd 5088 083f 226b ea3e 5b74 f23d
00000010: f3e2 01be 3d3f fbbe cab3 1e3f a7f7 eabe
00000020: 40a1 10bf 5b22 9b3e 1a21 f8be adb5 993c
00000030: 273d ab3e 537c d73e 075b 81be a585 d53e
-0.046461146 0.53332996 0.4578486 0.11838599 -0.1268423 -0.49071684 0.61993086 -0.4589207
-0.5649605 0.3029965 -0.48462754 0.018763388 0.33445093 0.4208704 -0.2526476 0.41703525

fc3.bias f4 [2]
00000000: a50b 82bd 286e 49bd
-0.06349877 -0.04917732

exp_avg f4 [16, 14]
00000000: b58a 9538 52e3 b036 0647 2838 b9a2 a637
00000010: 8a11 0437 6797 3eb7 917a 9438 e947 a8b8
00000020: d4e0 71b5 fdff 96b7 ce5a 8f38 e92c 27b8
00000030: fe2d e136 c5f2 1237 dd51 4bb9 c2fa 8ab9
00000040: f648 24b9 af75 36b9 6687 c138 749a 7eb7
00000050: 6255 df38 9350 beba 838a ec38 5ce8 97b9
00000060: d2db d838 5e37 b6ba 30b9 e538 c593 ecb8
00000070: c901 c5b8 6da7 0e39 b446 30b6 de69 6339
00000080: 7a0a bab7 583d ebb7 3144 f6b9 f113 f939
00000090: 1d6f 45b8 b0e1 f637 3208 aeb9 a40b b539
000000a0: 7e84 8eb7 7e1e 74b8 69bc 5e37 eb0e a339
000000b0: 94bc 5c38 0091 5739 eccb 7ab8 7570 b3b7
000000c0: 43d8 05ba 8846 593a 957c c2b8 8edf 1d38
000000d0: 30ca d8b9 46d6 543a 1c7e 17b8 b8c3 3eb8
000000e0: 94d1 3db7 ad57 3537 5ce7 0b38 3cdc 7f38
000000f0: 4f24 0238 63b9 0a37 69cb 67b9 ffe7 2cb9
00000100: 59aa a9b7 6360 21b9 3dc7 09b9 c0e2 89b8
00000110: eff9 0436 b4ed ffb8 8ca9 84b8 f5a8 26b9
00000120: 99c9 3db9 068f 84b8 bdca ca37 e980 ec37
00000130: d9a1 2638 fa72 2eba 28d8 5737 b2a5 73b8
00000140: 21a3 5db8 39aa e8b9 dc21 5e36 2f48 2438
00000150: f450 6db8 6ffa 0239 8acc 18b8 f248 ac38
00000160: 6ef3 39b8 b4cd 1136 da06 81b7 8e07 4239
00000170: 2369 4d36 9c2e 23b7 a26f 19b8 0739 fe38
00000180: e8c0 11b6 2ca2 9fb6 a84e 5438 2463 1bb8
00000190: 57fb 6b38 6ad9 0138 30f2 91b7 2dd6 1f38
000001a0: ae09 0939 6080 f0b7 733f 29b8 21b8 beb8
000001b0: aa13 ec38 44b7 66b8 de6e 0ab8 1701 a8b7
000001c0: 42de 3a38 157c 2fb9 4a51 82b7 de92 efb8
000001d0: 9806 f5b6 a55e f335 5e7a bb38 30d3 bab6
000001e0: 1b71 2cb8 7e71 f1b7 9c60 3c38 e071 53b9
000001f0: b88e 61b8 de6b 9938 1519 8335 d17d 1fb7
00000200: 59c6 95b5 050f d4b6 207d 82b6 6926 ffb5
00000210: 7eb8 54b6 f02d 10b7 f36e 5035 88f8 aa35
00000220: 7284 fe35 cff1 8fb7 01aa a935 f493 cbb5
00000230: 58aa 46b8 0c4e 65b8 20bb 7fb6 24e2 9436
00000240: bb0b 5438 2072 2f37 591d 0db8 0cbe c7b9
00000250: 009d 90b4 f45b f1b8 64d0 56b7 3e2a ddb9
00000260: 4ae1 ac37 d403 afb8 862c 9cb8 2cb0 f738
00000270: d6a9 c2b8 f40a 6f38 cbde 4ab8 9920 ea36
00000280: 15c2 18b9 712d 8739 00ed b9b4 dcaa cb38
00000290: 843d c9b8 62d0 2939 4adb 5db5 d679 5b38
000002a0: 7130 99b7 daf2 4c38 dbf4 a6b6 a820 8938
000002b0: e724 1cb7 c861 9737 0b33 28b8 a84a 5d38
000002c0: de56 fd36 3f24 c037 00a8 84b8 765b 5738
000002d0: 366f 3a37 0f30 1537 8508 3b38 6ad3 a938
000002e0: dd68 34b8 a848 9438 d338 b7b7 2ddb bc36
000002f0: e357 5638 255c a537 3cd6 c637 6820 6838
00000300: d6bf 90b7 5852 5838 7a1c f5b7 f115 c637
00000310: d8f4 1f37 b03b 80b9 c275 57b8 5e7e 86b9
00000320: 5df0 b737 4849 0837 e509 8d39 df80 59ba
00000330: 74fd b7b8 f4d9 c237 0fcc ba38 b5c8 7db9
00000340: db27 b5b7 381d 9c38 5dfd e537 bf47 53b8
00000350: 57c0 1337 d8be 38b8 2a96 9a36 9c92 82b7
00000360: babc 2838 7db8 a037 1673 91b7 2eb7 a9b7
00000370: 5657 e637 b486 3337 f250 3db7 dc09 ae36
7.13071e-05 5.2716723e-06 4.0120467e-05 1.9864516e-05 7.871897e-06 -1.1360134e-05 7.08002e-05 -8.0242586e-05
-9.0106664e-07 -1.8000597e-05 6.835685e-05 -3.985773e-05 6.7108767e-06 8.758802e-06 -0.00019390085 -0.0002650824
-0.00015667439 -0.00017400713 9.228177e-05 -1.5175541e-05 0.000106493724 -0.0014519863 0.00011279157 -0.00028974086
0.00010340627 -0.0013901999 0.00010954065 -0.00011280881 -9.3940245e-05 0.00013604546 -2.6267198e-06 0.00021687846
-2.2177806e-05 -2.8042748e-05 -0.00046971583 0.00047507838 -4.7071942e-05 2.943058e-05 -0.00033193972 0.00034531683
-1.6989416e-05 -5.820253e-05 1.3276099e-05 0.00031100897 5.2627714e-05 0.00020558015 -5.9794562e-05 -2.139083e-05
-0.0005105773 0.0008288403 -9.273846e-05 3.763992e-05 -0.00041349372 0.00081190874 -3.6118654e-05 -4.5481807e-05
-1.1314074e-05 1.0808854e-05 3.3355653e-05 6.1001847e-05 3.102823e-05 8.268605e-06 -0.00022105653 -0.00016489624
-2.0225694e-05 -0.00015390063 -0.0001313956 -6.5749045e-05 1.9815013e-06 -0.00012203623 -6.325831e-05 -0.00015893935
-0.00018099546 -6.320891e-05 2.4174684e-05 2.819342e-05 3.9728217e-05 -0.0006654706 1.2865326e-05 -5.809003e-05
-5.284243e-05 -0.00044377314 3.3100287e-06 3.9167873e-05 -5.6580597e-05 0.0001249106 -3.6430116e-05 8.215186e-05
-4.433415e-05 2.1726419e-06 -1.5381189e-05 0.00018504096 3.0608578e-06 -9.726409e-06 -3.658201e-05 0.00012122286
-2.171897e-06 -4.7574486e-06 5.0617993e-05 -3.704721e-05 5.6262445e-05 3.095848e-05 -1.7398124e-05 3.810802e-05
0.00013068944 -2.8670009e-05 -4.035183e-05 -9.094203e-05 0.0001125702 -5.5006953e-05 -3.3005017e-05 -2.0027668e-05
4.455285e-05 -0.00016735525 -1.553506e-05 -0.00011423764 -7.3023366e-06 1.8132456e-06 8.9396475e-05 -5.5678174e-06
-4.1113333e-05 -2.8782288e-05 4.4912667e-05 -0.0002016495 -5.3777097e-05 7.3157e-05 9.76756e-07 -9.506432e-06
-1.1159092e-06 -6.319841e-06 -3.8888684e-06 -1.9010159e-06 -3.169785e-06 -8.5937645e-06 7.764749e-07 1.2738319e-06
1.8963021e-06 -1.715953e-05 1.2640959e-06 -1.5167739e-06 -4.7365524e-05 -5.467054e-05 -3.8106882e-06 4.43707e-06
5.0555664e-05 1.0457385e-05 -3.364435e-05 -0.00038097834 -2.6936323e-07 -0.00011508903 -1.2803914e-05 -0.00042183878
2.0608906e-05 -8.345363e-05 -7.446953e-05 0.000118106924 -9.282275e-05 5.699224e-05 -4.8368045e-05 6.9775383e-06
-0.00014568151 0.00025783063 -3.4631375e-07 9.711619e-05 -9.595885e-05 0.00016194725 -8.2648023e-07 5.2327137e-05
-1.8261579e-05 4.8863563e-05 -4.9756904e-06 6.538752e-05 -9.306917e-06 1.8046136e-05 -4.010186e-05 5.2760035e-05
7.5501002e-06 2.2905062e-05 -6.325543e-05 5.1345174e-05 1.1112357e-05 8.892282e-06 4.459221e-05 8.097927e-05
-4.3013006e-05 7.070723e-05 -2.184176e-05 5.628352e-06 5.1103427e-05 1.9712441e-05 2.37032e-05 5.534329e-05
-1.7255468e-05 5.15751e-05 -2.9219536e-05 2.3613657e-05 9.534146e-06 -0.00024458533 -5.1369665e-05 -0.00025652623
2.1927228e-05 8.123294e-06 0.00026900988 -0.00082970964 -8.773329e-05 2.3228095e-05 8.90718e-05 -0.0002420273
-2.159544e-05 7.444102e-05 2.7416909e-05 -5.037314e-05 8.806665e-06 -4.4046756e-05 4.607039e-06 -1.5565478e-05
4.0230087e-05 1.9159395e-05 -1.7338938e-05 -2.023167e-05 2.7458806e-05 1.0700594e-05 -1.1284124e-05 5.186752e-06

exp_avg_sq f4 [16, 14]
00000000: ce02 d533 f3be 0034 7b49 d133 955b 0934
00000010: 73c6 5e31 2b5a 2f31 dfc0 b233 22b1 5935
00000020: 38a5 0931 1bc9 af32 8d99 0034 0535 9a34
00000030: 376c 0831 1724 8b31 0348 af35 6814 ab34
00000040: 4e41 a835 f78c ae34 a2ab c832 985c 2c32
00000050: 8262 2435 4704 a236 70ea a132 acff 4234
00000060: c52b 3b35 ca67 8d36 31c4 8c32 564d 2234
00000070: 296a a034 231a da34 73e1 ae34 5bad d834
00000080: 1c21 3c32 ad98 4332 2e51 0235 0e05 a335
00000090: cb80 0b32 3b9c bd32 6046 fe34 1786 b535
000000a0: 70a5 cf31 719a 0033 d4d2 7235 5413 7735
000000b0: 5e44 6135 4f4a 7635 fff0 e032 30b0 ca32
000000c0: c9eb 7035 1130 8a36 8d81 a832 d280 bf33
000000d0: c517 8035 19de 9636 95ad 8532 c314 e033
000000e0: 3c68 3034 d692 9234 5852 2d34 5f05 a034
000000f0: 5ca1 7932 42f6 4232 294d 4a34 e28a 6f35
00000100: d441 4932 9f63 4932 4bf5 5834 b22d 3735
00000110: e56e 3d32 8c3a 0e32 cbd1 5734 8048 0634
00000120: ec80 4a34 4cc8 fe33 6a6e 3632 8e7d 9e31
00000130: d2e1 0d34 bdab e234 bea2 2132 76c2 7f32
00000140: 6e9f 0834 562a c134 a792 0332 a45c 4532
00000150: 61de 1e34 fc89 2134 2cf0 0d34 eeed 2334
00000160: e72d b931 599b a131 ec1b 6a34 98a8 1d35
00000170: 4341 ed30 2a5d 8332 0a62 5e34 0d06 e534
00000180: 323a 2b31 e376 bc31 cad9 6535 470e 8c34
00000190: ed66 6235 2664 8e34 5d7f d832 cca2 2832
000001a0: bc87 9335 15c9 b435 1218 1c32 e771 0133
000001b0: dc20 9835 3a32 bb35 c0a1 1632 a630 1233
000001c0: 6770 0634 75c0 4e33 f667 0034 7d54 4a33
000001d0: 30f3 8f31 3b13 5531 e2e2 e133 328d ea33
000001e0: a3b6 d931 1a79 5b31 0600 e033 66e4 0235
000001f0: d2ff e831 a45a ad32 3b95 a434 3023 7a34
00000200: f3be a734 1d1b 8c34 1332 2432 0f9b c631
00000210: bc73 9f34 1bff 8935 6637 9931 9cd2 9c32
00000220: eb20 b234 4136 4935 5942 a631 ab53 7432
00000230: 3b45 d733 6f67 2d34 b2e6 d033 c965 2a34
00000240: 02c2 7131 7b0e 9131 131a 1534 4633 1535
00000250: 3696 3b31 783e 7132 68b6 6434 f0ad 4035
00000260: 19d2 9a31 758f 9832 1cc0 9634 28ca 3534
00000270: 70b6 9a34 e5c0 2434 f446 2132 6b09 1032
00000280: 8fdb 0d34 f93e 0e35 6f79 7632 40c0 d232
00000290: f2fc 2a34 0ffd d634 38ed 5f32 0697 1532
000002a0: 0a82 0132 8d1c 6233 29e0 1832 5fbd 6033
000002b0: d5dd 5930 b8e0 8b30 5c12 ed32 1198 c633
000002c0: 0061 9630 48b2 0530 60fd c333 bcfc ff33
000002d0: c1bc 2131 855c 6b30 0474 9834 e37b 2634
000002e0: 58c7 8834 591f 2234 de18 1032 b872 0532
000002f0: 4f84 4234 86d9 9234 56bd 0b32 6a2a 9a31
00000300: 1fcb 2034 286f 5d35 91b9 3232 cf11 1433
00000310: 2da0 9c34 ff18 f433 9a18 9934 56fd dc33
00000320: 2ee1 2932 6759 cc31 83cf 2f34 977f 8635
00000330: 0244 5832 34f6 5433 4dc0 2b34 17b5 f934
00000340: 9db9 3732 436b 7332 348c 3d34 2d97 4534
00000350: ba86 3b34 aecc 4734 8052 9f31 fcc7 9e31
00000360: 65d5 4b34 7198 1c35 c057 6331 9c07 2d32
00000370: 6050 ae34 557d 2435 1f44 0532 6fce 0332
9.9190956e-08 1.1990396e-07 9.745687e-08 1.2792437e-07 3.2418057e-09 2.5517106e-09 8.323854e-08 8.109656e-07
2.003004e-09 2.0464133e-08 1.197679e-07 2.8723312e-07 1.9852118e-09 4.0495354e-09 1.3059474e-06 3.186608e-07
1.2535982e-06 3.251259e-07 2.3361114e-08 1.0032771e-08 6.123811e-07 4.828474e-06 1.8849477e-08 1.8160671e-07
6.972662e-07 4.21421e-06 1.6387363e-08 1.511556e-07 2.9879564e-07 4.062468e-07 3.2574061e-07 4.0359268e-07
1.09505685e-08 1.1385208e-08 4.8546906e-07 1.2145917e-06 8.120149e-09 2.2073541e-08 4.736239e-07 1.3524576e-06
6.043301e-09 2.9942786e-08 9.045882e-07 9.2042796e-07 8.391852e-07 9.1750275e-07 2.6186624e-08 2.3596016e-08
8.975008e-07 4.118316e-06 1.9616687e-08 8.917563e-08 9.543661e-07 4.496204e-06 1.5562174e-08 1.04345894e-07
1.6429198e-07 2.7301456e-07 1.6141837e-07 2.980623e-07 1.4530396e-08 1.1348279e-08 1.8840787e-07 8.923654e-07
1.1714707e-08 1.1722391e-08 2.0205805e-07 6.823931e-07 1.1026462e-08 8.2788e-09 2.0099758e-07 1.2506098e-07
1.8859618e-07 1.18642305e-07 1.06188995e-08 4.612679e-09 1.3213801e-07 4.2220736e-07 9.408437e-09 1.4887169e-08
1.2723987e-07 3.5979855e-07 7.6585485e-09 1.1487973e-08 1.4795798e-07 1.5044492e-07 1.3219022e-07 1.5267116e-07
5.389427e-09 4.7033777e-09 2.1803106e-07 5.8732394e-07 1.7262568e-09 1.5292773e-08 2.0711028e-07 4.2658976e-07
2.4916855e-09 5.485036e-09 8.562607e-07 2.608742e-07 8.434134e-07 2.652243e-07 2.5203628e-08 9.815903e-09
1.0991857e-06 1.3469568e-06 9.085868e-09 3.0138747e-08 1.1334446e-06 1.3947204e-06 8.767927e-09 3.403752e-08
1.2520614e-07 4.813815e-08 1.195875e-07 4.710863e-08 4.189495e-09 3.100651e-09 1.0518649e-07 1.09221574e-07
6.3362946e-09 3.1937533e-09 1.0430817e-07 4.876114e-07 6.781172e-09 2.018107e-08 3.065596e-07 2.3295866e-07
3.1245108e-07 2.609676e-07 9.557442e-09 5.7801866e-09 2.9700266e-07 1.0281541e-06 4.459184e-09 1.8256564e-08
3.3179035e-07 7.4957285e-07 4.8387787e-09 1.4221693e-08 1.00243106e-07 1.614951e-07 9.727718e-08 1.5869513e-07
3.5180396e-09 4.2217017e-09 1.3886192e-07 5.558144e-07 2.7297467e-09 1.404225e-08 2.1300514e-07 7.1778686e-07
4.5058752e-09 1.7760366e-08 2.8079455e-07 1.6930483e-07 2.8817476e-07 1.5343865e-07 9.387566e-09 8.384045e-09
1.3211523e-07 5.299076e-07 1.4346695e-08 2.4534643e-08 1.5924505e-07 4.004473e-07 1.3034246e-08 8.70728e-09
7.538356e-09 5.2645692e-08 8.898533e-09 5.2326296e-08 7.925938e-10 1.017745e-09 2.759878e-08 9.247754e-08
1.0941505e-09 4.863847e-10 9.126484e-08 1.1920335e-07 2.3535878e-09 8.562398e-10 2.839662e-07 1.5505024e-07
2.5477016e-07 1.509883e-07 8.387557e-09 7.767703e-09 1.8115792e-07 2.7352888e-07 8.133915e-09 4.486812e-09
1.4975056e-07 8.249067e-07 1.0403157e-08 3.4475132e-08 2.9173808e-07 1.1366682e-07 2.851637e-07 1.029063e-07
9.888295e-09 5.9473453e-09 1.6373637e-07 1.0020912e-06 1.2588318e-08 4.9584017e-08 1.5995575e-07 4.6511624e-07
1.06942055e-08 1.416885e-08 1.7653002e-07 1.8402052e-07 1.7464745e-07 1.8607781e-07 4.636888e-09 4.621141e-09
1.8983481e-07 5.833636e-07 3.3082728e-09 1.00716555e-08 3.2468506e-07 6.1277143e-07 7.757108e-09 7.672141e-09

exp_avg f4 [16]
00000000: 7b03 9a37 debd 46ba 1c76 8ab9 6d79 01b9
00000010: 6a4f 85b9 b4b1 0e39 9bf8 11b9 88a5 3d39
00000020: 9e36 aa39 5442 1637 2419 90b9 e0d7 3fb7
00000030: e67d 15b8 4503 0039 4d84 f439 98a4 38b8
1.8359851e-05 -0.0007581393 -0.0002640941 -0.00012347633 -0.00025426905 0.00013608375 -0.0001392089 0.0001808611
0.0003246562 8.95614e-06 -0.00027484552 -1.14347495e-05 -3.564162e-05 0.00012208249 0.00046637878 -4.402231e-05

exp_avg_sq f4 [16]
00000000: 4dc3 ef33 d0ef f735 922f df34 c18e aa35
00000010: 0a62 c734 2d62 6b34 0275 0134 5721 ae34
00000020: 98ed 2034 8728 8434 d328 6e34 e43d 6534
00000030: d648 1133 4976 4c34 bfe1 dc34 0bb3 1d34
1.116483e-07 1.8472729e-06 4.15716e-07 1.2707534e-06 3.713797e-07 2.1921797e-07 1.2056628e-07 3.2434284e-07
1.4987597e-07 2.4616403e-07 2.2180329e-07 2.1349803e-07 3.3826687e-08 1.9042012e-07 4.1142445e-07 1.46869e-07

exp_avg f4 [8, 16]
00000000: db0b 7639 9647 cb39 a9ac e239 e533 2e3a
00000010: 984b 7c39 5ccb 4f3a 5a60 db39 88cd 6637
00000020: 7eb6 9539 0f48 4735 a7f6 223a 3e76 003a
00000030: 265a 35b8 1977 8a39 8088 ae39 0db4 3d38
00000040: 4a7d 6db9 26ea b3ba 841a 6fb9 d0b7 34ba
00000050: 9f41 b7b9 031a a8b9 0635 83b9 80e3 9937
00000060: 604b 2538 d748 dbb6 49f0 efb9 3d49 24ba
00000070: c174 2638 aa5c b1b9 6e5d 2db9 0697 8d38
00000080: 0395 5a37 4bc0 9238 1f05 7f36 3dca 4d37
00000090: 0369 9b35 8285 ad37 03bf 0336 54a4 a136
000000a0: 4743 16b3 2881 9730 c3f4 8537 d87b a634
000000b0: 38b3 002f 4e18 3a38 c851 96b6 e46a d737
000000c0: 776d 9f31 70fe c632 27e8 4735 9963 9235
000000d0: b295 4035 71a0 e2b2 ab15 1535 6bec 7e05
000000e0: 6e9f 2931 3d14 e707 f7e2 6fb2 f203 ae34
000000f0: 4945 cc34 3480 2c32 9397 d430 3f18 6d33
00000100: d202 4cb6 0738 3bb8 0092 4ab7 426a a3b7
00000110: 7000 7b37 d0d6 aa37 aa97 6f37 126c ebb4
00000120: c8e3 1e38 9823 06b4 c89b d0b8 96c2 5137
00000130: 6717 c637 d3a5 fab8 fe76 62b4 d448 bbb4
00000140: e3ba 03b7 dada 1ab8 8051 89b8 b19a 0e37
00000150: 50e1 d4b6 b7b2 2eb9 fb1a 93b8 4215 cdb4
00000160: 1eb4 bcb7 88c3 0831 5e7e 1538 b2bd 0339
00000170: b2f7 18b6 f6d5 4bb7 56b6 4eb7 03ab 9ab8
00000180: ed13 53b2 6c47 85b8 6848 6638 652b 6038
00000190: d831 cd34 561a fd38 cb82 2338 e165 0838
000001a0: 374d 1d39 052a 3cb6 9e8f a1b7 aa83 9b37
000001b0: 1970 2937 4afc a736 f6d5 d138 c0c5 d335
000001c0: c100 2eb8 c0cb 403a 5bce a2b9 c591 50b9
000001d0: 90de a136 dab8 24ba e895 81b9 fa0f 85b6
000001e0: e48f c5b9 1c67 56b6 ca40 b7b9 8674 14b9
000001f0: 87db 9ab8 8080 efb6 5afb b7b9 c388 f5b8
0.00023464805 0.00038772513 0.0004323472 0.0006645306 0.00024060754 0.0007926726 0.00041842723 1.3756922e-05
0.00028555462 7.4238136e-07 0.00062165636 0.0004900432 -4.323772e-05 0.00026410146 0.00033289567 4.5228797e-05
-0.00022648755 -0.0013726398 -0.00022802694 -0.0006893845 -0.00034953372 -0.00032062837 -0.00025025773 1.834496e-05
3.9409264e-05 -6.5351883e-06 -0.0004576466 -0.0006267017 3.968622e-05 -0.0003382911 -0.00016533371 6.751534e-05
1.3028507e-05 6.99764e-05 3.8000942e-06 1.2266039e-05 1.1578962e-06 2.0685377e-05 1.9631705e-06 4.817304e-06
-3.4985785e-08 1.1023404e-09 1.5968812e-05 3.1010018e-07 1.1705203e-10 4.436849e-05 -4.479869e-06 2.5679772e-05
4.6399538e-09 2.3165939e-08 7.4471103e-07 1.0906834e-06 7.174341e-07 -2.6382823e-08 5.5538356e-07 1.1986446e-35
2.4683362e-09 3.4768912e-34 -1.3963237e-08 3.2412896e-07 3.8048373e-07 1.0040868e-08 1.546811e-09 5.5202914e-08
-3.040001e-06 -4.4636454e-05 -1.20741315e-05 -1.9480594e-05 1.4960868e-05 2.0365609e-05 1.4280822e-05 -4.3850793e-07
3.7882273e-05 -1.2492671e-07 -9.9472294e-05 1.2502676e-05 2.3614337e-05 -0.00011951816 -2.109118e-07 -3.4884454e-07
-7.851721e-06 -3.6920283e-05 -6.5478496e-05 8.4998765e-06 -6.344322e-06 -0.0001666051 -7.014532e-05 -3.8199693e-07
-2.249522e-05 1.9901751e-09 3.5642057e-05 0.000125638 -2.2793943e-06 -1.214956e-05 -1.232101e-05 -7.375146e-05
-1.2286347e-08 -6.3552376e-05 5.4903707e-05 5.3446176e-05 3.8220492e-07 0.000120688856 3.898404e-05 3.251981e-05
0.00015001452 -2.8038642e-06 -1.9259573e-05 1.853875e-05 1.0099285e-05 5.006358e-06 0.0001000575 1.5778278e-06
-4.1485535e-05 0.000735458 -0.00031052795 -0.00019890729 4.8240836e-06 -0.00062836485 -0.00024716486 -3.965569e-06
-0.00037681975 -3.1948503e-06 -0.00034952752 -0.00014157788 -7.3841824e-05 -7.1377144e-06 -0.00035091751 -0.00011707984

exp_avg_sq f4 [8, 16]
00000000: 4aa6 f033 1222 1d36 b46b e033 1c54 2835
00000010: 3068 8333 faa2 4d35 7055 8933 7adf 6935
00000020: cf32 0836 c616 8035 11e2 1935 b200 c835
00000030: ffd2 6f33 8faf 0436 1197 f735 5ad8 e233
00000040: ad74 2634 902f 2037 97d6 2034 ad78 5c35
00000050: 9f8c 7d34 037b 9135 b929 fa33 ddd0 c334
00000060: 9b22 b735 d4e0 0635 69f5 ab35 4d82 1f36
00000070: c92d e234 04f3 e835 4107 8135 119e 7235
00000080: c93b 0234 5d2d 4c37 83b0 9533 e2d4 1334
00000090: 311f d333 e0c8 1835 56b5 3c33 cf8b 9733
000000a0: e5e9 5333 61a8 ea34 b704 6635 4c7b 8235
000000b0: 5937 4f34 d076 1734 4e29 3133 469f a635
000000c0: 9796 da32 158b 1e32 a861 9432 90b5 c732
000000d0: cbe5 a732 9971 a232 5925 eb31 9c99 f431
000000e0: be45 8334 6948 2733 b0fe 3e32 372f f731
000000f0: 5a9c 8631 8f68 e830 dd22 fe33 e4e9 8f31
00000100: 0546 e531 a430 9632 42ad 8433 cf9c aa33
00000110: 2576 4333 5f6d 4033 f627 9132 116e ff2e
00000120: c050 4533 346f 9b31 7a24 9733 02eb 9732
00000130: 55c1 3233 1b6b 3434 beb2 4732 b976 3433
00000140: 159c 0a33 215f 3437 f3a0 c234 9c8f 0835
00000150: 3068 5f34 eaae 3135 85d6 f433 6618 2b32
00000160: 1c82 0133 4345 7134 f639 5f35 a516 9935
00000170: a1d2 bc33 caee 1133 0a23 c532 f41a 3935
00000180: 085c cb2e 74ce 2034 5e92 d331 db28 9532
00000190: f291 7532 ec42 8633 185d 2931 7724 4f35
000001a0: 4f4f a135 6799 5735 ebc8 c232 d0ae e232
000001b0: ed9d 5c2f 8224 2233 6bec 9335 3dfc 3e33
000001c0: ff3d 0035 2a11 a937 037f a835 9461 2736
000001d0: 1196 6a35 71e1 2336 b4b1 7634 5139 2933
000001e0: 32a6 5f35 2ba5 2035 a9d9 5236 c826 5d36
000001f0: 4b90 6735 5260 0a36 0781 0935 5b6a 2f36
1.1206119e-07 2.3414655e-06 1.0450404e-07 6.270727e-07 6.1191145e-08 7.6605613e-07 6.3951006e-08 8.7124465e-07
2.0295154e-06 9.543371e-07 5.732591e-07 1.4901364e-06 5.5838424e-08 1.9771721e-06 1.84469e-06 1.0563299e-07
1.5502401e-07 9.547817e-06 1.4979229e-07 8.2131993e-07 2.3613619e-07 1.0839143e-06 1.16491215e-07 3.6473548e-07
1.3644634e-06 5.024606e-07 1.2811917e-06 2.3768691e-06 4.2129093e-07 1.7356074e-06 9.61336e-07 9.038204e-07
1.2128943e-07 1.21699095e-05 6.9704605e-08 1.3767888e-07 9.831127e-08 5.6916724e-07 4.3937085e-08 7.0569165e-08
4.933999e-08 4.3708408e-07 8.568854e-07 9.721639e-07 1.9298513e-07 1.4106195e-07 4.124859e-08 1.2414318e-06
2.544702e-08 9.228434e-09 1.7273877e-08 2.3249214e-08 1.9545856e-08 1.891094e-08 6.843646e-09 7.118798e-09
2.4451396e-07 3.8948574e-08 1.1117365e-08 7.194014e-09 3.9176884e-09 1.6909939e-09 1.1834138e-07 4.188438e-09
6.6727375e-09 1.7484417e-08 6.1782444e-08 7.944765e-08 4.5509427e-08 4.4802956e-08 1.6898394e-08 1.1615609e-10
4.594108e-08 4.523736e-09 7.0381205e-08 1.7685583e-08 4.161969e-08 1.6802771e-07 1.1623966e-08 4.2017493e-08
3.2272585e-08 1.0750985e-05 3.6252422e-07 5.087293e-07 2.0806397e-07 6.619217e-07 1.1401156e-07 9.959058e-09
3.0153487e-08 2.2470071e-07 8.315832e-07 1.1405979e-06 8.7927454e-08 3.397762e-08 2.2949752e-08 6.895709e-07
9.247719e-11 1.4976268e-07 6.1575482e-09 1.7364462e-08 1.4294061e-08 6.252034e-08 2.4645654e-09 7.716657e-07
1.2018517e-06 8.031697e-07 2.267594e-08 2.6389358e-08 2.006499e-10 3.7751768e-08 1.102116e-06 4.446723e-08
4.777393e-07 2.0154363e-05 1.2553941e-06 2.4941737e-06 8.739017e-07 2.4420117e-06 2.2975183e-07 3.9400508e-08
8.331582e-07 5.9844996e-07 3.1419133e-06 3.295414e-06 8.626418e-07 2.0619668e-06 5.1224237e-07 2.613894e-06

exp_avg f4 [8]
00000000: 029d 5d3a 186d 27ba 4481 3037 a441 0a35
00000010: d2d9 dcb7 55ff 35b8 ecf3 0239 0808 f3b9
0.0008453877 -0.00063868007 1.05205145e-05 5.1504526e-07 -2.6327474e-05 -4.339156e-05 0.00012488634 -0.00046354556

exp_avg_sq f4 [8]
00000000: 739e ef35 6af2 1b36 cb92 3835 ce1e 3134
00000010: 58ec f933 4cb8 7f35 12a6 8f34 6199 ec36
1.7853002e-06 2.3237903e-06 6.8758953e-07 1.6495616e-07 1.1637957e-07 9.526309e-07 2.6756658e-07 7.0512037e-06

exp_avg f4 [2, 8]
00000000: 9ea2 dd39 b3b9 e0ba 54d0 8538 2f9f 6f33
00000010: 9e55 42b8 682d 06b9 053a d238 1b51 7aba
00000020: 89ca 18bb e1c5 a7ba a726 aeb7 fa99 0d35
00000030: b67e 63b9 a998 02b9 d685 f3b8 e80f efba
0.00042273564 -0.0017145186 6.380738e-05 5.57913e-08 -4.633294e-05 -0.00012796151 0.00010024387 -0.0009548829
-0.002331408 -0.0012800061 -2.0760415e-05 5.275066e-07 -0.0002169561 -0.00012454636 -0.00011612072 -0.0018238993

exp_avg_sq f4 [2, 8]
00000000: 1922 1637 b2cf 3938 754d f536 e942 a435
00000010: b568 6f35 be3d 4636 1f0a d536 e09c 9137
00000020: 3aae 6837 5f74 9538 af43 0137 05a8 7d35
00000030: 329a 4c35 dac8 d935 8d8b 7437 65fc 5037
8.948636e-06 4.430087e-05 7.310586e-06 1.2238426e-06 8.9186807e-07 2.9540238e-06 6.349073e-06 1.7358398e-05
1.3868843e-05 7.1265495e-05 7.704758e-06 9.4494345e-07 7.6220306e-07 1.6226215e-06 1.4576025e-05 1.2456531e-05

exp_avg f4 [2]
00000000: 6456 91b9 2309 baba
-0.0002772092 -0.0014193397

exp_avg_sq f4 [2]
00000000: 5b8c 1f38 0c59 6838
3.803927e-05 5.539604e-05

fc1.weight f4 [32, 20]
00000000: 539e adbe b9b9 b7bd 84b9 0c3f ae64 cdbe
00000010: 3f7f 8b3e cca2 433e 7381 8dbe 9161 a43e
00000020: 47c8 8cbc 14bb 2cbe 8ac9 29be 1d37 9cbe
00000030: d6ed f6bd e009 14bd e6c4 053d 5265 fe3a
00000040: 53f6 75bc da8d 833c 1898 b53c 182f d3bc
00000050: 03af 44be ebff a33c 2549 9ebf b362 063f
00000060: e5f9 acbe db34 d43d 6c65 c5bd df91 3d3e
00000070: 8b0e b93d fe48 803e 4f2e 43be 200b 063c
00000080: 5f25 23be 3750 b1bd a519 d1bc 60a7 153c
00000090: 26ce 65bb b7e5 3fbc 04c3 01bc be52 013c
000000a0: 4b57 f33c 28bd c6be 1f4e 253f 71e1 70bf
000000b0: 3387 00be 660f 053e 0b96 cabe 6ebc 0fbd
000000c0: 25a4 92be 3bd1 55bd dbdc f2bd a6d4 c33e
000000d0: 9c11 83be 7eb3 003e ea33 053d 80f3 cbbc
000000e0: 15a2 ecbc 0b64 8ebb 4fb3 e43c bc6e 153c
000000f0: e562 153e 0552 49bc 5aee eb3d 2138 95bf
00000100: e675 a3bc 82c2 16be 86f6 a5bb ee37 18bd
00000110: 61b8 f13d d684 183e e2d7 fc3c 1931 5a3e
00000120: aeed 4cbe bcd6 65bd c812 d13b 93a2 d1bc
00000130: 13d5 81bb f190 c33a 9bf5 713c cf65 60bc
00000140: e6a2 ae3e babb dc39 5809 cb3e a0d5 71be
00000150: 3d28 f83c e429 2cbf 53ac 443e b4f1 85bd
00000160: 39c5 cf3d 696c 833d d6de 703d e714 67bf
00000170: fc5b 693d 6505 95be c8fe 2b3d 9a18 233e
00000180: 209c e83c ba8e 82bd 5f28 6c3b 2dbd 2f3d
00000190: c584 bcbe 43da 123e 0296 153d 2d34 17bf
000001a0: d9df 483d 2ab1 d43b 7afc dfbe 3dec 2fbe
000001b0: e707 21be 0e97 f9bd 828a 87be ef89 6ebe
000001c0: a502 0f3e d8a6 6cbe 08b2 123d 0d21 3abc
000001d0: 0423 283c 5460 71bb 2824 35bd ba6f 113d
000001e0: a8c0 a23d 1699 b7bd 4c98 83bf 8eef afbf
000001f0: 7ccc 79be 4c5f 15bd 72da 90bc d7ff 7abd
00000200: add6 7e3d bbec f2bd cfe8 ddbd 14a3 9dbd
00000210: dee6 b53c 4b1b 6e3d db41 83bc efc8 40bc
00000220: 1661 b03b 7c3f c8ba ef94 49bc b112 b839
00000230: d9ce cebd c66c d4bd a800 2c40 b96c 033f
00000240: 8a9f ac3e 3fbf 193e 51cc 38bc 72ec d7bc
00000250: b3b7 d03d 2275 a3bd af3c 5fbb 0353 663e
00000260: 9030 7fbd 31a5 b33d 4453 393d 0271 bd3b
00000270: 2fdf 9c3b 0594 133c 02aa 75bb 5c9b eebb
00000280: 66dc 2bbe 7678 923e e2ac 203d 5510 023f
00000290: 90e9 703d f985 213e 9877 c3be 32c8 e13d
000002a0: ccd7 bcbd 3560 8fbc ab7d 8abc 64a4 1ebf
000002b0: 6398 3d3e 6ae7 103e 671b 40bc 0222 f83d
000002c0: ab1e 2d3c 7a5f 733c 0397 64bc 0ff9 99bb
000002d0: 13f5 e73e d2c3 a5bd 8748 bcbe 69ea 85bf
000002e0: b8e4 50be 374e a0be 9013 183e ed4e e33d
000002f0: 734e d5bd efc7 5a3d c4e1 143e 33f5 d4bc
00000300: 4e87 24be 2e4a 083e ccb6 b83a 3fc4 95bc
00000310: fa88 483b f1fe 113c 2c68 3e3b 145d 2ab9
00000320: d0c7 bebd 6534 e3bb efc7 3f3f a27b 94be
00000330: f0ce c93b 0d29 4f3e cd76 cdbd ef36 683e
00000340: 284a 243e 018e 8b3e de08 a7be 5c6f 94be
00000350: 8deb a33a 3414 f53d 8c5a 3dbe 0f12 863d
00000360: d95e 7bbc 5b85 193e 56c2 12be 515b 68bb
00000370: 5608 f73d 930c bebd 2033 d53f 27ba 74be
00000380: 91fb 683e 1eec b1bc 17db 9ebd 37f8 dabd
00000390: c538 c83d 4b7f efbc 63a3 103d d2a5 383e
000003a0: 3e44 6c3c 489a dd3d f1e8 f23b eebc 7e3c
000003b0: e3c9 99bc 852b 9f3c da0e 74bb b429 e8bb
000003c0: d281 953c 009f a93d 456d 76bf 16e9 003f
000003d0: e4af 8ebe e94c 713d cb84 a8bc 89c8 753d
000003e0: 8630 883e 348c 743e 1e2b 273d 513a a13c
000003f0: c934 02be 703e 793e 5036 0ebe c973 3a3d
-0.33909854 -0.08970971 0.54970574 -0.40115875 0.2724552 0.19105071 -0.27637824 0.32105687
-0.017185343 -0.1686824 -0.16580787 -0.30510798 -0.12057082 -0.03614223 0.03265848 0.0019408858
-0.015012342 0.016058851 0.02216725 -0.025779292 -0.19207387 0.020019492 -1.2366072 0.52494353
-0.33784404 0.10361644 -0.09638485 0.18512677 0.09035977 0.2505569 -0.19060634 0.008181363
-0.15932225 -0.08657878 -0.025524924 0.009134144 -0.00350655 -0.011712483 -0.0079200305 0.007893262
0.02970471 -0.3881619 0.6457233 -0.94093996 -0.12551574 0.12994155 -0.395676 -0.03509181
-0.28640857 -0.05220149 -0.11858531 0.38248175 -0.25599372 0.12568471 0.032520212 -0.024896383
-0.02888588 -0.004345422 0.027917532 0.009120639 0.14588507 -0.012287621 0.11520071 -1.1657754
-0.01995368 -0.14722636 -0.0050647883 -0.037162714 0.118027456 0.14894423 0.03086466 0.21307792
-0.20012543 -0.05611299 0.0063804127 -0.025590217 -0.003962168 0.0014920515 0.01476803 -0.013696148
0.34108657 0.00042101537 0.39655566 -0.23616648 0.030292625 -0.6725142 0.19206361 -0.06540242
0.10145039 0.06417162 0.058806263 -0.9026627 0.05697249 -0.29105678 0.041991025 0.15927354
0.028394759 -0.06374879 0.0036034805 0.04290502 -0.36820045 0.14341073 0.03652001 -0.5906399
0.049041603 0.006490846 -0.43747312 -0.17179962 -0.15725671 -0.121870145 -0.2647286 -0.23294805
0.13965853 -0.23110521 0.035814315 -0.011360419 0.010262255 -0.0036831098 -0.044223934 0.03550694
0.079469025 -0.08964746 -1.0280852 -1.3744981 -0.24394411 -0.036467835 -0.017682288 -0.061279144
0.06221645 -0.11861559 -0.1083542 -0.0769712 0.022204813 0.058131497 -0.016022613 -0.011766656
0.0053826673 -0.0015277709 -0.012303575 0.0003510914 -0.10098047 -0.103723094 2.68754 0.5133777
0.3371547 0.15014361 -0.011279182 -0.026357863 0.10191288 -0.07981326 -0.003406327 0.22492604
-0.062302172 0.08771742 0.045245424 0.005781294 0.0047873477 0.009007459 -0.0037485366 -0.007281704
-0.16783294 0.2860753 0.039227374 0.5080617 0.058816493 0.15773763 -0.3817718 0.11024512
-0.092208475 -0.01750193 -0.016905626 -0.6196959 0.18515162 0.14150777 -0.011725283 0.121158615
0.010566394 0.014854306 -0.01395202 -0.0046988796 0.45304164 -0.080939904 -0.36774084 -1.0462161
-0.2039975 -0.31309673 0.14851213 0.11099038 -0.104153536 0.053413328 0.14539248 -0.025995826
-0.1606724 0.13309547 0.0014092564 -0.018282054 0.0030599223 0.00891088 0.002905379 -0.00016247138
-0.09315455 -0.006933736 0.7491445 -0.29000574 0.006158702 0.20230503 -0.10032425 0.22677206
0.16043913 0.27256778 -0.32623953 -0.2899121 0.0012506113 0.11966744 -0.18491572 0.06546413
-0.015342438 0.14992277 -0.14331946 -0.003545482 0.12062137 -0.09279742 1.6656227 -0.23899136
0.22752215 -0.021719035 -0.07756632 -0.106918745 0.09776453 -0.029235503 0.035312068 0.18032005
0.014420567 0.108204424 0.0074130227 0.015547974 -0.018773025 0.019429931 -0.0037240298 -0.0070850495
0.01825038 0.0828228 -0.9626048 0.5035566 -0.2786857 0.058911238 -0.020571133 0.0600057
0.2659952 0.23881608 0.040812604 0.019681128 -0.12715448 0.24340224 -0.13887906 0.045520578

fc1.bias f4 [32]
00000000: 61ce 863e 8768 3abf 4597 acbe 97e7 a8be
00000010: 377d 77be 5f43 8d3f aee4 7dbf b64d b2be
00000020: a303 a6bf 8a12 0dbf 1dc7 543f e385 33bc
00000030: fa9e 90be 7577 1dbf a8c8 97bf a36d f7be
00000040: a7e5 1d3f 896c b3bf 30be ed3f ae5e 29bf
00000050: 8467 8dbf 82ce c6be de16 133f da5f 39bf
00000060: 29d3 813e 920b f9be 4489 30bf 292d 173f
00000070: 7849 40bf 1195 c9be 6723 733e 038a e4be
0.2632933 -0.72815746 -0.3370916 -0.3298919 -0.2416886 1.1036185 -0.9917706 -0.34824914
-1.296986 -0.55106413 0.8311632 -0.010957214 -0.2824629 -0.615104 -1.185811 -0.48325834
0.61678547 -1.4017497 1.8573666 -0.66160095 -1.1047215 -0.38829428 0.5745677 -0.7241188
0.25356415 -0.4864164 -0.6895945 0.59053284 -0.75112104 -0.3937154 0.23743974 -0.44636545

fc2.weight f4 [16, 32]
00000000: 70ed bcbd 6ace 193f 088f b43d ea1d d43e
00000010: c9a3 bd3d faf4 813e 34ef 823f 7fff 4b3f
00000020: af2c 763d 9d09 a23e 49d4 8ebe ccb1 d43e
00000030: a06b 2b3e c4d7 e73e 6dd3 853f 469c f53e
00000040: 6f06 5b3d 3cd2 993f ae5d 883e 3536 bb3e
00000050: a75e 4d3f 4a9a b43e bdd3 503c 055c 493f
00000060: c59b b83d 322b c43e e62b 6d3f f829 2fbe
00000070: ef59 363f 6dc3 833c 214e 33bd 8b90 0e3f
00000080: 1430 c5bd af36 3f3f c779 cb3e fca4 0b3f
00000090: dd18 62be 7157 ea3d f977 8c3f 3404 8e3f
000000a0: 964a a63e 75e3 0d3f 0b0a cabd 5a1b df3e
000000b0: 5409 933d a9f4 003f bfad 533f 8ef5 1d3f
000000c0: 5db4 95bd a7fb b23f 2802 863b f905 3d3e
000000d0: 8ee6 6e3f cce8 033f ee06 7f3e e987 563f
000000e0: a9e6 063e 49dd cf3e 3d5b 913f 8a4b bfbd
000000f0: d5a3 213f 1f9a b63d 7cb3 e2bb 9c7d 333f
00000100: 3ff8 4e3d f495 a33d 6f96 6fbe 1af0 883d
00000110: b34a 20be 08c4 b9bd 7917 9f3d f155 b93b
00000120: d56a debb db0a 233d 11c8 96bc 7c97 1f3d
00000130: ead1 a03d 3d5d 7ebd 3181 b7bc df12 e4bd
00000140: d755 f1bc 4137 02be 48c2 c7bd 3782 57be
00000150: a5a1 4cbe 0aa5 dfbc b82a 3cbe 004c 27be
00000160: 52e9 6bbd d621 1fbe 5863 b63d 0a10 febd
00000170: 971a 18be 7139 cebd 3b6e 52be acb2 9c3c
00000180: fa85 8f3d cd3b 08be 34e9 04be 7d4e ae3d
00000190: a651 eabd 57e4 8dbc 85a0 2ebe 7cc7 ecbd
000001a0: efc9 2d27 cec3 12be 08bb 3833 9977 14bd
000001b0: d18e 59bd c187 6ebd f3e4 b63c fb8f ae3d
000001c0: d7aa 17ba c66e f6bd d917 27be e342 a03d
000001d0: dbc5 49bb 4747 1a3a ce87 bcbc 7ff3 a03c
000001e0: 5026 ffbb 614e d73b 4a65 c63c eda7 12bd
000001f0: 162e 703d 664b df3c 9ab3 97bd 63d8 14be
00000200: a0d7 3bbd f850 703d bb60 203d 4701 fbbd
00000210: 0c5b b1bc 6f28 fbbc d09a bd3a e046 f13b
00000220: 141e d937 9ec3 acbb 58d9 60be 134c 3abd
00000230: b0cf d5bd 237c bcbc 6762 0f3a 2a97 53be
00000240: fd48 67bd 34c0 8dba 8082 20be e2e1 36bd
00000250: 1989 1d3d 838d ce3c 3ad0 7f3d f018 a6bd
00000260: 17c4 b0bd ff76 3cbe c223 ddbd 41b6 01be
00000270: 2132 953d 6131 0d3d 69bf 8d3c 4805 13be
00000280: 540f 37bf 7972 5a3f d8b7 8e3d bfa4 113e
00000290: d3b3 03bf f990 0bbf bd66 713f 9f32 973e
000002a0: a4f0 483e f0d3 e43c 4ea2 c6be 001e a33d
000002b0: 3844 b43e 2e3a 373f 2e5f 7b3f fe77 ba3e
000002c0: 5847 2abe a88f 853f 79a1 9abe f5c1 d33e
000002d0: d11b 293f 8111 de3e 8add 0cbf 7fb8 103f
000002e0: 4bec 29bf 02b3 0c3f 8a80 2a3f fad7 9bbf
000002f0: 40bc 81be a9bd 6e3e 985a a63b 78a7 3c3e
00000300: e6db 193d ce7f 7c3f 8618 1a3f 59a7 a9bd
00000310: 804c 563d 4cab eabe b57b 923f d4bf b13e
00000320: f35a 4a3f 0a58 c53e 3b70 26bf 2fe3 b13e
00000330: 3904 563e 75a1 2b3f 6735 8e3f 0959 fa3e
00000340: 73bf 19bf 70a1 9b3f 70fc 71bf dd9e de3e
00000350: 71ce 6e3f 4a78 813e 9b72 3dbe bba6 ad3e
00000360: 23f6 07bf 5e96 a53e 3b39 d93e ef5c ebbe
00000370: 94cd cd3e a0fb 9b3e e13f b7be 3b53 493e
00000380: 854b 66be 2eff 4f3f bc50 be3e 6f48 443e
00000390: 383b d9be 307a b0bd d663 693f 2009 8a3e
000003a0: 677c f73e f048 a63e 860e 08bf 0daa ba3e
000003b0: 7833 ab3e 5bf1 153f 4f77 953f 2170 0f3f
000003c0: b7a1 85be 7692 be3f 039d dfbe f5cb 093f
000003d0: d0ad 843f bcb1 913e 955f c6bd 4b0a 263f
000003e0: a237 8fbe 4b12 c43e af90 d23e 5eda a2be
000003f0: 87ff c63e 0570 003e f68f 2dbe ff55 a73e
-0.09224975 0.6008059 0.088163435 0.41429073 0.09259755 0.25382215 1.0229249 0.7968673
0.060101207 0.3164796 -0.27896336 0.41541898 0.16740274 0.45281804 1.0455147 0.4797079
0.053472932 1.2017283 0.26633972 0.36564794 0.80222553 0.35273963 0.012745795 0.78656036
0.09014086 0.38314205 0.9264511 -0.17105854 0.7123098 0.016084397 -0.04377568 0.55689305
-0.09628311 0.74692816 0.39741346 0.5454862 -0.22079797 0.114424594 1.0974113 1.1095033
0.3247878 0.55425197 -0.09865197 0.43575555 0.071795136 0.5037332 0.8268699 0.6170281
-0.07309792 1.3983048 0.0040896125 0.1845931 0.9332055 0.51527095 0.24904987 0.8380113
0.13173927 0.40598515 1.1355969 -0.0934058 0.6314061 0.08916115 -0.006918369 0.7011354
0.050529715 0.07987586 -0.2339723 0.06686421 -0.15653495 -0.09070593 0.07768149 0.005655997
-0.0067876377 0.039805274 -0.018405946 0.038962826 0.07852538 -0.062100638 -0.02240047 -0.11136412
-0.029459877 -0.1271639 -0.09753853 -0.21045767 -0.19983537 -0.027300376 -0.18375671 -0.16337585
-0.05759556 -0.15540251 0.08905667 -0.12405403 -0.14853893 -0.1006955 -0.20549862 0.019128166
0.07007976 -0.13304062 -0.12979585 0.08511064 -0.114413545 -0.017320795 -0.17053421 -0.11561486
2.4118041e-15 -0.14332506 4.3010942e-08 -0.03624687 -0.053114716 -0.058234934 0.022325968 0.08523556
-0.000578565 -0.12032847 -0.16317691 0.07825258 -0.0030788097 0.0005885255 -0.023013975 0.019647358
-0.0077865496 0.006570623 0.02421822 -0.035804678 0.0586377 0.027257632 -0.07407303 -0.1453567
-0.045859933 0.058670968 0.03915475 -0.12256103 -0.02164986 -0.030658929 0.0014465693 0.0073631853
2.5882422e-05 -0.005272343 -0.2195791 -0.045482706 -0.10440004 -0.023008412 0.000546968 -0.20663133
-0.05646609 -0.0010814727 -0.15674782 -0.044649012 0.038460825 0.025213962 0.06245444 -0.08110225
-0.08631151 -0.18404768 -0.10797836 -0.1266718 0.07284952 0.03447092 0.017303186 -0.14357483
-0.71507764 0.8533092 0.06968659 0.14223002 -0.51446265 -0.54518086 0.9429739 0.29530808
0.19623047 0.02793309 -0.38795704 0.079647064 0.35208297 0.7157315 0.9819211 0.36419672
-0.16628778 1.0434465 -0.3020132 0.41358915 0.6605807 0.4337273 -0.5502554 0.5653152
-0.6637618 0.54960644 0.66602385 -1.2175286 -0.25338936 0.23314537 0.0050767176 0.1842326
0.037563227 0.98632514 0.6019367 -0.08283872 0.05231905 -0.45833814 1.1444002 0.34716666
0.7904503 0.3854373 -0.65015 0.3474364 0.20900048 0.6704324 1.1110047 0.48896053
-0.60057753 1.2158642 -0.94525814 0.43480578 0.93283755 0.25287086 -0.1850075 0.33916268
-0.5310995 0.32341284 0.42426476 -0.4596934 0.40195906 0.30465412 -0.35790923 0.19660656
-0.22489746 0.8124875 0.3717097 0.19168256 -0.42427993 -0.086170554 0.9116796 0.26960087
0.483371 0.32477522 -0.5314716 0.36457863 0.33437705 0.58571404 1.1677035 0.5603047
-0.2609994 1.4888446 -0.43674478 0.5382684 1.0365543 0.28455913 -0.096861996 0.64859456
-0.27972132 0.38295206 0.4112601 -0.31807226 0.38866827 0.12542732 -0.16949448 0.32682797

fc2.bias f4 [16]
00000000: 9213 923e ae52 7b3e 1e66 263d d23f 66bd
00000010: 393a 91bd 5f4e 15bf 33e2 9dbf dc63 26bf
00000020: b18c 88be ebfd 6bbe b3c6 943c 9da3 943e
00000030: e6c9 863d 0ec5 66bd 3ad1 133e 9ff8 f6bd
0.28530556 0.24543259 0.04062473 -0.056213208 -0.07091183 -0.5832271 -1.2334656 -0.64996123
-0.2666984 -0.23046081 0.018161153 0.29031077 0.06581478 -0.05634027 0.14435282 -0.120591395

fc3.weight f4 [1, 16]
00000000: 79ab 12bf 3717 1fbf 2ac9 043e f990 acbd
00000010: 69b4 fa3b f6e4 7bbf 7339 a3bf 4d62 50bf
00000020: 8186 7bbf 831f f03d 6024 d13d 37c0 0cbf
00000030: f076 143e 5fd8 263e fda3 46bf 7a09 1abf
-0.57292897 -0.621448 0.12967363 -0.08426089 0.007650901 -0.9839624 -1.2751907 -0.81399995
-0.9825211 0.117247604 0.10212016 -0.54980797 0.14498496 0.16293477 -0.77593976 -0.6017071
