DRL-course/MADDPG/model_dir/episode-8000.pt (torch_old, 71203 bytes, 99 tensors)

fc1.weight f4 [16, 14]
-0.5403271 0.30977377 -0.5853617 0.5952954 0.3994712 -0.31033847 0.050378747 0.19962314
0.53012717 0.2869484 -0.004030044 -0.042674977 0.24083275 0.06432774 0.648007 1.0572419
0.68782145 1.1900221 -0.53442705 0.547945 0.07566519 0.1982743 -0.07283788 0.3181082
0.15798634 0.117424555 0.15466715 0.34383175 -0.7961339 0.6647359 -0.077182055 0.11465889
0.25262287 -0.130759 -0.09866806 -0.2050253 -0.21635394 -0.43997526 0.1779757 -0.041858096
-0.081838086 0.104556754 -0.4094369 0.14141929 -0.72121066 0.17779067 0.28350735 0.12357692
-0.2235226 0.05140734 -0.17249595 -0.21377528 -0.027691614 0.080332786 -0.13075353 0.1609881
-0.58916456 0.3702207 -0.58429503 0.42541352 0.029267244 -0.089338645 0.13901572 0.24128191
0.20460942 0.3056926 -0.26218167 0.20334922 -0.09760913 0.18567206 0.46380594 0.25220603
0.55010056 0.13546468 0.58584195 -1.0076871 0.65069675 -0.09148545 0.154936 0.4931194
0.6924013 -0.19023307 0.33812508 0.46012992 -0.39210242 0.15613899 -0.56654596 0.37509602
0.42294645 -0.27731955 0.3078753 -0.12359524 -0.44482142 0.8333618 -0.38321587 0.03558238
-0.21291845 -1.1594936 0.8019703 -0.3701102 0.8538318 -0.37121493 -0.23205255 -0.30956265
0.20808524 -0.18646933 -0.158545 -0.601643 0.2639005 -0.13136435 0.0021644097 -0.72093403
0.90859604 -0.50939196 0.93757033 -0.66262823 0.23361205 -0.3044359 0.19623451 -1.1555513
0.28229982 -0.3245504 -0.18602666 0.32780686 0.33934417 0.4583605 0.26777875 -0.7036172
0.40821534 -0.3399981 -0.048831746 0.4618892 0.057485312 -0.01771943 0.062428504 -0.22820792
0.001025388 -0.05174271 -0.008716908 -0.28474617 0.072094776 0.066814065 -0.097245775 -0.031030979
-0.8346403 -0.26678586 0.3881288 -0.083776124 1.0468922 0.396136 0.22750893 0.1594613
0.3325563 0.43181252 -0.4920263 -0.2553641 -0.1167245 -0.12512068 -0.6299222 0.53378296
-0.2364272 0.41397434 0.12649491 0.68135834 -0.026165294 -0.8384345 0.019992722 -0.73801875
-1.2191268 -0.5516188 -1.2745035 -0.4722514 -0.031001728 0.14300495 -0.44866744 -0.22413759
-0.5871596 -1.1125287 -0.26058182 -0.13090113 -0.5020304 -1.1414438 -0.26471442 0.07054216
-0.09506046 -0.00021866336 -0.43714833 0.25595877 0.3239584 -1.1857817 0.4818404 -1.5135103
-0.07872348 0.46445972 0.0065763355 0.81287056 0.8104075 -0.38227475 0.6725335 -0.42012927
0.15980539 0.18125007 0.0658143 0.19988345 0.28673643 0.46484476 0.33508474 -0.9487861
0.31634095 -0.8876565 0.35642245 0.69626755 0.33616465 0.8199595 0.17128783 -0.6891708
0.3729853 -0.18705802 0.34351695 -0.45218724 -0.0152615085 -0.026365105 0.0043380945 -0.93516904
00000000: e052 0abf ab9a 9e3e 44da 15bf 4865 183f
00000010: 7d87 cc3e afe4 9ebe f259 4e3d 026a 4c3e
00000020: 6ab6 073f e7ea 923e 760e 84bb f5cb 2ebd
00000030: dc9c 763e 43be 833d c9e3 253f b453 873f
00000040: 1115 303f a552 983f 36d0 08bf 2046 0c3f
00000050: 5af6 9a3d 6b08 4b3e 072c 95bd 14df a23e
00000060: 2cc7 213e 497c f03d 1161 1e3e b70a b03e
00000070: 6ecf 4bbf 222c 2a3f a011 9ebd 48d2 ea3d
00000080: c957 813e b0e5 05be 7b12 cabd 27f2 51be
00000090: e38b 5dbe 7044 e1be 433f 363e 6573 2bbd
000000a0: ba9a a7bd da21 d63d b7a1 d1be 38d0 103e
000000b0: 43a1 38bf c20e 363e e027 913e e515 fd3d
000000c0: 1ce3 64be 8190 523d c7a2 30be e8e7 5abe
000000d0: 86d9 e2bc 8485 a43d 41e4 05be 11da 243e
000000e0: 7dd3 16bf 918d bd3e 5c94 15bf cdcf d93e
000000f0: dcc1 ef3c 2ef7 b6bd 235a 0e3e 9b12 773e
00000100: 2285 513e be83 9c3e ad3c 86be c73a 503e
00000110: 4ce7 c7bd d120 3e3e f977 ed3e 2621 813e
00000120: 64d3 0c3f 41b7 0a3e bdf9 153f e4fb 80bf
00000130: 1094 263f b95c bbbd 8ba7 1e3e 257a fc3e
00000140: 3641 313f 75cc 42be bb1e ad3e 2696 eb3e
00000150: a6c1 c8be e6e2 1f3e 2809 11bf 960c c03e
00000160: 708c d83e d4fc 8dbe d5a1 9d3e 801f fdbd
00000170: a2bf e3be 3357 553f df34 c4be d4be 113d
00000180: 4b07 5abe 496a 94bf ed4d 4d3f 167f bdbe
00000190: b994 5a3f e20f bebe 2f9f 6dbe ff7e 9ebe
000001a0: 4c14 553e d1f1 3ebe 9f59 22be 4705 1abf
000001b0: f71d 873e 6084 06be c5d8 0d3b 228f 38bf
000001c0: c099 683f 8367 02bf 9c04 703f 01a2 29bf
000001d0: ff37 6f3e 06df 9bbe b3f1 483e 1be9 93bf
000001e0: 9a89 903e 782b a6be c67d 3ebe 4dd6 a73e
000001f0: 85be ad3e 3aae ea3e 4c1a 893e 4220 34bf
00000200: 9a01 d13e 3b14 aebe cc03 48bd be7c ec3e
00000210: b875 6b3d 5728 91bc 08b5 7f3d 56af 69be
00000220: 5066 863a 2af0 53bd 5dd1 0ebc 40ca 91be
00000230: 6da6 933d d0d5 883d cb28 c7bd ae34 febc
00000240: fdaa 55bf 2898 88be d1b8 c63e d192 abbd
00000250: 9000 863f 56d2 ca3e 1af8 683e d349 233e
00000260: d244 aa3e 8816 dd3e dfea fbbe 15bf 82be
00000270: 410d efbd a31f 00be 9542 21bf 00a6 083f
00000280: f919 72be 72f4 d33e e287 013e 806d 2e3f
00000290: 9958 d6bc a5a3 56bf c7c7 a33c ccee 3cbf
000002a0: 590c 9cbf e436 0dbf ee22 a3bf efca f1be
000002b0: 56f7 fdbc e46f 123e bdb7 e5be 5384 65be
000002c0: 1750 16bf 5767 8ebf fb6a 85be f20a 06be
000002d0: 1085 00bf d51a 92bf a688 87be 6878 903d
000002e0: 0faf c2bd 0049 65b9 e8d1 dfbe 070d 833e
000002f0: e0dd a53e b2c7 97bf c9b3 f63e b5ba c1bf
00000300: c739 a1bd aacd ed3e 4d7e d73b 4918 503f
00000310: de76 4f3f 84b9 c3be 282b 2c3f 2f1b d7be
00000320: 06a4 233e 9e99 393e a6c9 863d 3fae 4c3e
00000330: 1ecf 923e 2200 ee3e 3a90 ab3e a5e3 72bf
00000340: 71f7 a13e 753d 63bf 017d b63e 973e 323f
00000350: c61d ac3e dee8 513f 1466 2f3e 7f6d 30bf
00000360: eef7 be3e 238c 3fbe 74e1 af3e 1685 e7be
00000370: 680b 7abc a2fb d7bc 9326 8e3b 3d67 6fbf

fc1.bias f4 [16]
-0.48650268 -0.060990047 0.68176234 0.9086142 0.3515941 0.52981687 0.44702235 -1.3124163
-0.18249823 -0.8762115 0.18205473 0.6498782 -0.06808583 0.471736 -0.040278398 -0.06894135
00000000: e116 f9be b3d0 79bd fa87 2e3f f19a 683f
00000010: 2404 b43e 14a2 073f 1de0 e43e 42fd a7bf
00000020: d1e0 3abe 664f 60bf 8e6c 3a3e 6b5e 263f
00000030: 9570 8bbd 6287 f13e f6fa 24bd 1f31 8dbd

fc2.weight f4 [8, 16]
-0.33421996 -0.40953007 -0.041866895 0.021550499 -0.15169099 0.48521206 0.09890632 0.477065
0.21882294 0.48559242 0.01424023 0.5978238 0.8911378 0.58648825 0.5120787 -0.6977656
0.007920099 0.8941653 -0.02233305 -0.33407065 -0.09358299 0.8477862 -0.07639329 0.24607219
0.26931912 -0.08271149 0.38899556 0.019290334 -0.054508146 0.10087347 0.34309563 -0.015042948
0.15904716 0.33592027 -0.53390926 -0.46698752 -0.349716 -0.2289396 -0.55760175 0.25454086
-0.95826364 0.5061474 0.03226791 0.009251368 -0.081389554 0.13382962 -1.1446272 0.47678164
-0.19332479 -0.20061293 0.10514675 -0.0068479367 0.047985077 -0.041756574 0.09284254 -0.38322005
-0.19392574 -0.22168045 -0.09050234 -0.21903086 -0.004522919 -0.20922793 -0.12246029 -0.23605475
-0.18835947 -0.4008188 -0.17641027 0.26529112 -0.17190686 -0.4871514 -0.48805004 -0.31380165
-0.7385153 -0.25213724 0.20015264 -0.63131255 -0.106340945 0.6897531 -0.07431795 0.04975172
-0.6180709 0.2277603 0.10279678 -0.117335215 -0.035271563 0.12042348 -0.31239355 -1.7801619
0.25260863 -0.04255096 -0.07219055 -0.20502941 0.07786529 -1.2022026 -0.11596021 0.20813502
0.026800409 -0.38108277 -1.0045891 -0.66743964 -0.23580498 0.043961104 -0.96207803 0.49525222
0.599518 0.06753977 0.57498586 -2.082123 -0.35439128 -1.8234849 0.5278892 0.6514111
0.22171277 0.15883003 0.52042973 0.50744426 0.60013175 0.005100008 0.43331072 -1.195628
-0.40288183 -0.25637397 0.1770789 0.09782877 0.5957765 -0.027786536 -0.50662225 0.08851867
00000000: e11e abbe edad d1be 9f7c 2bbd ac8a b03c
00000010: e254 1bbe b76d f83e 668f ca3d dd41 f43e
00000020: 1f13 603e 929f f83e db4f 693c fb0a 193f
00000030: 9b21 643f 1824 163f 9717 033f c4a0 32bf
00000040: 4ec3 013c 04e8 643f cdf3 b6bc 4f0b abbe
00000050: 70a8 bfbd 8408 593f 1674 9cbd 59fa 7b3e
00000060: 32e4 893e a464 a9bd 6d2a c73e c306 9e3c
00000070: ef43 5fbd c096 ce3d 3baa af3e b276 76bc
00000080: 42dd 223e befd ab3e 47ae 08bf fd18 efbe
00000090: fa0d b3be 246f 6abe fdbe 0ebf 2e53 823e
000000a0: c450 75bf e092 013f 5b2b 043d 0d93 173c
000000b0: 91af a6bd a20a 093e 2583 92bf b91c f43e
000000c0: eff6 45be 7a6d 4dbe 2e57 d73d a864 e0bb
000000d0: 008c 443d f108 2bbd 3b24 be3d 6b35 c4be
000000e0: 7894 46be 3300 63be 4a59 b9bd a049 60be
000000f0: ff34 94bb d93f 56be 76cc fabd 56b8 71be
00000100: 4ee1 40be 1f38 cdbe e5a4 34be 3dd4 873e
00000110: 5a08 30be e96b f9be b2e1 f9be 9caa a0be
00000120: 570f 3dbf 2218 81be d0f4 4c3e b39d 21bf
00000130: 48c9 d9bd a993 303f 0234 98bd 76c8 4b3d
00000140: e539 1ebf ff39 693e 1e87 d23d 724d f0bd
00000150: ea78 10bd 96a0 f63d 0cf2 9fbe 58dc e3bf
00000160: eb55 813e ea49 2ebd a4d8 93bd 3bf3 51be
00000170: d677 9f3d c6e1 99bf 8c7c edbd 5921 553e
00000180: 888c db3c 481d c3be 6096 80bf 53dd 2abf
00000190: dc76 71be 8f10 343d bf4a 76bf b391 fd3e
000001a0: 037a 193f 4a52 8a3d 4632 133f 8141 05c0
000001b0: c672 b5be f467 e9bf bf23 073f e1c2 263f
000001c0: ac08 633e 57a4 223e e23a 053f dee7 013f
000001d0: 3ca2 193f f81d a73b e7da dd3e 570a 99bf
000001e0: 8746 cebe 7343 83be 2c54 353e 735a c83d
000001f0: cf84 183f 97a0 e3bc ffb1 01bf 4749 b53d

fc2.bias f4 [8]
0.41230452 0.3305624 -0.9464357 -0.085529156 -0.26448023 0.6342111 0.29814723 0.4691868
00000000: 9419 d33e 7a3f a93e 9c49 72bf e929 afbd
00000010: f469 87be a95b 223f c1a6 983e 4139 f03e

fc3.weight f4 [2, 8]
0.03929698 0.6662106 0.45635062 0.11844037 -0.1351793 -0.4255922 0.6271802 -0.5529814
-0.5904499 0.224458 -0.48302516 0.018595155 0.39781007 0.5770563 -0.24467835 0.4614452
00000000: dff5 203d c78c 2a3f caa6 e93e dd90 f23d
00000010: 716c 0abe 39e7 d9be e28e 203f 3090 0dbf
00000020: ba27 17bf 51d8 653e 134f f7be de54 983c
00000030: c3ad cb3e f6b9 133f f68c 7abe 8c42 ec3e

fc3.bias f4 [2]
-0.043404814 -0.036228012
00000000: 3fc9 31bd d363 14bd

exp_avg f4 [16, 14]
2.2636134e-05 -1.8499559e-05 1.1032702e-05 -1.8991936e-05 1.9847457e-06 1.0807196e-05 5.1089966e-05 -0.000380914
-4.861544e-06 -8.432682e-05 6.563724e-05 -0.0002058261 -9.734301e-07 -2.584763e-05 -0.00010918571 -0.00023324252
-0.00012701236 -0.0002837963 -2.4210343e-05 -7.155829e-05 -0.00024042616 -0.0012468412 1.805679e-06 -0.00025098558
-0.00027754076 -0.0009812202 -1.0547544e-05 -0.00016775593 -0.00012307052 -0.000117951975 -0.00010720822 -7.2753464e-05
-2.05879e-06 -9.325585e-06 -0.00011709331 2.3063017e-06 1.4012262e-05 1.9362922e-05 -0.00012435496 -0.00011767923
-2.2653045e-05 -4.5969296e-05 -5.6603552e-05 -4.63293e-05 -9.578077e-05 -1.603183e-05 -7.951919e-06 1.6842258e-05
4.2871892e-05 -0.00016288398 1.3228815e-05 -4.1231597e-05 7.0719005e-05 -0.00026870644 4.3206214e-06 -6.5104075e-05
-0.0001324462 -0.00011701859 -0.00017105434 -0.00011414333 -1.0321268e-05 -7.1157656e-06 -6.956901e-05 -0.00056810473
-1.1372175e-05 -0.00014397 6.561023e-05 -0.0005557434 -1.21782905e-05 -0.00012199782 0.00011103471 5.249534e-05
0.000116490985 2.868418e-05 -2.3113203e-05 -7.38658e-06 8.114136e-05 7.522329e-05 -2.4444906e-05 3.5502522e-05
9.922773e-06 1.6714745e-05 -7.8567355e-06 -8.54728e-07 2.506144e-05 -6.359377e-06 -3.531814e-05 1.4492427e-05
5.2056384e-06 2.3340024e-06 -3.3868964e-05 6.4519954e-05 -1.6088068e-05 -1.8956518e-05 5.1424737e-05 7.98105e-05
5.610429e-06 3.1807944e-05 2.2937358e-05 5.5424243e-05 1.5337188e-05 3.7054662e-05 -2.433439e-05 1.356652e-05
4.095298e-05 3.2098e-05 1.0086968e-05 -1.341801e-05 2.2393408e-05 -2.2905042e-05 8.253381e-06 -7.325377e-06
6.729829e-05 5.0266033e-05 5.697916e-05 7.919465e-06 -5.957744e-06 -9.866009e-06 0.0001474786 5.380152e-05
2.615397e-06 -8.882742e-06 -8.543366e-05 0.0006086659 -1.9179992e-05 0.00013671152 -2.3959828e-06 3.03377e-06
4.0895866e-06 1.8727205e-06 -1.5373842e-06 8.101938e-07 1.0256425e-06 1.8983795e-06 -2.355257e-07 -1.6941823e-06
9.527317e-06 -5.360082e-06 -5.1888514e-06 1.1022023e-06 -4.243422e-06 -3.1547097e-05 -9.1972015e-06 -3.7374906e-05
2.2696106e-05 -8.076618e-06 -6.836164e-05 -0.0001737888 -2.17516e-05 -2.4401475e-05 -2.2517857e-05 -0.00039707666
1.0716125e-05 -6.7825196e-05 6.1755796e-05 8.531383e-05 0.000116849755 9.065473e-05 -4.772561e-05 4.8061224e-06
2.176374e-05 0.0007947192 -4.2217816e-06 0.00018906547 0.00017420886 3.698763e-05 8.2151455e-06 3.5190387e-05
2.4064593e-05 3.7908303e-05 1.6051916e-05 4.02285e-05 -1.672071e-05 4.3882983e-06 -1.6856393e-06 1.3629256e-05
3.7723603e-06 -6.9392047e-07 2.3968983e-05 -4.887188e-06 -9.896297e-07 -3.7769469e-06 0.00020569337 9.586204e-05
0.00019564347 0.000115136485 -5.06639e-07 3.366517e-05 0.00026684848 0.000113926486 -1.7305327e-05 1.2455226e-05
0.0004018329 0.00030986223 -9.747617e-06 0.00019413765 0.00019401581 5.8116882e-05 0.00023088815 6.156951e-05
-1.4683232e-05 -7.707014e-06 0.00014210734 0.0008137491 -2.0069125e-05 0.0002435913 0.0003090606 2.8008617e-07
3.0745614e-05 -3.4636705e-05 -0.00011285277 -0.00011595437 -0.00014208161 -0.00012047015 1.5240039e-07 -3.3616184e-06
-0.0002465539 -2.5793941e-05 -1.8281193e-05 -9.674721e-06 -0.00017522987 3.4856985e-05 -1.39867225e-05 1.7378197e-05
00000000: bae2 bd37 802f 9bb7 1819 3937 df50 9fb7
00000010: ac31 0536 8e50 3537 6f49 5638 69b5 c7b9
00000020: 5820 a3b6 9ed8 b0b8 baa6 8938 06d3 57b9
00000030: cea6 82b5 5dd3 d8b7 a2fa e4b8 9092 74b9
00000040: 9f2e 05b9 7fca 94b9 5117 cbb7 9011 96b8
00000050: e81a 7cb9 0c6d a3ba a85a f235 b796 83b9
00000060: e482 91b9 499c 80ba 5bf5 30b7 a4e7 2fb9
00000070: 7e0c 01b9 fc5c f7b8 fad4 e0b8 3893 98b8
00000080: be29 0ab6 1575 1cb7 fe8f f5b8 f6c5 1a36
00000090: 3516 6b37 8f6d a237 4865 02b9 8eca f6b8
000000a0: 0b07 beb7 28cf 40b8 9a69 6db8 b551 42b8
000000b0: e9dd c8b8 187c 86b7 3b69 05b7 7948 8d37
000000c0: 58d1 3338 d6cb 2ab9 54f1 5d37 17f0 2cb8
000000d0: fa4e 9438 2be1 8cb9 dbf9 9036 7c88 88b8
000000e0: 42e1 0ab9 e167 f5b8 0d5d 33b9 3c60 efb8
000000f0: 8229 2db7 f6c3 eeb6 94e5 91b8 ddec 14ba
00000100: 1fcb 3eb7 a7f6 16b9 3998 8938 4faf 11ba
00000110: 5c51 4cb7 15d9 ffb8 4edb e838 712e 5c38
00000120: 9f4c f438 cf9e f037 3ae3 c1b7 3dda f7b6
00000130: 702a aa38 32c1 9d38 090f cdb7 8be8 1438
00000140: fc79 2637 a436 8c37 6cd0 03b7 7670 65b5
00000150: 083b d237 a262 d5b6 9022 14b8 8024 7337
00000160: 18ac ae36 dba1 1c36 860e 0eb8 e34e 8738
00000170: ddf4 86b7 d004 9fb7 e4b0 5738 f05f a738
00000180: 3841 bc36 8569 0538 9a69 c037 5477 6838
00000190: 5ca8 8037 246b 1b38 b421 ccb7 c29b 6337
000001a0: edc4 2b38 f7a0 0638 333b 2937 ea1d 61b7
000001b0: 7ad9 bb37 3424 c0b7 0078 0a37 82cc f5b6
000001c0: 7f22 8d38 bed4 5238 e8fc 6e38 d8dd 0437
000001d0: a2e8 c7b6 3086 25b7 7ca4 1a39 f1a8 6138
000001e0: 2e84 2f36 1607 15b7 d92a b3b8 e18e 1f3a
000001f0: b8e4 a0b7 385a 0f39 acca 20b6 c697 4b36
00000200: 4839 8936 305a fb35 1e58 ceb5 187c 5935
00000210: cfa8 8935 d3cb fe35 d0e4 7cb4 a963 e3b5
00000220: 84d7 1f37 c1da b3b6 e51b aeb6 62ef 9335
00000230: b862 8eb6 7051 04b8 ae4d 1ab7 00c3 1cb8
00000240: 8463 be37 cf80 07b7 605d 8fb8 133b 36b9
00000250: 3577 b6b7 c5b1 ccb7 bbe4 bcb7 ba2e d0b9
00000260: 68c9 3337 603d 8eb8 e482 8138 84ea b238
00000270: 3c0d f538 e31d be38 fc2c 48b8 4744 a136
00000280: 4791 b637 b454 503a d4a8 8db6 e03f 4639
00000290: d6ab 3639 2a23 1b38 c8d3 0937 6499 1338
000002a0: 52de c937 bbff 1e38 3aa7 8637 06bb 2838
000002b0: 7443 8cb7 323f 9336 203e e2b5 35a9 6437
000002c0: a828 7d36 da45 3ab5 0011 c937 a0fc a3b6
000002d0: 6bd3 84b5 7477 7db6 65af 5739 8a09 c938
000002e0: a525 4d39 6e75 f138 f8ff 07b5 b333 0d38
000002f0: cce7 8b39 d1eb ee38 e82a 91b7 caf6 5037
00000300: 19ad d239 0175 a239 b289 23b7 6e91 4b39
00000310: b970 4b39 87c2 7338 911a 7239 e11e 8138
00000320: 0058 76b7 604d 01b7 a602 1539 c751 553a
00000330: 1e5a a8b7 8b6c 7f39 6909 a239 c05e 9634
00000340: daf4 0038 e146 11b8 5fab ecb8 872c f3b8
00000350: befb 14b9 eba4 fcb8 80a3 2334 2a98 61b6
00000360: e743 81b9 1160 d8b7 905a 99b7 9c50 22b7
00000370: e9bd 37b9 6733 1238 84a8 6ab7 65c7 9137

exp_avg_sq f4 [16, 14]
7.783602e-08 9.478909e-08 7.633115e-08 1.01094436e-07 2.6453328e-09 2.119653e-09 6.871277e-08 7.5364835e-07
1.6688889e-09 2.0602743e-08 9.4255874e-08 2.2975729e-07 1.6151392e-09 3.2939542e-09 1.1355768e-06 3.1235163e-07
1.0917486e-06 3.1025954e-07 2.039213e-08 1.1827228e-08 5.223132e-07 6.6055595e-06 2.0510218e-08 2.9249532e-07
5.9556e-07 5.798373e-06 1.7525482e-08 2.3785513e-07 2.4607874e-07 3.3347268e-07 2.7753015e-07 3.2599587e-07
1.1253661e-08 1.0513098e-08 4.1499538e-07 1.2287933e-06 8.207775e-09 3.2485538e-08 4.09855e-07 1.5503131e-06
6.9430928e-09 4.8202992e-08 7.271836e-07 7.4496353e-07 6.796032e-07 7.3884377e-07 2.3859846e-08 2.1324926e-08
7.550384e-07 4.01645e-06 1.8263147e-08 1.047516e-07 8.1143025e-07 4.794215e-06 1.5615303e-08 1.3790847e-07
1.3656451e-07 2.2567572e-07 1.3638211e-07 2.452359e-07 1.33409e-08 1.0034966e-08 1.6848453e-07 1.2687933e-06
1.0641756e-08 3.8032667e-08 1.8057035e-07 1.0353582e-06 9.980488e-09 3.023772e-08 1.7881511e-07 1.11631515e-07
1.7418351e-07 1.0332797e-07 1.005014e-08 5.7425544e-09 1.3793183e-07 6.9653123e-07 9.145269e-09 3.426575e-08
1.2974206e-07 5.8214505e-07 8.192464e-09 3.0960642e-08 1.2179481e-07 1.2176359e-07 1.07574856e-07 1.234019e-07
5.1502416e-09 4.3877098e-09 1.8747787e-07 6.7223567e-07 2.4492417e-09 2.3940208e-08 1.7354205e-07 3.6940736e-07
2.5858606e-09 5.4089253e-09 6.7518323e-07 2.065132e-07 6.6542236e-07 2.0997659e-07 2.1212657e-08 8.836924e-09
8.7322354e-07 1.0548478e-06 8.418034e-09 2.4945972e-08 9.005422e-07 1.091635e-06 7.91771e-09 2.8937341e-08
1.12772355e-07 4.5196582e-08 1.0705829e-07 4.361871e-08 4.3527697e-09 4.3962904e-09 1.03467464e-07 1.0256492e-07
5.997623e-09 3.681076e-09 1.16353974e-07 1.4669488e-06 7.575955e-09 7.046783e-08 2.3878795e-07 1.8161207e-07
2.433844e-07 2.0337336e-07 7.475886e-09 4.521321e-09 2.3137117e-07 8.0078877e-07 3.4794265e-09 1.4230764e-08
2.5845443e-07 5.838479e-07 3.7800643e-09 1.1090787e-08 9.2265545e-08 1.314049e-07 8.842645e-08 1.2885332e-07
3.5078969e-09 4.3188644e-09 1.151766e-07 6.4359114e-07 2.7728464e-09 2.5943153e-08 1.7325962e-07 1.0183975e-06
4.309091e-09 3.8754973e-08 2.3029338e-07 1.3743109e-07 2.3841669e-07 1.2596779e-07 1.0165815e-08 7.761256e-09
1.1514399e-07 8.7143553e-07 1.294316e-08 5.026643e-08 1.4224258e-07 3.235688e-07 1.0972853e-08 8.325629e-09
6.7984693e-09 4.2190926e-08 7.882763e-09 4.1975643e-08 1.5603507e-09 1.1147907e-09 2.2369791e-08 7.3728145e-08
1.0450836e-09 6.3570743e-10 7.204147e-08 9.426027e-08 1.994088e-09 8.9253216e-10 2.4634375e-07 1.2843068e-07
2.2519833e-07 1.2625169e-07 9.1076435e-09 7.729405e-09 1.8061534e-07 2.2838762e-07 7.699123e-09 5.0894813e-09
1.4861797e-07 8.8467743e-07 1.0488831e-08 5.004441e-08 2.9077964e-07 1.0304616e-07 2.9305338e-07 9.4896286e-08
1.0265921e-08 6.754756e-09 1.9062429e-07 1.7862593e-06 1.4777362e-08 1.0282636e-07 2.091494e-07 4.0721238e-07
1.1070022e-08 1.4732639e-08 1.4204282e-07 1.469142e-07 1.4065206e-07 1.4852652e-07 3.9388146e-09 3.85356e-09
1.5953893e-07 4.562265e-07 2.9286353e-09 8.25651e-09 2.595044e-07 5.010711e-07 6.3615517e-09 6.397894e-09
00000000: ce26 a733 da8e cb33 7eeb a333 4119 d933
00000010: 30c9 3531 54a9 1131 3f8f 9333 524e 4a35
00000020: cf5e e530 e9f9 b032 b769 ca33 34b3 7634
00000030: a9fb dd30 db5b 6231 1f6a 9835 48b1 a734
00000040: 3288 9235 bf91 a634 c52a af32 b330 4b32
00000050: 1735 0c35 53a5 dd36 722e b032 4008 9d34
00000060: 92de 1f35 a58f c236 f18a 9632 1f65 7f34
00000070: ce1c 8434 2308 b334 74ff 9434 8804 af34
00000080: 2056 4132 189d 3432 88cc de34 04ed a435
00000090: 2d02 0d32 3a86 0b33 0b0a dc34 5a14 d035
000000a0: 1790 ee31 c007 4f33 ad33 4335 81f9 4735
000000b0: fa6d 3635 f554 4635 5bf4 cc32 022e b732
000000c0: d8ad 4a35 0bc5 8636 16e1 9c32 cdf3 e033
000000d0: 10d1 5935 fedd a036 6a22 8632 fe13 1434
000000e0: 91a2 1234 4551 7234 6e70 1234 f7a8 8334
000000f0: e631 6532 3f66 2c32 ade8 3434 684b aa35
00000100: f0d2 3632 5c59 2333 cde2 4134 a3f6 8a35
00000110: a776 2b32 bade 0133 5300 4034 13ba ef33
00000120: 3307 3b34 27e5 dd33 fca8 2c32 0b50 c531
00000130: 6a1a 1434 43f9 3a35 521d 1d32 972b 1333
00000140: 3a4f 0b34 b444 1c35 d6be 0c32 96f9 0433
00000150: b4c6 0234 1fbe 0234 e703 e733 7580 0434
00000160: 01f6 b031 b4c2 9631 864d 4934 af73 3435
00000170: 844f 2831 13a5 cd32 e056 3a34 f652 c634
00000180: f1b2 3131 69d9 b931 3d3e 3535 ebbd 5d34
00000190: 7a9f 3235 ed75 6134 2037 b632 34d1 1732
000001a0: 7767 6a35 4b94 8d35 e89e 1032 c648 d632
000001b0: cabc 7135 4b84 9235 7506 0832 e391 f832
000001c0: 422d f233 2b1e 4233 ebe7 e533 4757 3b33
000001d0: 5e8f 9531 2e0e 9731 d731 de33 a941 dc33
000001e0: a613 ce31 2df6 7c31 46de f933 fae3 c435
000001f0: 6727 0232 1954 9733 c432 8034 2501 4334
00000200: 7faa 8234 d85e 5a34 4b6f 0032 f659 9b31
00000210: d36e 7834 c9f5 5635 b81a 6f31 907b 7432
00000220: b5c1 8a34 b9b9 1c35 cce1 8131 cc89 3e32
00000230: 8523 c633 4e18 0d34 f4e4 bd33 ee5a 0a34
00000240: 930f 7131 2265 9431 0157 f733 3fc3 2c35
00000250: 6e8c 3e31 99d9 de32 3e09 3a34 dfaf 8835
00000260: 2a0f 9431 8b73 2633 9046 7734 c590 1334
00000270: 7bff 7f34 c341 0734 baa5 2e32 5d56 0532
00000280: 1445 f733 98ec 6935 9f5c 5e32 86e4 5733
00000290: 58bb 1834 f5b6 ad34 1e83 3c32 8108 0f32
000002a0: f897 e931 6a35 3533 c26c 0732 b548 3433
000002b0: f673 d630 3637 9930 b127 c032 7a54 9e33
000002c0: 9ca2 8f30 efbd 2e30 38b5 9a33 226c ca33
000002d0: 5e08 0931 5e56 7530 3a41 8434 c2e6 0934
000002e0: 0cce 7134 cd8f 0734 d777 1c32 48ca 0432
000002f0: 2bef 4134 b63a 7534 1a45 0432 8ddf ae31
00000300: cc93 1f34 927a 6d35 5e32 3432 69f0 5633
00000310: 731c 9c34 3a4a dd33 f354 9d34 c9c9 cb33
00000320: ff5d 3032 7617 e831 68ae 4c34 67bf ef35
00000330: 86df 7d32 64d1 dc33 8d92 6034 d89e da34
00000340: 792e 3e32 d51a 7d32 6f84 1834 78bf 1d34
00000350: 2506 1734 a97a 1f34 2e56 8731 4668 8431
00000360: ba4d 2b34 4bef f434 1941 4931 84d8 0d32
00000370: 0352 8b34 5881 0635 cd94 da31 79d4 db31

exp_avg f4 [16]
-6.614586e-05 -0.00097499427 -0.0005329683 -0.00029993878 -0.00064908364 0.00044639234 -8.9702735e-07 1.0798685e-05
0.0003792253 -2.887041e-06 -0.00021025992 0.0006919885 1.9864558e-05 0.00091399235 0.0009699675 -0.00065582164
00000000: cab7 8ab8 c296 7fba e6b6 0bba 1a41 9db9
00000010: 4427 2aba c409 ea39 40cb 70b5 002c 3537
00000020: c2d2 c639 fdbe 41b6 3879 5cb9 9066 353a
00000030: d0a2 a637 fd98 6f3a 6b45 7e3a 72eb 2bba

exp_avg_sq f4 [16]
9.690405e-08 3.2339367e-06 7.177454e-07 1.5275015e-06 6.7373753e-07 4.8325563e-07 1.7395536e-07 2.7143432e-07
3.4874776e-07 1.9190365e-07 4.3297595e-07 4.6936668e-07 3.39927e-08 5.5822323e-07 9.828631e-07 1.9289553e-07
00000000: 9119 d033 9c06 5936 17ab 4035 8d04 cd35
00000010: e4da 3435 13b9 0135 7cc8 3a34 a6b9 9134
00000020: 873b bb34 130e 4e34 c373 e834 44fd fb34
00000030: 5eff 1133 cfd8 1535 ebea 8335 b81e 4f34

exp_avg f4 [8, 16]
0.00022182296 0.0013203977 0.00068833877 0.0012081122 0.0010596907 0.0014562727 0.00054410525 1.902626e-05
0.00045740494 2.6884727e-06 0.0007340099 0.0012447191 -4.689961e-05 0.0011704796 0.00067094405 0.00031455906
-0.00013693908 -0.00041711214 -0.00016604943 -0.0004165053 -0.0004938693 -0.00032731798 -0.00015601228 -6.136106e-07
-0.00014017965 -4.4513467e-06 -0.0003226305 -0.00044928427 3.856689e-05 -0.00045621948 -0.00016267132 3.6384943e-05
1.274209e-11 1.7717133e-05 2.2911802e-06 1.1794078e-06 2.2112488e-06 1.0166296e-05 1.3074115e-06 1.5398621e-08
5.596608e-07 4.0081174e-21 2.6860582e-06 1.860742e-12 4.256019e-22 2.0224554e-06 2.0172097e-08 1.0460735e-05
-1.0767152e-08 -8.5085845e-13 -9.397596e-08 -2.3985578e-07 -2.1403785e-07 -3.2976896e-11 -2.86753e-07 6e-45
8.9748806e-21 6e-45 -5.792851e-11 -9.96118e-08 -3.300241e-07 -4.011873e-13 -7.42608e-20 -1.2032546e-12
-6.8004456e-06 -0.00012639361 -4.1139145e-05 -0.00013858374 -0.00016131157 -1.1599831e-05 9.704735e-06 -3.0391725e-09
-0.00010528292 -1.22647945e-08 -0.00010948919 -3.1966465e-06 -9.80021e-06 -0.0002784755 1.4653739e-07 -7.3084216e-06
-2.9823024e-05 -0.00068957766 -0.00038574607 -0.00042972327 -0.00015843095 -0.0009157883 -0.00016342959 1.0251008e-06
-1.9755133e-05 9.805701e-07 -0.00017734228 -0.00066349295 1.9436045e-05 -2.2492613e-05 -0.0005761356 -0.00017789788
-1.6085176e-07 -5.7595953e-06 -1.1362827e-06 -3.1298848e-06 -3.0858307e-06 3.476635e-05 4.7346475e-06 1.1859311e-06
-4.503707e-05 -2.665229e-06 -3.7571708e-06 8.5299394e-07 1.946707e-06 -4.4742297e-05 2.5991503e-05 1.6970025e-06
-0.00016666365 -0.0012354733 -0.00066495704 -0.0009972347 -0.0008094769 -0.0012110729 -0.000506985 -3.107656e-06
-0.0003875295 -8.484885e-07 -0.00048170553 -0.00094940024 -8.9560934e-05 -0.0008652247 -0.0005687145 -0.00039632505
00000000: 2699 6839 3211 ad3a a271 343a 8559 9e3a
00000010: 52e5 8a3a 67e0 be3a 49a2 0e3a 959a 9f37
00000020: dacf ef39 9c6b 3436 926a 403a d825 a33a
00000030: 13b6 44b8 c76a 993a 4be2 2f3a 67eb a439
00000040: 4e97 0fb9 d8af dab9 8e1d 2eb9 655e dab9
00000050: 0277 01ba e09b abb9 3a97 23b9 00b7 24b5
00000060: 30fd 12b9 c75c 95b6 bc26 a9b9 ea8d ebb9
00000070: e2c2 2138 be30 efb9 c092 2ab9 099c 1838
00000080: 4629 602d 419f 9437 2dc2 1936 254c 9e35
00000090: f764 1436 e98f 2a37 517a af35 ed45 8432
000000a0: 993b 1635 226c 971d 2142 3436 26f0 022c
000000b0: 5aa1 001c 85b9 0736 e946 ad32 8480 2f37
000000c0: 6ffa 38b2 d07e 6fab d5cf c9b3 87c5 80b4
000000d0: 47d2 65b4 af08 11ae 08f3 99b4 0400 0000
000000e0: dc87 291e 0400 0000 b4c5 7eae 2bea d5b3
000000f0: 2b2e b1b4 2fd9 e1aa e657 af9f d157 a9ab
00000100: 622f e4b6 8788 04b9 d28c 2cb8 ca50 11b9
00000110: bf25 29b9 e59c 42b7 85d1 2237 b0d9 50b1
00000120: 56cb dcb8 23b5 52b2 909d e5b8 f885 56b6
00000130: 956b 24b7 5900 92b9 e457 1d34 dd3a f5b6
00000140: 752c fab7 c6c4 34ba f63d cab9 7b4c e1b9
00000150: 7c20 26b9 8311 70ba 4c5e 2bb9 3296 8935
00000160: d3b7 a5b7 229c 8335 f5f4 39b9 42ee 2dba
00000170: 970a a337 85ae bcb7 ce07 17ba 198a 3ab9
00000180: 98b6 2cb4 8c42 c1b6 6082 98b5 030b 52b6
00000190: 2b16 4fb6 16d2 1138 50de 9e36 482c 9f35
000001a0: 30e6 3cb8 49dc 32b6 b423 7cb6 4cf9 6435
000001b0: 2ca4 0236 ada9 3bb8 5408 da37 90c4 e335
000001c0: 6fc2 2eb9 9bef a1ba 8350 2eba a5b5 82ba
000001d0: 1333 54ba ddbc 9eba 30e7 04ba 208d 50b6
000001e0: 542d cbb9 b0c3 63b5 6c8d fcb9 2ce1 78ba
000001f0: a9d2 bbb8 3fd0 62ba c915 15ba d9c9 cfb9

exp_avg_sq f4 [8, 16]
1.4029162e-07 4.525153e-06 6.5267244e-07 2.0731713e-06 5.150447e-07 3.0794936e-06 4.010713e-07 6.7950964e-07
2.1700882e-06 7.432124e-07 1.3150567e-06 2.9462435e-06 8.4041616e-08 3.8214193e-06 2.169625e-06 9.9388146e-08
1.645695e-07 8.982767e-06 3.7801783e-07 1.4749025e-06 4.986458e-07 1.8168263e-06 2.5891148e-07 2.8593152e-07
1.358318e-06 3.9148617e-07 1.4510013e-06 2.860107e-06 3.3778687e-07 2.7698015e-06 1.0800987e-06 7.1152806e-07
9.444898e-08 9.477627e-06 5.42945e-08 1.07227926e-07 7.656662e-08 4.4346214e-07 3.4217575e-08 5.495272e-08
3.8422066e-08 3.4036e-07 6.673116e-07 7.570299e-07 1.5027857e-07 1.1001879e-07 3.212063e-08 9.668692e-07
1.9815754e-08 7.186236e-09 1.3451383e-08 1.8104604e-08 1.5220753e-08 1.4726077e-08 5.3297797e-09 5.5434493e-09
1.9040456e-07 3.0329478e-08 8.657168e-09 5.6020983e-09 3.0508398e-09 1.316788e-09 9.215313e-08 3.261562e-09
5.2592286e-09 1.0551276e-07 6.130873e-08 1.3279359e-07 6.028829e-08 4.096305e-08 1.3535392e-08 9.057838e-11
5.8385307e-08 3.5226597e-09 1.0082791e-07 1.3972042e-08 3.2833494e-08 5.3318803e-07 9.052712e-09 3.2840955e-08
2.5455781e-08 8.556303e-06 3.2581445e-07 4.50863e-07 1.6986066e-07 8.061731e-07 1.066119e-07 7.785267e-09
3.767113e-08 1.7497834e-07 6.729596e-07 9.70514e-07 6.902837e-08 3.2571087e-08 8.360003e-08 5.428764e-07
7.223293e-11 1.2374714e-07 5.346456e-09 1.3779424e-08 1.11334675e-08 8.1988915e-08 2.7232496e-09 6.029168e-07
9.5210754e-07 6.256413e-07 2.0895833e-08 2.0896996e-08 2.974618e-10 3.0421756e-08 8.6956226e-07 3.5522e-08
4.1891295e-07 1.7679176e-05 1.406085e-06 3.1007903e-06 1.0434128e-06 3.4907075e-06 4.0585954e-07 3.0765985e-08
1.0136686e-06 4.6602605e-07 3.032733e-06 3.7856905e-06 7.1053927e-07 3.262644e-06 8.182546e-07 2.0555922e-06
00000000: 11a3 1634 c5d6 9736 4f33 2f35 d020 0b36
00000010: 9a41 0a35 4ca9 4e36 d252 d734 8c67 3635
00000020: d5a1 1136 2b81 4735 0181 b035 14b8 4536
00000030: 5e7a b433 be39 8036 e099 1136 366f d533
00000040: 85b4 3034 b1b4 1637 60f2 ca34 44f5 c535
00000050: aeda 0535 add9 f335 8600 8b34 2182 9934
00000060: 734f b635 732d d234 06c0 c235 44f0 3f36
00000070: 1359 b534 d4e0 3936 e9f7 9035 d6ff 3e35
00000080: e0d3 ca33 1902 1f37 6f31 6933 2d45 e633
00000090: f26c a433 f914 ee34 9ff6 1233 2805 6c33
000000a0: 8205 2533 b9ba b634 4e21 3335 b336 4b35
000000b0: 425c 2134 7843 ec33 02f5 0933 5fc5 8135
000000c0: 4e37 aa32 cdea f631 cf17 6732 7284 9b32
000000d0: cabe 8232 f9fd 7c32 3d21 b731 b278 be31
000000e0: 0272 4c34 9d43 0233 a1ba 1432 947c c031
000000f0: f1a6 5131 5cfa b430 b8e5 c533 0122 6031
00000100: aab4 b431 4196 e233 d5a8 8333 0696 0e34
00000110: d777 8133 5aef 2f33 4989 6832 182f c72e
00000120: 53c3 7a33 4913 7231 bb86 d833 b109 7032
00000130: cf04 0d33 6720 0f35 4086 1b32 030d 0d33
00000140: dba9 da32 0b8d 0f37 99eb ae34 240e f234
00000150: f162 3634 cb67 5835 83f2 e433 f7bf 0532
00000160: d8cb 2133 aee1 3b34 6ea5 3435 9b42 8235
00000170: bf3c 9433 4ae4 0b33 9a87 b333 2fba 1135
00000180: 86d7 9e2e 5bdf 0434 edb3 b731 8cba 6c32
00000190: 8245 3f32 e211 b033 ea23 3b31 21d8 2135
000001a0: 5594 7f35 bef1 2735 6c7e b332 fb80 b332
000001b0: 0788 a32f 13a9 0233 dd6b 6935 da90 1833
000001c0: f5e6 e034 be4d 9437 b6b8 bc35 2c17 5036
000001d0: 640b 8c35 e641 6a36 e9e4 d934 8f23 0433
000001e0: 630d 8835 2232 fa34 f585 4b36 ab0d 7e36
000001f0: e3bb 3e35 ccf3 5a36 07a6 5b35 cef2 0936

exp_avg f4 [8]
0.0014697387 -0.00037257845 4.587161e-06 -9.9013285e-08 -9.012346e-05 -0.0006810723 -4.2109514e-07 -0.00124723
00000000: 3fa4 c03a a256 c3b9 6aeb 9936 21a1 d4b3
00000010: aa00 bdb8 fd89 32ba e012 e2b4 187a a3ba

exp_avg_sq f4 [8]
4.0335094e-06 3.0579185e-06 5.354798e-07 1.2845241e-07 1.3551218e-07 9.116067e-07 2.150406e-07 7.2514063e-06
00000000: 9557 8736 a436 4d36 e4bd 0f35 bbec 0934
00000010: 4e81 1134 23b5 7435 e9e5 6634 1b51 f336

exp_avg f4 [2, 8]
0.00016109768 0.00053684914 2.167135e-07 -9.207504e-08 -5.355825e-05 0.00013498531 8.1885955e-05 0.00036351293
-0.0042316504 -0.005181037 -1.6180908e-06 2.7269176e-09 -0.00011321231 -0.00032867843 -8.01857e-05 -0.004246282
00000000: 54ec 2839 56bb 0c3a c1b1 6834 caba c5b3
00000010: bca3 60b8 d88a 0d39 30ba ab38 e195 be39
00000020: a8a9 8abb b0c5 a9bb 2d2d d9b5 7164 3b31
00000030: 656c edb8 7952 acb9 5f29 a8b8 6524 8bbb

exp_avg_sq f4 [2, 8]
1.2917481e-05 4.009255e-05 5.692797e-06 9.530131e-07 7.8191636e-07 2.3120826e-06 4.960433e-06 1.8124512e-05
3.578175e-05 8.602334e-05 5.9997483e-06 7.358329e-07 7.531051e-07 1.303865e-06 1.1362879e-05 2.477104e-05
00000000: 29b8 5837 0c29 2838 c104 bf36 90d2 7f35
00000010: e2e4 5135 4729 1b36 cc71 a636 180a 9837
00000020: 5d14 1638 6e67 b438 7251 c936 0d86 4535
00000030: fd28 4a35 7600 af35 32a3 3e37 67cb cf37

exp_avg f4 [2]
0.00026305567 -0.0024926218
00000000: bcea 8939 415b 23bb

exp_avg_sq f4 [2]
3.1570005e-05 5.170368e-05
00000000: 096a 0438 67dc 5838

fc1.weight f4 [32, 20]
-0.34784046 0.000564069 0.5598595 -0.38170284 0.041192893 0.20641339 -0.3019618 0.33873
0.03471434 -0.1629133 -0.16847178 -0.3260493 -0.11115217 -0.016409801 0.06429191 -0.054583106
-0.006385698 0.025507668 0.019030754 0.0028259135 -0.19721623 0.044642143 -1.2607514 0.52843904
-0.29271367 0.07874049 -0.08972717 0.18029131 0.014316864 0.2668083 -0.18419851 0.018579345
-0.1507089 -0.083386905 -0.013661334 0.00020894052 -0.001920424 -0.0025721218 -7.772687e-05 0.0046971296
-0.08159046 -0.40020707 0.6497694 -0.992687 -0.029209478 0.108072504 -0.3844722 -0.029467393
-0.24249753 -0.06926034 -0.102445826 0.37433106 -0.2451347 0.12275663 0.013955451 -0.00953335
-0.009418179 0.0016804559 0.0050827023 0.002643226 0.2083033 0.06697917 0.1318168 -1.2074964
-0.006224219 -0.17952256 -0.0002038765 -0.031580497 0.1506018 0.11656262 0.03705448 0.20732932
-0.17998943 -0.05831557 0.0045291944 -0.02081855 -0.00408705 -0.0016771158 0.0019823655 0.01078826
0.44128782 0.084492214 0.47628298 -0.36791733 -0.12798512 -0.78592837 0.19222137 -0.086857505
-0.3255142 -0.24572146 0.172262 -0.8617115 0.012003498 -0.4551661 0.1162753 0.06752184
-0.023357384 -0.10159301 0.11702831 -0.017255852 -0.41124377 0.08667488 -0.005430513 -0.62717086
0.12940978 -0.064737804 -0.39579982 -0.18709315 -0.22440659 -0.087386146 -0.28621054 -0.15038213
0.22814655 -0.35329178 0.017787838 0.0031665124 0.01668009 0.019644938 -0.035818636 -0.006012913
0.062246904 -0.0960519 -1.0219395 -1.3764539 -0.20774889 -0.06810299 -0.019410906 -0.059549514
0.04160456 -0.12508331 -0.10868375 -0.092109 0.059303164 0.028572472 -0.018268935 -0.016455239
-0.0019537164 -0.0003788444 -0.0013122436 -0.0055221715 -0.113375306 -0.096384436 2.8159142 0.6113577
0.32612255 0.03602679 -0.021208543 -0.013677085 0.13992804 -0.07272852 0.03986619 0.21211602
-0.019340983 0.049909137 0.038409706 0.012500636 0.0009974126 -0.002152992 0.0078096874 0.00714601
-0.1785491 0.23674609 0.041363493 0.5120444 0.050001025 0.12533282 -0.3624952 0.07165681
-0.09319105 -0.024220873 -0.010804343 -0.61882573 0.19014062 0.12442373 -0.015562624 0.081348665
0.0075659812 0.0061115534 -0.0070031434 -0.014837409 0.43379614 -0.03546459 -0.36251688 -1.0806383
-0.1825966 -0.32963875 0.1617252 0.10482899 -0.06627982 0.028029904 0.1328552 -0.014510477
-0.13072781 0.09066356 -0.004370432 -0.016989483 -0.005238148 0.0005141812 0.0037906745 0.0033251164
-0.08927116 0.015952436 0.75110584 -0.28150943 0.0016060367 0.19878161 -0.093497105 0.2142026
0.21150659 0.24255858 -0.3350016 -0.2885554 0.018966353 0.13816781 -0.12369902 0.028678635
0.0004703073 0.11500458 -0.10362705 -0.013764708 0.18978755 -0.07243731 1.882152 -0.32470196
0.26370636 -0.11845611 -0.06168711 -0.0421303 0.15185557 -0.047694445 0.032344203 0.14949101
0.04407596 0.096962966 0.01268318 0.0040674754 -0.0020856606 0.007025177 -0.004447116 0.005544629
-0.010933653 0.07824134 -0.98203903 0.5009702 -0.21353821 0.009560185 -0.0077192523 0.05119205
0.21622483 0.22983679 0.024809176 0.02485459 -0.0629979 0.18638049 -0.1476326 0.04374005
00000000: 2518 b2be 08de 133a f452 0f3f 8e6e c3be
00000010: e1b9 283d 085e 533e bd9a 9abe 056e ad3e
00000020: a030 0e3d bed2 26be de83 2cbe efef a6be
00000030: c0a3 e3bd d96d 86bc 7aab 833d 8992 5fbd
00000040: 1e3f d1bb 75f5 d03c 62e6 9b3c f632 393b
00000050: 0df3 49be aeda 363d 4d60 a1bf c847 073f
00000060: 91de 95be b242 a13d e1c2 b7bd 499e 383e
00000070: 4891 6a3c 199b 883e 899e 3cbe b633 983c
00000080: 6f53 1abe c1c6 aabd cad3 5fbc 0b17 5b39
00000090: bdb6 fbba 0b91 28bb 4c01 a3b8 61ea 993b
000000a0: e618 a7bd f1e7 ccbe 4a57 263f bc20 7ebf
000000b0: b748 efbc 1e55 dd3d 8ad9 c4be 9a65 f1bc
000000c0: 4651 78be 5dd8 8dbd 1ecf d1bd 52a8 bf3e
000000d0: 9704 7bbe d467 fb3d 67a5 643c c531 1cbc
000000e0: b54e 1abc be42 dc3a cc8c a63b f939 2d3b
000000f0: 764d 553e 602c 893d fcfa 063e 3e8f 9abf
00000100: 89f4 cbbb c3d4 37be aec7 55b9 8d5a 01bd
00000110: 5c37 1a3e 62b8 ee3d 70c6 173d 234e 543e
00000120: 264f 38be 4fdc 6ebd a369 943b aa8b aabc
00000130: a9ec 85bb abd2 dbba 93ea 013b 3ec1 303c
00000140: 7af0 e13e 410a ad3d 5ddb f33e a95f bcbe
00000150: 880e 03be 9a32 49bf aed5 443e 59e2 b1bd
00000160: cca9 a6be 689e 7bbe 7365 303e 2099 5cbf
00000170: 52aa 443c 880b e9be bf21 ee3d e448 8a3d
00000180: fc57 bfbc ff0f d0bd 8aac ef3d 255c 8dbc
00000190: 8b8e d2be 9982 b13d 72f2 b1bb 458e 20bf
000001a0: ff83 043e 4195 84bd 46a6 cabe 5995 3fbe
000001b0: d7ca 65be 82f7 b2bd 308a 92be c6fd 19be
000001c0: 409f 693e a9e2 b4be cdb7 913c 4385 4f3b
000001d0: afa4 883c 6cee a03c 90b6 12bd f807 c5bb
000001e0: 9cf6 7e3d dcb6 c4bd eace 82bf a42f b0bf
000001f0: 20bc 54be 9579 8bbd 9f03 9fbc 31ea 73bd
00000200: 8b69 2a3d d715 00be 9695 debd a5a3 bcbd
00000210: e0e7 723d d110 ea3c bca8 95bc 23cd 86bc
00000220: ec09 00bb a29f c6b9 97ff abba 55f3 b4bb
00000230: 5031 e8bd 3465 c5bd f037 3440 f081 1c3f
00000240: 89f9 a63e d490 133d 8abd adbc da15 60bc
00000250: 4c49 0f3e b1f2 94bd bb4a 233d f134 593e
00000260: fb70 9ebc 866d 4c3d 7f53 1d3d 78cf 4c3c
00000270: 9dbb 823a 3619 0dbb 68e8 ff3b 1429 ea3b
00000280: 93d5 36be 916d 723e c46c 293d 5815 033f
00000290: e0cd 4c3d 3f57 003e f998 b9be cec0 923d
000002a0: f3da bebd da6a c6bc b304 31bc 5d6b 1ebf
000002b0: 39b4 423e ded1 fe3d 60fa 7ebc 219a a63d
000002c0: 0dec f73b 6d43 c83b a07a e5bb 9b18 73bc
000002d0: 871a de3e 5143 11bd d09b b9be 5b52 8abf
000002e0: 9afa 3abe 69c6 a8be 4a9b 253e 95b0 d63d
000002f0: b7bd 87bd f89e e53c 320b 083e 5abd 6dbc
00000300: 83dd 05be d1ad b93d d735 8fbb 872d 8bbc
00000310: c5a4 abbb 1eca 063a f76c 783b 32ea 593b
00000320: ccd3 b6bd afae 823c 7948 403f 0122 90be
00000330: a681 d23a 688d 4b3e 697b bfbd ed57 5b3e
00000340: 2f95 583e 4761 783e 5485 abbe 89bd 93be
00000350: 535f 9b3c dd7b 0d3e e955 fdbd 75ef ea3c
00000360: 9493 f639 8587 eb3d 6b3a d4bd 5f85 61bc
00000370: ab57 423e 035a 94bd 5bea f03f 563f a6be
00000380: 8504 873e 1e99 f2bd a0ab 7cbd d290 2cbd
00000390: 0780 1b3e 405b 43bd 5b7b 043d 2c14 193e
000003a0: fe88 343d 8594 c63d 1dcd 4f3c 7548 853b
000003b0: 94af 08bb 7533 e63b 1db9 91bb b8af b53b
000003c0: 1123 33bc ff3c a03d e966 7bbf 953f 003f
000003d0: c3a9 5abe 52a2 1c3c c8f1 fcbb c1ae 513d
000003e0: 0b6a 5d3e 565a 6b3e 9d3c cb3c da9b cb3c
000003f0: 0b05 81bd 87da 3e3e 002d 17be c428 333d

fc1.bias f4 [32]
0.28806737 -0.68574 -0.3306904 -0.3165279 0.009786118 1.117624 -0.994393 -0.45636293
-1.3047814 -0.53621536 0.83435625 -0.13493018 -0.23019761 -0.5746741 -1.1965592 -0.47253934
0.61011523 -1.4237713 1.8547992 -0.6714183 -1.0898807 -0.34883597 0.54291415 -0.72582096
0.20314072 -0.45330375 -0.6903234 0.6113188 -0.8547333 -0.3737285 0.21338476 -0.41027558
00000000: 917d 933e a88c 2fbf 4150 a9be f20f a2be
00000010: f455 203c 4e0e 8f3f 8a90 7ebf 67a8 e9be
00000020: 1403 a7bf 6945 09bf 5f98 553f 232b 0abe
00000030: ecb8 6bbe d81d 13bf da28 99bf adf0 f1be
00000040: 8330 1c3f 233e b6bf 0f6a ed3f 12e2 2bbf
00000050: 3681 8bbf a19a b2be 6cfc 0a3f 67cf 39bf
00000060: 1f04 503e 6e17 e8be 09b9 30bf 647f 1c3f
00000070: cdcf 5abf 5859 bfbe 8981 5a3e a40f d2be

fc2.weight f4 [16, 32]
-0.09885246 0.5916231 0.12682886 0.46264437 0.020257989 0.26184544 1.018482 0.8766031
0.018446874 0.33096948 -0.25835648 0.48445308 0.14540367 0.446516 1.0347195 0.5588116
0.07310256 1.1943784 0.25306943 0.35602504 0.82168263 0.3874364 0.05400788 0.780941
0.07067281 0.39834446 1.0502847 -0.18299839 0.780915 -0.015552027 -0.06984869 0.5834783
-0.106782705 0.7371015 0.43720672 0.59825087 -0.29361567 0.11995345 1.0927727 1.1972327
0.2751121 0.5693106 -0.08002223 0.5058615 0.048131984 0.49714175 0.81590974 0.7181177
-0.055904046 1.3897958 -0.012410298 0.17439508 0.9538892 0.551422 0.29331756 0.8321514
0.10963626 0.42230502 1.2723712 -0.109488145 0.72674924 0.056433715 -0.04094256 0.72863394
0.049837302 0.07753423 -0.23091315 0.06610244 -0.14449184 -0.08843956 0.07470332 0.003374802
-0.0010046337 0.038838256 -0.052489404 0.033448644 0.07207026 -0.049841244 -0.010346596 -0.11047769
-0.1245519 -0.1160506 -0.096447445 -0.20700204 -0.1909473 -0.033368457 -0.1752482 -0.15826473
-0.053888265 -0.15357871 0.083086334 -0.12016778 -0.13142972 -0.09523396 -0.1999048 0.018946283
0.06590293 -0.11224366 -0.1233824 0.08032649 -0.079629086 -0.015709233 -0.14450994 -0.074424624
8.248481e-21 -0.12708429 1.3476352e-11 -0.016555702 -0.04028839 -0.03101145 0.010668677 0.082343824
-2.0532796e-05 -0.09575215 -0.13062696 0.072420515 -0.0025402142 0.00018319016 -0.018799592 0.016911183
-0.006259811 0.0062000817 0.019430341 -0.03138218 0.04016588 0.023080414 -0.066821195 -0.1390542
-0.044252675 0.049031112 0.037816774 -0.113938846 -0.011839806 -0.0268145 0.0013089941 0.0058034277
1.216963e-07 -0.004878385 -0.18693906 -0.030798867 -0.074695975 -0.014978341 5.5476124e-07 -0.20054817
-0.031972244 -0.0009829641 -0.13158369 -0.041540522 0.034349203 0.019888014 0.04949079 -0.05948582
-0.07118507 -0.17248416 -0.06416963 -0.09967117 0.044196997 0.032676823 0.016166618 -0.13674583
-0.7433822 0.84411746 0.05889152 0.1467883 -0.43765002 -0.56099784 0.9374625 0.37249
0.18898039 0.029865906 -0.3896758 0.050637778 0.34182248 0.71047395 0.9810759 0.36520374
-0.16549148 1.0417916 -0.3036649 0.40622303 0.6619735 0.44055608 -0.56894433 0.5576893
-0.6690624 0.5482057 0.6801256 -1.2229425 -0.22955137 0.22589064 0.040490914 0.17592852
0.16969213 1.0239284 0.6039406 -0.07367963 0.05380564 -0.4339633 1.1429797 0.35774004
0.77710897 0.39210165 -0.5768611 0.3652695 0.25750038 0.71040934 1.1096888 0.4911376
-0.49881005 1.2161134 -0.94001645 0.4575296 0.9356176 0.30840275 -0.15532568 0.34071174
-0.5283657 0.33447078 0.4284617 -0.36348033 0.41262197 0.3610892 -0.3132214 0.19973636
-0.17383319 0.8335871 0.37385437 0.19883482 -0.39151365 -0.06843815 0.9098633 0.27640632
0.4587885 0.32536718 -0.4934258 0.37758514 0.35283956 0.6064588 1.1625668 0.55707717
-0.2146913 1.4823112 -0.44033682 0.55221754 1.0332054 0.3180032 -0.09033792 0.64366245
-0.2709175 0.38787878 0.39036688 -0.29458022 0.40043825 0.15982738 -0.1022216 0.32817844
00000000: 2973 cabd 9d74 173f 6ddf 013e b9df ec3e
00000010: 15f4 a53c 9b10 863e 9e5d 823f 1069 603f
00000020: e61d 973c d574 a93e 4d47 84be 3c0a f83e
00000030: b3e4 143e bf9d e43e b071 843f 470e 0f3f
00000040: ccb6 953d 64e1 983f 5192 813e ea48 b63e
00000050: cb59 523f 105e c63e 5e37 5d3d c0eb 473f
00000060: e8bc 903d cef3 cb3e bb6f 863f ee63 3bbe
00000070: 0cea 473f eecd 7ebc d40c 8fbd d55e 153f
00000080: e4b0 dabd afb2 3c3f 8fd9 df3e f826 193f
00000090: cb54 96be 28aa f53d fadf 8b3f ec3e 993f
000000a0: 7edb 8c3e 57be 113f b2e2 a3bd 2480 013f
000000b0: 0b26 453d 5d89 fe3e 76df 503f 90d6 373f
000000c0: a4fb 64bd d4e4 b13f 9054 4bbc a094 323e
000000d0: 1532 743f fe29 0d3f b82d 963e e007 553f
000000e0: fa88 e03d 5d38 d83e 0fdd a23f 523b e0bd
000000f0: 3d0c 3a3f 0a27 673d 63b3 27bd c187 3a3f
00000100: 3322 4c3d 44ca 9e3d 7f74 6cbe b760 873d
00000110: abf5 13be cd1f b5bd 0efe 983d c82b 5d3b
00000120: eaad 83ba dd14 1f3d 21ff 56bd 7201 093d
00000130: 9399 933d 5526 4cbd c584 29bc 2142 e2bd
00000140: 1115 ffbd f0ab edbd 3d86 c5bd 58f8 53be
00000150: b087 43be 5dad 08bd 4474 33be 2610 22be
00000160: f1b9 5cbd bd43 1dbe 2b29 aa3d 861a f6bd
00000170: 8395 06be 060a c3bd d8b3 4cbe 3c35 9b3c
00000180: 1ef8 863d 01e0 e5bd e9af fcbd 3782 a43d
00000190: 9314 a3bd a6b0 80bc 6afa 13be f06b 98bd
000001a0: 35cf 1b1e 6222 02be 1814 6d2d d39f 87bc
000001b0: 7005 25bd b90b febc adcb 2e3c e1a3 a83d
000001c0: d83d acb7 b419 c4bd 13c3 05be 3551 943d
000001d0: b979 26bb bc16 4039 9a01 9abc 5289 8a3c
000001e0: 1a1f cdbb 0e2a cb3b 612c 9f3c 9a8a 00bd
000001f0: fa84 243d 2313 bd3c 8dd9 88bd 3964 0ebe
00000200: 4b42 35bd d9d4 483d c3e5 1a3d c558 e9bd
00000210: bffb 41bc 15aa dbbc 8e92 ab3a ae2a be3b
00000220: a0ab 0234 dcda 9fbb f46c 3fbe e84d fcbc
00000230: 34fa 98bd b767 75bc e7ea 1435 805c 4dbe
00000240: 54f5 02bd cdd6 80ba e0bd 06be 6526 2abd
00000250: c0b1 0c3d 30ec a23c dbb6 4a3d 67a7 73bd
00000260: 7ac9 91bd b09f 30be 5e6b 83bd 6620 ccbd
00000270: e907 353d 22d8 053d db6f 843c 1907 0cbe
00000280: 4c4e 3ebf 1518 583f 3c38 713d ac4f 163e
00000290: aa13 e0be 8e9d 0fbf 8bfd 6f3f 02b7 be3e
000002a0: 1384 413e 58a9 f43c 9683 c7be 8f69 4f3d
000002b0: 5b03 af3e 9fe1 353f ca27 7b3f fcfb ba3e
000002c0: 9976 29be 6d59 853f f779 9bbe 77fc cf3e
000002d0: 1877 293f 9190 e13e 56a6 11bf bac4 0e3f
000002e0: ac47 2bbf 3557 0c3f b61c 2e3f 6189 9cbf
000002f0: 840f 6bbe e04f 673e cdd9 253d 9b26 343e
00000300: c6c3 2d3e 1610 833f da9b 1a3f 59e5 96bd
00000310: 4e63 5c3d 7030 debe 294d 923f b429 b73e
00000320: 9df0 463f 8cc1 c83e 2bad 13bf 9b04 bb3e
00000330: 17d7 833e 63dd 353f 480a 8e3f 6376 fb3e
00000340: 0864 ffbe 9ba9 9b3f eba4 70bf 5241 ea3e
00000350: a384 6f3f f7e6 9d3e b20d 1fbe c571 ae3e
00000360: f942 07bf c13f ab3e 555f db3e 181a babe
00000370: 3043 d33e afe0 b83e 8e5e a0be b087 4c3e
00000380: 5401 32be f765 553f d769 bf3e 5b9b 4b3e
00000390: 7a74 c8be 4d29 8cbd cdec 683f 2185 8d3e
000003a0: 54e6 ea3e 8796 a63e 4ea2 fcbe d752 c13e
000003b0: 63a7 b43e e240 1b3f fdce 943f 9c9c 0e3f
000003c0: 09d8 5bbe 60bc bd3f d473 e1be 215e 0d3f
000003d0: 1340 843f 51d1 a23e 1603 b9bd 10c7 243f
000003e0: b3b5 8abe 0c98 c63e 2bde c73e 38d3 96be
000003f0: 3e06 cd3e caa9 233e 8f59 d1bd 0107 a83e

fc2.bias f4 [16]
0.2927068 0.250546 0.039802037 -0.053936526 -0.06825248 -0.59425795 -1.1909677 -0.6429658
-0.2529134 -0.22795196 0.017972406 0.29230192 0.06512388 -0.055696025 0.15360357 -0.114281826
00000000: aadd 953e 9147 803e 7607 233d 8cec 5cbd
00000010: f5c7 8bbd 4a21 18bf a171 98bf 6899 24bf
00000020: dd7d 81be 3d6c 69be de3a 933c 99a8 953e
00000030: ab5f 853d 8421 64bd 414a 1d3e 970c eabd

fc3.weight f4 [1, 16]
-0.58201844 -0.6366902 0.12735759 -0.08407184 0.006866235 -0.98250026 -1.2682577 -0.8144927
-0.9824574 0.11530646 0.10095955 -0.5569802 0.14184964 0.15870155 -0.7864694 -0.6080653
00000000: 29ff 14bf 21fe 22bf 076a 023e db2d acbd
00000010: 27fe e03b 2385 7bbf 4556 a2bf 9882 50bf
00000020: 5482 7bbf cb25 ec3d e1c3 ce3d 4196 0ebf
00000030: 0841 113e a982 223e 0f56 49bf 2baa 1bbf
