DRL-course/MADDPG/model_dir/episode-18000.pt (torch_old, 71203 bytes, 99 tensors)

fc1.weight f4 [16, 14]
00000000: f37a 90bf 7f35 8a3f aba1 92bf 6c5c 9b3f
00000010: 86cd d9be 5bea a3bd fb23 dc3e 2376 4f3e
00000020: 13c1 9dbe 3a21 2c3e 59ab e83e 2d14 c33d
00000030: 8341 debe 79f2 ac3e 0970 313f a208 a83f
00000040: b0aa 433f 4cb3 a43f 8fc9 9b3d 9c18 b33e
00000050: 4a4f 51be 6140 383e 6835 063f 1b51 123f
00000060: fe6e 99be aee2 af3e ae8c 143f 741c 663f
00000070: 4089 ebbe c98f 803f e4c9 4bbe 4ba9 263f
00000080: a01b 03be f988 d5be fe50 5bbe d6e8 fcbd
00000090: d383 bf3e 8b40 b83e 35d5 513e c2e7 7cbe
000000a0: 441e 553e 1f16 f4bd c9f5 97be 8fc4 613e
000000b0: abf8 03bf 8e66 e33e 2cc8 3c3f 610e 01bf
000000c0: ca2f 20bf 6ee8 033e ce98 11bf 9362 8d3d
000000d0: 2931 29be b277 033e 0873 9abd 0740 0f3e
000000e0: f478 b43d caef 383e 1581 183b ebaa 673e
000000f0: b4ba aabd 9269 433c 9e6b cb3e 9e6d 543e
00000100: a25c e53d 2223 a9be 04b0 97bf 50ca 013f
00000110: 00cd 103f a4b8 623d 3d27 f3be 66ed 6dbc
00000120: b233 01bf b5ba b3bc 5ff1 b6be 822d 12be
00000130: 48ab 9e3f 98de 633e 8bad 80be c3a2 533e
00000140: d57f 923f a38f cb3e c1b2 353e 54b8 9c3d
00000150: dfd7 b3be 8aa8 b8bd 6b34 ddbe fc2f 15be
00000160: e6d5 83be a95f 85be 52c4 e43e bd1b 12bf
00000170: 78f9 393f 0756 003f 2278 52bf e4ea e8bd
00000180: fc05 ccbd c939 f33d 0baf 253f 8908 b2bf
00000190: 9db7 233f b9ac a9bf c431 29be 00ed 80be
000001a0: 6b1c 6bbe 38c7 9dbd cf1d 6b3d 867d 4ebe
000001b0: c77c bdbe 2f1a 5dbe e03d a8bd d76b b73d
000001c0: 3041 973f 4284 15bf 4c12 9e3f 0505 22bf
000001d0: e3a5 8e3f 3fea b4be 2f13 66be 9abe 5cbe
000001e0: 46d0 f03d 43a8 803e ff6d 803d 194e 9e3e
000001f0: 8e58 9f3f 4881 123f 59f1 a93e fb7d 87bf
00000200: baf1 833e 5c6b 8abf 2db8 2d3f caf5 00be
00000210: a78f 3d3f 1f0a 883e c559 03bf 3ff0 6dbf
00000220: 8a4c 353d c347 dc3c 79cd 17bf bebe 31bf
00000230: b75a a33d e502 d53e b07b 453e dbf1 213e
00000240: 099c 163e 248d bcbd b17b a13f 2b15 a43e
00000250: 34d4 0540 d1ed a6be 4bbe 8abe 422e f9bd
00000260: c9e7 523d f213 b8bd a9f1 07bf 50e6 ff3e
00000270: 1c81 0abf 372f 023f ca97 013e 9138 97bc
00000280: 112a 173d ba0a 06be cfea f93c 2987 2b3e
00000290: d5dc 863e 6d09 9fbf 5ef4 673c 5ca8 6dbd
000002a0: 6349 c9bf 4810 84bf 945d c6bf 82ab 83bf
000002b0: e56f 48bf 695b fd3d 7549 89bf a279 bebd
000002c0: b0e3 1bbf f944 5fbf 4cec 03bf 17b3 e6be
000002d0: 80d0 31bf 25eb 28bf ea88 73be c913 0f3f
000002e0: 0e05 3fbe 05d2 0a3f b09b 4b3d e18f 54be
000002f0: a498 9b3e 62a0 c4bf bc88 c5be ebeb a33d
00000300: 57b3 923d 7035 85bd 88dd 0d3e 7ead 153d
00000310: 49ec 3a3f 518d 7a3b f5e4 263f 7769 ab3c
00000320: 58c9 373e 5b8e b1be aae0 c3be 4a07 fbbd
00000330: c211 7f3e b4a8 be3d 089c 463f 2058 2ebf
00000340: c231 053f e1e9 aabf a794 4a3f 7d6d 273f
00000350: db98 353f 24dc 2a3f 499c 923e ee4b dfbd
00000360: 5ca3 9f3e 3d10 a23b b413 28bc 9549 073f
00000370: d736 b23d 3153 a2be 4304 c93d 7d36 d8bb
-1.1287521 1.0797576 -1.1455587 1.213758 -0.42539614 -0.08003684 0.429962 0.2025991
-0.30811366 0.1680955 0.45443228 0.095253326 -0.43409356 0.33778742 0.6931158 1.3127635
0.76432323 1.2867217 0.076068036 0.34979713 -0.20440403 0.17993309 0.5242524 0.5715501
-0.29967493 0.3435263 0.5802716 0.89887166 -0.4600315 1.004388 -0.19901234 0.6510207
-0.12803507 -0.41706064 -0.21417615 -0.123490974 0.3740526 0.35986742 0.20491488 -0.24697784
0.20812327 -0.11918282 -0.29679707 0.22047637 -0.5155131 0.4441418 0.7374294 -0.50412565
-0.6257292 0.12881634 -0.56873786 0.06903567 -0.1652266 0.12838629 -0.07541472 0.13989268
0.088121325 0.18060222 0.0023270298 0.22623794 -0.08336392 0.011927025 0.39730543 0.2074494
0.11199309 -0.33034617 -1.1850591 0.5069933 0.56562805 0.05535187 -0.47490874 -0.014521932
-0.50469506 -0.021939615 -0.35731027 -0.14275172 1.2396021 0.22252882 -0.25132403 0.20667557
1.1445261 0.39758024 0.1774397 0.07652345 -0.35125634 -0.09016521 -0.43204054 -0.14569086
-0.2574913 -0.26049545 0.4468103 -0.57073575 0.72646284 0.5013127 -0.8221456 -0.11372927
-0.09962079 0.11876256 0.6472022 -1.3908855 0.63952047 -1.3255836 -0.1652289 -0.25180817
-0.2296006 -0.077040136 0.057401475 -0.20165071 -0.3700926 -0.2159202 -0.08214927 0.08956116
1.1816769 -0.58404934 1.2349334 -0.6328891 1.1144375 -0.35334966 -0.22468255 -0.21557084
0.11758475 0.25128374 0.0627098 0.3091896 1.24489 0.5722852 0.33191946 -1.0585321
0.2577036 -1.0814013 0.67859155 -0.12593761 0.7404732 0.26570222 -0.5130885 -0.9294471
0.044262446 0.026889687 -0.592979 -0.69431674 0.07976287 0.4160377 0.19285464 0.15814917
0.1470796 -0.09206608 1.2615873 0.320474 2.0910769 -0.32603315 -0.27098307 -0.12167026
0.05149058 -0.08988179 -0.5310312 0.49980402 -0.54103255 0.50853294 0.12655559 -0.01845959
0.036905352 -0.1309003 0.030507473 0.16750778 0.26340356 -1.2424752 0.014157383 -0.058021888
-1.5725521 -1.0317469 -1.5497308 -1.0286715 -0.7829574 0.12370951 -1.0725542 -0.09300543
-0.608943 -0.8721462 -0.51532435 -0.4505851 -0.6945877 -0.659838 -0.23782697 0.55889565
-0.18654272 0.54226714 0.049709022 -0.2075801 0.30389893 -1.5361445 -0.38580883 0.08003982
0.071631126 -0.06504333 0.13854039 0.03654241 0.7301679 0.0038231204 0.6519311 0.020924313
0.179479 -0.3467892 -0.38257343 -0.1225725 0.24909118 0.09309521 0.77581835 -0.6810322
0.5202905 -1.3352624 0.79133075 0.6540144 0.70936364 0.6674216 0.2863486 -0.10903154
0.3117932 0.0049457834 -0.010258604 0.5284665 0.08701866 -0.31704095 0.09815266 -0.0065982924

fc1.bias f4 [16]
00000000: ea41 6cbf b68a 6cbf 2470 f83e dcb9 0f3f
00000010: 83ff 843e f152 363f adfb abbe 7167 87bf
00000020: 5334 e7be 211a 75bf 3c16 b83e 8fff dd3e
00000030: 0add afbf 065d 0b3f 48d0 9d3d 32b7 00bd
-0.92288077 -0.92399156 0.48523057 0.56142974 0.2597619 0.7122031 -0.3359045 -1.0578443
-0.45157108 -0.95742995 0.35954463 0.43359038 -1.3739331 0.5443882 0.07705742 -0.03142471

fc2.weight f4 [8, 16]
00000000: 5c07 a4be 98d1 0ebf 04d2 6fbc 18ff a13d
00000010: 09c3 c73e 02ee b83e 0d9d 803e c413 513f
00000020: 7278 023e e3ee 8a3f a393 a03e 0ee1 253f
00000030: 23f7 b83f 1070 1b3f 51f8 f33e 5ca8 20bf
00000040: e0ce 6abf da6c 9f3f 34c6 b23c cd6e b43c
00000050: 3efd adbe 8c73 9b3f 267c f3be 1e16 0b3e
00000060: 14ca e33e e4f8 19bf d08f dc3e a5ec 61bc
00000070: 774a b2be 3992 0dbe 3d62 213d 205b 0c3e
00000080: e99a 223e 258d a73e d84c 0dbf 9a01 f2be
00000090: ca8a bfbe 28f9 84be 02c2 10bf 5aa3 703e
000000a0: 3c9f 75bf b030 fd3e 34b3 bc3c 6276 173c
000000b0: 7022 cabd fa1f f23d 11b3 92bf e5eb eb3e
000000c0: fc30 46be 0d31 4cbe 1365 e03d 070e 4cbc
000000d0: 5d31 2a3d fd7f 30bd 5db7 cb3d 2c47 c4be
000000e0: b292 46be 0c12 63be 4e11 b1bd 2e20 5cbe
000000f0: eb8f d5bb 5fea 5abe 6abe fabd 56b8 71be
00000100: 4aec ef3e 142f c43e f1e1 67be 0d5c 803e
00000110: 7295 04bf 5e35 d33d 4529 0fbf ac93 0abf
00000120: 2a0e 2fbe 83f5 393d c3c8 6e3f 2f53 cfbf
00000130: ccb1 99be 7d95 813f 7c5f 3cbf eca4 833e
00000140: 5ee3 d2be 292a 733e 8313 2d3f bc68 b0bd
00000150: 7567 60bd 22a1 8c3e a05d a6be 11e4 b2bf
00000160: 2505 cf3e 406c d1be b924 3dbf 9290 903e
00000170: 3fa5 42bf 9fda c6bf 8d7c 193f e595 7d3e
00000180: 7a3e cabe 01e3 9f3d fe27 adbf 1012 cebf
00000190: ac5d 27bf d37b 3ebe a767 d13e 26b4 493f
000001a0: 74cd 5c3f c81d ed3e 10c4 70bd 17db a4bf
000001b0: 7fcc 08bf 7867 25bf b485 333f 6f8f 333f
000001c0: 4a41 a23f 289b b93e 69e5 073f caa2 f53e
000001d0: f121 393f 8550 3abe 8f03 0c3f 3618 66bf
000001e0: 7145 69be a597 ac3d 79d3 f0bd 41b4 953d
000001f0: c73c 843f b0a4 223b e174 95be 1a2c ea3d
-0.32036865 -0.55788565 -0.014637474 0.079099834 0.39015988 0.36119086 0.2511982 0.81670785
0.12741259 1.0854152 0.31362638 0.6479653 1.445042 0.6071787 0.47650388 -0.62756896
-0.91721916 1.2455094 0.021823026 0.02202549 -0.3398227 1.2144637 -0.47555655 0.13582656
0.4449011 -0.601454 0.4307847 -0.013789331 -0.34822437 -0.13825311 0.039400328 0.13706636
0.15879406 0.32724872 -0.5519538 -0.47266847 -0.37410575 -0.2597134 -0.5654603 0.23499814
-0.959461 0.49451208 0.02303467 0.009244533 -0.0986985 0.11822505 -1.1460897 0.4607841
-0.19354624 -0.19940586 0.109567784 -0.012454516 0.041550983 -0.04309081 0.09947083 -0.3833555
-0.19391897 -0.22174853 -0.08645879 -0.2149665 -0.0065174005 -0.21378468 -0.1224335 -0.23605475
0.46859962 0.38317168 -0.22644784 0.2507023 -0.51790535 0.10312913 -0.5592235 -0.5413158
-0.17095247 0.045400154 0.9327509 -1.6197261 -0.3001846 1.0123745 -0.735832 0.25711763
-0.41189092 0.23746552 0.676079 -0.086137265 -0.054786164 0.27466685 -0.32493305 -1.397585
0.40433612 -0.409029 -0.7388416 0.28235298 -0.76033396 -1.5535468 0.59955674 0.24764211
-0.3950079 0.078069694 -1.352783 -1.6099262 -0.65377307 -0.18601923 0.40899393 0.7879051
0.86250997 0.46311784 -0.05878073 -1.2879361 -0.53437036 -0.64611006 0.7012589 0.7014074
1.2676175 0.36251187 0.5308443 0.4797576 0.72317415 -0.18194778 0.5469293 -0.8988069
-0.22780396 0.084273614 -0.11759085 0.07309771 1.0331048 0.00248174 -0.29190734 0.11434193

fc2.bias f4 [8]
00000000: 2982 003f 1917 113f c136 75bf 0b83 b3bd
00000010: afcd db3d f629 363f c4df 9b3e a14b a53e
0.5019861 0.5667587 -0.9578667 -0.08765229 0.107325904 0.7115778 0.30444157 0.32284263

fc3.weight f4 [2, 8]
00000000: 5494 7bbe 9c1a 603f f9d0 e93e 547a f33d
00000010: 3dd4 1bbf cd49 3ebf 9b20 273f a1a3 02bf
00000020: b943 3bbf 111d 9b3e fa9b f6be 52c6 943c
00000030: e2fb d03e bcdc f03e 00f2 81be 083e 153f
-0.24568301 0.875406 0.45667246 0.118885666 -0.60870725 -0.7433136 0.65284127 -0.5103093
-0.7315021 0.30295613 -0.48165876 0.018160973 0.4081717 0.47043407 -0.25379944 0.5829778

fc3.bias f4 [2]
00000000: 1376 2c3d 2c2f afbd
0.04210479 -0.08553919

exp_avg f4 [16, 14]
00000000: 58a2 3bb6 74bb feb7 3119 2f38 4119 e0b7
00000010: 9a39 0738 9962 78b7 48be 3a38 00bd a5b7
00000020: 6898 f6b6 c2c9 28b6 a172 1d37 b443 55b7
00000030: b987 73b8 baf8 c437 b00d 8fb8 fe01 6b38
00000040: d00e dbb8 4854 d438 b038 b1b7 1d54 7438
00000050: 7a3c a6b7 a405 0eb7 2346 c6b7 9253 afb6
00000060: e202 ccb8 a0b5 b536 4a51 3837 8773 1037
00000070: ec61 7037 6ea3 aab8 3bef a438 8045 88b8
00000080: 1bbd a238 31d4 d6b6 78ec 8338 a94f 3438
00000090: f0ac 3038 ba13 06b8 128a be37 58c0 06b9
000000a0: 3501 2538 d0a0 fd36 aaa0 7638 8d07 09b8
000000b0: 83be 7837 ab43 9fb7 f6f1 4038 c5c5 b937
000000c0: b15e 2138 20a9 85b4 270d 8437 ed6e 09b8
000000d0: 5834 4838 0b78 1738 787a 1f38 a6ae ca35
000000e0: 5ad4 b837 7dfc 00b8 65a1 3538 195b 0bb8
000000f0: ea3e a037 bd87 f1b7 5f60 3bb7 eae9 cab8
00000100: dac5 2437 e03d b5b7 6de7 c038 6cdd ba37
00000110: 2203 2737 9bc9 b636 0af9 a6b7 e50f 6539
00000120: 918b c7b7 a382 2839 ec9a e738 8e47 b838
00000130: aa2b 6238 6ea4 8738 6245 d6b7 a30b b738
00000140: d3e3 9438 fc9f 59b8 82da 7038 9aae 7737
00000150: f655 5537 0bb8 16b8 a334 c237 c888 e0b7
00000160: 51db 93b6 d91f 72b7 b3fc 42b8 18c2 f0b6
00000170: 6efb 3a38 eac0 ad37 298a 2a38 42ef 8138
00000180: a5b0 e7b7 a2cc 90b7 f289 4cb8 4f2d 0d39
00000190: 68d7 7bb8 fb84 3839 06e5 67b6 aaba ccb7
000001a0: 051b 2cb7 0648 6f38 9034 2837 2089 0ab8
000001b0: 929e feb8 f233 3839 f6ae 3038 d54a 6736
000001c0: e79e 31b8 ea6c 6e38 2c1b 1cb8 eaff 2638
000001d0: 2e64 3a37 cf64 23b7 8c4a 8eb8 f6b5 9738
000001e0: fdda 97b6 bc80 b636 d0e6 1f36 4061 08b7
000001f0: dcd3 5637 feae 78b6 ce05 9137 ce5e 6eb7
00000200: 5cef a637 cc49 3b37 3886 0cb8 91e0 02b8
00000210: 772b 5eb8 8bb9 e8b7 2a8f 3936 512a 84b7
00000220: c425 6eb8 d31a 9238 9e9f 73b6 1571 17b7
00000230: ea17 7db6 68f4 b236 5699 49b8 8aa9 2338
00000240: 622d 8db8 a4c2 2f38 8296 a937 0651 07b9
00000250: 5282 dfb7 d31f 2438 0560 8fb8 4936 3439
00000260: c307 85b6 744d b537 c947 8537 5236 92b8
00000270: 374b 1d38 3578 efb8 b8a0 6d38 30ba 38b7
00000280: 3c67 6e37 c8f7 1739 befc 2937 1268 8338
00000290: 479a 37b8 30ab d3b8 1fe4 3d37 6f48 03b8
000002a0: 00f4 a738 d114 b2b7 0b68 8438 8658 ff37
000002b0: 5b9d c837 2030 d1b7 352b af38 d4f3 3e38
000002c0: deb5 44b8 3a47 9b36 ffdf b338 8484 3f38
000002d0: 9e10 f1b7 2e87 0cb7 e6ec 2138 6278 0bb8
000002e0: 6826 1b38 45ea 4ab7 11c8 aeb8 70cc 2836
000002f0: 4a0c 9bb8 7a27 65b9 0e71 06b7 901d f235
00000300: 1812 c238 2e9a 5039 c33e b3b8 a6e7 2bb8
00000310: c243 cfb7 6ed7 5538 478f 1ab7 88a2 a036
00000320: f4a9 2736 3462 60b7 420b 4db8 7b2c 4039
00000330: 07b4 7537 c4d1 dc37 f113 b5b8 fc3b 64b8
00000340: 9319 65b8 5029 9737 0264 7d37 3240 0d37
00000350: a642 3eb8 d693 5938 b042 ea37 74ba 55b6
00000360: 150c b638 82d8 86b8 4488 db37 dc55 43b6
00000370: 4676 d2b6 826b 91b7 f33e 3f37 e59d 2e37
-2.7959668e-06 -3.036645e-05 4.1746713e-05 -2.671464e-05 3.2240154e-05 -1.48049085e-05 4.452307e-05 -1.9757543e-05
-7.3491137e-06 -2.515139e-06 9.384618e-06 -1.2711553e-05 -5.8062116e-05 2.3480843e-05 -6.821321e-05 5.603022e-05
-0.00010445493 0.00010124646 -2.1126441e-05 5.825247e-05 -1.9816904e-05 -8.465173e-06 -2.36361e-05 -5.2251353e-06
-9.728015e-05 5.4153643e-06 1.0986181e-05 8.609967e-06 1.4327914e-05 -8.136673e-05 7.8646895e-05 -6.497931e-05
7.7599856e-05 -6.4023993e-06 6.2906125e-05 4.2989534e-05 4.212273e-05 -3.196646e-05 2.2714059e-05 -0.0001285089
3.934019e-05 7.5587086e-06 5.88006e-05 -3.2670378e-05 1.4826309e-05 -1.8985787e-05 4.600171e-05 2.2145812e-05
3.847358e-05 -2.4896235e-07 1.574175e-05 -3.2766653e-05 4.7732465e-05 3.6113004e-05 3.8022612e-05 1.5101002e-06
2.2033393e-05 -3.0752726e-05 4.3304073e-05 -3.3225024e-05 1.9102783e-05 -2.8792647e-05 -1.1168507e-05 -9.6756805e-05
9.821228e-06 -2.1605694e-05 9.19838e-05 2.2276035e-05 9.954705e-06 5.4474926e-06 -1.990471e-05 0.00021845063
-2.378764e-05 0.00016070394 0.00011043795 8.787132e-05 5.3923264e-05 6.467929e-05 -2.5543097e-05 8.7282875e-05
7.0996255e-05 -5.188583e-05 5.742396e-05 1.4763e-05 1.2715804e-05 -3.593419e-05 2.3151113e-05 -2.6766575e-05
-4.406473e-06 -1.4431739e-05 -4.648855e-05 -7.175153e-06 4.4580018e-05 2.071304e-05 4.065983e-05 6.1957646e-05
-2.7619602e-05 -1.7261427e-05 -4.876586e-05 0.00013463687 -6.0043676e-05 0.00017597147 -3.4554992e-06 -2.4405617e-05
-1.025829e-05 5.7049117e-05 1.00258185e-05 -3.302947e-05 -0.000121412 0.00017566959 4.2124615e-05 3.446524e-06
-4.2348078e-05 5.6845056e-05 -3.7218604e-05 3.9815823e-05 1.1109789e-05 -9.739028e-06 -6.784973e-05 7.234134e-05
-4.5256443e-06 5.4390093e-06 2.3827197e-06 -8.1288745e-06 1.2804721e-05 -3.7056739e-06 1.728805e-05 -1.4207979e-05
1.9900202e-05 1.1163251e-05 -3.3503602e-05 -3.120356e-05 -5.2969404e-05 -2.7742955e-05 2.765048e-06 -1.5755331e-05
-5.6778794e-05 6.966819e-05 -3.630273e-06 -9.02663e-06 -3.7713858e-06 5.333266e-06 -4.806494e-05 3.9020124e-05
-6.731857e-05 4.1904525e-05 2.0216456e-05 -0.00012904787 -2.6644357e-05 3.9130286e-05 -6.8366564e-05 0.0001718636
-3.9646125e-06 2.1612948e-05 1.5888263e-05 -6.9719405e-05 3.7501766e-05 -0.000114187984 5.6654884e-05 -1.1010605e-05
1.4209942e-05 0.00014492788 1.0132031e-05 6.2659514e-05 -4.3774282e-05 -0.0001009315 1.1318391e-05 -3.1300293e-05
8.008629e-05 -2.1228947e-05 6.31363e-05 3.043959e-05 2.3915132e-05 -2.4937151e-05 8.352698e-05 4.5526613e-05
-4.689942e-05 4.627652e-06 8.577108e-05 4.5661363e-05 -2.8737177e-05 -8.376124e-06 3.860602e-05 -3.3252298e-05
3.699065e-05 -1.2094683e-05 -8.334232e-05 2.515295e-06 -7.393265e-05 -0.00021853848 -8.013345e-06 1.8039009e-06
9.254011e-05 0.00019893862 -8.5470754e-05 -4.0985316e-05 -2.4707875e-05 5.0983792e-05 -9.212475e-06 4.7872927e-06
2.4983865e-06 -1.3374305e-05 -4.8886293e-05 0.00018327117 1.4645054e-05 2.6323723e-05 -8.634467e-05 -5.44153e-05
-5.4621672e-05 1.801984e-05 1.510326e-05 8.419202e-06 -4.53616e-05 5.1874515e-05 2.7926028e-05 -3.1848003e-06
8.680687e-05 -6.429946e-05 2.6170288e-05 -2.910724e-06 -6.2722565e-06 -1.733541e-05 1.1399144e-05 1.0407971e-05

exp_avg_sq f4 [16, 14]
00000000: 5d36 3c33 70ac 5333 a8f3 3733 504f 6d33
00000010: 888a 8132 09f3 1032 90c4 0c33 fdaa 8c34
00000020: 4cab 2b32 9d48 3432 595e 3333 8bbb fe33
00000030: 63af 3132 6f99 c231 6222 ba34 502e 1034
00000040: 8df7 b434 4f75 0d34 c400 8632 2883 b332
00000050: 6c65 4234 2b1f 0736 4bfc 8b32 0ed6 cf33
00000060: 90d5 5d34 9fc3 f235 fc6f 8132 d40e ac33
00000070: 2880 d733 198f 0734 9196 f433 a3e9 0334
00000080: 9349 b232 6b7b 8a32 e65d 2834 9c60 d034
00000090: 86ef 9132 0ed8 a832 4b52 7e34 10b9 3335
000000a0: 572f a232 a605 f932 6515 6c34 5667 7634
000000b0: 18e1 5c34 5928 7434 17e0 8a32 04ae 5932
000000c0: 268e 7d34 9edf ab35 cba5 4c32 6b29 2633
000000d0: 9ef1 8434 1e4f cc35 9981 3f32 7697 5333
000000e0: dbfb 4533 30a1 a233 678a 4533 f047 ae33
000000f0: e23c 0e32 85c1 e331 8a26 8533 cce3 0035
00000100: 5345 f931 ea46 9f32 a5d6 8633 22c6 dd34
00000110: 08c8 0f32 57ac 8332 847c b533 ad53 9633
00000120: 6df3 af33 99ef 8d33 fec0 c032 0547 ca32
00000130: 521e ef33 67aa d434 61ba be32 cb64 e532
00000140: 2e82 c633 be21 aa34 5ee2 be32 019d d032
00000150: 179f 2733 b95b 2a33 1ae4 1333 c7b5 2d33
00000160: 3ef9 8e31 8db4 6331 0e42 8e33 fafd 8134
00000170: 657f 9c31 c965 2d32 c9e2 6e33 0b63 0534
00000180: 8d5e 5331 3b8f 7d31 1703 6834 0594 df33
00000190: 6837 6634 3671 eb33 a166 b532 8a83 dc32
000001a0: 1889 9334 5734 b334 e713 9a32 f100 a132
000001b0: fd68 9d34 b657 c934 449a 8232 8f06 a832
000001c0: 4863 5833 648c e032 e2ea 5433 c155 ee32
000001d0: ceff 6632 dbef 0732 8a5d 6633 28c1 8f33
000001e0: 8022 0232 cac0 b031 d92c 4533 9b19 1335
000001f0: cc66 4432 65e8 f632 3ab1 af33 f8c6 9a33
00000200: 6dc0 af33 94b0 a433 e451 3832 51e6 1f32
00000210: 0718 bd33 b27d 8434 0dbc fb31 1e9d 2a32
00000220: ca96 bf33 39f0 4334 790b e431 78f2 0632
00000230: 1fdd 2e33 ed38 6333 3473 2833 187e 5e33
00000240: 2f96 3232 d377 1432 3a01 8533 2dd1 8434
00000250: ca6f 7432 3ac3 6832 ad19 b033 be45 d834
00000260: 406e 4b32 651c a032 f000 d233 3e21 a833
00000270: 7886 d533 e5a0 9833 54b8 c832 e277 8932
00000280: 1b37 2934 8750 3435 cbab cf32 cf91 1733
00000290: 3e44 d533 7b47 4234 e74b b632 94e2 8132
000002a0: d409 cb32 7d5d ec32 6da9 b532 d458 ea32
000002b0: 0e94 ae32 6485 3332 a8a2 c132 a2cb 1f33
000002c0: 5cd6 3732 8e59 f531 b172 1a33 3c85 3933
000002d0: 8017 2032 512f ce31 38f1 f433 8745 b733
000002e0: b72c fa33 749c ab33 1ca6 e532 0fc8 d932
000002f0: 5d83 2434 0b1a 6934 237f fe32 d558 a832
00000300: cde5 ab34 3d3c 5c35 5df6 0533 6877 2633
00000310: d32c f633 299e 4533 e623 ef33 65d1 3633
00000320: 094e 5232 fe3f 2a32 ff3f 0134 7e4b 4535
00000330: 34f4 6b32 e196 3733 9f1b f133 4d3b 3334
00000340: 3b87 2c32 e565 5232 c04f 8933 1ac9 8133
00000350: ccfb 8b33 80c2 8933 f02d 2032 cdf8 e131
00000360: 6b00 c333 ea4f 3f34 191b bf31 97a9 e931
00000370: 864d 0934 fb38 6134 7aa8 e531 8446 1b32
4.3821604e-08 4.9284097e-08 4.2829612e-08 5.5252997e-08 1.5080573e-08 8.437163e-09 3.2775063e-08 2.6201442e-07
9.992458e-09 1.0493889e-08 4.1762494e-08 1.18619106e-07 1.0342634e-08 5.6635865e-09 3.4670217e-07 1.3427893e-07
3.370773e-07 1.3174325e-07 1.5600001e-08 2.0897986e-08 1.8104555e-07 2.013471e-06 1.629646e-08 9.678125e-08
2.0659922e-07 1.8087338e-06 1.5068501e-08 8.0120714e-08 1.0035029e-07 1.2624913e-07 1.1389523e-07 1.2285322e-07
2.0755385e-08 1.6121438e-08 1.568038e-07 3.8813312e-07 1.6989144e-08 1.9656024e-08 2.3685531e-07 6.6952e-07
1.888081e-08 2.8989984e-08 2.1986996e-07 2.2948129e-07 2.0570985e-07 2.2738949e-07 1.6167219e-08 1.2670629e-08
2.3614174e-07 1.2805574e-06 1.191206e-08 3.8687556e-08 2.4762716e-07 1.522221e-06 1.114713e-08 4.926502e-08
4.6096698e-08 7.573033e-08 4.5993513e-08 8.115592e-08 8.279331e-09 6.62857e-09 6.200305e-08 4.8015204e-07
7.254735e-09 1.8542284e-08 6.278905e-08 4.1308618e-07 8.369177e-09 1.5328778e-08 8.4511186e-08 7.00014e-08
8.1933514e-08 6.609407e-08 2.2439504e-08 2.3548191e-08 1.113482e-07 3.961206e-07 2.2203666e-08 2.6704944e-08
9.243773e-08 3.1689518e-07 2.2221851e-08 2.4285784e-08 3.902741e-08 3.966463e-08 3.4433562e-08 4.0445027e-08
4.1610795e-09 3.3135479e-09 6.6244056e-08 2.4212915e-07 4.5546806e-09 1.0093069e-08 5.5619953e-08 1.2422622e-07
3.0758287e-09 3.6897763e-09 2.1607808e-07 1.0411171e-07 2.1440576e-07 1.0963633e-07 2.1117843e-08 2.5671188e-08
2.7480633e-07 3.337943e-07 1.793701e-08 1.8743295e-08 2.9319918e-07 3.7502986e-07 1.5204144e-08 1.9560757e-08
5.0381715e-08 2.6140874e-08 4.957372e-08 2.7745843e-08 1.3445925e-08 7.912571e-09 5.363612e-08 6.694091e-08
7.57484e-09 5.1441917e-09 4.5908426e-08 5.479903e-07 1.1432075e-08 2.874385e-08 8.18131e-08 7.207376e-08
8.1840746e-08 7.6689645e-08 1.0728829e-08 9.307386e-09 8.805369e-08 2.467837e-07 7.3264403e-09 9.931027e-09
8.921559e-08 1.8248183e-07 6.6369776e-09 7.854958e-09 4.071364e-08 5.290433e-08 3.9220325e-08 5.1803084e-08
1.0395111e-08 8.641979e-09 6.193518e-08 2.473911e-07 1.4228087e-08 1.3548567e-08 8.200309e-08 4.028388e-07
1.1841223e-08 1.8639364e-08 9.7790576e-08 7.829156e-08 9.943045e-08 7.107318e-08 2.3366887e-08 1.6003415e-08
1.5759399e-07 6.717241e-07 2.4176094e-08 3.529004e-08 9.9309986e-08 1.8093662e-07 2.1222105e-08 1.5120612e-08
2.363678e-08 2.751653e-08 2.114822e-08 2.728158e-08 2.0323593e-08 1.0449501e-08 2.2542125e-08 3.7205275e-08
1.0700742e-08 7.1406197e-09 3.596023e-08 4.3194845e-08 9.318569e-09 6.0007683e-09 1.1406013e-07 8.5342485e-08
1.1649666e-07 7.991267e-08 2.6734646e-08 2.5353101e-08 1.532148e-07 2.170929e-07 2.9627307e-08 1.959817e-08
3.2018434e-07 8.2044045e-07 3.119054e-08 3.8758486e-08 1.1463421e-07 4.6011483e-08 1.1135835e-07 4.256562e-08
1.2241352e-08 9.9098525e-09 1.2037343e-07 7.3498074e-07 1.3734326e-08 4.274523e-08 1.1227461e-07 1.6692248e-07
1.00424655e-08 1.2246777e-08 6.394066e-08 6.043611e-08 6.5184935e-08 6.414939e-08 9.323671e-09 6.5766472e-09
9.080471e-08 1.7817334e-07 5.5619123e-09 6.8004726e-09 1.2787322e-07 2.0975487e-07 6.6839307e-09 9.038221e-09

exp_avg f4 [16]
00000000: 84af a7b6 b43e ff38 de3f 9639 09fb 9939
00000010: bede 3639 a0b8 e0b9 6cf5 b438 a57a b5b9
00000020: e723 01b9 bc57 7838 ffaa 95b7 941c 32b8
00000030: a8aa 5d37 195d 7339 6232 10b9 3992 5e39
-4.9974205e-06 0.00012171027 0.00028657814 0.0002936947 0.0001743985 -0.00042862166 8.628782e-05 -0.00034614388
-0.00012315773 5.9209517e-05 -1.784181e-05 -4.2465123e-05 1.32123605e-05 0.00023208967 -0.00013751679 0.00021226042

exp_avg_sq f4 [16]
00000000: 4eb8 3634 44b2 b835 bd89 2536 1df5 b235
00000010: 213e 2835 d78e 5936 5e8f 6d34 7453 8434
00000020: c7e5 ae34 1f00 3a34 402c 8e35 e4c6 2c36
00000030: 7b8c 1d34 7bd2 2f36 19cb a335 1c8b 8f35
1.701712e-07 1.376095e-06 2.466709e-06 1.3333371e-06 6.2675286e-07 3.2418664e-06 2.2124502e-07 2.4647636e-07
3.257721e-07 1.7322644e-07 1.0592703e-06 2.5745767e-06 1.4672871e-07 2.6199548e-06 1.2203556e-06 1.0694816e-06

exp_avg f4 [8, 16]
00000000: fe5d d9b8 f000 0736 5ea9 cfb8 3447 d7b8
00000010: 0bcf 1fb9 fb07 19b9 13f1 c8b8 f8fa 2db8
00000020: f074 6eb8 4aa2 19b8 8db1 1eb9 d0e3 d8b8
00000030: 1e34 1ab9 38c5 18b9 da32 bbb8 ccd7 a4b8
00000040: 8654 c638 e241 a237 8a5f b438 4cad 42b8
00000050: 0854 0939 673d 04b9 8da5 1b38 06f3 a3b7
00000060: 941b 5ab8 e02b beb7 d07b 3c38 000f e435
00000070: 65a8 beb7 d46e 1cb9 8871 75b8 9ac2 a238
00000080: 0400 0000 c16b b81d 85fe a91b 11ec 8b30
00000090: a6d2 d730 0875 8931 edf2 1a31 8900 3932
000000a0: 51bb 8421 cd5d 7b32 d12b 2d1d 0400 0000
000000b0: 7f2f 8332 a6b9 8030 1fd6 fb29 26e9 581d
000000c0: baca 1433 1d3e 22b2 c193 9034 3cb6 2c35
000000d0: 4ca9 6835 57dc 3334 2fe9 2d35 388e 5f2f
000000e0: 0400 0080 c6c7 ef32 fabe eb33 55ea 6c31
000000f0: f79b c535 ee70 0c34 feb6 60ae 0400 0080
00000100: 3c1d 3d38 ae3f ec37 8c94 e138 c988 ef38
00000110: fcf9 9138 61c6 8f39 3da4 b737 5558 9837
00000120: 47e5 a038 0097 1c38 a667 a038 12bd 4238
00000130: bcf2 2db6 4276 c439 10ea c138 157a b737
00000140: 071f c3b7 2da2 1838 46ce b7b7 6b92 8238
00000150: 063a c737 30e4 4039 64e7 5db7 0d95 f736
00000160: 55c2 c538 9d3a 0e38 e862 9439 f65e 2b39
00000170: 3b1a 0b37 9048 90b7 c9a2 0f39 722f 9d38
00000180: 0fa9 b835 8355 4037 bc39 2db6 dc2c 44b7
00000190: f611 f8b6 2217 88b8 bccc d4b6 9b1e 41b8
000001a0: f3cf 85b8 ccea 80b8 dc8c 3db8 5734 52b8
000001b0: a87d 12b6 dc31 b3b7 60cb a7b8 3a56 dab7
000001c0: a8fc c2b7 19d4 9937 085e a937 f7df 9e38
000001d0: db03 5d38 368b af39 3426 9637 64ac 11b7
000001e0: ecf3 f738 1a3d 05b7 d30c 5a39 b451 4c38
000001f0: 39b9 0db9 7acf a239 68dc fc38 f22f 9f38
-0.00010364874 2.0117113e-06 -9.902076e-05 -0.000102652615 -0.00015240551 -0.0001459419 -9.581647e-05 -4.1480147e-05
-5.685253e-05 -3.6629186e-05 -0.00015134197 -0.00010342116 -0.00014706 -0.0001456932 -8.926327e-05 -7.860325e-05
9.4571194e-05 1.9342584e-05 8.6008644e-05 -4.64146e-05 0.00013096642 -0.00012611375 3.710906e-05 -1.954428e-05
-5.2000934e-05 -2.2670196e-05 4.4938002e-05 1.6991689e-06 -2.272818e-05 -0.00014918606 -5.8518286e-05 7.761009e-05
6e-45 4.881581e-21 2.8123184e-22 1.0180675e-09 1.5703179e-09 4.0005297e-09 2.2548037e-09 1.0768539e-08
8.99425e-19 1.4631451e-08 2.2919012e-21 6e-45 1.5272006e-08 9.36599e-10 1.1183783e-13 2.8707897e-21
3.4643314e-08 -9.443764e-09 2.6929595e-07 6.434018e-07 8.6673094e-07 1.6750833e-07 6.478685e-07 2.0332258e-10
-6e-45 2.7914108e-08 1.0977779e-07 3.4475722e-09 1.4723036e-06 1.30796e-07 -5.1094233e-11 -6e-45
4.5088338e-05 2.8163045e-05 0.00010756505 0.00011421886 6.960702e-05 0.0002742289 2.189178e-05 1.8160945e-05
7.672101e-05 3.7333928e-05 7.6487006e-05 4.642929e-05 -2.59203e-06 0.00037472142 9.246555e-05 2.1872149e-05
-2.326026e-05 3.6390662e-05 -2.1911354e-05 6.2261555e-05 2.3749668e-05 0.00018395553 -1.3226501e-05 7.3785254e-06
9.429889e-05 3.3910026e-05 0.0002830245 0.00016343207 8.291153e-06 -1.7199927e-05 0.00013698185 7.495181e-05
1.3758271e-06 1.1464002e-05 -2.5812615e-06 -1.1692955e-05 -7.393067e-06 -6.489294e-05 -6.3419266e-06 -4.604329e-05
-6.380668e-05 -6.14725e-05 -4.5192297e-05 -5.0116647e-05 -2.1828837e-06 -2.136168e-05 -8.001062e-05 -2.6027777e-05
-2.3244254e-05 1.8337787e-05 2.0190157e-05 7.575744e-05 5.2694097e-05 0.0003348232 1.7899183e-05 -8.682811e-06
0.00011823312 -7.941644e-06 0.00020794877 4.8713482e-05 -0.00013515809 0.0003105363 0.0001205735 7.590641e-05

exp_avg_sq f4 [8, 16]
00000000: ef72 d233 0842 c835 1953 c235 d577 d435
00000010: 7f6a 0a35 34dc 3d36 cc2c 9934 10cf 6734
00000020: 3a65 6335 020c 8334 bc52 a435 5911 3736
00000030: dc8f 6834 5b29 8336 49f0 c135 df91 b234
00000040: 34ef df33 dc83 3e36 8d8e c335 5c55 d135
00000050: 22a1 2035 80b4 3236 ffe7 5d34 9096 f233
00000060: 5fe1 3635 c297 2e34 65cb ba35 c887 4536
00000070: dd56 2134 9188 8836 e6c2 ac35 0309 0a35
00000080: 884d e832 8b22 3636 cd98 8532 0edf 0333
00000090: b18a bc32 d17f 0834 3159 2832 f14e 8732
000000a0: 6d02 3d32 655d d133 9734 4d34 b6be 6834
000000b0: 22f9 3833 ed63 0733 0202 1e32 92b0 9434
000000c0: dff3 c231 6366 0d31 8463 8431 fa34 b231
000000d0: 31e3 9531 27e1 9031 4ee1 d130 ae26 da30
000000e0: c827 6a33 b831 1532 fb5c 2a31 ff77 dc30
000000f0: 5de8 7130 a05a cf2f dda7 e232 1c5a 8030
00000100: a3c4 8732 6de6 9a33 b1fc 6e34 5225 6434
00000110: 8130 1434 5907 f434 5091 3633 3b60 1231
00000120: b0e6 8433 8eef 3332 211b ad34 496e 1034
00000130: 20db 8a32 2c21 bd35 7108 4533 d82b bd33
00000140: 643b c932 dadf 2b36 d15b 5135 a9ee 0f35
00000150: 119e f933 5e42 bd35 a901 5933 920a b931
00000160: c7b3 d033 ea35 7f33 5df3 0335 37c9 eb35
00000170: 3865 0633 18bd c434 761a 7435 bfe3 b134
00000180: c132 df2d bffe 4d33 a210 7731 a86e ac31
00000190: 4469 ea31 6b69 b733 f987 5531 8388 4934
000001a0: 6097 ba34 21fd 5334 8c0a 2a33 98d3 7a32
000001b0: e870 3d31 251e 0e33 4add ad34 991a 0933
000001c0: d428 4834 9617 b636 5cc4 0536 ef8b 1436
000001d0: c715 6435 c597 5c36 b6e9 b334 3f60 5332
000001e0: f423 de34 e10f 1634 ea64 f435 1860 6736
000001f0: e908 de34 d1d5 9036 6715 8935 1942 7d35
9.799793e-08 1.4920379e-06 1.4478311e-06 1.5830107e-06 5.156398e-07 2.829137e-06 2.8531065e-07 2.158888e-07
8.4711394e-07 2.4409388e-07 1.2243031e-06 2.7279223e-06 2.165902e-07 3.9089186e-06 1.4449553e-06 3.326122e-07
1.04277575e-07 2.8388959e-06 1.457012e-06 1.5596556e-06 5.9839124e-07 2.6629132e-06 2.0666629e-07 1.129639e-07
6.812824e-07 1.6260222e-07 1.3917276e-06 2.9434323e-06 1.5025894e-07 4.0690143e-06 1.2871722e-06 5.142212e-07
2.7043612e-08 2.714022e-06 1.5552724e-08 3.070368e-08 2.194915e-08 1.2712486e-07 9.799167e-09 1.5751967e-08
1.10017995e-08 9.749309e-08 1.9111245e-07 2.1676064e-07 4.3067423e-08 3.152302e-08 9.197267e-09 2.769562e-07
5.673868e-09 2.05764e-09 3.8530192e-09 5.1865046e-09 4.3622994e-09 4.2165484e-09 1.5270787e-09 1.5872581e-09
5.451855e-08 8.684246e-09 2.479111e-09 1.6041212e-09 8.80055e-10 3.7717474e-10 2.6386198e-08 9.338836e-10
1.5805488e-08 7.213098e-08 2.2257406e-07 2.1247732e-07 1.380122e-07 4.5453888e-07 4.2507338e-08 2.1300497e-09
6.188691e-08 1.047364e-08 3.22435e-07 1.3451167e-07 1.6164961e-08 1.4091252e-06 4.5875314e-08 8.8089735e-08
2.3426487e-08 2.5611284e-06 7.799218e-07 5.361895e-07 1.1623718e-07 1.4100913e-06 5.052576e-08 5.3854103e-09
9.718456e-08 5.942085e-08 4.9155443e-07 1.7567426e-06 3.1291364e-08 3.664543e-07 9.093559e-07 3.3134526e-07
2.5374704e-11 4.7961972e-08 3.5952685e-09 5.018439e-09 6.8222636e-09 8.540777e-08 3.107287e-09 1.8769246e-07
3.475534e-07 1.9742994e-07 3.95908e-08 1.4600026e-08 2.75673e-09 3.3089368e-08 3.238477e-07 3.192199e-08
1.8641305e-07 5.4267684e-06 1.993284e-06 2.213517e-06 8.496831e-07 3.2870896e-06 3.3511395e-07 1.23037e-08
4.1376882e-07 1.3975615e-07 1.8208787e-06 3.4477616e-06 4.1357205e-07 4.316426e-06 1.0213524e-06 9.434603e-07

exp_avg f4 [8]
00000000: 9cc0 09b9 401e b3b9 52fd ae31 2b9d 0535
00000010: cde5 aa39 cd6f 8c39 6736 80b8 9d5f db39
-0.0001313709 -0.00034164079 5.0928657e-09 4.977507e-07 0.00032596142 0.0002678618 -6.113649e-05 0.00041842173

exp_avg_sq f4 [8]
00000000: 34d5 8036 35d1 8c36 fea6 2434 72f9 1d33
00000010: 6e23 2d35 ea91 ce35 e5ba d633 2282 b136
3.8395174e-06 4.19668e-06 1.5334442e-07 3.678128e-08 6.449908e-07 1.5390663e-06 9.9991475e-08 5.2901605e-06

exp_avg f4 [2, 8]
00000000: 584c a6b8 989a 33ba ce2c a82f efa9 1e34
00000010: b536 00b9 bb07 88b8 dcb3 f7b8 580c 7e3a
00000020: 8077 433a c68f 803a 3b6d d0af e9dc c134
00000030: 7c99 1e3a 64f7 b039 7162 3738 16e2 353a
-7.929717e-05 -0.00068513444 3.0590858e-10 1.4776718e-07 -0.00012227411 -6.486425e-05 -0.00011811379 0.00096911704
0.00074564666 0.0009808473 -3.7912593e-10 3.6109785e-07 0.00060500926 0.00033753656 4.372228e-05 0.00069382915

exp_avg_sq f4 [2, 8]
00000000: e81b 1638 52e8 f237 2cc7 da35 ec7f 9234
00000010: f049 9735 42b1 0736 585f f235 1181 9037
00000020: 74ac 4138 43fb 3838 0f93 e635 703a 6234
00000030: 689e 9435 af01 df35 571f 7a36 f196 ae37
3.5788777e-05 2.895683e-05 1.6300232e-06 2.7287695e-07 1.1271895e-06 2.0219745e-06 1.8058154e-06 1.7226239e-05
4.6175395e-05 4.4103024e-05 1.7179135e-06 2.106915e-07 1.1072962e-06 1.6615285e-06 3.7271145e-06 2.0812704e-05

exp_avg f4 [2]
00000000: 2e6f c9b9 d0be d239
-0.00038420543 0.00040196488

exp_avg_sq f4 [2]
00000000: 66b8 7237 afcd ac37
1.4467258e-05 2.0599777e-05

fc1.weight f4 [32, 20]
00000000: 79ea 20bf d74e 893e 5bdf 153f c679 b8be
00000010: 87a0 12bf 038f cf3d b801 bebe bc05 bf3e
00000020: 8c4f 183d 18eb 30be 8246 ddbd 463f b4be
00000030: e33f 8e3c 01d5 a8bd ec84 83bd e49b 373c
00000040: e3e8 a63c 51da f93c 8310 ebbc 04bd afbb
00000050: 8ba7 4abe 149d 063e e830 a9bf 8116 0a3f
00000060: 9aa6 3dbe 12ab 97bc 0e4b a3bd adac 193e
00000070: ed7c 02be d613 8c3e 3b83 53be 31b0 533d
00000080: 5170 a3bd 2c2f 09be a78a c9bc 9479 ee3b
00000090: 7b54 3cbc 541f 53b8 2a64 9c3a c0ad 2d3b
000000a0: 11a9 153c a0b3 b1be 1a17 3a3f 9a1e 90bf
000000b0: 0109 d43d f143 1fbe ae30 9fbe 1a8e 0ebd
000000c0: 54fd 7bbe 13d1 6cbe 90d3 91bd 57a9 c83e
000000d0: ef4b c0bd 1825 a5be 2ce6 fe3b 5a63 82bc
000000e0: 1a79 a6bb b05e c3bb 6b3b b13a 0c13 853c
000000f0: d1c2 fc3d ec91 ba3c de42 2e3e d265 acbf
00000100: 14c8 9c3d a81d 2dbe 4175 9dbc af58 4bbd
00000110: 6eca 143d cca9 173c 60bc a13d 0eb0 513e
00000120: eab1 333d 4706 ad3d 80c4 c8b6 52eb 8ebc
00000130: f886 e83b 1336 e9bb 7b7d 71bb f5de 293c
00000140: c693 fe3e d918 0abd 2f13 223f 0aef dfbe
00000150: c747 663f 284a d0be 0f77 433e 2f2f bd3d
00000160: d219 61bf 6458 5ebf 4290 b43e 62bf 32bf
00000170: fd6e f8be 06c9 7d3e 0947 45ba 4446 bbbc
00000180: b875 aeba 3f1b 64bd c4c1 b1bc df2d cbbc
00000190: 5cc3 f8be 4de1 553d 01b4 fbbd 23f3 36bf
000001a0: a528 4d3e dc90 ca3d 1759 8ebe c1cc e9bd
000001b0: 6750 d3be b1f0 033d dec7 bfbe 5022 58bd
000001c0: 2380 5b3e f493 98be 1103 303d cb3c 60bd
000001d0: 317d b43c d94f 4c3c e0bc 1ebd 434a 1bbd
000001e0: e767 0fbd 1332 f1bd 01ad 84bf 64a8 b1bf
000001f0: 4bc4 23be d84e 0ebe fbd0 80bd 8f86 b2bd
00000200: bd56 a53c 6bac a8bd bab3 26be 2a4b 1dbe
00000210: e4a9 b23c 6fa3 b23d 8607 7ebc 4c2d c5bc
00000220: ee8c 223c 77a1 0bbc 7663 71bb ddcb 50bc
00000230: 38a8 01be 7a49 fcbd 82d5 4740 4711 723f
00000240: 78b5 c33e 8691 6d3c ce5b a2bd 6940 cd3d
00000250: ff75 b63d 41c1 b23d c5d0 3c3e 1e24 103d
00000260: 979e 6dbd 7040 403d 2f37 2f3d 7c9a 5bba
00000270: dff0 ebbb d0df 073c 14af 0bbc f490 bcbb
00000280: 047e b2bd c649 6f3e c4de 013d 748b f03e
00000290: 97e8 213f 34f7 46be de9e b7be 14bd 6f3d
000002a0: da66 3abe cd6a 703e 65ac 3cbd 78e3 1bbf
000002b0: 9a11 7c3e 0f01 a33d e7c9 a4bd 8fee 8f3d
000002c0: f1a7 9fbc d70c 03bd 7231 1cbd ac74 e1bb
000002d0: b74d c03e ba73 703c 1fa2 a4be 8a2a 96bf
000002e0: 3c71 7abe e34d 93be e137 293e 3138 9f3d
000002f0: b64b 9b3d 63ea 803c 5540 4c3e 562f 1dbd
00000300: d866 74bd bfcc 0c3c 33bf fabb 6715 32bc
00000310: e86e 103c 48c9 5fbb 2f77 413c 9ffe aa3b
00000320: 3db8 35be f8f9 12ba 25fe 413f 7498 8ebe
00000330: eda8 cb3c effb bf3d 5199 bcbd 5476 593e
00000340: a5a7 693e fd5f 1e3e 42df 9cbe 26b7 98be
00000350: a903 213d 54d8 493e e6f4 e4bb e19b cb3c
00000360: 8338 7f3b 60bf f83c d7c9 56bc 582a 993a
00000370: d600 d13e 3432 0e3d 4fff 1c40 afc2 fabe
00000380: fcea 873e 11f9 22be f313 57bc f9e9 15bc
00000390: 59b9 cb3d e210 713e 10d0 ca3b fcf1 723d
000003a0: 9585 913e c87e 02bd 8844 f23c daec bbbb
000003b0: 1cd3 d13b a383 ba3b 1435 873a 424c 01bb
000003c0: a208 cebd 4255 8f3d f10d 88bf c3ef 053f
000003d0: b6bb 81bd e8d8 aa3d 9b08 a9bb da04 cf3c
000003e0: b3a4 ef3d 2369 4d3e e6f4 92bd 8408 ec3c
000003f0: 39bb 613d 5f1a 543e bd06 bcbc 6ef1 c93b
-0.62857777 0.26817963 0.5854394 -0.36030406 -0.57276195 0.10134699 -0.37110686 0.37309062
0.037185237 -0.17277181 -0.10804464 -0.35204524 0.017364448 -0.08243752 -0.06421837 0.011206601
0.02037472 0.03049961 -0.028694397 -0.0053631086 -0.19790475 0.13145858 -1.321805 0.5394059
-0.18520585 -0.01851419 -0.079733 0.15007277 -0.12742968 0.27358884 -0.20655529 0.0516817
-0.07980407 -0.13396901 -0.024602247 0.007277677 -0.011494751 -5.0335497e-05 0.0011931707 0.0026501268
0.009134547 -0.34707355 0.726915 -1.1259339 0.1035328 -0.15553261 -0.31091827 -0.034803487
-0.24608356 -0.2312663 -0.071204305 0.39191696 -0.09389483 -0.32254863 0.0077789035 -0.015916515
-0.0050803544 -0.0059622154 0.0013521736 0.016244434 0.12341846 0.02277466 0.17017695 -1.3468573
0.076553494 -0.16905844 -0.01922095 -0.049645122 0.036325864 0.009256791 0.07897258 0.20477316
0.043870844 0.08448463 -5.98334e-06 -0.017446194 0.0070961677 -0.007117042 -0.0036848474 0.0103680985
0.49722117 -0.033715103 0.6331052 -0.4373706 0.89953274 -0.40681577 0.19088386 0.09237515
-0.87930024 -0.86853623 0.3526631 -0.69823277 -0.48522177 0.24783716 -0.00075255387 -0.022860654
-0.0013310229 -0.055690046 -0.02169884 -0.024802146 -0.48586547 0.052216817 -0.122901924 -0.7146475
0.20035036 0.09890911 -0.27802345 -0.11416007 -0.4127228 0.032211963 -0.37457174 -0.052767098
0.21435599 -0.2980038 0.042971674 -0.054745477 0.022032352 0.012470209 -0.038754344 -0.03791262
-0.0350112 -0.11777129 -1.0365297 -1.3879514 -0.15992849 -0.13897264 -0.0628986 -0.08717071
0.020182962 -0.08236011 -0.16279498 -0.15360704 0.021809526 0.08722579 -0.015504723 -0.02406945
0.009921296 -0.008522383 -0.0036832965 -0.012743917 -0.12661827 -0.12318702 3.1224065 0.94557613
0.38224387 0.0145000275 -0.079276666 0.10022051 0.08909225 0.087282665 0.18439014 0.035190694
-0.05801257 0.046936452 0.042777237 -0.0008377207 -0.007200345 0.008293107 -0.008525629 -0.0057545844
-0.08715442 0.23367986 0.031706586 0.46981394 0.6324553 -0.19430238 -0.35863394 0.05852993
-0.18203297 0.23478241 -0.046062846 -0.60893965 0.2461609 0.07959186 -0.08046322 0.07027923
-0.01948926 -0.031994667 -0.038133092 -0.0068803634 0.37559292 0.014676029 -0.3215494 -1.1731732
-0.24457258 -0.2877036 0.16525222 0.077743895 0.075828 0.015736764 0.19946416 -0.03837522
-0.059668392 0.008593737 -0.0076521873 -0.0108693605 0.008815505 -0.0034147073 0.011808201 0.0052183415
-0.17746063 -0.0005606706 0.7577842 -0.27850688 0.024860824 0.093742244 -0.0920893 0.21236545
0.22817858 0.15466304 -0.30639082 -0.2982723 0.03931013 0.19711429 -0.006987202 0.024854602
0.0038943596 0.030364692 -0.013109646 0.0011685593 0.4082095 0.034715846 2.4530828 -0.48976657
0.26546466 -0.15915324 -0.013127315 -0.009150022 0.09947462 0.23541597 0.0061893538 0.059312806
0.28422228 -0.03185919 0.029573694 -0.005735022 0.00640334 0.005691962 0.0010315501 -0.001972929
-0.1006024 0.069986835 -1.0629255 0.5231897 -0.06334631 0.08342153 -0.0051584966 0.025270868
0.11701336 0.20059638 -0.07175617 0.028812654 0.05511019 0.20713185 -0.022952432 0.006162814

fc1.bias f4 [32]
00000000: 8af8 ae3e 5552 17bf 819d e3be 41cc a3be
00000010: e473 743e a8ad 8a3f cc91 77bf 93a8 13bf
00000020: f01d a5bf c6e0 f6be 0455 6a3f 18d1 88be
00000030: ac64 debd 3438 f9be cd8b 9fbf 0dc7 0bbf
00000040: 7afe 203f a5ce bdbf fe5b ea3f 317c 23bf
00000050: 89a9 8dbf a7e9 3dbe 24f1 993e a62b 24bf
00000060: 9da2 8dbc aa42 9fbe be16 47bf dc92 2e3f
00000070: e96c 85bf dc6c adbe d4cc ae3d ba84 61be
0.34173995 -0.59110004 -0.44456103 -0.3199177 0.23872334 1.0834246 -0.96706843 -0.576791
-1.2899761 -0.48218364 0.91535974 -0.26722026 -0.108590454 -0.48675692 -1.2464539 -0.546006
0.628883 -1.4828688 1.8309324 -0.63861376 -1.1067363 -0.18546163 0.30066788 -0.641291
-0.017289454 -0.31105548 -0.77769077 0.6819284 -1.0423862 -0.33872116 0.085351616 -0.22023287

fc2.weight f4 [16, 32]
00000000: 8a7d 03bd dd30 183f c240 333e 68d0 043f
00000010: eda9 493d c5ac e63d 0ad5 823f 9569 5a3f
00000020: 66c4 c43c af6e ad3e 3531 5fbe 1036 153f
00000030: 1d59 183e 8138 e43e 897e 7c3f 9a50 2c3f
00000040: 820f 2e3d 7b22 913f f687 163e 1231 bc3e
00000050: 8efc 4b3f 4d59 f63e 8444 df3c af79 453f
00000060: ffb0 3c3d 023e e63e 3a85 913f 057b e1bd
00000070: 674d 4a3f 92ca 34bd 200d ffbc ba82 253f
00000080: cdc5 d6bc 3c68 3d3f cbc9 f73e 62dd 283f
00000090: 94eb 8bbd 30f4 3cba 0266 8c3f 605a 953f
000000a0: 81c5 873e f58f 133f 550b fdbc 9473 1a3f
000000b0: ad2c 633d bd13 fe3e 27fb 443f c388 5c3f
000000c0: ccc8 89bd 16d8 a83f d810 91bd 8414 403e
000000d0: 9831 6d3f 4a7c 263f d963 873e 1d7a 523f
000000e0: ba19 9b3d cd1a f53e 25c0 ae3f a865 f3bc
000000f0: 7906 3e3f 819d 0a3d 56f7 73bc 7071 4b3f
00000100: 9754 2d3d 8137 763d 41f4 52be 1826 753d
00000110: 0999 93bd 744e 93bd a6f4 593d 89fe 5fbc
00000120: 0972 8cad 3285 003d 3fbb a3bd 5b04 ed3a
00000130: 2d22 343d 516b e7bb 5363 33b7 d71c d3bd
00000140: 6f46 91bc d1ad 56bd bd14 99bd 059f 37be
00000150: 1dbd 03be 0542 eabc e3d3 edbd 4102 f6bd
00000160: 9cb2 f7bc 0003 0ebe 07f1 4d3d 038d b7bd
00000170: 7fa2 39bd c41a 71bd 081e 21be a9de 8e3c
00000180: c3b8 113d 534f d1bc 9c29 a3bd b861 453d
00000190: 90df 7dbb c7c6 39bc cbdf 0bbd 9845 0ebc
000001a0: d6bd 1b80 61f6 37bd df36 063a 7194 4bbc
000001b0: bde4 b3bb 94c3 f5b8 7d75 7c37 2e77 773d
000001c0: cb98 1cba 847d 55bc 44bb d8bc a758 173d
000001d0: 36f7 6aba 8e02 47ba 0a2e dcbb e41f 963b
000001e0: 0351 4fbb 38e4 6a3b e537 3a3b da74 33bc
000001f0: 20c7 3cbb 9dd2 883b 1aed e5bc 85cd c1bd
00000200: 8900 05bd ac0b 283c fc1d e53c a1a3 77bd
00000210: 25b3 6eb8 38e1 08bc c2eb 0f3a e846 3e3a
00000220: 7407 5b89 30d3 22bb c77b 3cbd 97cb 83ba
00000230: c548 82bb 527e b4b9 953e 3187 3077 1ebe
00000240: 068f 5cb9 9fa9 e0b9 f191 eabc 3bcf b5bc
00000250: 1d7f 523c 7d1d 243b ffb0 d43b 8640 81bb
00000260: f053 59bc 4710 c9bd 0d0d 2bba 6944 49bc
00000270: 82c9 0d3a 2a4e a83c d7ce 123c 4f74 b7bd
00000280: 6f6f 3cbf d3ac 563f cb0e 7a3d 3fb2 153e
00000290: 7f89 88be f088 12bf 2778 6c3f a98a 633f
000002a0: 4059 443e 7064 fe3c eb04 c4be 181e 8b3e
000002b0: 2a25 ac3e 2d22 333f acac 773f 81f9 b53e
000002c0: 2672 15be 22cb 823f 43e3 97be bded d13e
000002d0: b63c 283f 54a4 e63e 0c7a 1fbf 9235 0c3f
000002e0: ff43 22bf 192d 0c3f f065 433f 8d84 98bf
000002f0: 5f54 cc3e 266f 733e 58d6 2d3d 2c61 283e
00000300: 3e60 333e f58e 843f 1500 143f a6b3 a2bd
00000310: 3e93 a1be e3ea debe 19f1 8f3f b9c3 a23e
00000320: 2d80 373f a1ca c63e b22a 12bf b753 853e
00000330: 82c1 893e dd28 363f 6f7c 8b3f 557a ed3e
00000340: 977d eebe d846 973f 1367 70bf 1738 ee3e
00000350: 6ef5 6d3f 8386 ab3e 9ee7 6ebe d9d1 a83e
00000360: 8249 0fbf 24b0 ae3e 281d c93e 803a b2be
00000370: 7f87 a73e 2c3a c43e b7dd 8bbe 97d9 3c3e
00000380: 87c6 75be ba69 563f 23ef 9c3e 991f 253e
00000390: 3c97 c6be e633 c2bd 2e8b 653f baed 073e
000003a0: 5d57 ec3e 3ffd 9f3e 2aa3 03bf a192 883d
000003b0: 1491 b03e 01e9 1a3f 05bd 8e3f 1314 e23e
000003c0: e158 56be f40f b53f dda8 ecbe 8fd7 0f3f
000003d0: 6abb 803f a171 873e 0b4b d0bd ad0f 253f
000003e0: 70f5 a1be 7634 c43e f456 793e c087 a3be
000003f0: 8635 2d3e 352f 3e3e 03e4 fbbd 1c35 a23e
-0.032102145 0.5944956 0.17505172 0.518805 0.04923432 0.11263422 1.0221264 0.85317355
0.024019431 0.33873507 -0.21796115 0.5828562 0.14877744 0.4457436 0.9863058 0.6731049
0.04249526 1.1338648 0.14700302 0.36756188 0.7968224 0.48115006 0.02725435 0.771388
0.046067234 0.44969183 1.1368783 -0.11009792 0.79024357 -0.0441385 -0.031134188 0.646526
-0.026217366 0.73987174 0.48396143 0.65962803 -0.06832042 -0.00072080176 1.096863 1.1668205
0.2651787 0.57641536 -0.030889193 0.6033261 0.055462528 0.49624434 0.7694573 0.8614618
-0.06727752 1.3190944 -0.07083291 0.18757826 0.926538 0.650334 0.26443365 0.8221758
0.07573266 0.4787201 1.3652388 -0.02971156 0.74228626 0.033841614 -0.014890512 0.79469967
0.042317 0.060111526 -0.20600988 0.059850782 -0.072069235 -0.07192698 0.05321183 -0.013671526
-1.5966799e-11 0.031377025 -0.07994699 0.0018082963 0.043977905 -0.0070623537 -1.0692357e-05 -0.10308235
-0.01773378 -0.052411858 -0.07474659 -0.17931755 -0.1286511 -0.028595934 -0.1161268 -0.12012149
-0.030236535 -0.13868332 0.05027869 -0.08962443 -0.045320984 -0.058863416 -0.15734112 0.017440157
0.035576593 -0.02555052 -0.07966921 0.048188895 -0.003873799 -0.011338896 -0.034148972 -0.008683585
-2.547659e-39 -0.0449127 0.0005119871 -0.012425528 -0.005489914 -0.0001171894 1.5047725e-05 0.060416393
-0.00059736957 -0.013030414 -0.026456483 0.03694978 -0.0008963229 -0.0007591628 -0.0067193555 0.0045814384
-0.003163398 0.0035841595 0.0028414663 -0.010953153 -0.0028805211 0.0041754977 -0.02806716 -0.09463028
-0.032471213 0.010256689 0.0279684 -0.060458783 -5.6910463e-05 -0.008354478 0.0005490148 0.00072584907
-2.636467e-33 -0.0024845116 -0.04601648 -0.0010055181 -0.00397596 -0.0003442639 -1.3334391e-34 -0.15475154
-0.00021034115 -0.00042850987 -0.028634043 -0.022193542 0.012847689 0.002504199 0.006490826 -0.0039444594
-0.013264641 -0.09817558 -0.0006525077 -0.012284377 0.000540875 0.020545084 0.008960447 -0.08957731
-0.73607534 0.8385746 0.061049264 0.14618777 -0.266674 -0.572402 0.9237084 0.88883454
0.19174671 0.031053752 -0.38285002 0.27171397 0.33622104 0.69974023 0.9674785 0.3554192
-0.14594325 1.0218241 -0.29665574 0.41001692 0.6571764 0.45047247 -0.62295604 0.5476924
-0.63385004 0.54756314 0.7632742 -1.1915451 0.3990812 0.23772869 0.042440742 0.16443318
0.17517182 1.0356127 0.57812625 -0.079444215 -0.3155765 -0.4353858 1.1245452 0.3178995
0.71679956 0.3882647 -0.570964 0.26040432 0.26905447 0.711561 1.0897349 0.46382394
-0.46580192 1.1818495 -0.9390728 0.46527168 0.9295262 0.33501062 -0.23330542 0.329726
-0.5597154 0.3411876 0.39280057 -0.34810257 0.32720563 0.38325632 -0.27317593 0.18442379
-0.24001513 0.83755076 0.30651197 0.16125335 -0.38787258 -0.09482555 0.89665496 0.13274279
0.46160403 0.312479 -0.51420844 0.06668592 0.34485686 0.60511786 1.1151434 0.4415594
-0.20932342 1.4145494 -0.46222582 0.5618829 1.0057194 0.2645388 -0.10170563 0.64477044
-0.31632566 0.38321275 0.24349576 -0.31939507 0.16914949 0.18572696 -0.12299349 0.31681144

fc2.bias f4 [16]
00000000: e30e 8b3e feb1 833e e5e5 113d 480b 21bd
00000010: 27a4 48bd 3ab2 1abf 164b 98bf 067b 2ebf
00000020: 2672 a6be dd49 54be bd7a 863c 4886 883e
00000030: 656c 733d 3a32 50bd dfc5 fe3d 90aa 0bbe
0.27159795 0.25721735 0.035619635 -0.0393174 -0.048984673 -0.604282 -1.1897914 -0.6815647
-0.32508963 -0.20731302 0.016415948 0.26664948 0.059429545 -0.05082915 0.12440085 -0.13639283

fc3.weight f4 [1, 16]
00000000: b689 13bf fc3b 26bf 0cad df3d d4d7 a8bd
00000010: c997 2f3b ccf6 7abf 9720 a2bf 3ed5 4fbf
00000020: 5bce 7bbf c451 cc3d b041 bb3d 3da9 0dbf
00000030: 9354 f03d 5452 013e 4c7d 4dbf 27c0 1ebf
-0.57632005 -0.6493528 0.10921678 -0.08244291 0.0026793352 -0.9803283 -1.2666196 -0.81184757
-0.9836175 0.09976533 0.09143388 -0.5533636 0.11734881 0.12629062 -0.8026931 -0.6201195
