DRL-course/MADDPG/model_dir/episode-16000.pt (torch_old, 71203 bytes, 99 tensors)

fc1.weight f4 [16, 14]
0	0xbf82feba	-1.0233986
1	0x3f717041	0.9431191
2	0xbf8bfd5b	-1.0936693
3	0x3f8181b8	1.0117712
4	0xbebad401	-0.3648987
5	0x3d12dce2	0.03585518
6	0x3e31bf2e	0.17358086
7	0x3e360821	0.17776538
8	0xbe06cc02	-0.1316376
9	0x3e51c34f	0.2048466
10	0x3e15ea3f	0.14640139
11	0x3d3a43e0	0.045474887
12	0xbe2c6dd9	-0.16838779
13	0x3f0c2adb	0.5475289
14	0x3f230611	0.6368113
15	0x3f9e3acc	1.2361693
16	0x3f38320f	0.71951383
17	0x3f949b02	1.1609805
18	0x3da6a134	0.08136216
19	0x3e7df574	0.24800664
20	0xbdd09d74	-0.10186282
21	0x3df619b5	0.12016622
22	0x3f0ac458	0.54205847
23	0x3ec2c738	0.38042617
24	0xbe9908c5	-0.29889503
25	0x3e8febbe	0.28109545
26	0x3f1be02d	0.6088894
27	0x3f412a7c	0.7545545
28	0xbef0465c	-0.4692868
29	0x3f56f175	0.83962184
30	0xbe94e33a	-0.2907961
31	0x3f126678	0.57187605
32	0xbe53206e	-0.2061784
33	0xbf066912	-0.52504075
34	0xbe3be82c	-0.18350285
35	0xbda9dc9e	-0.082940325
36	0xbd4c2fbc	-0.04985021
37	0x3e615224	0.2200399
38	0x3d5a6029	0.05331436
39	0xbeba97b0	-0.36443853
40	0x3e85bbab	0.26119742
41	0xbe3fa7e3	-0.18716387
42	0xbec99ea4	-0.39378846
43	0x3e4a4cf5	0.1975592
44	0xbf163003	-0.5866701
45	0x3eb7173a	0.35759908
46	0x3edca1e7	0.43092272
47	0xbe648b43	-0.22318749
48	0xbf1818ea	-0.59413016
49	0x3db1413f	0.08655023
50	0xbea33aa1	-0.31880668
51	0x3dadb96b	0.08482631
52	0xbe450a3c	-0.19242185
53	0x3e08facc	0.13376921
54	0xbdc88d5e	-0.09792589
55	0x3e7975f4	0.24361402
56	0x3d0b0f14	0.033949926
57	0x3ea6365f	0.32463357
58	0xbdd56a5f	-0.10420679
59	0x3e8bf2aa	0.27333575
60	0xbd1f72f6	-0.038927995
61	0x3dabc832	0.083877936
62	0x3ea95858	0.33075213
63	0x3e37bd64	0.1794334
64	0x3e85ca69	0.2613099
65	0xbd9a052d	-0.075205185
66	0xbf6cff88	-0.9257741
67	0x3f0f36ce	0.55943
68	0x3eb7750f	0.35831496
69	0x3e55f532	0.20894316
70	0xbea99309	-0.3311999
71	0x3e8f51a3	0.2799197
72	0xbebc37f0	-0.36761427
73	0x3e99498d	0.29938927
74	0xbdae7d24	-0.085199624
75	0xbe5ebe5a	-0.21752301
76	0x3fa047a5	1.2521864
77	0x3e5b0cc6	0.21391591
78	0xbeacf13e	-0.33777803
79	0x3daeb051	0.085297234
80	0x3fb198fd	1.3874813
81	0x3e3e4814	0.18582183
82	0x3ce39f72	0.02778599
83	0x3e0ed72f	0.13949274
84	0xbe732c74	-0.23747426
85	0xbd85939d	-0.065222956
86	0xbeb31f01	-0.34984592
87	0xbe47aede	-0.195003
88	0xbe5743ec	-0.21022004
89	0xbe7f697a	-0.2494258
90	0x3ee6c1e0	0.4506979
91	0xbf009d4b	-0.5024001
92	0x3f5e9d21	0.8695851
93	0x3f427e68	0.7597413
94	0xbf520c88	-0.8205037
95	0x3dd4948c	0.103798956
96	0xbc2fd240	-0.01073128
97	0xbddcf0bf	-0.10788106
98	0x3f2f3b28	0.6844964
99	0xbfa1fd01	-1.2655336
100	0x3f3a4a0c	0.72769237
101	0xbf8a9fd0	-1.0830021
102	0xbe0825b9	-0.1329564
103	0xbec70c6f	-0.38876674
104	0xbe0e06c3	-0.13869767
105	0xbd8634ec	-0.06553063
106	0xbd446200	-0.047945023
107	0xbf10fd43	-0.56636447
108	0xbe60961f	-0.21932267
109	0xbe04f4d3	-0.12984018
110	0x3b522a48	0.0032068659
111	0xbe84b8b5	-0.2592217
112	0x3f8b82b0	1.0899258
113	0xbf1a32eb	-0.60233945
114	0x3f9ef508	1.2418528
115	0xbf6510d2	-0.8947879
116	0x3f8df408	1.1090097
117	0xbe5227cc	-0.20522994
118	0xbec9bed8	-0.39403415
119	0xbdcf5fe2	-0.1012571
120	0xbe7a3a03	-0.24436192
121	0x3e539a70	0.20664382
122	0x3dd8af1f	0.10580277
123	0x3e9996ba	0.29997808
124	0x3fb709d3	1.4299873
125	0x3f08dfb9	0.53466374
126	0x3eab2e48	0.33433747
127	0xbf7e66b5	-0.9937547
128	0x3ec634db	0.387122
129	0xbf813885	-1.0095373
130	0x3f103153	0.5632526
131	0x3e315511	0.17317607
132	0x3f18abba	0.59637034
133	0x3e3edbed	0.18638583
134	0xbf3f240d	-0.74664384
135	0xbf4cf5e0	-0.80062675
136	0xbde1b5b7	-0.110209875
137	0x3e47560a	0.19466415
138	0xbf30ad56	-0.6901449
139	0xbee6de0e	-0.4509129
140	0x3d4fb550	0.050710022
141	0x3e531404	0.20613104
142	0x3e054663	0.13015132
143	0x3e0a3f0e	0.13500616
144	0xbec0077e	-0.37505716
145	0x3da5277e	0.08064173
146	0x3f98f38d	1.1949326
147	0x3e72ad2e	0.23698875
148	0x3fe1d0b9	1.7641822
149	0x3ea0c86c	0.3140291
150	0x3d478823	0.048713814
151	0x3d8c04c4	0.068368465
152	0x3e72c4b8	0.23707855
153	0x3cabb05d	0.02095812
154	0xbedfdeb2	-0.4372459
155	0x3f000e95	0.5002225
156	0xbee0eaf7	-0.43929264
157	0x3f0730fd	0.52809125
158	0x3cef5389	0.029214637
159	0xbd4959bb	-0.04915784
160	0x3c9efda0	0.019408047
161	0x3d69e8c5	0.057106752
162	0xbd09e0f1	-0.033661786
163	0x3e9f0b56	0.31063336
164	0xbc9716ad	-0.01844343
165	0xbfa64ee9	-1.2992831
166	0x3db98d7e	0.090601906
167	0xbdf8215f	-0.1211574
168	0xbfa90477	-1.3204488
169	0xbf9df0ce	-1.2339113
170	0xbfadef0d	-1.3588578
171	0xbf979fd3	-1.184565
172	0xbf67279c	-0.90294814
173	0x3e8c733b	0.27431664
174	0xbf96a999	-1.1770507
175	0x3e930fc1	0.28722957
176	0xbedd2f39	-0.4320009
177	0xbf3f0a4a	-0.74625075
178	0xbf2c5953	-0.673238
179	0xbe3b4d85	-0.1829129
180	0xbed97b78	-0.42477012
181	0xbef9f0af	-0.4881644
182	0xbe2a50b9	-0.16632356
183	0x3f1a0e60	0.60178185
184	0xbe222989	-0.15836157
185	0x3f12ec4c	0.5739181
186	0x3e2a41f6	0.16626725
187	0xbe6211db	-0.22077124
188	0x3c7d8699	0.015473985
189	0xbfd4b2c2	-1.6617053
190	0xbe6281c2	-0.22119811
191	0xbea40445	-0.32034507
192	0x3ddf15b8	0.108928144
193	0x3e1df079	0.15423764
194	0x3dba84e2	0.09107377
195	0x3e316258	0.17322671
196	0x3f458340	0.77153397
197	0xbc907e27	-0.01763828
198	0x3f427950	0.7596636
199	0xbd978195	-0.07397763
200	0x3c08e7d4	0.008356053
201	0xbe0c6a4d	-0.13712426
202	0xbe80edf9	-0.2518156
203	0xbd61ca23	-0.055124413
204	0x3e628dda	0.22124425
205	0x3e31325f	0.17304371
206	0x3eed3a56	0.4633357
207	0xbf5bad77	-0.8581156
208	0x3de1d1fb	0.11026379
209	0xbfa048dc	-1.2522235
210	0x3f1a2c2d	0.60223657
211	0x3f2014fd	0.62532026
212	0x3f190bd3	0.5978367
213	0x3f4b7e48	0.79489565
214	0x3e9e2598	0.30888057
215	0xbe63a97a	-0.22232619
216	0x3e9b8512	0.30374962
217	0xbd3fcbaf	-0.046825107
218	0x3e1f8bd6	0.15580687
219	0x3f26add2	0.6510898
220	0xbd82d505	-0.063882865
221	0xbe84ac3e	-0.2591266
222	0x3dcdc611	0.10047544
223	0xbe5880ee	-0.21142933

fc1.bias f4 [16]
0	0xbf569546	-0.83821523
1	0xbf52c3be	-0.8232993
2	0x3f03a280	0.5141983
3	0x3f1219cc	0.5707061
4	0x3e8b72fa	0.27236158
5	0x3f27951d	0.65461904
6	0xbeb15f5a	-0.3464306
7	0xbf94e1e9	-1.1631442
8	0xbec1c8a3	-0.37848386
9	0xbf425601	-0.7591248
10	0x3eb3cabb	0.3511561
11	0x3f043b1a	0.5165268
12	0xbf9b9c57	-1.2157086
13	0x3f2441c9	0.6416288
14	0x3dbdaffd	0.09262083
15	0xbc1f0ce4	-0.009707663

fc2.weight f4 [8, 16]
0	0xbee03749	-0.4379218
1	0xbee12b4a	-0.4397834
2	0xbcfa6dd7	-0.030569954
3	0x3d7baffd	0.061447132
4	0x3ecc993c	0.3996066
5	0x3eabdf8a	0.33568984
6	0x3e84d0c8	0.25940537
7	0x3f395c83	0.72406787
8	0x3e483760	0.19552374
9	0x3f801c04	1.000855
10	0x3e3d517c	0.18488115
11	0x3f1d9ab4	0.61564183
12	0x3fbbc916	1.4670742
13	0x3f181205	0.59402496
14	0x3ef52612	0.47880608
15	0xbf172180	-0.5903549
16	0xbf2700f3	-0.65235823
17	0x3f9126e0	1.1339989
18	0x3db647c8	0.0890041
19	0x3d58e9a0	0.052957177
20	0xbe8ada2a	-0.2711957
21	0x3f9cc968	1.2248964
22	0xbed9a36c	-0.42507493
23	0x3e9644d7	0.29349396
24	0x3ed67639	0.41887072
25	0xbef9189d	-0.4865159
26	0x3f1e6ec9	0.61887795
27	0x3d50fa4d	0.051019955
28	0xbea3bdd2	-0.3198076
29	0xbe03327e	-0.1281223
30	0x3d8bccb5	0.06826154
31	0x3e0f39dc	0.13986915
32	0x3e229ae9	0.15879406
33	0x3ea78d25	0.32724872
34	0xbf0d4cd8	-0.5519538
35	0xbef17bc1	-0.4716473
36	0xbebf0711	-0.3731008
37	0xbe83358b	-0.25626788
38	0xbf0ff27a	-0.56229365
39	0x3e817ba1	0.25289634
40	0xbf7593c9	-0.9592863
41	0x3f014359	0.5049339
42	0x3cbcb36a	0.02303477
43	0x3c177662	0.009244533
44	0xbda972b4	-0.08273831
45	0x3df3280a	0.11872871
46	0xbf92b14c	-1.1460357
47	0x3eebebe5	0.4607841
48	0xbe4601dd	-0.19336648
49	0xbe4d414f	-0.20044445
50	0x3dd544b3	0.10413494
51	0xbc153399	-0.00910654
52	0x3d3b40d5	0.045716126
53	0xbd2aedfe	-0.041730873
54	0x3dbf9213	0.09354033
55	0xbec4356b	-0.38322005
56	0xbe4692b2	-0.19391897
57	0xbe630033	-0.22168045
58	0xbdb8d1d1	-0.09024394
59	0xbe600218	-0.21875799
60	0xbc22e96f	-0.00994335
61	0xbe56f05f	-0.20990132
62	0xbdfacc76	-0.12246029
63	0xbe71b856	-0.23605475
64	0x3f0176b8	0.50571775
65	0x3ea118ff	0.31464383
66	0xbe23b506	-0.15987024
67	0x3e8e9cfe	0.2785415
68	0xbef5cfa4	-0.4800998
69	0x3e09840d	0.1342928
70	0xbf0c639d	-0.548395
71	0xbf30f892	-0.6912929
72	0xbe752d37	-0.2394303
73	0x3e148c98	0.14506757
74	0x3f1c9055	0.61157733
75	0xbfd53631	-1.6657163
76	0xbec049fb	-0.37556443
77	0x3f8e1c7b	1.1102442
78	0xbeeb6178	-0.459728
79	0x3d35e8f8	0.04441163
80	0xbe802865	-0.2503082
81	0x3e80ca2c	0.25154245
82	0x3f2e75cc	0.68148494
83	0xbd8e452b	-0.069467865
84	0xbdf6889a	-0.120377734
85	0x3e97f140	0.29676247
86	0xbed48ad0	-0.41512156
87	0xbfb30ffa	-1.3989251
88	0x3e9280ac	0.28613794
89	0xbe60bbd5	-0.21946652
90	0xbefcf493	-0.49405345
91	0x3eb7c39d	0.3589143
92	0xbef31c09	-0.47482327
93	0xbfd105d1	-1.63299
94	0x3f10afe7	0.56518406
95	0x3e8e3067	0.27771303
96	0xbec86edd	-0.39147082
97	0x3d489347	0.04896858
98	0xbf92b5a0	-1.1461678
99	0xbfa066da	-1.2531388
100	0xbedd2980	-0.43195724
101	0xbe346b33	-0.17619018
102	0x3e17d0d4	0.14825755
103	0x3f3c32e6	0.73515165
104	0x3f65ed9a	0.89815676
105	0x3ec3dc66	0.38254088
106	0x3d84f7fe	0.06492613
107	0xbfc00757	-1.500224
108	0xbeae2af4	-0.34017146
109	0xbf27759c	-0.6541383
110	0x3f3e2c68	0.7428651
111	0x3f1f6eb5	0.622783
112	0x3f8da529	1.1066028
113	0x3ea6dfa8	0.3259251
114	0x3f01e852	0.5074512
115	0x3ee8597a	0.45380765
116	0x3f29c2c1	0.66312796
117	0xbe0e28b7	-0.13882719
118	0x3f11ac17	0.56903213
119	0xbf7128e9	-0.9420305
120	0xbe8d4a72	-0.2759586
121	0xbd629bb0	-0.055324256
122	0xbe11351d	-0.14180417
123	0x3d9b149b	0.075722896
124	0x3f714a8a	0.9425436
125	0x3cba776f	0.022762029
126	0xbe9979c5	-0.29975715
127	0x3da405ef	0.08008944

fc2.bias f4 [8]
0	0x3edc3d51	0.4301553
1	0x3f19b602	0.60043347
2	0xbf7473b6	-0.9548906
3	0xbdb05cf7	-0.08611482
4	0x3e0cdfd5	0.1375726
5	0x3f414576	0.75496614
6	0x3eeeca81	0.46638873
7	0x3ec01b50	0.37520838

fc3.weight f4 [2, 8]
0	0xbe44978f	-0.1919844
1	0x3f5aa2d6	0.8540472
2	0x3ee9e41f	0.45681855
3	0x3df282ce	0.11841355
4	0xbf113c4a	-0.5673262
5	0xbf452de0	-0.77023125
6	0x3f212abf	0.6295585
7	0xbee74136	-0.4516694
8	0xbf30bed0	-0.69041157
9	0x3ea466e6	0.32109755
10	0xbef6a602	-0.4817353
11	0x3c987b24	0.018613406
12	0x3f0fcc96	0.5617155
13	0x3f01a562	0.5064298
14	0xbe938cd0	-0.2881837
15	0x3f11b74e	0.56920326

fc3.bias f4 [2]
0	0x3d5e8b7b	0.054332238
1	0xbd186248	-0.037203103

exp_avg f4 [16, 14]
0	0x36cf6270	6.1805404e-06
1	0xb83baf1e	-4.4747365e-05
2	0xb74412f8	-1.1686927e-05
3	0xb6087d9e	-2.0338698e-06
4	0x37a2982b	1.9382764e-05
5	0xb6ffc7b9	-7.622843e-06
6	0xb8117371	-3.4678207e-05
7	0x33aaf300	7.960443e-08
8	0xb6eeb3e0	-7.113893e-06
9	0x3778a170	1.48195395e-05
10	0x37527d1c	1.2546105e-05
11	0x379deaf4	1.8825267e-05
12	0x34bec0c8	3.5530525e-07
13	0xb5ecce54	-1.764342e-06
14	0x384e90c4	4.924905e-05
15	0x383d79a6	4.5174405e-05
16	0x381d769f	3.754219e-05
17	0xb73f9dad	-1.1421199e-05
18	0x380eb8f7	3.40277e-05
19	0x381fb08c	3.8072976e-05
20	0x383f4849	4.560527e-05
21	0x376f309a	1.4256826e-05
22	0xb7e94c4e	-2.7811297e-05
23	0x36b2a812	5.3243793e-06
24	0x385ff77a	5.3397824e-05
25	0x3713ab32	8.801742e-06
26	0x34c896a0	3.7362497e-07
27	0xb7b09d26	-2.1054013e-05
28	0x33e7ce00	1.0794247e-07
29	0x38c73046	9.498051e-05
30	0x38849c2b	6.323339e-05
31	0x384053e9	4.5854515e-05
32	0xb78ad5f3	-1.655051e-05
33	0x37396d92	1.1052371e-05
34	0xb816ff64	-3.6000638e-05
35	0x375bf866	1.3111252e-05
36	0xb7896dbb	-1.638277e-05
37	0x36ad981c	5.1735096e-06
38	0x383b7c5b	4.470009e-05
39	0xb866b76c	-5.5007098e-05
40	0xb7ded7e7	-2.6565e-05
41	0xb7f0b4b4	-2.8694376e-05
42	0xb7b64722	-2.1729214e-05
43	0x376a03fe	1.3948416e-05
44	0x37af3db7	2.0890364e-05
45	0xb758036f	-1.2875403e-05
46	0xb7444096	-1.1697548e-05
47	0x370abc95	8.269349e-06
48	0xb4032680	-1.2214332e-07
49	0xb8a209fa	-7.72662e-05
50	0xb7c9b8d8	-2.4047142e-05
51	0x374acf31	1.2088379e-05
52	0x36413bda	2.879408e-06
53	0x36fd0834	7.5409425e-06
54	0xb759cddf	-1.2982141e-05
55	0xb6a5ae50	-4.937676e-06
56	0xb78fee17	-1.7157798e-05
57	0xb69c04cf	-4.649722e-06
58	0xb76ef38c	-1.4242611e-05
59	0xb7a24906	-1.934591e-05
60	0xb757d9b4	-1.2865687e-05
61	0xb81274f9	-3.4918052e-05
62	0x373ef96d	1.13829565e-05
63	0xb8bad4f3	-8.908836e-05
64	0x36f22e38	7.2175426e-06
65	0x3800e184	3.0727606e-05
66	0x3733ecea	1.0724392e-05
67	0xb78ba243	-1.664565e-05
68	0xb68057bf	-3.8249123e-06
69	0x373f9c06	1.1420814e-05
70	0x36439ae0	2.9147413e-06
71	0xb86489c0	-5.4487726e-05
72	0x3870a8da	5.7377714e-05
73	0xb863aaa5	-5.4279943e-05
74	0x389b8d46	7.41729e-05
75	0xb7ad3602	-2.0648356e-05
76	0x3827b6a8	3.9986015e-05
77	0x39041917	0.00012597848
78	0x3633c487	2.6787473e-06
79	0xb852b65b	-5.0237733e-05
80	0xb6c1a9d8	-5.7716206e-06
81	0xb6f48fec	-7.2885214e-06
82	0xb6f1fe1c	-7.211942e-06
83	0xb6c05218	-5.731603e-06
84	0x36a9c4dc	5.05951e-06
85	0x35583600	8.054485e-07
86	0x36e77732	6.8982126e-06
87	0x3781d014	1.5474892e-05
88	0xb764f628	-1.3647172e-05
89	0x371a4d6e	9.197143e-06
90	0x3747fcef	1.1920215e-05
91	0x371af20c	9.235471e-06
92	0xb72a9000	-1.0166317e-05
93	0x377e8a60	1.5171798e-05
94	0xb7a51670	-1.9679981e-05
95	0x376bb72c	1.404974e-05
96	0x35638aa0	8.4765816e-07
97	0xb6908c42	-4.3078626e-06
98	0xb7b2b7da	-2.1304866e-05
99	0x388795c7	6.4652e-05
100	0xb8d5e1c4	-0.000101986836
101	0x384c7e80	4.8755202e-05
102	0xb8a60090	-7.9156016e-05
103	0x376fa88b	1.4284752e-05
104	0x38abdaa9	8.194644e-05
105	0xb8557c98	-5.0899194e-05
106	0xb8ad7626	-8.27129e-05
107	0x383040d8	4.202206e-05
108	0x37bcd694	2.2511267e-05
109	0x37e762b8	2.7583315e-05
110	0xb8cf3e22	-9.882102e-05
111	0x359248f8	1.0899084e-06
112	0x36d62c38	6.3828447e-06
113	0xb800332e	-3.0565243e-05
114	0xb8b744c0	-8.738926e-05
115	0xb79faf5c	-1.9035935e-05
116	0xb78498e4	-1.5806821e-05
117	0xb5a6c1b8	-1.2424343e-06
118	0xb69f03b0	-4.7389985e-06
119	0x3783c069	1.5706015e-05
120	0xb843a8c6	-4.6648805e-05
121	0x376951f2	1.3906962e-05
122	0xb7a8e4d8	-2.0133724e-05
123	0xb83ffb9d	-4.577228e-05
124	0xb8215846	-3.8467602e-05
125	0x36f7ebbc	7.3886167e-06
126	0xb861a432	-5.37971e-05
127	0x385de1e4	5.2900883e-05
128	0xb895672e	-7.1240924e-05
129	0x38a12373	7.683681e-05
130	0xb88d4269	-6.735774e-05
131	0x380f048e	3.40981e-05
132	0xb863123f	-5.413801e-05
133	0xb7a33c86	-1.9459298e-05
134	0xb43bbeb0	-1.7485104e-07
135	0x37c5297d	2.350355e-05
136	0xb8a3d670	-7.812388e-05
137	0x38d852ba	0.00010315092
138	0xb6f6b306	-7.3522124e-06
139	0x376f7ebc	1.4275018e-05
140	0x34d7a9a0	4.017029e-07
141	0xb860b8e6	-5.357796e-05
142	0xb72389fe	-9.747686e-06
143	0xb72336ee	-9.728346e-06
144	0x380a15bb	3.2922002e-05
145	0x380ca776	3.353456e-05
146	0x3621f290	2.413206e-06
147	0x36f1d660	7.2073162e-06
148	0xb7fdefae	-3.027156e-05
149	0x366155a0	3.3577453e-06
150	0xb777cd79	-1.4770188e-05
151	0x38da2464	0.00010401828
152	0xb73a7496	-1.1113609e-05
153	0x38090b17	3.2673674e-05
154	0xb8c7d0c9	-9.527949e-05
155	0xb7ca8c4e	-2.4145611e-05
156	0xb61e64f6	-2.3602602e-06
157	0xb884b399	-6.327703e-05
158	0xb8060c96	-3.195981e-05
159	0x370602ef	7.987705e-06
160	0xb8cd0158	-9.775412e-05
161	0x3928b56e	0.00016089316
162	0x38ab6abe	8.173798e-05
163	0xb80d74cb	-3.372579e-05
164	0x37408efd	1.1477384e-05
165	0x37109eec	8.620071e-06
166	0x36af9ea0	5.233873e-06
167	0xb7ea39ea	-2.7921942e-05
168	0xb612a190	-2.1849737e-06
169	0x37f36ba7	2.9017987e-05
170	0x34981140	2.8324757e-07
171	0x37b92a92	2.2073542e-05
172	0xb7df0c65	-2.6589443e-05
173	0x36e26edb	6.74823e-06
174	0xb7943b50	-1.7670594e-05
175	0x380f845e	3.4217133e-05
176	0x3763cdce	1.3578172e-05
177	0x37168537	8.971713e-06
178	0xb83c114b	-4.48388e-05
179	0x385489e2	5.0673152e-05
180	0x36ad81b4	5.170901e-06
181	0x363f126b	2.8471939e-06
182	0x3598d6e0	1.1387419e-06
183	0xb8a05650	-7.6454715e-05
184	0xb8540272	-5.0547016e-05
185	0x382672fc	3.968457e-05
186	0xb773e0b0	-1.4536243e-05
187	0x381a769e	3.6826932e-05
188	0x383cea01	4.5040626e-05
189	0xb8374fcc	-4.3704917e-05
190	0xb696aeb0	-4.4906847e-06
191	0xb58a51b0	-1.0305575e-06
192	0xb8f8380f	-0.00011836003
193	0x39791314	0.00023753598
194	0xb6073a90	-2.0150655e-06
195	0x3813a4ad	3.5200897e-05
196	0xb8046550	-3.1565607e-05
197	0xb78f1f8a	-1.7061615e-05
198	0xb8b761ee	-8.744361e-05
199	0x378278c0	1.5553436e-05
200	0xb843e4a5	-4.6704565e-05
201	0x3786ff59	1.609295e-05
202	0xb7873b63	-1.6120908e-05
203	0x3822231e	3.8656515e-05
204	0xb67f9c90	-3.8089092e-06
205	0x365dafdc	3.303393e-06
206	0xb881f0b0	-6.196031e-05
207	0xb8aa7986	-8.128867e-05
208	0x3615b9dc	2.2310915e-06
209	0xb6109120	-2.1542146e-06
210	0x3818fb34	3.6473575e-05
211	0x37bc4ef8	2.244812e-05
212	0x38455e8e	4.705652e-05
213	0x3788a89e	1.6290982e-05
214	0x37d82b77	2.5769446e-05
215	0xb6081b36	-2.0281418e-06
216	0x384c201e	4.86673e-05
217	0x37b21a50	2.1231506e-05
218	0xb79fca98	-1.9048617e-05
219	0xb70ad9b4	-8.276129e-06
220	0x36352c66	2.6996945e-06
221	0x36a10f88	4.799982e-06
222	0x353441c0	6.7150904e-07
223	0xb74f67e9	-1.2362355e-05

exp_avg_sq f4 [16, 14]
0	0x33361ad4	4.2399577e-08
1	0x33456a10	4.59641e-08
2	0x3329eba1	3.9562682e-08
3	0x33567a5f	4.9937054e-08
4	0x322056e3	9.3329815e-09
5	0x319f52d8	4.6369273e-09
6	0x3310c085	3.3702708e-08
7	0x34ae93b7	3.2517502e-07
8	0x3191437f	4.227729e-09
9	0x323ccb93	1.0989328e-08
10	0x333ec278	4.441469e-08
11	0x3410d785	1.348945e-07
12	0x3196e1da	4.391251e-09
13	0x31930c5f	4.2796695e-09
14	0x34eab3e5	4.3716787e-07
15	0x3422702e	1.5128236e-07
16	0x34e3e593	4.2449082e-07
17	0x341e88f3	1.4764719e-07
18	0x3276d890	1.4368325e-08
19	0x32818efb	1.5082597e-08
20	0x347037ff	2.2372113e-07
21	0x362c7aed	2.570155e-06
22	0x32791ed0	1.45007135e-08
23	0x3400f842	1.2011245e-07
24	0x3489e0b8	2.5681743e-07
25	0x361ab3b2	2.3052385e-06
26	0x3262e01e	1.320589e-08
27	0x33d585f1	9.942949e-08
28	0x33f97188	1.1615617e-07
29	0x34237734	1.5223924e-07
30	0x3412522a	1.36272e-07
31	0x341c6d96	1.45685e-07
32	0x3289d7a0	1.6046954e-08
33	0x327e068c	1.47862345e-08
34	0x344cfed0	1.9091681e-07
35	0x3502eb0a	4.87708e-07
36	0x3247f068	1.1637987e-08
37	0x32adbcfe	2.0225794e-08
38	0x349b2c43	2.8903204e-07
39	0x355c5db3	8.2092737e-07
40	0x326b7c58	1.3707073e-08
41	0x330a0a0a	3.213976e-08
42	0x34949e7a	2.7682455e-07
43	0x349acd58	2.8834143e-07
44	0x348b2829	2.5919988e-07
45	0x3498f75b	2.849218e-07
46	0x3266a4f6	1.342527e-08
47	0x3250e75e	1.21598e-08
48	0x34a0716b	2.9884845e-07
49	0x35db94a7	1.6360035e-06
50	0x323094c2	1.0278372e-08
51	0x334bb7e8	4.7431882e-08
52	0x34a80732	3.1297674e-07
53	0x3602ba63	1.948e-06
54	0x32235312	9.506737e-09
55	0x3382b950	6.087305e-08
56	0x336bb8de	5.4883337e-08
57	0x33c68633	9.244504e-08
58	0x336ca3ae	5.5096898e-08
59	0x33d54cd9	9.932564e-08
60	0x31f8a145	7.236084e-09
61	0x31c1db71	5.641987e-09
62	0x339e840e	7.381469e-08
63	0x3523795b	6.089883e-07
64	0x31dd9bbd	6.449652e-09
65	0x32ba718e	2.1704889e-08
66	0x33a11379	7.500689e-08
67	0x350d1e7d	5.257096e-07
68	0x31cbfcf4	5.936835e-09
69	0x329cff24	1.8276815e-08
70	0x33c8bb99	9.3473496e-08
71	0x3392a63d	6.8288934e-08
72	0x33c6308c	9.228924e-08
73	0x3388ce03	6.370467e-08
74	0x32838266	1.5309706e-08
75	0x328a463e	1.6097257e-08
76	0x34026892	1.2145236e-07
77	0x34f3873b	4.536067e-07
78	0x3282f930	1.524731e-08
79	0x32ea8884	2.7303265e-08
80	0x33d79669	1.0039077e-07
81	0x34c22fd8	3.6170127e-07
82	0x3288e8fd	1.5938435e-08
83	0x32dbecf5	2.5602711e-08
84	0x334ef574	4.818635e-08
85	0x3353f85c	4.9353147e-08
86	0x3337032d	4.2610896e-08
87	0x335846a8	5.035568e-08
88	0x31878351	3.943946e-09
89	0x316609b3	3.3474918e-09
90	0x33b0434b	8.207879e-08
91	0x34a2fd5b	3.0359192e-07
92	0x315dcc4a	3.2275858e-09
93	0x32540a6e	1.23423956e-08
94	0x3394aa08	6.9227156e-08
95	0x3428f606	1.5735722e-07
96	0x3144414d	2.8558873e-09
97	0x318eca5a	4.1557486e-09
98	0x348e1112	2.646198e-07
99	0x33d86a56	1.0077626e-07
100	0x348d89db	2.63636e-07
101	0x33e96943	1.0869055e-07
102	0x32a982c4	1.9733655e-08
103	0x32989300	1.7761977e-08
104	0x34b7be2e	3.422478e-07
105	0x34daed1c	4.0778184e-07
106	0x325e18ee	1.2927769e-08
107	0x32979e44	1.7650684e-08
108	0x34c0cc3d	3.591139e-07
109	0x34ebf24c	4.3948455e-07
110	0x324848e2	1.1658104e-08
111	0x32adc75d	2.023051e-08
112	0x3368e1ca	5.4222063e-08
113	0x32dbf143	2.5604669e-08
114	0x33637e8d	5.2967653e-08
115	0x32e59089	2.6724836e-08
116	0x32137b8c	8.5846175e-09
117	0x31d70fea	6.2591328e-09
118	0x33785c8f	5.782618e-08
119	0x3395c852	6.974791e-08
120	0x31bf2dfc	5.5640594e-09
121	0x31b08ee2	5.138518e-09
122	0x33615aa3	5.246933e-08
123	0x353aaed9	6.9544836e-07
124	0x3210a237	8.418787e-09
125	0x3315d3e7	3.488449e-08
126	0x33c931ed	9.368873e-08
127	0x33a61775	7.734244e-08
128	0x33cd55b7	9.561648e-08
129	0x33b4c1a2	8.417125e-08
130	0x31efc62e	6.978346e-09
131	0x31bf459d	5.5667457e-09
132	0x33ce4608	9.605361e-08
133	0x34a42247	3.057232e-07
134	0x31a3d8fe	4.7685935e-09
135	0x3219ea4b	8.959044e-09
136	0x33ddbf6d	1.03259346e-07
137	0x34702f59	2.2368967e-07
138	0x319c3fa8	4.5474344e-09
139	0x31fb4f75	7.3140947e-09
140	0x3349251c	4.683271e-08
141	0x33869248	6.26647e-08
142	0x3341692e	4.5031975e-08
143	0x338381f9	6.123805e-08
144	0x32113830	8.452886e-09
145	0x320df128	8.262113e-09
146	0x339c671e	7.283073e-08
147	0x34a50cef	3.0743055e-07
148	0x323678fd	1.0621304e-08
149	0x327e48ac	1.48012695e-08
150	0x33ccb9ca	9.533285e-08
151	0x3501aa03	4.8303644e-07
152	0x3214365b	8.627093e-09
153	0x32b82aa5	2.1439812e-08
154	0x33ebf9f7	1.09885086e-07
155	0x33b22e4f	8.2971944e-08
156	0x33f5c683	1.14448106e-07
157	0x33a0b787	7.483964e-08
158	0x32b6428d	2.1217852e-08
159	0x3264272e	1.3280255e-08
160	0x34496fd9	1.8760274e-07
161	0x35557b07	7.952771e-07
162	0x32a58190	1.9267446e-08
163	0x332c1505	4.0065988e-08
164	0x33e3b620	1.06036396e-07
165	0x344ae7b1	1.8897005e-07
166	0x327b029a	1.4610714e-08
167	0x326474a7	1.329787e-08
168	0x32ac4f52	2.0059506e-08
169	0x32e99150	2.719085e-08
170	0x3298d586	1.7792228e-08
171	0x32ed7593	2.7643898e-08
172	0x329152eb	1.6917928e-08
173	0x3210a995	8.420462e-09
174	0x32b89c62	2.1491534e-08
175	0x332d4c06	4.0348844e-08
176	0x31f5f295	7.158017e-09
177	0x31d7c50d	6.2797256e-09
178	0x33235070	3.8024552e-08
179	0x334d8769	4.7853437e-08
180	0x31ecce25	6.89194e-09
181	0x31cdd4c7	5.9904752e-09
182	0x340cd997	1.3117675e-07
183	0x33c90a13	9.3616244e-08
184	0x3410a119	1.3469652e-07
185	0x33bb5b01	8.7244196e-08
186	0x32be80fc	2.2177566e-08
187	0x32b47f33	2.1012601e-08
188	0x342bdef2	1.6006723e-07
189	0x3465cf72	2.1402755e-07
190	0x32d35037	2.460011e-08
191	0x328c649b	1.6343895e-08
192	0x34d1cb5a	3.907724e-07
193	0x3580def3	9.60163e-07
194	0x32dcd983	2.5710284e-08
195	0x33393084	4.3117794e-08
196	0x3413fe84	1.3783034e-07
197	0x3362606c	5.270742e-08
198	0x3410f323	1.3499498e-07
199	0x334ecf0b	4.8151417e-08
200	0x322bd981	1.0002965e-08
201	0x32118f10	8.4726395e-09
202	0x341847e5	1.4182258e-07
203	0x35755aea	9.140191e-07
204	0x32471eb3	1.1590305e-08
205	0x3363d2b8	5.3044204e-08
206	0x3414c7dc	1.3856283e-07
207	0x345b5545	2.0426985e-07
208	0x32164f8b	8.749235e-09
209	0x324f3ce4	1.2062831e-08
210	0x3398c92e	7.114646e-08
211	0x339bdc6a	7.257843e-08
212	0x33a2488a	7.5569076e-08
213	0x33a40292	7.637313e-08
214	0x31becdb6	5.5531144e-09
215	0x31c17b80	5.6310796e-09
216	0x33e64dce	1.0724362e-07
217	0x34678d7e	2.1565026e-07
218	0x31900d74	4.192481e-09
219	0x31eb7f16	6.853848e-09
220	0x3428906f	1.5698764e-07
221	0x3489dc71	2.567863e-07
222	0x31c1707a	5.6298264e-09
223	0x3234210d	1.0484894e-08

exp_avg f4 [16]
0	0x35ed03f0	1.7659022e-06
1	0x392930d2	0.00016135283
2	0x3989d1d8	0.00026287022
3	0x391f1c16	0.00015173884
4	0x381b47b8	3.7021673e-05
5	0xb999e0c0	-0.00029349886
6	0x3814acf8	3.544704e-05
7	0xb9076872	-0.00012913512
8	0xb8860023	-6.3896434e-05
9	0xb90e41a6	-0.00013566631
10	0xb95f5f9c	-0.00021302555
11	0xb7fa5a98	-2.9844508e-05
12	0xb6aab200	-5.0871167e-06
13	0xb6f2d400	-7.236842e-06
14	0xb802cf24	-3.118733e-05
15	0x38e230d9	0.00010785618

exp_avg_sq f4 [16]
0	0x3403aca7	1.2263136e-07
1	0x35e11902	1.6771085e-06
2	0x3627be29	2.4995627e-06
3	0x35c32f80	1.4542456e-06
4	0x35240227	6.1097893e-07
5	0x363e97a5	2.8400475e-06
6	0x348529f3	2.4803703e-07
7	0x34517e9a	1.9510699e-07
8	0x34b59a3a	3.3826092e-07
9	0x340f86de	1.3366977e-07
10	0x359374b1	1.0986315e-06
11	0x3630fad4	2.6372045e-06
12	0x3407c202	1.2643434e-07
13	0x363c8018	2.8088743e-06
14	0x35bb9954	1.397721e-06
15	0x359b71a6	1.1581476e-06

exp_avg f4 [8, 16]
0	0xb801f730	-3.0986208e-05
1	0xb7ce69ba	-2.4606346e-05
2	0xb7cb1460	-2.4208974e-05
3	0xb86fba02	-5.7155274e-05
4	0xb89f0505	-7.582646e-05
5	0xb903b0a6	-0.0001255894
6	0xb6b0c1f0	-5.267786e-06
7	0xb8c9f4c4	-9.630018e-05
8	0xb95f35e9	-0.0002128702
9	0xb8a64e58	-7.9300895e-05
10	0xb93ef4dc	-0.00018211029
11	0xb80747c8	-3.225336e-05
12	0xb7887eb8	-1.6271471e-05
13	0xb8306bdc	-4.206212e-05
14	0xb92f4882	-0.00016716312
15	0xb9006c2a	-0.00012247326
16	0x38352aed	4.319374e-05
17	0xb8b14d50	-8.454418e-05
18	0xb9791eb0	-0.00023757922
19	0xb91424c3	-0.00014128075
20	0x37499d30	1.2017132e-05
21	0xb92c8440	-0.00016452465
22	0x35fd6990	1.8880692e-06
23	0x38c6769d	9.463469e-05
24	0x3878bf00	5.930569e-05
25	0x38ee215f	0.0001135494
26	0xb6c6d020	-5.9250888e-06
27	0xb95f69c4	-0.00021306338
28	0xb7b4a2ee	-2.1533542e-05
29	0xb9c32826	-0.0003722321
30	0xb84d159a	-4.8895927e-05
31	0xb896b25d	-7.18578e-05
32	0x07585ffa	1.6278239e-34
33	0x30b88564	1.3425674e-09
34	0x2eaa1622	7.7346365e-11
35	0x3484f266	2.4763284e-07
36	0x30071e42	4.9155713e-10
37	0x36490c9c	2.9958674e-06
38	0x85b4d1b7	-1.7004156e-35
39	0x364eed0f	3.0834378e-06
40	0x3484cdc3	2.4736627e-07
41	0x36c38b9e	5.8277064e-06
42	0x302d43df	6.3033484e-10
43	0x059817cd	1.4302754e-35
44	0x36906d1e	4.3042373e-06
45	0x30178617	5.5124033e-10
46	0xa1189c17	-5.1706186e-19
47	0x3059074b	7.8954504e-10
48	0x3106e044	1.9627047e-09
49	0x80000004	-6e-45
50	0x33bbded9	8.748402e-08
51	0x3444ce3f	1.8328954e-07
52	0x33ebf1a6	1.0986996e-07
53	0x80000004	-6e-45
54	0xaf9bf178	-2.836591e-10
55	0x00000004	6e-45
56	0x80000004	-6e-45
57	0x00000004	6e-45
58	0x2f9c7a72	2.8463237e-10
59	0x25196b4d	1.330699e-16
60	0x33ea0407	1.0897207e-07
61	0x321e8580	9.227165e-09
62	0x80000004	-6e-45
63	0x80000004	-6e-45
64	0x35e73d00	1.7228595e-06
65	0x3801f6f7	3.0986e-05
66	0x38e79428	0.000110425346
67	0x38b7f30e	8.7713925e-05
68	0x3882fc08	6.2458275e-05
69	0x3950d1ef	0.00019914632
70	0x36bb4a94	5.5817163e-06
71	0x36968c1e	4.48666e-06
72	0x38b362d8	8.553796e-05
73	0x37560374	1.2756198e-05
74	0x385ab2bc	5.214171e-05
75	0x389e748e	7.555737e-05
76	0x3780f244	1.5371603e-05
77	0x39a64ac8	0.00031717704
78	0x38d754da	0.00010267804
79	0x38d697c1	0.000102325816
80	0x37b7169d	2.182583e-05
81	0x385d0d4e	5.2702897e-05
82	0x39826271	0.00024868877
83	0x391d3512	0.00014992457
84	0xb7b308eb	-2.1342616e-05
85	0x3977f7f4	0.00023648125
86	0xb660a870	-3.3476645e-06
87	0x37db98a0	2.6177906e-05
88	0x391cbac4	0.00014946895
89	0xb6968d5c	-4.4868048e-06
90	0x396a1731	0.00022324618
91	0x39957438	0.00028506084
92	0x38040c0d	3.1482476e-05
93	0x3950e64c	0.00019922218
94	0x398f250a	0.00027302682
95	0x3910989e	0.00013789764
96	0x348c6a83	2.615453e-07
97	0xb8194bcd	-3.6548638e-05
98	0xb742b010	-1.1604294e-05
99	0x3709f981	8.2239285e-06
100	0x36521b66	3.1308386e-06
101	0xb7e06703	-2.675085e-05
102	0xb6ea95fb	-6.9912035e-06
103	0xb7668860	-1.3740821e-05
104	0xb8e8c513	-0.0001109933
105	0x36a3f58b	4.8863635e-06
106	0xb86fb858	-5.7153724e-05
107	0xb608905c	-2.0349607e-06
108	0x37247e0a	9.8045075e-06
109	0xb7734ab2	-1.450132e-05
110	0xb85bf9a9	-5.2446183e-05
111	0xb821446c	-3.8449114e-05
112	0xb78b6755	-1.6618209e-05
113	0xb644f46b	-2.9348546e-06
114	0x395c0cd2	0.00020985611
115	0x392de519	0.00016583911
116	0x38539477	5.044459e-05
117	0x39740b86	0.00023273946
118	0x3787e7ca	1.620119e-05
119	0xb70eb6ec	-8.506449e-06
120	0x384ff555	4.958113e-05
121	0xb8025223	-3.107091e-05
122	0x38f6f946	0.00011776625
123	0x39746516	0.00023307311
124	0x38761298	5.8668287e-05
125	0x39bea04e	0.0003635906
126	0x391024f0	0.0001374667
127	0x39022b84	0.00012413977

exp_avg_sq f4 [8, 16]
0	0x33d49fdc	9.9010975e-08
1	0x35fde6e1	1.8917164e-06
2	0x35c5ff92	1.4752025e-06
3	0x35de6251	1.6568903e-06
4	0x350512c3	4.9573663e-07
5	0x36498963	3.0031304e-06
6	0x34b8424b	3.4320905e-07
7	0x348b1cd5	2.5911746e-07
8	0x357b6d85	9.366416e-07
9	0x349c98d5	2.9168464e-07
10	0x359c4553	1.1643082e-06
11	0x364b40b3	3.0287017e-06
12	0x3455bd4b	1.9906035e-07
13	0x369039bc	4.2982556e-06
14	0x35d4ff02	1.5869448e-06
15	0x34b24424	3.3204662e-07
16	0x33eb3a4c	1.09536444e-07
17	0x36717c10	3.5984012e-06
18	0x35b8ae28	1.3759754e-06
19	0x35d1984d	1.5616039e-06
20	0x351b7146	5.7906834e-07
21	0x362c4a99	2.5673419e-06
22	0x3483f2f3	2.457742e-07
23	0x3403bc8d	1.226892e-07
24	0x35356b51	6.758392e-07
25	0x343f83ac	1.7836163e-07
26	0x35a9b5af	1.2644358e-06
27	0x36530d81	3.144931e-06
28	0x34338796	1.672e-07
29	0x368eb2a4	4.2527263e-06
30	0x35ab0352	1.2741459e-06
31	0x350efe29	5.3268974e-07
32	0x331528da	3.472892e-08
33	0x3669e4f8	3.4852983e-06
34	0x32ab9009	1.997252e-08
35	0x3329589f	3.942898e-08
36	0x32f21ec6	2.8186502e-08
37	0x342f48ac	1.6324583e-07
38	0x32582e5e	1.2583397e-08
39	0x32ad97b3	2.0208835e-08
40	0x3272b8f3	1.41283065e-08
41	0x340663c1	1.2516013e-07
42	0x3483c2b5	2.454232e-07
43	0x34957184	2.7836006e-07
44	0x336d59fc	5.5262703e-08
45	0x332ddd8e	4.0481204e-08
46	0x324ae930	1.1810968e-08
47	0x34bef1d6	3.5566217e-07
48	0x31fa5aa0	7.2862605e-09
49	0x3135953a	2.6423792e-09
50	0x31a9f279	4.9461133e-09
51	0x31e4be8f	6.6573373e-09
52	0x31c04f35	5.5969402e-09
53	0x31ba0ce4	5.414778e-09
54	0x3106adb9	1.9598316e-09
55	0x310c129f	2.0383266e-09
56	0x33965960	7.0011765e-08
57	0x323f97a7	1.1152145e-08
58	0x315ac040	3.1832457e-09
59	0x310d8e0b	2.0598943e-09
60	0x309a30cc	1.1218844e-09
61	0x30051783	4.841853e-10
62	0x33118896	3.3884668e-08
63	0x30a4d3cf	1.199277e-09
64	0x324aca55	1.18039525e-08
65	0x33979824	7.05916e-08
66	0x3467b374	2.1578836e-07
67	0x34547489	1.9786434e-07
68	0x33e7e343	1.07981144e-07
69	0x34d9cf3f	4.057019e-07
70	0x334a430e	4.7092776e-08
71	0x30e737fc	1.6823374e-09
72	0x334bd4a0	4.7458002e-08
73	0x320a3e77	8.04686e-09
74	0x34894539	2.5568605e-07
75	0x340ed833	1.3303433e-07
76	0x329e903e	1.8459215e-08
77	0x35cadd64	1.5114606e-06
78	0x332077e9	3.736196e-08
79	0x33b5da97	8.4682306e-08
80	0x32a73ad6	1.9468114e-08
81	0x365b3149	3.266223e-06
82	0x355bf810	8.1944836e-07
83	0x350dd73b	5.2839795e-07
84	0x33d3cdde	9.8629e-08
85	0x35d294d3	1.5689533e-06
86	0x338a15c8	6.430088e-08
87	0x31b02e8c	5.127566e-09
88	0x3394fc2f	6.937659e-08
89	0x339a10fc	7.174273e-08
90	0x350cf797	5.2514355e-07
91	0x3604a84f	1.9767501e-06
92	0x331894c8	3.5525574e-08
93	0x34c85172	3.7312162e-07
94	0x3586f9c5	1.005647e-06
95	0x34cc8f80	3.810237e-07
96	0x2e0982c7	3.1266347e-11
97	0x3374cefc	5.699893e-08
98	0x31679859	3.3701524e-09
99	0x31c06e68	5.600487e-09
100	0x31c9dd12	5.8750027e-09
101	0x33b19b2d	8.270431e-08
102	0x31229426	2.3658315e-09
103	0x3477d096	2.3079551e-07
104	0x34d0d6d8	3.8899339e-07
105	0x3482599a	2.427958e-07
106	0x32dc65e3	2.5657704e-08
107	0x3263dcd9	1.3263354e-08
108	0x311af5e1	2.2549715e-09
109	0x32e777ae	2.6946363e-08
110	0x34c5f211	3.6870236e-07
111	0x32e76b4a	2.6940729e-08
112	0x34622761	2.1062216e-07
113	0x36e8cfbf	6.9383236e-06
114	0x3612f6d6	2.1899373e-06
115	0x3625e645	2.472095e-06
116	0x3578a7b2	9.263123e-07
117	0x368021de	3.81864e-06
118	0x34db3817	4.083274e-07
119	0x3253a0fe	1.2318422e-08
120	0x35052026	4.9593143e-07
121	0x343d58b3	1.7634265e-07
122	0x360ada72	2.0690754e-06
123	0x3686ff06	4.0232e-06
124	0x34eb05c3	4.3776353e-07
125	0x36a5b044	4.937903e-06
126	0x35a38673	1.2183576e-06
127	0x359be1a5	1.1614071e-06

exp_avg f4 [8]
0	0xb93dd244	-0.00018102775
1	0xb94ce1d3	-0.00019539082
2	0x3610c87a	2.1574365e-06
3	0x33e41f52	1.06227745e-07
4	0x393e0fcc	0.00018125697
5	0x398f128e	0.0002728891
6	0xb81c508c	-3.7268313e-05
7	0x399f4ede	0.00030385604

exp_avg_sq f4 [8]
0	0x36804cb2	3.823626e-06
1	0x3684c2c3	3.95658e-06
2	0x34537034	1.9691726e-07
3	0x334adc45	4.7232124e-08
4	0x35187a6d	5.6802565e-07
5	0x35d13d3a	1.5589533e-06
6	0x33db34f0	1.02076115e-07
7	0x36c67621	5.914612e-06

exp_avg f4 [2, 8]
0	0xba3ac3f1	-0.00071245345
1	0xba54f3ca	-0.00081234856
2	0x34505721	1.9403207e-07
3	0x2f187958	1.386743e-10
4	0xb981a2cd	-0.00024726093
5	0xb9907c78	-0.00027558557
6	0xb7a61bb2	-1.9801639e-05
7	0xb9de481e	-0.0004239687
8	0x3a5d5b3d	0.00084440765
9	0x3a5ef268	0.0008504749
10	0xb481f4e4	-2.4206304e-07
11	0xb13cbc26	-2.746455e-09
12	0x3943b62b	0.00018664512
13	0x398001da	0.00024415442
14	0x3a12c54e	0.00055988587
15	0x3987f61c	0.00025932572

exp_avg_sq f4 [2, 8]
0	0x38158f35	3.565774e-05
1	0x3803ffbb	3.1471e-05
2	0x360c79b3	2.0932464e-06
3	0x34bc21d0	3.504233e-07
4	0x35892d80	1.0220538e-06
5	0x360c09bc	2.0867292e-06
6	0x3609e67a	2.0548746e-06
7	0x379e7583	1.8889788e-05
8	0x3845c74c	4.715407e-05
9	0x3850b5cd	4.976038e-05
10	0x36140cbe	2.2061135e-06
11	0x34914245	2.7056572e-07
12	0x3576a1c5	9.1877547e-07
13	0x35d704a4	1.6020099e-06
14	0x3694654f	4.4225376e-06
15	0x37bfe8a6	2.287731e-05

exp_avg f4 [2]
0	0xb9b7012e	-0.0003490536
1	0x39c04631	0.0003667339

exp_avg_sq f4 [2]
0	0x378d3d40	1.6837032e-05
1	0x37cc9937	2.4390041e-05

fc1.weight f4 [32, 20]
0	0xbf164fb2	-0.58715355
1	0x3e6d39cb	0.23166578
2	0x3f14829e	0.58011806
3	0xbebada8f	-0.36494872
4	0xbf1108b7	-0.5665392
5	0x3e675502	0.22591022
6	0xbea92781	-0.33037952
7	0x3ebc4c34	0.36776888
8	0x3de3106a	0.11087115
9	0xbe24a395	-0.16078027
10	0xbe00e980	-0.12589073
11	0xbeafe515	-0.34354463
12	0x3cfa0677	0.03052066
13	0xbcbbd283	-0.022927528
14	0xbca52613	-0.020159757
15	0x3c73f6c2	0.014890375
16	0x3b859b96	0.004077385
17	0x3d28a52b	0.04117314
18	0x3cafd820	0.021465361
19	0xbc7ca74f	-0.015420749
20	0xbe1d0b5c	-0.15336365
21	0x3df3a5cb	0.11896857
22	0xbfa84fd4	-1.3149362
23	0x3f09875f	0.53722185
24	0xbe15ae58	-0.14617288
25	0xbd34799c	-0.04406129
26	0xbd9883c4	-0.07447007
27	0x3e1a11f1	0.15045907
28	0xbe19e974	-0.15030462
29	0x3e861ca9	0.2619374
30	0xbe3df952	-0.1855214
31	0x3d6b3711	0.057425562
32	0xbda500f3	-0.08056822
33	0xbe16d248	-0.14728653
34	0xbc9736a6	-0.018458676
35	0x3c9d1db5	0.019179204
36	0xb9d44cc4	-0.00040492986
37	0x3b88f183	0.004179181
38	0x3b828481	0.003983081
39	0x3bee83a4	0.0072788764
40	0x3cb5a212	0.022172008
41	0xbedcd00c	-0.43127477
42	0x3f31d740	0.6946907
43	0xbf8cc739	-1.0998298
44	0x3e2795bc	0.16365713
45	0xbe2c7847	-0.16842757
46	0xbeb416f9	-0.35173777
47	0xbcc6db3d	-0.024274463
48	0xbe610200	-0.21973419
49	0xbe701c36	-0.23448262
50	0xbda73404	-0.08164218
51	0x3eb63a1e	0.35591215
52	0xbe271f5a	-0.16320553
53	0xbe2e84c4	-0.17042834
54	0x3cf552c3	0.02994669
55	0xbc7f80fe	-0.015594719
56	0xbc78c610	-0.0151839405
57	0x3b0603a0	0.0020448938
58	0xbc3a9777	-0.011388651
59	0x3ccce5b3	0.025011873
60	0x3e26b400	0.16279602
61	0x3cc23fd7	0.023712082
62	0x3e1dbf7b	0.15405075
63	0xbfa75ed3	-1.3075813
64	0x3d3e05a2	0.04639209
65	0xbe4aadae	-0.19792816
66	0xbb016e64	-0.0019749636
67	0xbd3a275b	-0.04544769
68	0x3b315964	0.0027061338
69	0xbc4ec15f	-0.012619345
70	0x3d9fb856	0.07798831
71	0x3e534097	0.20630108
72	0xbcf0da3f	-0.029400943
73	0x3da5fc05	0.081047095
74	0x3bb86804	0.005627634
75	0xbc6ab377	-0.014325014
76	0xbbafdaa6	-0.005366641
77	0xba50c0e7	-0.0007963315
78	0x3bc4f332	0.0060104365
79	0xbae4f922	-0.0017469267
80	0x3f01b998	0.5067382
81	0xbe123d29	-0.14281143
82	0x3f29ab7d	0.66277295
83	0xbecfab01	-0.40560153
84	0x3f658853	0.8966114
85	0xbf0b71e4	-0.5447066
86	0x3e1ccbc9	0.15312113
87	0x3d8f726a	0.070042446
88	0xbf557fc4	-0.8339808
89	0xbf57b0f4	-0.84254384
90	0x3ead5909	0.3385699
91	0xbf2ff33d	-0.6873053
92	0xbee1ab20	-0.4407587
93	0x3d6430bc	0.05571054
94	0x3d0b6b1a	0.034037687
95	0x3b3e98a0	0.002908267
96	0xbd66888f	-0.056282576
97	0xbda5bdf8	-0.08092874
98	0x3c924ff2	0.017860387
99	0xbcc84667	-0.024447633
100	0xbf05ea7b	-0.52310914
101	0x3db84cad	0.08999
102	0xbdeb99f2	-0.11503972
103	0xbf3a2357	-0.72710174
104	0x3e2a8f9d	0.16656347
105	0x3da96232	0.082706824
106	0xbe9f1ada	-0.31075174
107	0xbe00d7f2	-0.12582377
108	0xbecbe3db	-0.39822277
109	0x3d36e1e8	0.044649035
110	0xbeb63289	-0.3558543
111	0xbd4a7ba6	-0.049434327
112	0x3e2cefe6	0.16888389
113	0xbe961f6e	-0.29320854
114	0x3cd7f458	0.02636163
115	0xbd42f849	-0.047600064
116	0x3ce408ed	0.027836287
117	0x3cba828d	0.02276733
118	0x39ab84c8	0.0003271459
119	0xbcd6a02e	-0.026199427
120	0xbc02f9c3	-0.007994118
121	0xbdab8872	-0.08375634
122	0xbf83e9e9	-1.0305759
123	0xbfb17333	-1.3863281
124	0xbe2e5090	-0.1702292
125	0xbdf2dbf1	-0.11858357
126	0xbd47e5ff	-0.048803326
127	0xbda223c7	-0.0791698
128	0x3d912718	0.07087535
129	0xbdc24338	-0.09485477
130	0xbe11d1af	-0.14240144
131	0xbe051c30	-0.12999034
132	0x3d383cfb	0.04498003
133	0x3da648c3	0.08119347
134	0xbc95c845	-0.018283973
135	0xbc858d99	-0.01630287
136	0x3b38f58e	0.0028222534
137	0xbbaba0a4	-0.0052376557
138	0xbc1d9a9f	-0.009619384
139	0xbb639816	-0.0034728101
140	0xbe152640	-0.14565372
141	0xbe6f0917	-0.23343311
142	0x4044d79d	3.07566
143	0x3f7081cf	0.9394807
144	0x3ea6e8f5	0.32599607
145	0x3c11b0fa	0.008892292
146	0xbe07fcf3	-0.13280086
147	0x3cdfb833	0.027309513
148	0x3dd138e3	0.102159284
149	0x3df47c3d	0.11937759
150	0x3de9d139	0.11416859
151	0x3dbf0e63	0.09328916
152	0xbd258514	-0.040410116
153	0x3d7b694e	0.061379723
154	0x3d222f7e	0.039596073
155	0x3c8e122e	0.017342653
156	0x3b227276	0.0024787462
157	0x3c33bc59	0.010970199
158	0xbbe67e78	-0.007034119
159	0x3b0b06d8	0.0021213796
160	0xbda9a0e3	-0.0828264
161	0x3ea60d65	0.32432094
162	0x3d163619	0.036672685
163	0x3f0173cc	0.50567317
164	0x3efcced9	0.49376562
165	0xbeb228cd	-0.34796754
166	0xbebc9847	-0.36834928
167	0x3d878f2d	0.066191055
168	0xbe1fde32	-0.15612105
169	0x3e373cf0	0.1789434
170	0xbce3819d	-0.027771765
171	0xbf1d7af0	-0.6151571
172	0x3e31a282	0.17347148
173	0x3de5edad	0.11226974
174	0xbdad3e8a	-0.08459194
175	0x3dab4e5d	0.08364556
176	0xbc847416	-0.016168635
177	0xbd00c3af	-0.03143662
178	0xbd2b8199	-0.04187164
179	0xbd9aff74	-0.07568255
180	0x3ec7dd3e	0.39035982
181	0x3d3ec3fa	0.046573617
182	0xbeabef09	-0.33580807
183	0xbf942ce3	-1.1576198
184	0xbe84227e	-0.25807565
185	0xbe8a2a60	-0.26985455
186	0x3e322a6a	0.17398992
187	0x3dac6f9e	0.08419727
188	0x3de01c3f	0.109428875
189	0xbb8b0876	-0.004242952
190	0x3e47fa87	0.19529162
191	0xbcc1a4fb	-0.02363824
192	0xbcc8408b	-0.024444839
193	0x3dc4ab0d	0.09602938
194	0x3b9d0f4a	0.0047930824
195	0xbc4c9204	-0.012485985
196	0x3b9a1438	0.0047021173
197	0xbb14f3fc	-0.0022728434
198	0x3ad1d840	0.0016009882
199	0x3ba8a5ff	0.0051467414
200	0xbe2ba8ce	-0.16763613
201	0x3cfe30fd	0.031029219
202	0x3f40f0e3	0.75367564
203	0xbe8a6668	-0.27031255
204	0x3ab7ffdc	0.0014038044
205	0x3e069e24	0.13146263
206	0xbdbb01ec	-0.09131226
207	0x3e5a4cf6	0.21318421
208	0x3e6cf703	0.23141102
209	0x3e2e02e9	0.16993298
210	0xbea12438	-0.31472945
211	0xbe99ac3d	-0.3001422
212	0x3d8010d0	0.06253207
213	0x3e538179	0.20654859
214	0x3c0ea208	0.008705623
215	0x3b901ec9	0.004398201
216	0x3c81fe6e	0.015868392
217	0x3d2333fd	0.0398445
218	0xbc640e93	-0.01391949
219	0xba10f824	-0.000553014
220	0x3ed14473	0.40872535
221	0xbc681cee	-0.014167054
222	0x4017299a	2.3619142
223	0xbee70b31	-0.45125726
224	0x3e8f47df	0.2798452
225	0xbdea0fe4	-0.11428812
226	0xbda3de1f	-0.080013506
227	0xbd27d2f0	-0.04097265
228	0x3dc08707	0.094007544
229	0x3e3f9e32	0.1871269
230	0x3b779d0a	0.0037782812
231	0x3df47ca6	0.11937837
232	0x3e4100b2	0.18847921
233	0x3c956da0	0.01824075
234	0x3d17a39f	0.037021276
235	0x3b9ee878	0.00484949
236	0x3b3b0b36	0.0028540618
237	0xbb0638b1	-0.0020480568
238	0xbc07a92e	-0.008280082
239	0xbadc2d00	-0.0016798079
240	0xbde2c611	-0.110729344
241	0x3d271a1b	0.04079638
242	0xbf86d109	-1.0532542
243	0x3f02f261	0.5115109
244	0xbd4e0439	-0.050296996
245	0x3d5739e0	0.05254543
246	0xbc3cc692	-0.011521952
247	0x3ce85b15	0.028363744
248	0x3e1a6b5a	0.15080014
249	0x3e4d164d	0.20028038
250	0xbd5a696a	-0.053323187
251	0x3cf27f50	0.029601723
252	0x3d488144	0.048951402
253	0x3e52255b	0.20522062
254	0xbc7e3452	-0.015515404
255	0xbb3467b6	-0.0027527637

fc1.bias f4 [32]
0	0x3eacf93e	0.33783907
1	0xbf1a5fef	-0.60302633
2	0xbecda417	-0.40164253
3	0xbeaa7d9a	-0.3329895
4	0x3e8c11a1	0.273572
5	0x3f8818cb	1.0632566
6	0xbf7a74e5	-0.97834617
7	0xbf041b2f	-0.5160398
8	0xbfa2ba1b	-1.2713045
9	0xbef6f976	-0.482372
10	0x3f67fff8	0.9062495
11	0xbe752e86	-0.23943529
12	0xbdf49df0	-0.11944187
13	0xbefc6fcf	-0.49304053
14	0xbf9d1cdb	-1.2274431
15	0xbf0b32fc	-0.5437467
16	0x3f1fe864	0.62463975
17	0xbfbc09f7	-1.4690541
18	0x3fe9a6b8	1.8254004
19	0xbf257ad2	-0.64640534
20	0xbf8ee9f6	-1.1165149
21	0xbe5d6630	-0.21621013
22	0x3eb9f143	0.3631688
23	0xbf27aca5	-0.6549781
24	0x3ccdac1f	0.025106488
25	0xbeaabcfc	-0.3334731
26	0xbf437574	-0.76351094
27	0x3f2a6089	0.6655355
28	0xbf8139fc	-1.009582
29	0xbeace4e4	-0.3376838
30	0x3e0585b0	0.13039279
31	0xbe78b3ba	-0.2428731

fc2.weight f4 [16, 32]
0	0xbd6df541	-0.05809522
1	0x3f1809e1	0.59390074
2	0x3e441209	0.19147505
3	0x3f034303	0.51274127
4	0x3d42112f	0.04737967
5	0x3e1c04c5	0.15236194
6	0x3f82ee09	1.0228893
7	0x3f5eca90	0.87027836
8	0x3d8579f7	0.065174036
9	0x3eaffb2c	0.34371316
10	0xbe772f81	-0.24139215
11	0x3f104b58	0.56364965
12	0x3e1689f8	0.14701068
13	0x3ee69c4b	0.45041117
14	0x3f7fd78b	0.9993827
15	0x3f276285	0.65384704
16	0x3d35aa5e	0.044351928
17	0x3f92c718	1.1467009
18	0x3e1d49cc	0.15360183
19	0x3ebbc11d	0.3667077
20	0x3f4f9c3c	0.8109777
21	0x3eeb8aa2	0.46004206
22	0x3d6b865c	0.057501182
23	0x3f45a97b	0.7721173
24	0x3d393a4c	0.04522161
25	0x3ee8b4c1	0.45450404
26	0x3f95f590	1.1715565
27	0xbe1c5e1a	-0.15270272
28	0x3f41ab0a	0.7565161
29	0xbd236d0d	-0.03989892
30	0xbcc47fc4	-0.023986705
31	0x3f238312	0.6387187
32	0xbd53314b	-0.05156068
33	0x3f3d43e9	0.7393175
34	0x3f00b38d	0.5027397
35	0x3f272c4a	0.65301955
36	0xbdcede86	-0.10101037
37	0x3d125bb0	0.03573197
38	0x3f8c7e72	1.0976088
39	0x3f97d31e	1.1861303
40	0x3ea292e6	0.317527
41	0x3f14faf1	0.58195406
42	0xbd5d72e8	-0.05406466
43	0x3f1603a3	0.585993
44	0x3d5bab11	0.05362994
45	0x3f005520	0.5012989
46	0x3f4839a2	0.7821294
47	0x3f567756	0.8377584
48	0xbd8c1e5b	-0.06841727
49	0x3faac804	1.334229
50	0xbd91bfca	-0.07116659
51	0x3e3ee653	0.18642549
52	0x3f712540	0.94197464
53	0x3f20da3b	0.62832993
54	0x3e97ed95	0.29673448
55	0x3f52a8d7	0.8228888
56	0x3d9b3944	0.07579282
57	0x3ef7ca79	0.48396662
58	0x3fb3aed3	1.4037727
59	0xbd921787	-0.07133394
60	0x3f33aa26	0.701815
61	0x3d1fb240	0.03898835
62	0xbc01703d	-0.007900295
63	0x3f4953f5	0.78643733
64	0x3d3af3c2	0.04564262
65	0x3d83b467	0.064308934
66	0xbe596f18	-0.21233785
67	0x3d7bb109	0.06144813
68	0xbdb1874c	-0.08668384
69	0xbd9a466f	-0.075329654
70	0x3d6e7a27	0.058221962
71	0xbb6bbcf7	-0.0035970786
72	0xb126494c	-2.4197844e-09
73	0x3d08000b	0.033203166
74	0xbaa21763	-0.0012366589
75	0x3c4e9012	0.012607591
76	0x3d4b9a26	0.049707554
77	0xbc42a616	-0.011880418
78	0xb88edf38	-6.8126654e-05
79	0xbdd706b4	-0.104993254
80	0xbce27c94	-0.027647294
81	0xbd848f81	-0.06472684
82	0xbd9b1918	-0.07573146
83	0xbe3ebedf	-0.18627499
84	0xbe1249a5	-0.14285906
85	0xbca91600	-0.020640373
86	0xbe04a179	-0.12952222
87	0xbe045663	-0.12923579
88	0xbd105ff7	-0.03524777
89	0xbe11f711	-0.14254405
90	0x3d70f124	0.05882372
91	0xbdc6b344	-0.09702161
92	0xbd76511c	-0.060135946
93	0xbd88d67e	-0.06681536
94	0xbe2badcb	-0.16765516
95	0x3c920ab0	0.017827362
96	0x3d332a77	0.04374167
97	0xbd1b2098	-0.03787288
98	0xbdb6e710	-0.089307904
99	0x3d637b04	0.05553724
100	0xbbfde3ba	-0.0077480944
101	0xbc3c8389	-0.01150597
102	0xbd4d42fa	-0.050112702
103	0xbb8ed872	-0.0043592984
104	0x801bbdd6	-2.547659e-39
105	0xbd716a50	-0.058939278
106	0xbd51290d	-0.05106454
107	0xb8d433b2	-0.00010118577
108	0xbc1d5a55	-0.009604056
109	0xba095854	-0.0005239297
110	0x38b8a446	8.804402e-05
111	0x3d87547f	0.06607913
112	0xbdb9868e	-0.090588674
113	0xbcb584b9	-0.022158014
114	0xbd05fc0d	-0.032711077
115	0x3d34f19c	0.04417573
116	0xba427c82	-0.0007419066
117	0xbc1ce291	-0.009575502
118	0xbc02ce45	-0.007983749
119	0x3bd46c44	0.006482633
120	0xbacac597	-0.0015470263
121	0x3b87864b	0.004135882
122	0x3b9b5088	0.0047398247
123	0xbc6612e1	-0.014042587
124	0x3b66f4a9	0.0035241044
125	0x3bda15b5	0.0066554197
126	0xbd10f7de	-0.035392635
127	0xbdd6a1a6	-0.10480051
128	0xbd106206	-0.035249732
129	0x3c7ec191	0.0155490795
130	0x3cf833d7	0.030298157
131	0xbd927f9b	-0.07153245
132	0xb979e442	-0.00023831523
133	0xbc3a9952	-0.0113890935
134	0x3a354536	0.0006914915
135	0x3aa57981	0.0012624712
136	0x137e02fa	3.2060775e-27
137	0xbb42c2d0	-0.0029718168
138	0xbd88cc84	-0.06679633
139	0xbb2458bd	-0.0025077306
140	0xbc0e7406	-0.008694654
141	0xba776509	-0.00094373577
142	0x912f3bbd	-1.3823474e-28
143	0xbe29be41	-0.16576482
144	0xba54079e	-0.0008088293
145	0xba0c094f	-0.0005341963
146	0xbd2ff074	-0.042953923
147	0xbcd6b834	-0.026210882
148	0x3c88a9ec	0.016682588
149	0x3b8e7786	0.0043477444
150	0x3c36a250	0.011147097
151	0xbc053b0c	-0.008131754
152	0xbca9e616	-0.020739596
153	0xbde97f27	-0.114012055
154	0xbb122068	-0.0022297148
155	0xbcafb86d	-0.021450246
156	0x3ae66864	0.0017578718
157	0x3cbe5b30	0.023236841
158	0x3c2bb2a0	0.010479599
159	0xbdcd3dee	-0.10021578
160	0xbf3d900e	-0.74047935
161	0x3f58557b	0.8450543
162	0x3d812297	0.063054256
163	0x3e184030	0.14868236
164	0xbe9d1ced	-0.3068613
165	0xbf0e71b1	-0.5564223
166	0x3f6e153e	0.93001163
167	0x3f5631a4	0.83669496
168	0x3e602d8d	0.21892376
169	0x3d00526b	0.0313286
170	0xbec54394	-0.3852812
171	0x3e77c67d	0.24196811
172	0x3eaf1e9b	0.34203038
173	0x3f3613b6	0.71123827
174	0x3f78b779	0.9715496
175	0x3eb87d57	0.36033127
176	0xbe189f9f	-0.1490464
177	0x3f837755	1.0270792
178	0xbe963651	-0.29338315
179	0x3ed38ee3	0.4131995
180	0x3f28cec8	0.65940523
181	0x3eed063a	0.46293813
182	0xbf16659a	-0.5874878
183	0x3f0d67da	0.5523659
184	0xbf23ef43	-0.6403696
185	0x3f0e8ccc	0.5568359
186	0x3f4506e0	0.76963615
187	0xbf9a8619	-1.2072173
188	0x3eeaab20	0.45833683
189	0x3e73bb97	0.23802029
190	0x3d76cd62	0.060254462
191	0x3e2f1856	0.17099127
192	0x3e3e328b	0.18573968
193	0x3f84180c	1.0319839
194	0x3f16636c	0.58745456
195	0xbd9c5050	-0.07632506
196	0xbe7dc633	-0.24782638
197	0xbee657b2	-0.4498878
198	0x3f90836c	1.1290107
199	0x3ea63a19	0.324662
200	0x3f3fee41	0.7497292
201	0x3ec78c3f	0.38974187
202	0xbf123265	-0.57108146
203	0x3e87b73a	0.26506978
204	0x3e87f59e	0.2655458
205	0x3f360794	0.71105313
206	0x3f8c1fa0	1.0947151
207	0x3eef9eeb	0.46800932
208	0xbeee8fd8	-0.4659412
209	0x3f98123b	1.1880563
210	0xbf714eda	-0.9426094
211	0x3eedfa7e	0.46480173
212	0x3f6eafac	0.93236804
213	0x3eae3417	0.34024116
214	0xbe670072	-0.22558764
215	0x3ea98c75	0.33114973
216	0xbf0d1a12	-0.55117905
217	0x3eae825a	0.34083825
218	0x3ee65aac	0.44991052
219	0xbeb1578c	-0.34637105
220	0x3eaabe81	0.33348468
221	0x3ec17b2f	0.37789294
222	0xbe8bf941	-0.27338603
223	0x3e3dd4b4	0.18538171
224	0xbe74725d	-0.23871751
225	0x3f5787b1	0.84191424
226	0x3ea0374e	0.31292194
227	0x3e2e2681	0.17006876
228	0xbeeb1984	-0.45917904
229	0xbdb1d4fd	-0.086832024
230	0x3f675bd6	0.90374506
231	0x3e14375c	0.14474243
232	0x3ef8ece7	0.48618242
233	0x3ea1d7dc	0.3161
234	0xbf026bdd	-0.50945836
235	0x3de7a360	0.11310458
236	0x3eb4ee9d	0.35338297
237	0x3f1d8706	0.61534154
238	0x3f90019d	1.1250492
239	0x3ee9a354	0.45632422
240	0xbe4e235e	-0.20130679
241	0x3fb6ca3a	1.4280465
242	0xbee530de	-0.44763845
243	0x3f10ae31	0.56515795
244	0x3f815f45	1.0107199
245	0x3e998356	0.29983014
246	0xbdae209d	-0.08502314
247	0x3f25993f	0.6468696
248	0xbea7a0a0	-0.32739735
249	0x3eca710a	0.39539367
250	0x3eb8d840	0.36102486
251	0xbea0b196	-0.31385487
252	0x3e41fd29	0.18944229
253	0x3e381afb	0.17979042
254	0xbd8b1df1	-0.0679282
255	0x3ea62cbf	0.32456014

fc2.bias f4 [16]
0	0x3e8b4642	0.2720204
1	0x3e82c3c1	0.25539973
2	0x3d1746e1	0.03693283
3	0xbd2d32b1	-0.04228467
4	0xbd5b1804	-0.0534897
5	0xbf17450a	-0.5908972
6	0xbf98877f	-1.191635
7	0xbf283221	-0.6570149
8	0xbe9bddb5	-0.30442587
9	0xbe59b290	-0.21259522
10	0x3c89bf7b	0.016814938
11	0x3e88cab6	0.26717156
12	0x3d79667c	0.060888752
13	0xbd5402da	-0.051760532
14	0x3e0fd6e2	0.14046815
15	0xbdff2234	-0.124576956

fc3.weight f4 [1, 16]
0	0xbf159118	-0.5842452
1	0xbf27b846	-0.65515554
2	0x3de8efe0	0.113738775
3	0xbda9ba6c	-0.0828751
4	0x3b6172e9	0.0034400767
5	0xbf7ca66f	-0.9869146
6	0xbfa27dbe	-1.2694623
7	0xbf513639	-0.8172336
8	0xbf7e12c7	-0.992474
9	0x3dd45083	0.10366919
10	0x3dc03dde	0.093868
11	0xbf0f322e	-0.55935943
12	0x3dfcb90c	0.123399824
13	0x3e09681f	0.13418625
14	0xbf4e767a	-0.8064953
15	0xbf1fdccd	-0.6244629
