DRL-course/MADDPG/model_dir/episode-14000.pt (torch_old, 71203 bytes, 99 tensors)

fc1.weight f4 [16, 14]
0	0xbf8574b1	-1.0426236
1	0x3f360ff3	0.71118087
2	0xbf6d59fe	-0.9271544
3	0x3f726b12	0.94694626
4	0xbf551991	-0.83242136
5	0xbd4ecd86	-0.05048897
6	0xbe25feb8	-0.16210449
7	0x3e742ca3	0.23845153
8	0xbe09140d	-0.13386555
9	0x3e1f886d	0.15579386
10	0x3da400a0	0.08007932
11	0x3da3359e	0.07969211
12	0xbea9ff3b	-0.33202538
13	0x3ee4f980	0.44721603
14	0x3f304803	0.6885988
15	0x3f962f67	1.1733216
16	0x3f35b991	0.70986277
17	0x3f879437	1.0592107
18	0x3dc5d8bc	0.096604794
19	0x3e248342	0.16065696
20	0xb9257458	-0.00015778968
21	0x3dbb1d87	0.09136491
22	0x3ea18a9d	0.31551066
23	0x3e9b0724	0.30278885
24	0xbe80f4c5	-0.25186744
25	0x3e84e7d4	0.2595812
26	0x3edef233	0.43544158
27	0x3f1d71ac	0.61501575
28	0xbed1d52b	-0.40982947
29	0x3f5455bb	0.82943314
30	0xbe6d8d7e	-0.23198506
31	0x3f070713	0.5274517
32	0xbdbf06bf	-0.093274586
33	0xbecc2099	-0.3986862
34	0xbe5018cc	-0.2032196
35	0xbe1012de	-0.14069697
36	0xbe312f7c	-0.1730327
37	0xbdfd1a82	-0.123585716
38	0x3d8b539b	0.06803056
39	0xbebbef02	-0.36705786
40	0x3e655771	0.22396637
41	0xbe7906eb	-0.24319045
42	0xbecf64fe	-0.40506738
43	0x3e0da9ca	0.138343
44	0xbf100d6a	-0.5627047
45	0x3e927c23	0.28610334
46	0x3e7d1c28	0.24717772
47	0xbd09639f	-0.03354227
48	0xbf0dcde7	-0.5539231
49	0x3d231895	0.039818365
50	0xbee2a618	-0.44267344
51	0x3d7a5164	0.061112776
52	0xbe477284	-0.19477278
53	0x3de81c3f	0.113335125
54	0xbe834382	-0.25637442
55	0x3e8a2f56	0.2698924
56	0xbe25c03d	-0.16186614
57	0x3ea6c593	0.32572612
58	0xbdeec848	-0.11659294
59	0x3e75916c	0.23981255
60	0xbd4e7e2d	-0.0504133
61	0xbd2e4fec	-0.04255669
62	0x3ee40684	0.4453622
63	0x3df61315	0.12015358
64	0x3efa4832	0.48883206
65	0x3e1ddc4b	0.15416066
66	0xbf5f4f8a	-0.8723074
67	0x3f061652	0.5237781
68	0x3e592e48	0.21209061
69	0x3e885da2	0.26633936
70	0xbe456296	-0.19275889
71	0x3ecf3ab6	0.4047448
72	0xbe17515c	-0.1477713
73	0x3ecdb1a7	0.401746
74	0xbbd2dac2	-0.0064347694
75	0xbecf388b	-0.40472826
76	0x3f9a992c	1.2077994
77	0x3ebe37ce	0.3715195
78	0xbee9d674	-0.45671427
79	0x3da567b3	0.0807642
80	0x3f9eb36c	1.2398505
81	0x3e8bcac0	0.27303123
82	0x3dafcb69	0.08583719
83	0x3d41cb73	0.047313165
84	0xbe6fd61c	-0.2342152
85	0x3d4d8a87	0.050180938
86	0xbe889d6d	-0.26682606
87	0xbd26892b	-0.040658157
88	0x3d795bfa	0.06087873
89	0xbe76c5b1	-0.24098851
90	0x3f1573f9	0.58380085
91	0xbed2a5d5	-0.41142145
92	0x3f1cbc8a	0.6122519
93	0x3f494bf2	0.7863151
94	0xbf530c0d	-0.82440263
95	0x3e025d59	0.12730922
96	0xbdd8ca1f	-0.105854265
97	0xbf19f2f9	-0.6013637
98	0x3f30d914	0.69081235
99	0xbf791366	-0.97295225
100	0x3f4a0913	0.78920096
101	0xbf8dc2ff	-1.1075133
102	0xbe3b6a11	-0.1830218
103	0xbec26dd7	-0.37974426
104	0x3c6f4794	0.014604468
105	0xbe187da9	-0.14891686
106	0xbc8fcd47	-0.017553939
107	0xbf16dcb1	-0.589305
108	0xbd42bdb0	-0.04754418
109	0xbe094631	-0.13405682
110	0xbbc58f90	-0.006029077
111	0xbede5e05	-0.43431106
112	0x3f85fa7f	1.046707
113	0xbf2b2411	-0.6685191
114	0x3f8e2b45	1.1106955
115	0xbf821320	-1.0162086
116	0x3f6fc72e	0.936633
117	0xbebf6b0a	-0.37386352
118	0xbec700c5	-0.38867775
119	0xbd990686	-0.07471947
120	0xbe756c78	-0.23967159
121	0xbddb56e1	-0.1070993
122	0x3d248735	0.040168006
123	0x3e956552	0.29178864
124	0x3fb2da0e	1.3972795
125	0x3f0b3086	0.54370916
126	0x3ec0a577	0.3762624
127	0xbf829419	-1.0201446
128	0x3ee0cd6e	0.4390673
129	0xbf6161ab	-0.88039654
130	0x3f13dbaa	0.57757056
131	0x3e62b3c4	0.22138888
132	0x3ea0c0b1	0.31397012
133	0x3d41bef1	0.047301237
134	0xbf2410b4	-0.64087987
135	0xbf2064ab	-0.6265361
136	0xba48c7d4	-0.0007659171
137	0x3df0bc98	0.117547214
138	0xbf0b70b5	-0.5446885
139	0xbf111480	-0.56671906
140	0x3d88f8b6	0.06688063
141	0x3dc0df74	0.0941762
142	0x3df38ac5	0.118917026
143	0x3e0ca936	0.13736424
144	0xbef16fc3	-0.4715558
145	0xbe1b0b6c	-0.15141076
146	0x3f639c35	0.8891023
147	0x3e516cc1	0.20451643
148	0x3fc982bb	1.5743021
149	0x3ef9a7cd	0.48760834
150	0x3e53c091	0.20678927
151	0x3e2b6a0c	0.16739672
152	0xbc9a36ad	-0.0188249
153	0x3cbd47e3	0.023105567
154	0xbf0061dc	-0.5014932
155	0x3ee7686c	0.45196855
156	0xbef00734	-0.46880496
157	0x3edbf827	0.42962763
158	0xbe18e725	-0.14931925
159	0xbd70afb7	-0.058761325
160	0xbd52f0d7	-0.051499214
161	0xbcbb1272	-0.022835944
162	0x3d2f2ad3	0.04276545
163	0x3e8182e0	0.25295162
164	0xbce04722	-0.027377669
165	0xbf939e22	-1.1532633
166	0xbd955a50	-0.07292616
167	0xbdf9f7e0	-0.122054815
168	0xbfb82427	-1.4386033
169	0xbfa34bc4	-1.2757497
170	0xbfaa8c18	-1.3324003
171	0xbf971546	-1.1803367
172	0xbf62fa91	-0.88663584
173	0xbdca11d1	-0.098666795
174	0xbf8e5d8d	-1.11223
175	0x3e8b8bab	0.27254996
176	0xbf1973f3	-0.5994255
177	0xbf37c4fc	-0.7178495
178	0xbf4f481b	-0.809694
179	0x3cb0160c	0.021494888
180	0xbf29cd44	-0.66328835
181	0xbf01576a	-0.5052401
182	0xbe775a92	-0.24155644
183	0x3f10b05f	0.5651912
184	0xbe0216ee	-0.1270406
185	0x3f00c8fc	0.5030668
186	0x3b9490a2	0.004533843
187	0xbe531b46	-0.20615873
188	0x3de4ae2b	0.111660324
189	0xbfca160f	-1.5787982
190	0xbdc807c8	-0.09767109
191	0xbef9eb73	-0.48812446
192	0xbd0be8cb	-0.034157556
193	0x3de5aa02	0.11214067
194	0x3bf1192f	0.0073577384
195	0x3da7c597	0.08191984
196	0x3f67300e	0.903077
197	0xbdebaa36	-0.115070745
198	0x3f367e6e	0.71286666
199	0xbd18c6aa	-0.037298836
200	0x3c9a7a89	0.018857257
201	0xbe5252f7	-0.20539461
202	0xbddbdd3d	-0.10735557
203	0xbda6b748	-0.08140427
204	0x3e54108e	0.2070944
205	0x3daf01d4	0.085452706
206	0x3ee668c3	0.45001802
207	0xbf77ff44	-0.9687388
208	0x3ea7d400	0.3277893
209	0xbf8031d9	-1.0015212
210	0x3f0b3d82	0.5439073
211	0x3f16bdca	0.58883345
212	0x3f0cf24b	0.5505721
213	0x3f7b06d6	0.98057306
214	0x3e8d8007	0.2763674
215	0xbe8223fc	-0.2541808
216	0x3e9655ad	0.2936224
217	0x3d06ba33	0.032892417
218	0x3d8647c4	0.06556657
219	0x3f228ea6	0.63498914
220	0xbe4e2855	-0.20132573
221	0xbe15b63d	-0.146203
222	0x3bae8312	0.0053256834
223	0xbed1f7e8	-0.4100945

fc1.bias f4 [16]
0	0xbf00aa8b	-0.5026023
1	0xbf23a4c8	-0.6392331
2	0x3f0f4b05	0.55973846
3	0x3f258d7b	0.6466901
4	0x3e2fc4f5	0.17164977
5	0x3f1fc656	0.6241201
6	0xbe634e6a	-0.22197881
7	0xbf98d5a3	-1.1940197
8	0xbebf4a5b	-0.37361416
9	0xbf207901	-0.6268464
10	0x3eb8934a	0.36049873
11	0x3f165579	0.5872417
12	0xbf8b2eee	-1.0873697
13	0x3f437288	0.76346636
14	0x3dd77da7	0.10522013
15	0x3d857876	0.06517117

fc2.weight f4 [8, 16]
0	0xbeec9348	-0.46206117
1	0xbec41cb2	-0.38303143
2	0xbd240023	-0.040039193
3	0x3cefb04e	0.029258873
4	0x3e91766e	0.28410667
5	0x3eb3dda5	0.3513004
6	0x3e61ff1b	0.22069971
7	0x3f2161fc	0.6304014
8	0x3e8326ad	0.25615445
9	0x3f5fe267	0.8745484
10	0x3d57e577	0.05270907
11	0x3f23348c	0.63752055
12	0x3fc83e65	1.5644041
13	0x3f24ac98	0.6432586
14	0x3f0644c9	0.5244871
15	0xbf285096	-0.65747964
16	0xbf0afcfa	-0.5429226
17	0x3f82dee9	1.0224277
18	0x3d635717	0.055502977
19	0x3d4181f1	0.047243062
20	0xbe4ce19b	-0.20007937
21	0x3f9ad153	1.2095131
22	0xbea523a3	-0.3225375
23	0x3ec8551c	0.39127433
24	0x3e97f402	0.2967835
25	0xbeb1f15e	-0.3475446
26	0x3f24c524	0.6436331
27	0x3cddc6c9	0.027072327
28	0xbecf762a	-0.4051984
29	0xbe5e9380	-0.21735954
30	0x3d0db25b	0.03459392
31	0x3de20f9f	0.11038136
32	0x3e229ae9	0.15879406
33	0x3ea8a76f	0.32940242
34	0xbf0c499e	-0.5479983
35	0xbef133b8	-0.4710977
36	0xbeb91e0b	-0.36155733
37	0xbe7c86dc	-0.2466082
38	0xbf0ff27a	-0.56229365
39	0x3e824d0c	0.25449407
40	0xbf754834	-0.958133
41	0x3f0192e0	0.5061474
42	0x3ce4848f	0.02789524
43	0x3c177662	0.009244533
44	0xbda6af91	-0.081389554
45	0x3e02abc1	0.12760831
46	0xbf92b1aa	-1.1460469
47	0x3eeea262	0.46608263
48	0xbe45f08f	-0.19330047
49	0xbe4d414f	-0.20044445
50	0x3dd616a3	0.10453536
51	0xbc0719dc	-0.008245911
52	0x3d3f5eb4	0.046721175
53	0xbd2aedfe	-0.041730873
54	0x3dc033e8	0.093849
55	0xbec4356b	-0.38322005
56	0xbe4692b2	-0.19391897
57	0xbe630033	-0.22168045
58	0xbdb88d5c	-0.09011337
59	0xbe600218	-0.21875799
60	0xbc01a7b6	-0.007913521
61	0xbe56e63e	-0.20986268
62	0xbdfacc76	-0.12246029
63	0xbe71b856	-0.23605475
64	0x3ee6997b	0.4503897
65	0x3e06a1e2	0.13147691
66	0xbddd055b	-0.10792037
67	0x3ea494e0	0.32144833
68	0xbeba7d80	-0.36423874
69	0x3d222af2	0.039591737
70	0xbf075d98	-0.5287719
71	0xbf041b44	-0.51604104
72	0xbe98ce5e	-0.29844946
73	0x3c824097	0.01589994
74	0x3f038f55	0.5139058
75	0xbfccc672	-1.5998061
76	0xbddcb242	-0.107761875
77	0x3f8ba9a4	1.0911145
78	0xbe91ccb2	-0.28476483
79	0xbc4881c0	-0.012237966
80	0xbef93da2	-0.48679835
81	0x3e79df97	0.24401699
82	0x3f329414	0.697572
83	0xbd3e57f9	-0.046470616
84	0xbe9c48e2	-0.30524355
85	0x3e8879cc	0.26655424
86	0xbed22b2b	-0.4104856
87	0xbfc0226a	-1.5010502
88	0x3ec1d2d2	0.37856156
89	0xbe124e1d	-0.1428761
90	0xbe91af2e	-0.28453964
91	0x3ead82b7	0.3388879
92	0xbed9d4bd	-0.4254512
93	0xbfc6cf43	-1.5532001
94	0x3f1151a5	0.56765205
95	0x3e8ec7c8	0.27886796
96	0xbeb0bb01	-0.34517673
97	0x3bf261b1	0.0073968996
98	0xbf60c590	-0.87801456
99	0xbf76a169	-0.9634004
100	0xbea688f0	-0.3252635
101	0xbe4b813f	-0.19873522
102	0xbe509ef8	-0.20373142
103	0x3f3179a1	0.69326216
104	0x3f5e00d9	0.86720043
105	0x3e8edaec	0.279014
106	0x3eab4a4f	0.3345513
107	0xbfad7139	-1.3550178
108	0xbcce508f	-0.025184898
109	0xbf4d7a11	-0.80264384
110	0x3f3f2187	0.74660534
111	0x3f10f0e0	0.56617546
112	0x3f652add	0.8951853
113	0x3e9528be	0.29132646
114	0x3f02a162	0.510275
115	0x3ee979d2	0.45600754
116	0x3f2cb90b	0.67469853
117	0xbe01d6fb	-0.12679665
118	0x3f13e7dc	0.57775664
119	0xbf782ee7	-0.9694657
120	0xbe55f413	-0.20893888
121	0xbe17e7ff	-0.14834593
122	0xbd40d346	-0.047076486
123	0x3d915af9	0.0709743
124	0x3f5aba3a	0.8544041
125	0x3d37c3c6	0.04486444
126	0xbe89f7d4	-0.2694689
127	0x3da7af6e	0.081877574

fc2.bias f4 [8]
0	0x3ebba6dc	0.3665074
1	0x3f205727	0.62632984
2	0xbf73cb09	-0.9523168
3	0xbdafe5ce	-0.08588754
4	0x3e0ad174	0.13556463
5	0x3f41e46b	0.75739163
6	0x3f06ed50	0.5270586
7	0x3ed80912	0.4219442

fc3.weight f4 [2, 8]
0	0xbe28fc4a	-0.1650249
1	0x3f55f1c4	0.8357203
2	0x3ee9d5d4	0.4567095
3	0x3df288dc	0.1184251
4	0xbedb13cd	-0.42788544
5	0xbf33b41d	-0.70196706
6	0x3f05894d	0.5216263
7	0xbeddbfcb	-0.4331039
8	0xbf2ea2ff	-0.6821746
9	0x3e9d2854	0.3069483
10	0xbef6c051	-0.481936
11	0x3c981c79	0.018568264
12	0x3f193654	0.59848523
13	0x3f18ede8	0.59738016
14	0xbe9f95a0	-0.31168842
15	0x3f0b8469	0.54498917

fc3.bias f4 [2]
0	0x3d949f24	0.07256916
1	0xbb114f94	-0.0022172676

exp_avg f4 [16, 14]
0	0x38f6cfd0	0.00011768902
1	0xb8c28cf5	-9.276896e-05
2	0x38baa9ac	8.900775e-05
3	0xb8a5bd48	-7.9030695e-05
4	0x3874b72f	5.8344736e-05
5	0xb83471fb	-4.3021497e-05
6	0x38058790	3.1835923e-05
7	0xb8a7250c	-7.970081e-05
8	0x3742b53b	1.1605497e-05
9	0x382d28ad	4.1284296e-05
10	0x38c127b5	9.210353e-05
11	0xb8ca0707	-9.6334195e-05
12	0x37eb0e8c	2.8020957e-05
13	0x37b6dbaa	2.179838e-05
14	0x378ed2a8	1.7025814e-05
15	0x37c4441c	2.3396737e-05
16	0x372700fc	9.954205e-06
17	0xb7dce5a0	-2.6332971e-05
18	0x37108f73	8.616468e-06
19	0xb6b3a866	-5.35422e-06
20	0x3854e7f2	5.0760755e-05
21	0x371c487a	9.315199e-06
22	0xb73655e2	-1.08680415e-05
23	0xb71ae4e8	-9.232412e-06
24	0xb6b88d04	-5.5000437e-06
25	0xb82c1d16	-4.1035084e-05
26	0x38153ee4	3.558294e-05
27	0x37948d24	1.7708699e-05
28	0x37743cd4	1.4557696e-05
29	0xb8cb6788	-9.6990785e-05
30	0x37e49197	2.7247514e-05
31	0xb85ada8a	-5.217878e-05
32	0x38bb1f25	8.922656e-05
33	0xb87b9f3c	-5.9991362e-05
34	0x388780a7	6.461265e-05
35	0xb91e963a	-0.00015124018
36	0x38261fab	3.9606977e-05
37	0xb8543695	-5.0595572e-05
38	0x38129a7b	3.4952984e-05
39	0xb8022771	-3.1031148e-05
40	0x383afee3	4.4583237e-05
41	0x37e05349	2.6741664e-05
42	0x35c25ef4	1.4481761e-06
43	0xb8a091e3	-7.656568e-05
44	0x3771385d	1.43778425e-05
45	0xb84a7840	-4.8272545e-05
46	0x379c3c04	1.8624596e-05
47	0xb80b1a3e	-3.3164622e-05
48	0x389b0674	7.392178e-05
49	0xb8b428bc	-8.590656e-05
50	0xb717f40a	-9.057121e-06
51	0xb82b9a66	-4.091337e-05
52	0x370f1d0c	8.530227e-06
53	0xb8a8be6a	-8.046332e-05
54	0x37e02760	2.6721216e-05
55	0x379b4a7e	1.8512128e-05
56	0xb72ebb4b	-1.0414816e-05
57	0xb8226712	-3.87198e-05
58	0xb7adf0be	-2.0735311e-05
59	0xb7873b6a	-1.6120921e-05
60	0x378f0817	1.7050696e-05
61	0xb7803116	-1.5281646e-05
62	0xb7d1bd1a	-2.5002799e-05
63	0x383e19cd	4.532356e-05
64	0xb71e049e	-9.418609e-06
65	0x37d01c1b	2.480862e-05
66	0x3811b1c4	3.473625e-05
67	0xb7774f76	-1.4740848e-05
68	0xb76cadcc	-1.4107161e-05
69	0xb723f022	-9.771467e-06
70	0x38b0c2e7	8.4286374e-05
71	0x38b9b22a	8.854673e-05
72	0x38ba4708	8.882402e-05
73	0x38045301	3.1548556e-05
74	0xb7d749ac	-2.5664303e-05
75	0xb61f8744	-2.3771581e-06
76	0x38a7188a	7.967751e-05
77	0xb8cdd57a	-9.814925e-05
78	0xb78bb818	-1.6655817e-05
79	0x3742414d	1.1578505e-05
80	0xb81e7a95	-3.77843e-05
81	0xb8884e7d	-6.499605e-05
82	0x37911a1f	1.729751e-05
83	0xb750301e	-1.2408969e-05
84	0xb6f4a566	-7.2910216e-06
85	0xb6be5d90	-5.6733334e-06
86	0xb73fab82	-1.1424419e-05
87	0x378b2900	1.6589183e-05
88	0x37a00b5b	1.9078774e-05
89	0xb39679e0	-7.007088e-08
90	0xb7cdd4e4	-2.453704e-05
91	0x38f257ff	0.0001155585
92	0xb80f28c4	-3.4131823e-05
93	0x37872fc6	1.61155e-05
94	0x37fc47c8	3.0074167e-05
95	0x36a14c56	4.8070606e-06
96	0xb79306c9	-1.7526925e-05
97	0xb7b9b7bf	-2.2139282e-05
98	0xb80890a9	-3.2559652e-05
99	0xb69180a8	-4.3363143e-06
100	0x389a03e5	7.344018e-05
101	0xb832f87c	-4.2669926e-05
102	0x37cd5456	2.4477176e-05
103	0xb74011c4	-1.1448228e-05
104	0x38b84c34	8.787998e-05
105	0xb8489a0c	-4.7827183e-05
106	0xb725d459	-9.884207e-06
107	0xb7813787	-1.5403855e-05
108	0x3896527e	7.167923e-05
109	0xb8d72d17	-0.000102603975
110	0xb82d4d58	-4.1318446e-05
111	0x376b76b4	1.4034729e-05
112	0xb7d9467c	-2.5901238e-05
113	0x3703ee0e	7.863635e-06
114	0x37c2cb66	2.3221317e-05
115	0xb849ce8d	-4.81145e-05
116	0x36b71470	5.4562042e-06
117	0x3780c6cf	1.5351367e-05
118	0xb7360a81	-1.0850491e-05
119	0xb8297d32	-4.0409337e-05
120	0x379dcf3b	1.8812358e-05
121	0x378e2e3a	1.6949245e-05
122	0x36c7ff25	5.960365e-06
123	0xb7b3ca1c	-2.1432577e-05
124	0xb83119c2	-4.2224077e-05
125	0x35b6b5a6	1.3612923e-06
126	0xb78c0dea	-1.669578e-05
127	0x361a968a	2.3035414e-06
128	0x36d5226a	6.351901e-06
129	0x380cec06	3.3598415e-05
130	0xb688b766	-4.0744662e-06
131	0xb73ca966	-1.1245114e-05
132	0xb82dca6b	-4.143493e-05
133	0x37680810	1.3830155e-05
134	0x377fc70e	1.524553e-05
135	0x36bee8ea	5.689556e-06
136	0x3820bbc4	3.8321843e-05
137	0xb8664fcc	-5.491059e-05
138	0xb7979c88	-1.8073493e-05
139	0xb776f5a0	-1.4719932e-05
140	0x37f26722	2.8896673e-05
141	0x38322949	4.2476957e-05
142	0x3882b98c	6.233444e-05
143	0x37708b7e	1.4337593e-05
144	0xb8161d48	-3.5790057e-05
145	0x38111765	3.4592482e-05
146	0x37b9f22b	2.2166487e-05
147	0xb8dcab44	-0.00010522318
148	0x36e75232	6.8939053e-06
149	0x379b7b63	1.8534896e-05
150	0x380afbd4	3.3136297e-05
151	0xb88ee824	-6.814327e-05
152	0xb78a1c58	-1.646408e-05
153	0x36ba867b	5.5588876e-06
154	0xb8603532	-5.3455304e-05
155	0x38abfff8	8.201593e-05
156	0xb804e12d	-3.1680964e-05
157	0xb7f40de6	-2.9093539e-05
158	0xb808d032	-3.2618824e-05
159	0xb6986ad0	-4.5423876e-06
160	0xb927b4b5	-0.0001599368
161	0x3928b743	0.00016089999
162	0x3893ca2f	7.047166e-05
163	0xb776168c	-1.4667992e-05
164	0xb8782fa7	-5.9172187e-05
165	0x39115585	0.00013860136
166	0xb89f2c64	-7.589979e-05
167	0xb8a05a40	-7.646205e-05
168	0xb7d58e53	-2.5457854e-05
169	0xb74735c8	-1.1873846e-05
170	0x3680f8d0	3.843663e-06
171	0xb79d064f	-1.8718796e-05
172	0xb7683732	-1.3841129e-05
173	0xb7e42f3a	-2.720171e-05
174	0xb7debf7b	-2.6553627e-05
175	0xb7c9a68e	-2.4038625e-05
176	0x37d85b2c	2.5791662e-05
177	0xb74bb2dc	-1.2141387e-05
178	0xb7c3d02a	-2.3342745e-05
179	0xb796d3da	-1.7980045e-05
180	0xb682889f	-3.8902067e-06
181	0xb6ffda48	-7.6250035e-06
182	0xb7fedc9d	-3.038189e-05
183	0xb73c0491	-1.1206736e-05
184	0xb8001180	-3.0533876e-05
185	0x385bc4b8	5.2396877e-05
186	0xb8bff4d6	-9.153194e-05
187	0x3727c459	9.999691e-06
188	0xb7b1cde4	-2.119592e-05
189	0x39069ccb	0.00012837646
190	0xb909a023	-0.00013124994
191	0xb77553e4	-1.462267e-05
192	0xb89574b9	-7.126615e-05
193	0x3606d280	2.0090083e-06
194	0xb8a73410	-7.972878e-05
195	0xb7e1c105	-2.6911972e-05
196	0xb80f7b40	-3.4208642e-05
197	0x370d6e82	8.4299845e-06
198	0x36d7ffc0	6.4372725e-06
199	0xb79510d4	-1.777002e-05
200	0x37f685a2	2.9387713e-05
201	0x36a01771	4.7711005e-06
202	0xb81812f7	-3.6257286e-05
203	0x37ee9be4	2.8444403e-05
204	0x3798fbba	1.8237031e-05
205	0x37931ffe	1.7538663e-05
206	0x3753e50d	1.262991e-05
207	0x36ce9748	6.15689e-06
208	0xb7c1806c	-2.3067194e-05
209	0xb3643700	-5.313541e-08
210	0x37d05a6e	2.4837642e-05
211	0xb775b301	-1.4644816e-05
212	0x37bbf4f0	2.2406195e-05
213	0x36a1561e	4.8081993e-06
214	0x37bc9688	2.2481443e-05
215	0xb80da135	-3.3767155e-05
216	0x386ce999	5.648434e-05
217	0xb8b1b08a	-8.472901e-05
218	0x37f4d28c	2.918511e-05
219	0xb71a23ec	-9.187479e-06
220	0xb68f27e8	-4.266378e-06
221	0xb833f38a	-4.290374e-05
222	0x38361911	4.3415526e-05
223	0x36a98fd6	5.053337e-06

exp_avg_sq f4 [16, 14]
0	0x33389376	4.2974953e-08
1	0x33552f47	4.9635926e-08
2	0x3330c7ea	4.1160014e-08
3	0x3364f9bc	5.331252e-08
4	0x31c03ba9	5.594718e-09
5	0x3107f67b	1.9785193e-09
6	0x33207dc4	3.7367286e-08
7	0x34dd464e	4.121561e-07
8	0x3104abc9	1.9306177e-09
9	0x3253dbd9	1.2331804e-08
10	0x335a90a2	5.0888623e-08
11	0x342fbd93	1.6367112e-07
12	0x3104e54a	1.9338864e-09
13	0x31753633	3.5683e-09
14	0x3515362f	5.5585673e-07
15	0x344535f3	1.8366681e-07
16	0x35106060	5.3784424e-07
17	0x34401ec2	1.7892583e-07
18	0x3280e0db	1.5003414e-08
19	0x32755693	1.4280562e-08
20	0x34964fd0	2.7997748e-07
21	0x365ce5c9	3.2916307e-06
22	0x3281ab02	1.5095342e-08
23	0x34233aca	1.5201945e-07
24	0x34ad2973	3.225392e-07
25	0x36460bbd	2.9511132e-06
26	0x32658201	1.3359114e-08
27	0x34069dea	1.2537171e-07
28	0x3418b017	1.4220164e-07
29	0x3447f290	1.8621563e-07
30	0x34349ad4	1.6820132e-07
31	0x343f2c58	1.7804393e-07
32	0x327b1cf4	1.4616706e-08
33	0x3259d9a1	1.26805455e-08
34	0x347f3703	2.3768739e-07
35	0x35254efe	6.158224e-07
36	0x3227a638	9.758473e-09
37	0x32c0a71b	2.2427733e-08
38	0x34be772d	3.547697e-07
39	0x35848251	9.872693e-07
40	0x3241e2c2	1.1285637e-08
41	0x331dd444	3.6747466e-08
42	0x34bda13d	3.532131e-07
43	0x34c4abb0	3.6632764e-07
44	0x34b16fb6	3.30501e-07
45	0x34c294e4	3.6243648e-07
46	0x32783630	1.4447821e-08
47	0x325ce241	1.285713e-08
48	0x34cc9024	3.8102837e-07
49	0x360c19b0	2.0876578e-06
50	0x32353ac7	1.0548951e-08
51	0x337f4edc	5.9443536e-08
52	0x34d669ce	3.993759e-07
53	0x36278417	2.4961826e-06
54	0x322294d0	9.463477e-09
55	0x33a413dc	7.6404575e-08
56	0x3393bd6b	6.879676e-08
57	0x33fa453d	1.16541266e-07
58	0x33940e72	6.8944146e-08
59	0x3406b97c	1.2547201e-07
60	0x320f867a	8.354272e-09
61	0x31ca51de	5.888281e-09
62	0x33c5b78a	9.206913e-08
63	0x354f9a13	7.7337717e-07
64	0x31e6fff6	6.7229804e-09
65	0x32e8a31b	2.7082526e-08
66	0x33c9551d	9.375274e-08
67	0x3534af66	6.7310464e-07
68	0x31d40137	6.17015e-09
69	0x32c425ae	2.2834538e-08
70	0x33ecd82e	1.1028929e-07
71	0x33a120d2	7.503117e-08
72	0x33eb2755	1.0950195e-07
73	0x3395cf8b	6.976105e-08
74	0x3269817d	1.3591827e-08
75	0x324fe03e	1.2099973e-08
76	0x340e7352	1.3266734e-07
77	0x3504cef3	4.947498e-07
78	0x32562076	1.246382e-08
79	0x32fab2c3	2.9185122e-08
80	0x33f4c110	1.1397253e-07
81	0x34d8cc38	4.0381724e-07
82	0x324e1c04	1.1997148e-08
83	0x32e9a238	2.7198539e-08
84	0x3382ec70	6.0966045e-08
85	0x3385acea	6.224748e-08
86	0x336760d9	5.387196e-08
87	0x33880981	6.334722e-08
88	0x31959d93	4.354385e-09
89	0x3178eb27	3.6222418e-09
90	0x33dd87b7	1.0315801e-07
91	0x34cd935f	3.8291452e-07
92	0x313e2fc5	2.7675793e-09
93	0x32850845	1.5486998e-08
94	0x33bbfe41	8.7541146e-08
95	0x3457b894	2.0090584e-07
96	0x313f5c0f	2.7846487e-09
97	0x31a8addb	4.9092086e-09
98	0x34b12047	3.2992304e-07
99	0x33f0a05a	1.1205039e-07
100	0x34b012ab	3.2796137e-07
101	0x340273d1	1.2149327e-07
102	0x3299e66c	1.7916328e-08
103	0x325231b2	1.2234908e-08
104	0x34e5a019	4.277106e-07
105	0x3508e9b4	5.100403e-07
106	0x321b2fd7	9.033065e-09
107	0x32935fac	1.7156559e-08
108	0x34eed72c	4.4487513e-07
109	0x3510d119	5.394846e-07
110	0x32160112	8.7313925e-09
111	0x32ada08f	2.0212864e-08
112	0x3387ecba	6.329488e-08
113	0x32ea0c6f	2.724684e-08
114	0x3382b8b6	6.0871955e-08
115	0x32ea3622	2.7265802e-08
116	0x31da04ee	6.3451955e-09
117	0x31b2e75a	5.2067834e-09
118	0x338bb89a	6.506271e-08
119	0x33a174a0	7.518361e-08
120	0x31a3a9cf	4.7632294e-09
121	0x31b25824	5.1905023e-09
122	0x338632a2	6.249071e-08
123	0x356e1551	8.869293e-07
124	0x31fccfbf	7.3577833e-09
125	0x33396e45	4.317396e-08
126	0x33f8fe05	1.1594606e-07
127	0x33c75d21	9.2836e-08
128	0x33fd64a6	1.17995384e-07
129	0x33d9fcf4	1.0150862e-07
130	0x31c1dcd8	5.6421463e-09
131	0x318adbca	4.0413157e-09
132	0x33f8cfbf	1.1586189e-07
133	0x34ce85e7	3.8467917e-07
134	0x3166ff61	3.3614571e-09
135	0x321dfb19	9.195696e-09
136	0x3407ec12	1.2658737e-07
137	0x34972fdb	2.816076e-07
138	0x3163b36a	3.3134833e-09
139	0x3200068f	7.452072e-09
140	0x3368dd9e	5.421827e-08
141	0x33a07d16	7.4733336e-08
142	0x33651b18	5.334286e-08
143	0x339c69a2	7.2835306e-08
144	0x32048a13	7.714806e-09
145	0x31ea3d52	6.8172676e-09
146	0x33bc5d21	8.771372e-08
147	0x34cd4971	3.823766e-07
148	0x3205277d	7.7505975e-09
149	0x32936259	1.7157776e-08
150	0x33e7f7e5	1.08018675e-07
151	0x35172ba1	5.631537e-07
152	0x31e161f2	6.559497e-09
153	0x32d48736	2.4741535e-08
154	0x34090fcd	1.2764868e-07
155	0x33c78aa2	9.291877e-08
156	0x34130543	1.3692356e-07
157	0x33b12810	8.249492e-08
158	0x329d208e	1.829201e-08
159	0x32335f15	1.04407905e-08
160	0x34668cd8	2.1471658e-07
161	0x356e05b6	8.867022e-07
162	0x327545a9	1.4276716e-08
163	0x33411524	4.495554e-08
164	0x33f09d4e	1.12044845e-07
165	0x3455290b	1.9852102e-07
166	0x324f8ec5	1.2081448e-08
167	0x324a392d	1.1770948e-08
168	0x328348e6	1.5283558e-08
169	0x32fcf38c	2.9447413e-08
170	0x3282c79f	1.5224769e-08
171	0x32fbd75d	2.9318182e-08
172	0x3265a4c6	1.33670195e-08
173	0x31f9066c	7.247584e-09
174	0x32ae5edd	2.0299405e-08
175	0x3345d8f0	4.606494e-08
176	0x31add9a0	5.0597038e-09
177	0x31b929e3	5.3889706e-09
178	0x333bf0a5	4.3758195e-08
179	0x336f9376	5.578064e-08
180	0x31ad4964	5.043306e-09
181	0x31b9096a	5.385279e-09
182	0x3423d1ac	1.5256836e-07
183	0x33e1b284	1.0509851e-07
184	0x342bd85c	1.6004327e-07
185	0x33d08e6e	9.7116626e-08
186	0x32a4dcb3	1.9192475e-08
187	0x3290feba	1.6879643e-08
188	0x342c8e55	1.6070528e-07
189	0x343c2854	1.7523536e-07
190	0x328f56e0	1.6686897e-08
191	0x325ba11e	1.27841115e-08
192	0x34f6b73c	4.595439e-07
193	0x358c8b08	1.0471276e-06
194	0x329b4e35	1.807994e-08
195	0x3350d51f	4.8622606e-08
196	0x34387bec	1.7181418e-07
197	0x33871a97	6.291264e-08
198	0x34345be0	1.679723e-07
199	0x33747036	5.6912732e-08
200	0x32260703	9.664066e-09
201	0x3207e0bc	7.909133e-09
202	0x34388c1b	1.7187305e-07
203	0x3599ad9f	1.1449919e-06
204	0x3247293c	1.15927e-08
205	0x338ec55e	6.648291e-08
206	0x34393b5b	1.7251061e-07
207	0x3486795a	2.504774e-07
208	0x3216df06	8.781859e-09
209	0x32634241	1.3228203e-08
210	0x33bd8cd1	8.826613e-08
211	0x33c1099d	8.9890115e-08
212	0x33c9a214	9.389274e-08
213	0x33c9b779	9.3931654e-08
214	0x31b50fdb	5.269596e-09
215	0x31cbdcb7	5.93317e-09
216	0x340ff275	1.3406118e-07
217	0x3490ea4c	2.6992564e-07
218	0x318a86ae	4.03164e-09
219	0x320736dd	7.870509e-09
220	0x3454d979	1.9823155e-07
221	0x34ac8e15	3.2140875e-07
222	0x31ca03f8	5.879425e-09
223	0x3256f91d	1.2513081e-08

exp_avg f4 [16]
0	0xb9102010	-0.00013744854
1	0x39438ed2	0.00018649854
2	0x38bed456	9.099457e-05
3	0x39438a7c	0.00018648239
4	0xb92d4140	-0.00016522873
5	0x39deb5f8	0.00042478717
6	0xb8ad73aa	-8.270827e-05
7	0x38d10a86	9.967857e-05
8	0x35e9c7e0	1.7418024e-06
9	0xb6fc389c	-7.5167754e-06
10	0x39d7f369	0.0004118935
11	0xba1ce2a1	-0.0005984698
12	0x3801ec0b	3.097583e-05
13	0xb80c96ca	-3.3519034e-05
14	0xb92ab785	-0.0001628083
15	0x398a62bf	0.00026394983

exp_avg_sq f4 [16]
0	0x33b375f6	8.356794e-08
1	0x360dfe7e	2.1158771e-06
2	0x362c7137	2.5695897e-06
3	0x35dad425	1.6304008e-06
4	0x353141b2	6.603324e-07
5	0x3606bc8e	2.007731e-06
6	0x349cacc7	2.9182976e-07
7	0x3448853a	1.8674919e-07
8	0x34cb2072	3.7835304e-07
9	0x34117b10	1.3548947e-07
10	0x3576e2b8	9.197206e-07
11	0x363fba26	2.856957e-06
12	0x33ed42ab	1.1048299e-07
13	0x365a3c2b	3.2519554e-06
14	0x35e5edde	1.7131058e-06
15	0x35bcd715	1.4069689e-06

exp_avg f4 [8, 16]
0	0x38eca720	0.000112844864
1	0x385a2852	5.20128e-05
2	0xb9146a5c	-0.00014154002
3	0xb8a37605	-7.7944285e-05
4	0xb8513ba7	-4.988504e-05
5	0xb973607a	-0.00023210226
6	0xb8476617	-4.7540376e-05
7	0xb74bb181	-1.2141071e-05
8	0xb854b8da	-5.0716895e-05
9	0xb7e78893	-2.7600943e-05
10	0xb98b80d2	-0.00026608125
11	0xb91e6772	-0.0001510659
12	0x3935ea8a	0.00017348878
13	0xb9d026c3	-0.0003970173
14	0xb8db2bdc	-0.00010450903
15	0xb896c296	-7.188802e-05
16	0x38eee79c	0.00011391865
17	0xb77761c0	-1.47451065e-05
18	0x39a8bdd0	0.00032184878
19	0x3961e798	0.00021543948
20	0x3959a43f	0.00020755919
21	0x39bb23c8	0.00035694079
22	0x38f35269	0.00011602493
23	0x37aac556	2.0357471e-05
24	0x37e5afd4	2.7380804e-05
25	0x389decd8	7.530459e-05
26	0x39a44250	0.00031329924
27	0x39b87677	0.00035183478
28	0x381bc6c6	3.7140002e-05
29	0x3a13599c	0.0005620958
30	0x3998710c	0.00029075926
31	0x395f049a	0.00021268651
32	0x1a587e0a	4.4769567e-23
33	0xb50f3979	-5.3355285e-07
34	0xb3137ade	-3.433785e-08
35	0x9f6c2156	-5.000252e-20
36	0xb43ccaad	-1.7582597e-07
37	0xb4765acf	-2.2943571e-07
38	0x98b4eacb	-4.676599e-24
39	0x8000431a	-2.4072e-41
40	0xb3903897	-6.715816e-08
41	0x00000004	6e-45
42	0xb48a485a	-2.5757146e-07
43	0x18982cf0	3.9336454e-24
44	0x00000004	6e-45
45	0xb48da351	-2.6382125e-07
46	0x1cb16b3e	1.1740599e-21
47	0xb4a0c4c4	-2.9945488e-07
48	0x2808b813	7.589431e-15
49	0x88e48f5b	-1.3755954e-33
50	0x32fa5b33	2.9145303e-08
51	0x33eaba96	1.0930414e-07
52	0x3405fdd9	1.247894e-07
53	0x87b6729c	-2.7451678e-34
54	0x32aa939e	1.9857733e-08
55	0x00000004	6e-45
56	0x87a0566f	-2.4124925e-34
57	0x00000004	6e-45
58	0x2ec6d24e	9.041355e-11
59	0x188d715d	3.6562113e-24
60	0x33ca41bd	9.418316e-08
61	0x15f64bbc	9.9478097e-26
62	0x80000004	-6e-45
63	0x80000004	-6e-45
64	0xb8c8b7af	-9.570957e-05
65	0xb89bc670	-7.427938e-05
66	0x390c2e75	0.00013368747
67	0x38f007ea	0.00011445566
68	0xb71182e8	-8.6731525e-06
69	0x38d9d0fd	0.000103862934
70	0xb6ebc860	-7.0268725e-06
71	0x34008638	1.1969757e-07
72	0x37d03766	2.482133e-05
73	0xb7ae2a0b	-2.0761994e-05
74	0x3862275a	5.3919248e-05
75	0x393af5ce	0.00017829912
76	0xb78d92da	-1.6876893e-05
77	0x395cdfe1	0.00021064236
78	0x379199f1	1.7357032e-05
79	0xb7fc4ee2	-3.0077474e-05
80	0xb85c72da	-5.255905e-05
81	0xb872c1a1	-5.7877627e-05
82	0xb82bd5d0	-4.0968705e-05
83	0xb890a235	-6.8966685e-05
84	0xb84a6640	-4.825578e-05
85	0xb910bab7	-0.00013802467
86	0x36eb24e8	7.007842e-06
87	0xb722f03f	-9.711889e-06
88	0x3772255c	1.4433022e-05
89	0xb85fc969	-5.335492e-05
90	0x388a7456	6.602022e-05
91	0xb8d799dc	-0.000102806574
92	0xb7212cf4	-9.606814e-06
93	0x388b2692	6.635221e-05
94	0xb8a7ed36	-8.0073645e-05
95	0xb8d85372	-0.000103152255
96	0x3549c193	7.516002e-07
97	0x369d9c30	4.6971472e-06
98	0x36dbe40b	6.5532563e-06
99	0x372e2983	1.0380873e-05
100	0x36304a90	2.6269445e-06
101	0x384da420	4.9028662e-05
102	0xb7abb7b6	-2.0470336e-05
103	0xb790a986	-1.7245078e-05
104	0xb6c307e2	-5.8123705e-06
105	0xb77acb6c	-1.4948524e-05
106	0x37bd7e5c	2.2589396e-05
107	0x37a1a1c5	1.9268025e-05
108	0xb7743c5a	-1.4557585e-05
109	0xb8005b86	-3.0602816e-05
110	0x37e0bd76	2.6791105e-05
111	0x3816e9af	3.598042e-05
112	0xb96a37e2	-0.00022336797
113	0xb8cef8b5	-9.869171e-05
114	0xb832e14c	-4.264833e-05
115	0xb85ec834	-5.311538e-05
116	0xb8b20cd7	-8.490093e-05
117	0x38a765e0	7.982156e-05
118	0xb752e6bc	-1.2570697e-05
119	0xb6c00021	-5.722061e-06
120	0x3862b4ee	5.4051103e-05
121	0xb7ee27c3	-2.8390326e-05
122	0x38d5b7ce	0.00010190868
123	0xb7e39b30	-2.7132774e-05
124	0xb9522024	-0.00020039134
125	0x38e1d5b4	0.000107686414
126	0xb7c0b720	-2.2973458e-05
127	0xb84a5ec8	-4.8248825e-05

exp_avg_sq f4 [8, 16]
0	0x33dce704	1.028657e-07
1	0x36223a8a	2.4173955e-06
2	0x35e60122	1.7136665e-06
3	0x36046ad2	1.973171e-06
4	0x351fcd8f	5.9531243e-07
5	0x36741a3e	3.6374108e-06
6	0x34e65f4f	4.2910185e-07
7	0x34af4631	3.264736e-07
8	0x359bdfd0	1.1613538e-06
9	0x34c365ac	3.6395556e-07
10	0x35bc27c4	1.4018665e-06
11	0x367103c2	3.5913986e-06
12	0x3455009a	1.983739e-07
13	0x36aa1ef0	5.0699964e-06
14	0x36015d05	1.9276642e-06
15	0x34d61c8f	3.9881385e-07
16	0x33f9b7d8	1.1628407e-07
17	0x3699ce55	4.5837755e-06
18	0x35a35e7d	1.2171946e-06
19	0x35d26d64	1.5678056e-06
20	0x352c4169	6.417018e-07
21	0x36236e25	2.4353005e-06
22	0x349eee87	2.9603345e-07
23	0x3419d103	1.4325273e-07
24	0x354fccaa	7.7411335e-07
25	0x345820a2	2.012844e-07
26	0x35ad538b	1.2913819e-06
27	0x364d1934	3.056205e-06
28	0x3456d347	2.0007165e-07
29	0x36834039	3.9115807e-06
30	0x35a35773	1.2169897e-06
31	0x351e81e0	5.904858e-07
32	0x333f8c54	4.459828e-08
33	0x36962d94	4.4756544e-06
34	0x32dc4bdc	2.5645868e-08
35	0x33597882	5.063385e-08
36	0x331b5a56	3.617091e-08
37	0x3460fd1b	2.0953705e-07
38	0x328aced5	1.615937e-08
39	0x32dee4fa	2.5948328e-08
40	0x329bd917	1.8143096e-08
41	0x342c9149	1.6071603e-07
42	0x34a92e3c	3.1512343e-07
43	0x34bfe99c	3.5746496e-07
44	0x339862f9	7.0960546e-08
45	0x335f3105	5.1965817e-08
46	0x32824985	1.5167425e-08
47	0x34f52c02	4.5666826e-07
48	0x3220c000	9.3568815e-09
49	0x31692f79	3.3932948e-09
50	0x31da3e2d	6.3517036e-09
51	0x3212dfc4	8.549197e-09
52	0x31f6f592	7.1874604e-09
53	0x31eeec27	6.953559e-09
54	0x312cf3a7	2.5167795e-09
55	0x3133e0ff	2.6175824e-09
56	0x33c1135f	8.9907864e-08
57	0x32760a2a	1.4321396e-08
58	0x318c7546	4.0878687e-09
59	0x3135c83f	2.6452793e-09
60	0x30c6014b	1.4406764e-09
61	0x302aea04	6.2178196e-10
62	0x333ae43f	4.351409e-08
63	0x30d3ab18	1.5400898e-09
64	0x31d6e0fd	6.253798e-09
65	0x33a1cc5d	7.53432e-08
66	0x344cdbae	1.90789e-07
67	0x3433c158	1.6741012e-07
68	0x33bed4b5	8.8862556e-08
69	0x34ab190b	3.1869453e-07
70	0x3349feb4	4.703061e-08
71	0x30083e6c	4.956522e-10
72	0x3332f1a0	4.166361e-08
73	0x316ef44e	3.477243e-09
74	0x3462355d	2.1067304e-07
75	0x33cfecda	9.682272e-08
76	0x32a86197	1.9602153e-08
77	0x35b54ebd	1.3508467e-06
78	0x32cc3b6b	2.3775746e-08
79	0x33aca263	8.038912e-08
80	0x32821c8c	1.5146973e-08
81	0x368c0da4	4.173913e-06
82	0x3556b62b	7.99863e-07
83	0x3507c03b	5.057115e-07
84	0x33df7449	1.0405399e-07
85	0x35dc0464	1.6392555e-06
86	0x33b0748a	8.216837e-08
87	0x31ab294a	4.981449e-09
88	0x333f9ea7	4.4614946e-08
89	0x33bb7c05	8.730425e-08
90	0x351b8808	5.793995e-07
91	0x3605b9de	1.9926733e-06
92	0x33297ddd	3.946285e-08
93	0x3496e2f6	2.8104813e-07
94	0x35873dfd	1.0076325e-06
95	0x34e9ff96	4.3585595e-07
96	0x2e2f8fbe	3.9918062e-11
97	0x339356ed	6.8610326e-08
98	0x317fe5cb	3.7238006e-09
99	0x31ec0d87	6.870042e-09
100	0x31cfe55c	6.050568e-09
101	0x33a99549	7.8968306e-08
102	0x3110cd2b	2.1071382e-09
103	0x349b4d1a	2.89271e-07
104	0x34fc2082	4.696231e-07
105	0x34a18907	3.0088287e-07
106	0x32b27045	2.0772982e-08
107	0x325e7c9a	1.2950432e-08
108	0x30ec8d95	1.72115e-09
109	0x32b43fbd	2.0983743e-08
110	0x34ec8f70	4.406279e-07
111	0x32e54a21	2.6692819e-08
112	0x34848718	2.468521e-07
113	0x3715315e	8.892586e-06
114	0x3623d971	2.441546e-06
115	0x363fcd90	2.858087e-06
116	0x35950f84	1.1105881e-06
117	0x3696e451	4.496928e-06
118	0x3507cfb0	5.0593644e-07
119	0x3281220a	1.5033056e-08
120	0x35267140	6.200462e-07
121	0x347032f6	2.2370281e-07
122	0x3625ed97	2.4725211e-06
123	0x369ac871	4.612892e-06
124	0x3507e551	5.062512e-07
125	0x36b52360	5.3983385e-06
126	0x35c173ee	1.441336e-06
127	0x35c1b39d	1.4431895e-06

exp_avg f4 [8]
0	0xb9bbfe20	-0.00035856757
1	0x3a0330a4	0.00050045014
2	0xb41313b6	-1.3697613e-07
3	0x33b1d16e	8.2803e-08
4	0x3969b3af	0.00022287549
5	0xb887b6c4	-6.4713444e-05
6	0x375d7f22	1.3202227e-05
7	0x38d92f0c	0.000103561295

exp_avg_sq f4 [8]
0	0x3696979e	4.487999e-06
1	0x366fe1b3	3.574515e-06
2	0x3487c22e	2.5286994e-07
3	0x33824141	6.065466e-08
4	0x34e3d23c	4.243501e-07
5	0x35c5b1de	1.472941e-06
6	0x33f53092	1.14175364e-07
7	0x36e2c681	6.7584338e-06

exp_avg f4 [2, 8]
0	0x3a826ec2	0.0009951221
1	0x3a3b9b33	0.00071566104
2	0xb2f73ed0	-2.8783148e-08
3	0x32abb129	1.9987583e-08
4	0x39e97b94	0.00044533296
5	0x39e33b67	0.00043341072
6	0x37d3ae2b	2.5234263e-05
7	0x3a4c6fac	0.0007798623
8	0x39f1b66f	0.00046103026
9	0x3a58910a	0.00082613586
10	0x328ccc3c	1.639102e-08
11	0xb2134d68	-8.574126e-09
12	0x39acf1b4	0.0003298648
13	0x38f9975c	0.00011901438
14	0xb7f8c9da	-2.9657898e-05
15	0xb971c840	-0.0002305815

exp_avg_sq f4 [2, 8]
0	0x38054483	3.1773478e-05
1	0x380a56ed	3.298272e-05
2	0x3634655a	2.6881085e-06
3	0x34f19887	4.5000726e-07
4	0x3549a15f	7.511316e-07
5	0x360184de	1.9299837e-06
6	0x362483e8	2.4514684e-06
7	0x37abf058	2.0496707e-05
8	0x3865a869	5.47547e-05
9	0x387f92c5	6.0933427e-05
10	0x363e1f69	2.833049e-06
11	0x34ba89f6	3.474558e-07
12	0x358014ff	9.542854e-07
13	0x35ed3241	1.7672502e-06
14	0x36b8b0b0	5.5041965e-06
15	0x37e5818a	2.7359249e-05

exp_avg f4 [2]
0	0x39d7af6d	0.00041138698
1	0x39eec003	0.00045537957

exp_avg_sq f4 [2]
0	0x37a0fef6	1.9192212e-05
1	0x37fedecc	3.0382907e-05

fc1.weight f4 [32, 20]
0	0xbf0c8366	-0.54888
1	0x3e0d49fa	0.13797751
2	0x3f0fd09a	0.56177676
3	0xbec74520	-0.38919926
4	0xbecce304	-0.4001695
5	0x3ec9fc65	0.39450374
6	0xbea27296	-0.31728047
7	0x3eb45cbb	0.35226998
8	0x3e48f31b	0.19623987
9	0xbe0a6c92	-0.13517979
10	0xbe4169d9	-0.18888034
11	0xbeac3986	-0.33637637
12	0xbc99aac6	-0.018758189
13	0xbc1ca6ae	-0.009561224
14	0x3c9f4414	0.019441642
15	0x3bcb6f56	0.0062083406
16	0x3c45c8ae	0.012071772
17	0x3c9180ad	0.017761553
18	0x3cfacb8c	0.030614637
19	0xbceb1b50	-0.028699547
20	0xbe0b85a4	-0.13625199
21	0x3dea79f1	0.1144904
22	0xbfa60f42	-1.2973406
23	0x3f091b18	0.53556967
24	0xbe3737f0	-0.17892432
25	0xbd508ed2	-0.050917454
26	0xbd9ad2c3	-0.07559731
27	0x3e21e3e4	0.1580959
28	0xbe25efa1	-0.16204692
29	0x3e82bbe8	0.25533986
30	0xbe3252e9	-0.1741444
31	0x3d57f1e0	0.052720904
32	0xbdd464ac	-0.10370764
33	0xbe051fbb	-0.13000385
34	0xbcd097b5	-0.025462965
35	0x3c8057f6	0.015666943
36	0xba9f7ee0	-0.0012168549
37	0x3acae06a	0.0015478258
38	0xba4202ef	-0.000740095
39	0x3bca48d2	0.0061732316
40	0x3c70427d	0.01466429
41	0xbec40893	-0.38287792
42	0x3f2c9420	0.6741352
43	0xbf88cb64	-1.068707
44	0x3e94f21c	0.29090965
45	0xbdce4933	-0.100725554
46	0xbebbc430	-0.36673117
47	0xbc35c575	-0.011094441
48	0xbe27652e	-0.1634719
49	0xbe58cbad	-0.21171446
50	0xbdd2b758	-0.10288876
51	0x3eb35df6	0.35032624
52	0xbe5ad3e9	-0.213699
53	0xbd78157c	-0.060567364
54	0x3b4bf439	0.003112091
55	0xbc1e0b30	-0.009646222
56	0x3b2e9e82	0.002664477
57	0x3c08145b	0.008305634
58	0x3c4f28a1	0.012643964
59	0xbb078973	-0.0020681291
60	0x3e64ff60	0.22363043
61	0x3d976b3d	0.07393501
62	0x3e1a4a1d	0.15067334
63	0xbfa3b692	-1.2790091
64	0x3d61e124	0.05514635
65	0xbe547c1c	-0.20750469
66	0x3c6f24f8	0.014596216
67	0xbcce9981	-0.02521968
68	0x3ad8a7ef	0.001652954
69	0xbc9abe8d	-0.01888969
70	0x3d95d145	0.073153056
71	0x3e599cc6	0.2125121
72	0xbd64a025	-0.05581679
73	0x3d204d3e	0.039136164
74	0xbc1d4583	-0.009599092
75	0xbc6a1178	-0.014286391
76	0x3aa17262	0.0012317414
77	0x3c1cc1f1	0.009567724
78	0xbbcf6ec8	-0.006330345
79	0xbb7c4d61	-0.003849827
80	0x3ef2794e	0.47358173
81	0xbdb3f450	-0.08786833
82	0x3f3589f2	0.7091361
83	0xbed5b295	-0.4173781
84	0x3f50991e	0.8148364
85	0xbf127c83	-0.5722124
86	0x3c82645a	0.015916992
87	0xbb50eb3c	-0.0031878492
88	0xbf24a2fe	-0.64311206
89	0xbf4bbfdf	-0.7958965
90	0x3ea11bc0	0.31466484
91	0xbf332f62	-0.69994175
92	0xbe8ae219	-0.27125624
93	0xbdb3cd47	-0.08779388
94	0x3d0b1261	0.033953074
95	0xbc3bc721	-0.01146105
96	0xbccd13aa	-0.02503379
97	0xbdb83a4c	-0.08995494
98	0x3d17a2b1	0.03702039
99	0xbc4b2056	-0.012397846
100	0xbf092702	-0.53575146
101	0x3e0eab80	0.1393261
102	0xbdf90298	-0.12158698
103	0xbf358e3c	-0.7092016
104	0x3ddc4ce3	0.107568525
105	0x3de2b715	0.110700764
106	0xbebb211a	-0.36548692
107	0xbe18fe58	-0.14940774
108	0xbeb2edb0	-0.34946966
109	0x3cef13a4	0.02918417
110	0xbeaa4162	-0.33253008
111	0xbdc6049e	-0.096688494
112	0x3e124e94	0.14287788
113	0xbea0e353	-0.31423435
114	0x3cbdcd2d	0.023169124
115	0xbd847edd	-0.0646951
116	0x3d05e423	0.03268827
117	0x3cc03224	0.023461409
118	0xbd3634fc	-0.044484124
119	0xbd15972e	-0.03652113
120	0x3d12a247	0.03579929
121	0xbdc7b1b9	-0.09750695
122	0xbf836c1f	-1.0267371
123	0xbfb15e3d	-1.3856884
124	0xbe30f287	-0.17280017
125	0xbdd70e91	-0.10500825
126	0xbcf285b8	-0.029604778
127	0xbd90bd71	-0.07067383
128	0x3c756084	0.014976624
129	0xbdde2a1f	-0.10847878
130	0xbe029610	-0.12752557
131	0xbdecd3fc	-0.1156387
132	0x3d1e5364	0.038653746
133	0x3d6281c4	0.055299535
134	0xbc676918	-0.014124177
135	0xbcad4ec3	-0.02115572
136	0xba35d979	-0.0006937008
137	0xbb830619	-0.0039985296
138	0xbba25ae0	-0.004954681
139	0xbb92ac18	-0.0044760816
140	0xbe1aaa6a	-0.1510407
141	0xbe6a0a05	-0.22855385
142	0x404082a9	3.0079749
143	0x3f7314aa	0.94953406
144	0x3e7dd3cc	0.24787825
145	0xbcd8fe17	-0.026488347
146	0xbdee1a46	-0.11626105
147	0x3ce5b8fa	0.028042305
148	0x3e01f6b0	0.1269176
149	0x3e3b5823	0.1829534
150	0x3dd77c48	0.10521752
151	0x3dd9274f	0.10603201
152	0xba1ee6c4	-0.00060616084
153	0x3dc9a6e1	0.09846283
154	0x3d3f3528	0.046681553
155	0x3bc17d3e	0.0059048226
156	0x3b036b96	0.002005314
157	0x3b8f6f5e	0.0043772897
158	0x3ba76ef8	0.005109664
159	0xbc29e278	-0.010368936
160	0xbde24429	-0.11048157
161	0x3e8124d8	0.25223422
162	0x3d191b6e	0.037379675
163	0x3f010400	0.5039673
164	0x3e72858a	0.23683754
165	0xbe0bb624	-0.136437
166	0xbeb9f318	-0.36318278
167	0x3d8d3b81	0.06896115
168	0xbe1c7269	-0.15278019
169	0x3d42eb48	0.047587663
170	0xbce29edc	-0.02766364
171	0xbf1dde19	-0.6166702
172	0x3e4c1004	0.19927984
173	0x3dc3bf79	0.09558005
174	0xbd3656dd	-0.044516433
175	0x3dcc0cda	0.09963389
176	0xbbdf942f	-0.006823085
177	0xbcaf4dc3	-0.021399384
178	0x3c5c021e	0.013428239
179	0xbda6a37c	-0.08136651
180	0x3ed8ee50	0.42369318
181	0x3d96f6d9	0.07371301
182	0xbeaf7423	-0.34268293
183	0xbf924821	-1.1428262
184	0xbe65a39c	-0.22425693
185	0xbe9a9e42	-0.30198866
186	0x3e393036	0.18084797
187	0x3dc47aeb	0.09593757
188	0x3da201e2	0.07910515
189	0xbc6f458c	-0.014603984
190	0x3e35865d	0.17727037
191	0xbc72b69f	-0.014814048
192	0xbd0ae97d	-0.033914078
193	0x3dc0873d	0.09400795
194	0x3b216f4b	0.0024632986
195	0xbcd43052	-0.025901947
196	0x3a9ec44a	0.0012112942
197	0xbbdd6304	-0.0067561883
198	0xbbb9a275	-0.0056651183
199	0xbb75fdc2	-0.0037535285
200	0xbe195934	-0.14975435
201	0x3d1d1348	0.038348466
202	0x3f40330d	0.750779
203	0xbe8ad218	-0.27113414
204	0xbbfe70f2	-0.007764929
205	0x3e3b0b94	0.18266135
206	0xbdaff2e6	-0.08591251
207	0x3e56a4a6	0.20961246
208	0x3e806c26	0.2508251
209	0x3e44de52	0.19225433
210	0xbea960b7	-0.330816
211	0xbe973fba	-0.29540807
212	0x3d5e79f9	0.05431554
213	0x3e3f80c6	0.18701467
214	0xba4146f8	-0.0007372941
215	0x3c110ace	0.008852674
216	0x3b4ad2e5	0.0030948457
217	0x3d3ce2b7	0.04611465
218	0xbd111fa1	-0.035430554
219	0xbc3c7521	-0.011502535
220	0x3ee9cd61	0.45664504
221	0xbc983aa9	-0.018582659
222	0x400fbbf2	2.2458463
223	0xbed33bde	-0.41256613
224	0x3e441541	0.19148733
225	0xbd91920f	-0.071079366
226	0xbd8e43ea	-0.06946547
227	0xbca5f267	-0.020257188
228	0x3de0ac5e	0.109703764
229	0x3daa7f30	0.0832504
230	0x3d86cf5d	0.0658252
231	0x3ddf91b5	0.10916463
232	0x3d979f64	0.07403448
233	0xbd58619f	-0.052827474
234	0x3d196ed8	0.037459224
235	0xbbbbe85e	-0.0057344874
236	0xbb826602	-0.0039794454
237	0x397fad90	0.00024383352
238	0x3bc7a49b	0.0060926205
239	0xbc09f1ee	-0.008419497
240	0xbdf03278	-0.11728376
241	0x3d216c4f	0.03940993
242	0xbf841135	-1.0317751
243	0x3f00ae61	0.5026608
244	0xbd634c73	-0.05549283
245	0x3cc5de69	0.024153905
246	0xbc86be2d	-0.016448105
247	0x3d0f3d32	0.03497047
248	0x3e36c29b	0.17847674
249	0x3e4706a9	0.19436134
250	0xbd1711b8	-0.036882132
251	0x3d0a6665	0.033789057
252	0x3c468f89	0.012119182
253	0x3e44365c	0.19161361
254	0xbd152553	-0.03641255
255	0x3b5d50b7	0.0033770034

fc1.bias f4 [32]
0	0x3ea76b93	0.3269926
1	0xbf204a6e	-0.6261357
2	0xbed3e774	-0.41387522
3	0xbeacde5d	-0.337634
4	0x3e6da235	0.23206408
5	0x3f8c164b	1.0944303
6	0xbf7c2966	-0.9850067
7	0xbefbde35	-0.49192968
8	0xbfa4dc74	-1.2879777
9	0xbefa43f1	-0.4887996
10	0x3f64ee69	0.89426285
11	0xbe64f389	-0.22358526
12	0xbe18fc3a	-0.14939967
13	0xbf00e7c1	-0.5035363
14	0xbf9e3a4f	-1.2361544
15	0xbf0979cc	-0.5370147
16	0x3f1d590f	0.6146402
17	0xbfbb3bb9	-1.4627601
18	0x3fec1063	1.8442501
19	0xbf274965	-0.65346366
20	0xbf8e2db7	-1.1107701
21	0xbe81ff1a	-0.2538994
22	0x3ed40944	0.4141332
23	0xbf2e6324	-0.68120027
24	0x3d2a0a0b	0.041513484
25	0xbeba5a8a	-0.363972
26	0xbf447be9	-0.7675157
27	0x3f25d369	0.6477571
28	0xbf74f2aa	-0.95682776
29	0xbeb0c2e5	-0.34523693
30	0x3e2845b0	0.16432834
31	0xbe8bd8ca	-0.27313834

fc2.weight f4 [16, 32]
0	0xbdb9f24b	-0.09079417
1	0x3f16eba9	0.5895334
2	0x3e3ec647	0.18630324
3	0x3f016339	0.50542027
4	0x3d11b49d	0.035572637
5	0x3e46f0cb	0.19427793
6	0x3f82fdd1	1.0233709
7	0x3f62c237	0.885776
8	0x3d0c2c8d	0.034222174
9	0x3eb1b7d9	0.34710577
10	0xbe7dd81c	-0.2478947
11	0x3f0826bb	0.531841
12	0x3e092d5f	0.13396214
13	0x3ee55b37	0.44796154
14	0x3f80afb1	1.0053617
15	0x3f25a5ff	0.64706415
16	0x3d619e21	0.055082444
17	0x3f93fdc0	1.1561813
18	0x3e399a25	0.18125208
19	0x3eb942a4	0.36183655
20	0x3f51217b	0.8169171
21	0x3ee16910	0.4402547
22	0x3dab5041	0.083649166
23	0x3f470d8e	0.7775506
24	0x3d9a050d	0.075204946
25	0x3ee4449b	0.44583592
26	0x3f96bc7d	1.1776272
27	0xbe2dcc05	-0.16972359
28	0x3f4540d8	0.7705207
29	0xbd4bcb76	-0.049754582
30	0xbd128b5b	-0.03577743
31	0x3f21c848	0.6319623
32	0xbdb5ddb8	-0.0888018
33	0x3f3c1643	0.7347147
34	0x3eff0c35	0.49814
35	0x3f251e93	0.6449978
36	0xbe188a54	-0.14896518
37	0x3d84283b	0.06452986
38	0x3f8c8d96	1.0980709
39	0x3f9a0ed5	1.2035776
40	0x3e91db2f	0.28487536
41	0x3f15f9c7	0.58584255
42	0xbd822bed	-0.063560344
43	0x3f0d9249	0.5530134
44	0x3d21c3ea	0.03949348
45	0x3eff4d4a	0.49863654
46	0x3f497e92	0.78708756
47	0x3f5463b6	0.82964647
48	0xbd884019	-0.06652851
49	0x3fac378d	1.3454453
50	0xbd68073d	-0.056647528
51	0x3e3957e7	0.18099938
52	0x3f72cee3	0.94846934
53	0x3f1b8df3	0.6076347
54	0x3ea5f4a9	0.32413223
55	0x3f5423a1	0.82866865
56	0x3ddeec62	0.1088493
57	0x3ef2d310	0.47426653
58	0x3fb4a24a	1.4112027
59	0xbdb89953	-0.09013619
60	0x3f379b0d	0.71720964
61	0x3cd2da36	0.025738817
62	0xbcd5cfe2	-0.026100103
63	0x3f47821a	0.77932894
64	0x3d402748	0.04691246
65	0x3d8b9f7d	0.06817529
66	0xbe5f334a	-0.21796909
67	0x3d80bf12	0.06286444
68	0xbdd04048	-0.10168511
69	0xbda219e7	-0.07915097
70	0x3d80e384	0.06293395
71	0xb94f4bfa	-0.00019769362
72	0xb42a355f	-1.58519e-07
73	0x3d0ed218	0.03486833
74	0xbc582060	-0.013191313
75	0x3c8c2089	0.017105358
76	0x3d669bc3	0.05630089
77	0xbc98744b	-0.01861014
78	0xb9ae5480	-0.00033250824
79	0xbdda786c	-0.106675
80	0xbd735941	-0.05941129
81	0xbd9f164f	-0.07767927
82	0xbda355a7	-0.07975321
83	0xbe4521ac	-0.19251126
84	0xbe2028c2	-0.15640548
85	0xbca99894	-0.020702638
86	0xbe11c32b	-0.14234607
87	0xbe0cfab8	-0.13767517
88	0xbd24d80d	-0.040245105
89	0xbe155634	-0.14583665
90	0x3d8aa161	0.06769062
91	0xbdd3b807	-0.10337835
92	0xbd9d4074	-0.07678309
93	0xbd98cbad	-0.07460723
94	0xbe355f11	-0.17712046
95	0x3c94d7c3	0.01816929
96	0x3d4e25b0	0.05032891
97	0xbd59c465	-0.053165812
98	0xbdca5340	-0.0987916
99	0x3d7f44ae	0.062321357
100	0xbc83cc9e	-0.01608878
101	0xbc27a36f	-0.010231837
102	0xbd8eede1	-0.069789656
103	0xbc2e12bf	-0.010624587
104	0x007ca93a	1.1448309e-38
105	0xbd9978b1	-0.07493723
106	0x1011f3b9	2.8783965e-29
107	0xba0494f1	-0.00050575944
108	0xbc435a7c	-0.011923429
109	0xbaf83651	-0.0018937086
110	0x39d19ef2	0.0003998201
111	0x3d90f434	0.07077828
112	0xac075a5a	-1.923481e-12
113	0xbd0f7f5c	-0.03503357
114	0xbd490100	-0.04907322
115	0x3d5327ea	0.051551737
116	0xba8eeb0e	-0.0010903792
117	0x3582174b	9.692534e-07
118	0xbbfd09a0	-0.0077220947
119	0x3c0f57cf	0.008748963
120	0xbb1d0663	-0.0023960106
121	0x3b9d7d82	0.0048062215
122	0x3bf188b2	0.0073710317
123	0xbc900f5b	-0.017585447
124	0x3bf7bd6d	0.007560423
125	0x3c360181	0.011108757
126	0xbd2e1ad2	-0.042506047
127	0xbdea77bd	-0.114486195
128	0xbd1b023b	-0.037843924
129	0x3cb66f80	0.022269964
130	0x3d04fe5b	0.032469135
131	0xbda96d35	-0.08272783
132	0xba559474	-0.00081474264
133	0xbc73df40	-0.01488477
134	0x3a5d45b1	0.0008440866
135	0x3b056109	0.0020352027
136	0x9dc31212	-5.1634754e-21
137	0xbb635fdd	-0.003469459
138	0xbdbcbbc3	-0.092155
139	0xbbb47e79	-0.005508241
140	0xbc8bc7b4	-0.017063
141	0xbb134e01	-0.0022476914
142	0x1aa2b573	6.7294777e-23
143	0xbe342499	-0.17592086
144	0xbb288892	-0.0025716168
145	0xba296de8	-0.00064632157
146	0xbd79b590	-0.060964167
147	0xbcf7ef81	-0.030265572
148	0x3cab44a6	0.020906758
149	0x3be5503f	0.0069980915
150	0x3c919c81	0.017774822
151	0xbc788eb3	-0.015170741
152	0xbcf9e46d	-0.03050443
153	0xbe04dd06	-0.12974939
154	0xbbd20fac	-0.0064105596
155	0xbd0e1dd4	-0.034696415
156	0x3b9eac57	0.004842322
157	0x3cd3bd81	0.025847198
158	0x3c4497f0	0.011999115
159	0xbde228b9	-0.110429235
160	0xbf3dc566	-0.7412933
161	0x3f57216a	0.8403536
162	0x3d7d07f8	0.061775178
163	0x3e17942c	0.14802617
164	0xbe36017e	-0.17774007
165	0xbf12589a	-0.57166445
166	0x3f6ee24f	0.9331407
167	0x3f3e7774	0.7440102
168	0x3e46c00a	0.19409195
169	0x3cfd8e03	0.030951506
170	0xbec63486	-0.38711947
171	0x3e388826	0.18020687
172	0x3eac2687	0.33623144
173	0x3f3564d9	0.70857006
174	0x3f794508	0.9737096
175	0x3eb881f4	0.36036646
176	0xbe1fe67c	-0.15615267
177	0x3f840d09	1.0316478
178	0xbe974d12	-0.29550987
179	0x3ed0aaa9	0.40755203
180	0x3f28dbd7	0.6596045
181	0x3ee8c860	0.45465374
182	0xbf1420af	-0.5786237
183	0x3f0e2b3c	0.5553472
184	0xbf25fbfe	-0.64837635
185	0x3f0cd75d	0.5501612
186	0x3f46cc0b	0.77655095
187	0xbf9b5381	-1.2134858
188	0x3e40311a	0.18768731
189	0x3e6aaad4	0.22916728
190	0x3d47c9d4	0.048776463
191	0x3e2efe1a	0.1708912
192	0x3e45283a	0.19253626
193	0x3f8339ab	1.0251974
194	0x3f1826bf	0.5943412
195	0xbd95dec7	-0.07317882
196	0xbe045288	-0.12922108
197	0xbee8cc38	-0.45468307
198	0x3f916117	1.1357754
199	0x3eab3e4c	0.33445966
200	0x3f41d616	0.75717294
201	0x3ec90732	0.39263302
202	0xbf11c6c6	-0.5694393
203	0x3e972d77	0.29526874
204	0x3e8483e2	0.2588187
205	0x3f34c01c	0.70605636
206	0x3f8cb666	1.0993164
207	0x3ef37c6e	0.4755587
208	0xbef17a4f	-0.47163627
209	0x3f98ff79	1.1952964
210	0xbf72cd5f	-0.9484462
211	0x3eeac4e3	0.45853338
212	0x3f6f460f	0.93466276
213	0x3ea12a2a	0.3147748
214	0xbe43fcb4	-0.19139367
215	0x3eac770c	0.33684576
216	0xbf0bb19e	-0.545679
217	0x3ea8e0b0	0.32983923
218	0x3eeb4109	0.45948055
219	0xbeaf2e64	-0.3421508
220	0x3eb5c95e	0.35505193
221	0x3ebe1c02	0.37130743
222	0xbe991b0c	-0.29903448
223	0x3e449f7f	0.19201468
224	0xbe64d357	-0.22346245
225	0x3f56b97c	0.83876777
226	0x3eab542b	0.33462653
227	0x3e2f5e80	0.17125893
228	0xbec78039	-0.38965014
229	0xbdc6343f	-0.09677934
230	0x3f670bfc	0.9025266
231	0x3e41be8d	0.18920346
232	0x3eece26d	0.462665
233	0x3ea20323	0.31643018
234	0xbf01bfb0	-0.50683117
235	0x3e31b498	0.17354047
236	0x3eb2c784	0.34917843
237	0x3f1ca829	0.6119409
238	0x3f91163f	1.1334914
239	0x3eeee5dd	0.46659747
240	0xbe49984b	-0.19687001
241	0x3fb86c8e	1.4408128
242	0xbeeac812	-0.45855767
243	0x3f0eb377	0.5574259
244	0x3f81cc44	1.0140462
245	0x3e9ff753	0.3124338
246	0xbddbfa0a	-0.107410505
247	0x3f256ae4	0.6461623
248	0xbead3112	-0.338265
249	0x3ec9342b	0.39297614
250	0x3ed0054d	0.40629044
251	0xbe9ac1a8	-0.30225873
252	0x3e64d3cf	0.22346424
253	0x3e3006c1	0.17190076
254	0xbd868856	-0.06568973
255	0x3ea3eeb5	0.32018057

fc2.bias f4 [16]
0	0x3e8ec6d0	0.27886057
1	0x3e81c38c	0.25344503
2	0x3d1bb2c4	0.03801228
3	0xbd3849d1	-0.04499227
4	0xbd6c6a8e	-0.057718806
5	0xbf17c360	-0.59282494
6	0xbf98d56e	-1.1940134
7	0xbf288ba9	-0.65838104
8	0xbe97d0a1	-0.2965136
9	0xbe5e7cf9	-0.21727361
10	0x3c8ca3cb	0.017167946
11	0x3e8c40c1	0.27393153
12	0x3d7eb08d	0.06218009
13	0xbd58ea7d	-0.052958
14	0x3e1879f9	0.14890279
15	0xbe017e0b	-0.12645738

fc3.weight f4 [1, 16]
0	0xbf16a460	-0.58844566
1	0xbf27fab4	-0.6561692
2	0x3df16c0c	0.117881864
3	0xbdaa7e19	-0.083248325
4	0x3b8be630	0.004269384
5	0xbf7be9bb	-0.9840352
6	0xbfa2357a	-1.267257
7	0xbf508bd4	-0.8146336
8	0xbf7d5514	-0.98957944
9	0x3ddb7bab	0.10716947
10	0x3dc4a957	0.096026115
11	0xbf0ff5d7	-0.56234497
12	0x3e03fa86	0.12888536
13	0x3e10cbc3	0.14140229
14	0xbf4df603	-0.8045351
15	0xbf1efadd	-0.62101537
