DRL-course/MADDPG/model_dir/episode-24000.pt (torch_old, 71203 bytes, 99 tensors)

fc1.weight f4 [16, 14]
00000000: ea5e b1bf d0c6 a53f cfe0 c9bf b7c7 a03f
00000010: af64 cbbd 627f 963e 1da8 a63e 1fcd d33d
00000020: 4899 a6bd e987 c33e 4c71 a33e bac4 37bd
00000030: 79f0 57bd ced4 c23e 3a88 983f c854 dd3f
00000040: 7ef7 8b3f cb8a de3f b971 483d 816e e5bc
00000050: 070b 04be 2b43 a4bc d888 9cbd e455 203f
00000060: 64ac d2bd 1936 c03d 65a5 613e 6690 3a3f
00000070: c443 60bf fcee 103f 5486 6cbf 7746 163f
00000080: f65e efbc adc2 b93d ab06 c63d 7b39 17bf
00000090: 96c5 f33e 9a5d f3be 89c6 963f ada2 223e
000000a0: 61b6 003f 5e6b 233e 136b a1be 864c eb3d
000000b0: 745a 31bf 5692 913e 9bed d03e d3c3 08bf
000000c0: b9c4 16bd 70e2 9c3d 21a5 2bbf 2240 013e
000000d0: 02fb 80be 61b1 b23d 4731 d3bd 2900 66be
000000e0: 1c41 253f f346 d63d a77c 363f 0f17 3f3d
000000f0: c4e0 123e e419 bcbd daa2 2cbe 6a1e 6f3e
00000100: c83b 063e c499 213e 309c b5bf 230b ce3e
00000110: 348d 1d3c b7b0 353e 2510 30bf d21a 4b3e
00000120: b638 28bf cfcb 0e3e fad7 56bd 9293 83bd
00000130: 41af 1040 1133 fcbd 0f5c 99be 2dd7 023d
00000140: be20 6fbe 8322 9f3e 8450 6d3e bac8 6fbe
00000150: c66c 91bf adf1 dcbc e20f 9bbf 4689 3ebe
00000160: 396c 73be 252b 90bd 12ec bf3f d6c5 2c3e
00000170: 6788 d83d bb4a 803d 9de0 04bf f89b 64bf
00000180: dcbc f23e ea13 56bf b607 3d3f ea25 0ebf
00000190: 5a84 3a3f 93e8 0abf 27e4 993e 3e51 773d
000001a0: f59b 8bbc 233b f13d 1558 bdbe 3191 533f
000001b0: 6b22 34bf e32d c8bf e3f5 a7bd 7802 8ebf
000001c0: b703 9c3f f490 55be 0010 a03f 4aea 50be
000001d0: 87e3 f33d 7d8a 26be 762f 203f 845f 46bf
000001e0: 664f 333f 7ad0 54bf 28ca 9ebf 9844 5e3e
000001f0: 551e 34bf 6e45 fc3e f199 453f c8aa abbf
00000200: ef12 5a3f fba0 adbf c768 bf3e 3fc9 0cbf
00000210: 581b 573e 983f adbe 6db1 3c3f de3e c2bf
00000220: 0583 b93e 84b2 833d ddb7 84bc d4d6 5dbe
00000230: a3c1 87bc 72d2 ba3e ed48 ddbd c2d7 9e3e
00000240: f1ea 1cbe b9a1 81be 49b1 593f 7ba6 183f
00000250: c771 0c40 b7c6 1fbf 6fdb 20be efc0 1cbf
00000260: 35ac 8fbb 046d dfbd ebcb 37bf 8bd3 923e
00000270: 79dc 3bbf ebc6 c73e b8d5 afbe af12 0cbe
00000280: edbc 643e cf3e 8a3d 4555 cf3e ba05 30be
00000290: 45d2 913f b9a4 64bf 04fc f23d 28b6 66bd
000002a0: 908f debf 4d89 8dbf 90ef eabf 6d70 93bf
000002b0: e47c 5fbf a237 373e b595 5abf 668e 25be
000002c0: 127e a53d 4d5f f3be 8eb2 21bf cfd5 9d3d
000002d0: 0b57 07bf 6b82 0bbc d741 d3bd 244d b83e
000002e0: 1ff5 15be d643 db3e 9be4 fdbd 79cb 563e
000002f0: f8f5 d33e c257 d3bf 9a22 c2bd b7c3 2abf
00000300: 8d66 a33e 24cf 1c3e 8956 e33d aa7a ff3e
00000310: 6178 073f f501 313e ba90 f13e 5dc8 f13d
00000320: 5c11 183e c338 cabd 34c7 edbd 3f77 cfbe
00000330: f1b5 a4be 3875 4f3c a493 a53f 13f8 4dbf
00000340: 200b e63f 757a b6bf 2588 2a3f 6aae 313e
00000350: a104 2a3f 02dc 343e 6286 5f3d 2273 9bbe
00000360: 680b 22bf 63a5 e03e 2249 58be 4b07 973e
00000370: 31fa 863f 3593 af3d e0ed 25bf 3c6c d03e
-1.385709 1.2951298 -1.5771731 1.2560948 -0.09931313 0.2939406 0.32550135 0.10341858
-0.08134705 0.3818963 0.31922376 -0.044865347 -0.052719567 0.38052982 1.1916573 1.7291498
1.0934904 1.7386106 0.04893658 -0.028006794 -0.12894832 -0.02005156 -0.076432884 0.6263106
-0.10286787 0.09385318 0.2203575 0.72876585 -0.876034 0.5661466 -0.9239247 0.5870127
-0.029220086 0.090703346 0.096692406 -0.59072083 0.47611684 -0.4753235 1.1779338 0.15882368
0.5027829 0.15958926 -0.31527004 0.11489205 -0.69278646 0.28431958 0.4080628 -0.53423804
-0.036808703 0.07660377 -0.6704884 0.12622121 -0.25191504 0.087252386 -0.10312133 -0.22460999
0.64552474 0.10462751 0.71283954 0.04665285 0.14343554 -0.09184626 -0.16858998 0.23351446
0.13108742 0.15781313 -1.418829 0.40242872 0.009616185 0.17743193 -0.68774635 0.1983445
-0.65711534 0.13944934 -0.052452065 -0.06424631 2.2606966 -0.12314428 -0.29953048 0.03194349
-0.23352334 0.31081018 0.23175246 -0.23416415 -1.136132 -0.026970709 -1.2114222 -0.18607053
-0.23771752 -0.07039479 1.4993918 0.16872343 0.10572892 0.06264254 -0.5190523 -0.8930049
0.47409713 -0.83624136 0.7383989 -0.555266 0.728582 -0.5426113 0.3005688 0.060380213
-0.01704214 0.117788576 -0.36981264 0.8264342 -0.7036502 -1.5639004 -0.08201196 -1.1094503
1.2188634 -0.20856076 1.2504883 -0.20401874 0.11908632 -0.16263767 0.6257242 -0.77489495
0.7004303 -0.8313061 -1.2405443 0.21705854 -0.70358783 0.4927172 0.7718802 -1.3411493
0.8518514 -1.3564752 0.37384626 -0.5499458 0.21006525 -0.3383758 0.7370823 -1.5175436
0.36232772 0.064305335 -0.016200954 -0.21663982 -0.016571825 0.36488682 -0.10804925 0.31023985
-0.15323998 -0.25318697 0.8503614 0.5962903 2.1944444 -0.6241259 -0.15708707 -0.61231893
-0.0043845423 -0.10909465 -0.7179553 0.2867702 -0.7338329 0.3901895 -0.34342742 -0.13679002
0.22337694 0.06750261 0.40494743 -0.17189685 1.1392294 -0.89313847 0.118644744 -0.05632606
-1.7387562 -1.1057526 -1.8354359 -1.1518685 -0.8729994 0.17892316 -0.85384685 -0.16167602
0.08080687 -0.47533646 -0.6316308 0.077067964 -0.5286719 -0.008514981 -0.10315292 0.35996354
-0.14644288 0.42825192 -0.12397119 0.20976056 0.41398597 -1.6511157 -0.09479256 -0.6670489
0.31914178 0.15313393 0.1110049 0.49898273 0.5291806 0.17285903 0.4718073 0.118057944
0.14850372 -0.09874108 -0.116102606 -0.40520665 -0.3217006 0.0126622245 1.2935681 -0.80456656
1.7972145 -1.4256121 0.6661399 0.1735169 0.66413313 0.17662051 0.054571517 -0.30361277
-0.63298655 0.4387618 -0.21121648 0.29497752 1.0545102 0.085729994 -0.64816093 0.40707576

fc1.bias f4 [16]
00000000: 1b28 49bf ce99 8abf 30d8 f03e c6ca f63e
00000010: b95a 0f3e 9b3f 263f dac3 be3c 2fb9 67bf
00000020: 8446 1fbf bbf6 a7bf ed07 f63e ed0f a63e
00000030: 4abf bbbf 375c 663e a136 273e 184d a0be
-0.7857682 -1.0828187 0.47039938 0.4820158 0.13999452 0.64940804 0.023286749 -0.9051694
-0.62216973 -1.3122171 0.48052922 0.32434025 -1.4667752 0.22496115 0.16329433 -0.31308818

fc2.weight f4 [8, 16]
00000000: 88f9 a6be 9842 59bf 1683 f83d 044f 2e3e
00000010: ac12 893e d580 2dbd 8268 0c3f 8c07 913f
00000020: dd8b 023e 5d63 c73f 7285 103b c8d0 2e3f
00000030: 3d55 a13f cd91 3a3f 8875 bb3e 9e07 05bf
00000040: 8806 0dbf 2e9a bf3f e8b5 02be 083f 113e
00000050: 5456 d2be 7042 a53f baff b0bf 1c42 bcbe
00000060: 04e2 2f3f d999 9abe facf 193f e040 343d
00000070: c9c3 953d a7ed 30be 3d7f f13e 8997 eb3e
00000080: 83f1 0a3e 5a29 9e3e 4553 0fbf 57eb 00bf
00000090: 7766 d6be 035d 84be 2ada 10bf b0f0 703e
000000a0: 5918 72bf abb0 fd3e a35e 9f3c 5ed4 4f3b
000000b0: 4499 11be 0b15 083e 115f 92bf d8cd cc3e
000000c0: 2e0f 46be 1b1b 4cbe 6c59 e03d d16f a9bc
000000d0: 8575 103d f69c 41bd 77cb ab3d c55f c4be
000000e0: b292 46be c018 63be bfdc b3bd b0c8 5bbe
000000f0: 6b7c f7bc 8d37 5bbe ddb5 fabd c8db 71be
00000100: bf2e 483d 64f1 ab3e 2fe6 47bf 78e8 a23e
00000110: d8c2 51bf cb25 0e3f f25d 8d3e 4755 4bbf
00000120: 1e5e 15bf 9aec b4be 8c35 8e3f c924 e1bf
00000130: 5b8e afbe aba8 273f e9b6 69bf 70d8 273d
00000140: 461b 97be 4af3 283e 43fe 503f e6d8 bdbe
00000150: 8f59 c6bd 51b7 1b3e 38bf 1fbf 5ec3 7fbf
00000160: ea63 de3e f36b 02bf 1805 56bf 0ebf ef3d
00000170: 5145 53bf 4eef b9bf 0ceb 053f 5690 a93e
00000180: f00f 0a3e ec6c 75be 6744 04c0 9b10 5abe
00000190: 57f0 84bf 2bae 36bf cee7 8f3e d003 0f3f
000001a0: 4845 743f 258b 773f 4403 803c 1e2a abbe
000001b0: 844c fd3c a143 3ebe cb3f 8f3f ceb0 3b3f
000001c0: 9fe4 c73f 86e0 da3e 4d50 303f 198e f73e
000001d0: 739c 4b3f 937f 7cbe e1d9 ec3e 637c fa3d
000001e0: c3d0 32bf 121f 8fbb e0e1 3bbe 8bc6 7ebc
000001f0: a9b1 8c3f 1ce9 abbd ad84 d3be 0355 92be
-0.32612252 -0.8486724 0.12134378 0.1702233 0.26772058 -0.042359192 0.54846966 1.1330428
0.12748666 1.5577198 0.0022052196 0.68287325 1.2604138 0.72878724 0.36613107 -0.5196475
-0.5508809 1.4968927 -0.12764704 0.14184201 -0.41081488 1.29109 -1.3828042 -0.36769187
0.6870425 -0.301955 0.6008297 0.044007182 0.07312734 -0.17278157 0.47167388 0.4601405
0.13568692 0.30890924 -0.55986434 -0.503591 -0.4187505 -0.25852212 -0.5658289 0.23529315
-0.945684 0.4954885 0.019454306 0.0031712274 -0.14218622 0.13289277 -1.1435262 0.40000796
-0.19341728 -0.19932215 0.10954556 -0.020683201 0.035268325 -0.04726883 0.08388417 -0.38354316
-0.19391897 -0.2217741 -0.08782338 -0.21463275 -0.030210694 -0.2140791 -0.12241719 -0.23618996
0.048872706 0.33582604 -0.7808561 0.31817985 -0.8193793 0.5552642 0.27610737 -0.79427
-0.58346736 -0.35336763 1.1110091 -1.7589351 -0.34288296 0.6549174 -0.91294724 0.040977895
-0.29512995 0.16499057 0.8163797 -0.37079543 -0.09685051 0.15206648 -0.6240115 -0.9990748
0.43435603 -0.5094597 -0.8360152 0.11706363 -0.82527643 -1.4526155 0.5231178 0.33117932
0.13482642 -0.23967332 -2.066675 -0.21295397 -1.0385846 -0.7135951 0.2810654 0.5586519
0.95418215 0.9669669 0.015626557 -0.3343057 0.030920275 -0.18580486 1.1191343 0.7331666
1.5616645 0.42749423 0.6887253 0.483506 0.795356 -0.2465804 0.46259978 0.12230756
-0.69849795 -0.0043677175 -0.18347883 -0.015550266 1.0991718 -0.083940715 -0.4131216 -0.28580484

fc2.bias f4 [8]
00000000: 6d3b 253f 0d26 e03e f942 7cbf e4ad b9bd
00000010: 7f6b 99bc be6e 483f 0069 d33e bd3c d43e
0.645438 0.4377903 -0.9853969 -0.0906637 -0.018728016 0.7829398 0.41291046 0.4145259

fc3.weight f4 [2, 8]
00000000: 2fa4 47be 75d8 6f3f 4cdc e23e 10aa f33d
00000010: 7488 4fbf e4c5 f4be 51ed 563f 9a9b 0cbf
00000020: 7ef8 53bf fb24 ec3e b358 f5be d6af 903c
00000030: faaf 393d 5d6d d23e 31a7 8cbd 9f77 2a3f
-0.19496225 0.9368966 0.44308698 0.11897671 -0.81067586 -0.4780723 0.83955866 -0.5492493
-0.82801044 0.46121964 -0.47919235 0.01766197 0.04533384 0.41099063 -0.06867827 0.6658878

fc3.bias f4 [2]
00000000: 0147 b2bd ac54 0ebe
-0.08704949 -0.13899487

exp_avg f4 [16, 14]
00000000: b1ec cdb8 fb31 d037 dfe5 e9b8 def0 3a38
00000010: 066a 90b8 f229 1a38 1781 c7b8 80ab 1739
00000020: 828d 0036 c2a9 1538 538c c5b8 0d04 9138
00000030: bba9 d5b7 c29a 0d38 6e13 47b8 114b 9ab8
00000040: 6c20 52b8 bc6d 83b8 6ee7 ffb7 9d49 02b8
00000050: a00a 1235 736c 6738 c2df 2438 3149 8bb8
00000060: 52fe 28b8 d722 c837 ec55 63b8 9a63 ecb7
00000070: 191f 8bb7 3476 9838 88ce 1836 4aa2 2838
00000080: aac3 0338 0c31 3f38 a82b 5bb8 128e c137
00000090: be86 37b6 1f4c 5638 09ee 67b8 cd62 9037
000000a0: cab4 8238 f374 3038 29b8 04b8 6161 6337
000000b0: 0f9e ecb7 c3de f537 a671 0037 772a 5a37
000000c0: 751a e6b6 6b20 4db8 e248 f936 54ce 8fb5
000000d0: a7fa e037 1e8e bbb6 d88a 8837 a92e 1a37
000000e0: 0120 0337 1b56 8a38 ea5f 5638 3546 8438
000000f0: 895c 7438 9d1a 6538 091e 3f38 c430 33b7
00000100: 4551 2337 1869 00b8 8911 2339 b830 6bb9
00000110: f6be be38 4d31 7037 70dc 1536 7e5e afb8
00000120: 9558 37b8 5a4f cdb7 c4e7 30b6 c334 98b7
00000130: 408c 2fb8 d054 9438 991d 46b7 dc78 cfb7
00000140: f17b 04b9 5c6f b938 6b18 ffb7 7665 4b38
00000150: 6e15 5a37 9f1f 9b38 c813 46b7 1f97 02b7
00000160: 194a f0b6 04ab 5c36 fa6d 2a38 4fca 8636
00000170: 57b3 6a38 c283 a337 d5d8 68b8 ff2f 2938
00000180: 0cd0 8238 2ccf a937 6c61 c138 9298 92b7
00000190: 3349 9738 ec02 79b8 0fcd 9d36 a297 fab6
000001a0: 6add 67b7 897b 6538 ba2a 87b8 0180 4d37
000001b0: 95e0 f7b6 b7e7 b137 71a1 4138 5a1f dc37
000001c0: 5802 1938 2e73 49b8 525d 42b8 4383 80b8
000001d0: f8e1 3535 e5b0 20b8 a4c2 7d38 3412 d337
000001e0: 13fd 89b7 0fa3 aab5 d42d 93b8 8fd7 b338
000001f0: 72c9 55b8 c31e 3338 4305 3e38 6a88 5db7
00000200: 92ef 9138 4cc2 00b9 1ee9 5238 bbcd 2eb8
00000210: 7e62 c638 08a2 4a38 55ac 1eb8 7c02 9937
00000220: 32d2 84b8 3721 3739 2819 05b8 dcd3 1a36
00000230: 6a88 1cb8 12b9 5ab7 f703 eeb7 decc 9136
00000240: 93d3 84b6 5f5d fbb7 bd4d 3a38 0a97 29b8
00000250: e07a a0b7 c7a1 69b6 5563 11b8 725d af37
00000260: 24e2 b7b7 8e60 7bb7 dd62 5a38 3c64 6637
00000270: 3f86 a338 7f45 93b6 e8bc 5937 2926 40b7
00000280: 4253 1438 8850 05b8 2425 42b8 a5ce 48b7
00000290: 40f9 ee36 88f1 1db8 67d5 9a37 4398 0cb8
000002a0: 2216 8a38 159a 0eb7 3a5a ec37 94b8 32b8
000002b0: e4be f736 8f2a 4ab7 7f95 a138 bfa0 b2b8
000002c0: 603f d9b7 9ed0 7ab7 5f74 8037 5893 7db8
000002d0: 5a8a 8437 ce30 8eb6 1ca6 5b38 1177 fdb7
000002e0: 9b25 b137 0e89 28b8 bdca ea37 fa4b 25b8
000002f0: b665 7a37 0c18 29b7 3bb8 01b8 20d8 5935
00000300: 4c93 88b8 8a72 bd37 664a 10b8 163a 0b38
00000310: 1694 8637 667f 7eb8 7e64 b437 4dec 07b8
00000320: dd0c 8cb6 d495 f4b7 4a75 9238 a9c3 f8b7
00000330: 10ae cbb7 751a 2db8 9970 b5b7 7f43 ffb7
00000340: 6653 18b8 db95 2db5 7e0e 71b8 fb38 3cb8
00000350: d16d 81b8 4429 8bb7 4502 53b8 845a a4b7
00000360: 6855 2837 b8dc 8836 4a98 1238 0fbb 2838
00000370: 3188 d8b7 b8b0 9d38 0199 b1b8 e7fa 61b8
-9.819249e-05 2.4818806e-05 -0.000111531226 4.457018e-05 -6.8862035e-05 3.6755526e-05 -9.513104e-05 0.00014464371
1.9155855e-06 3.5682468e-05 -9.4198294e-05 6.914893e-05 -2.5470616e-05 3.376115e-05 -4.7463393e-05 -7.3572744e-05
-5.0098097e-05 -6.2670064e-05 -3.0506137e-05 -3.1062973e-05 5.44047e-07 5.5175693e-05 3.9309038e-05 -6.6416695e-05
-4.0291176e-05 2.3858081e-05 -5.420104e-05 -2.8179773e-05 -1.6584572e-05 7.269942e-05 2.2769982e-06 4.0205465e-05
3.141506e-05 4.5583627e-05 -5.2254327e-05 2.307355e-05 -2.7347555e-06 5.109247e-05 -5.529638e-05 1.7212145e-05
6.232558e-05 4.2070587e-05 -3.1642765e-05 1.3552927e-05 -2.8206994e-05 2.9310007e-05 7.655855e-06 1.30037e-05
-6.857614e-06 -4.8906e-05 7.429263e-06 -1.071438e-06 2.68196e-05 -5.589579e-06 1.6277118e-05 9.189979e-06
7.81566e-06 6.596391e-05 5.1110903e-05 6.3073276e-05 5.8260313e-05 5.462264e-05 4.556592e-05 -1.0680586e-05
9.734479e-06 -3.0615454e-05 0.00015551424 -0.00022429496 9.095475e-05 1.43165935e-05 2.2331042e-06 -8.362251e-05
-4.37131e-05 -2.4474855e-05 -2.636095e-06 -1.8144381e-05 -4.185387e-05 7.0729875e-05 -1.1808611e-05 -2.4732602e-05
-0.00012634673 8.84223e-05 -3.040974e-05 4.8493464e-05 1.2998802e-05 7.396866e-05 -1.1806325e-05 -7.783789e-06
-7.1611835e-06 3.2882099e-06 4.0633582e-05 4.017063e-06 5.595697e-05 1.9492469e-05 -5.551505e-05 4.033744e-05
6.237635e-05 2.0242842e-05 9.2211034e-05 -1.7475602e-05 7.2138755e-05 -5.9368947e-05 4.7028366e-06 -7.468233e-06
-1.3820225e-05 5.4712906e-05 -6.44526e-05 1.2248755e-05 -7.3873184e-06 2.1207945e-05 4.616514e-05 2.6240643e-05
3.6480225e-05 -4.8029404e-05 -4.6340116e-05 -6.127965e-05 6.775658e-07 -3.831172e-05 6.0501174e-05 2.5161637e-05
-1.644952e-05 -1.2713443e-06 -7.0180424e-05 8.575536e-05 -5.0970768e-05 4.2705575e-05 4.530443e-05 -1.3204388e-05
6.958762e-05 -0.00012279412 5.028501e-05 -4.1676434e-05 9.459721e-05 4.8311456e-05 -3.7830632e-05 1.8240178e-05
-6.3334024e-05 0.00017464613 -3.17331e-05 2.3071107e-06 -3.7320344e-05 -1.3036903e-05 -2.8373657e-05 4.3451864e-06
-3.958537e-06 -2.9965011e-05 4.4418255e-05 -4.0433406e-05 -1.9130704e-05 -3.4813872e-06 -3.4663204e-05 2.090514e-05
-2.1920605e-05 -1.4983247e-05 5.2067324e-05 1.3732406e-05 7.797451e-05 -4.389032e-06 1.2978191e-05 -1.1452977e-05
3.536349e-05 -3.178467e-05 -4.6287794e-05 -1.1969042e-05 7.1219692e-06 -3.765666e-05 1.8457604e-05 -3.3520406e-05
6.584475e-05 -8.499735e-06 2.8175407e-05 -4.261041e-05 7.383396e-06 -1.2050047e-05 7.704924e-05 -8.517643e-05
-2.5897927e-05 -1.4949734e-05 1.5312979e-05 -6.0457125e-05 1.5800051e-05 -4.2376114e-06 5.236837e-05 -3.0215395e-05
2.1117556e-05 -4.0181963e-05 2.7989381e-05 -3.9409824e-05 1.4924843e-05 -1.0078784e-05 -3.0927575e-05 8.11533e-07
-6.5124215e-05 2.2583892e-05 -3.4401564e-05 3.319428e-05 1.6043003e-05 -6.0676968e-05 2.1504467e-05 -3.240658e-05
-4.1738226e-06 -2.9156836e-05 6.983669e-05 -2.9655015e-05 -2.428054e-05 -4.1271054e-05 -2.1629314e-05 -3.04298e-05
-3.6317295e-05 -6.466559e-07 -5.7472374e-05 -4.487576e-05 -6.171654e-05 -1.6589307e-05 -5.0308434e-05 -1.9592473e-05
1.00334655e-05 4.078811e-06 3.4950943e-05 4.0228533e-05 -2.5812626e-05 7.51926e-05 -8.468517e-05 -5.387785e-05

exp_avg_sq f4 [16, 14]
00000000: 7df0 2233 a6f3 2733 0ec4 2c33 e691 3733
00000010: 7098 8d32 a388 4b32 c1a0 f732 085a 1634
00000020: 3ac7 3a32 670f 3032 01f9 3033 4ddc a533
00000030: 32ea 4032 5243 1432 6098 5d34 f458 c733
00000040: d697 5434 267c d233 a6db ae32 fa8d 1533
00000050: 273a 1634 efb4 8635 2f7a b832 e183 8233
00000060: 1989 4034 7041 8235 926f b232 20d3 7d33
00000070: 237e 7633 e09f 9633 0597 8e33 9163 9433
00000080: cc8e 8932 5144 8432 228d d933 18a9 5434
00000090: 4196 8632 0e24 8732 1332 3e34 ffff b934
000000a0: 64c1 a632 35f9 a132 d448 eb33 b7e5 0234
000000b0: 8ace d933 5545 0034 7022 2f32 cefe 0d32
000000c0: 8061 8334 afe0 4935 a362 5b32 51eb f132
000000d0: ecea 3534 8f57 4735 fc1e 1a32 0e08 e532
000000e0: fe0b 4533 0f0a 0c34 ae80 3933 079a 1c34
000000f0: 7189 3332 9ad5 2432 bd0d a135 0c44 b135
00000100: b6fa 0f33 0346 b733 b0e4 2b35 6178 e934
00000110: e64b c832 328b 2133 c68e 8c33 1e2d ae33
00000120: 968d 8633 ae44 be33 4ca9 b132 61df c632
00000130: 8eb7 eb33 4f71 c434 13dc d632 6b35 b532
00000140: d617 8e35 8ae3 d135 50e3 3d33 9d2b c033
00000150: 7647 f232 8d19 eb32 bbc6 dc32 bfb0 fd32
00000160: e607 0532 30fc 0332 6578 e833 7a5b 1934
00000170: 6ccb 4c32 df67 3532 7d79 6633 1371 9e33
00000180: f17a 1e32 ddcd da31 b221 2134 c914 0b34
00000190: bcf2 1e34 5818 1934 a037 ae32 5f83 b232
000001a0: 84ff 7835 3af3 8435 ba26 5033 b8fb 9b33
000001b0: 232d 4f34 fa78 c434 1b0d 9532 5612 7d32
000001c0: 1049 8933 01e1 6433 c4bf 7533 d7bd 8233
000001d0: 737e 8132 990c 2b32 cfe5 c533 a98b 3d34
000001e0: c672 4632 82ee 0332 31f4 2435 f47a 8535
000001f0: b0dc 0d33 21bc 8233 3159 8933 2955 9033
00000200: 08db 8933 833c 9933 2ca1 8032 77d7 6f32
00000210: 9ef7 cb33 c20c 2434 2345 2d32 7f9a 3f32
00000220: 58c8 0134 4e73 3f34 7fa6 3932 a2cf 4432
00000230: 1cd5 ca32 7a0c f532 0374 cc32 d2f3 f932
00000240: 6819 f531 e858 d131 b8b2 8c33 6bb3 1a34
00000250: 4260 2e32 7c9c 1132 a01f 6433 429e 5934
00000260: b1f8 1232 ec14 3b32 04ac 7533 8c31 6033
00000270: 9f68 7c33 37a2 5433 8532 9032 d88e 6232
00000280: 8d87 7834 9de9 d434 44e3 d332 310a df32
00000290: 39aa c333 60a8 1e34 5b1f 9732 99e4 4d32
000002a0: 31e2 ba32 7422 6433 6da6 be32 1290 6e33
000002b0: 01f3 a932 e54c 1f32 f9ee 8234 7f2c 0f34
000002c0: 8424 8b32 6c28 5432 c183 ce34 ff12 cb34
000002d0: bb9a 8732 9b44 ce32 6568 b933 efec b133
000002e0: 8873 bc33 0059 b033 f8c8 c132 f161 c032
000002f0: 4d3c 2734 acbe 9634 a318 0133 d452 9532
00000300: 0d5a 5735 2bfd ac35 829b 4033 9390 aa33
00000310: 67f0 9b33 7402 2d33 ab43 9633 41d0 2a33
00000320: e01d 6632 e204 1c32 6665 6034 416e 1235
00000330: e40d c632 ac70 1a33 87a2 8f33 2754 1634
00000340: 034b 3d32 eeff 2332 0b23 a733 35ba 9833
00000350: 0ecf 9e33 3a0f 9f33 f559 7432 479a 2832
00000360: 168c 8e35 c7c9 c035 e67c 3c33 1a08 b633
00000370: 032b 0c34 7c0c 9434 7e0b 7232 93d2 1f32
3.7937287e-08 3.9104314e-08 4.022518e-08 4.27407e-08 1.6483881e-08 1.1847223e-08 2.8827687e-08 1.4002592e-07
1.0871924e-08 1.024805e-08 4.120466e-08 7.723484e-08 1.1229121e-08 8.630041e-09 2.0637663e-07 9.28284e-08
1.9799276e-07 9.8014695e-08 2.035615e-08 3.4820893e-08 1.3990994e-07 1.0036437e-06 2.1475982e-08 6.0775854e-08
1.7931269e-07 9.7048e-07 2.0772664e-08 5.909817e-08 5.739106e-08 7.0140004e-08 6.6398606e-08 6.909898e-08
1.6013836e-08 1.539789e-08 1.0130522e-07 1.9805555e-07 1.566798e-08 1.5732464e-08 1.7713346e-07 3.4645197e-07
1.9412887e-08 1.8856193e-08 1.09562876e-07 1.2190763e-07 1.0142419e-07 1.1946152e-07 1.0194171e-08 8.265216e-09
2.4471592e-07 7.520529e-07 1.2769905e-08 2.8163102e-08 1.6942403e-07 7.426069e-07 8.971025e-09 2.6662772e-08
4.5878544e-08 1.3042175e-07 4.3190703e-08 1.4584667e-07 1.0450422e-08 9.594624e-09 1.1999433e-06 1.3207332e-06
3.3522802e-08 8.5343366e-08 6.403525e-07 4.348722e-07 2.3317579e-08 3.761233e-08 6.5452284e-08 8.110713e-08
6.2656156e-08 8.860057e-08 2.06825e-08 2.3151815e-08 1.0976429e-07 3.6590288e-07 2.5012957e-08 2.1095465e-08
1.0586762e-06 1.5637936e-06 4.421173e-08 8.94863e-08 2.8205005e-08 2.736922e-08 2.5701743e-08 2.9533451e-08
7.743415e-09 7.682544e-09 1.08252415e-07 1.4282514e-07 1.1920616e-08 1.0559204e-08 5.366154e-08 7.3780164e-08
9.224764e-09 6.368039e-09 1.5006552e-07 1.2952945e-07 1.4803203e-07 1.4258092e-07 2.0281561e-08 2.0781668e-08
9.2759024e-07 9.905555e-07 4.8463995e-08 7.263537e-08 1.9294798e-07 3.6595867e-07 1.7351843e-08 1.4730707e-08
6.3928496e-08 5.3290027e-08 5.7217918e-08 6.0881284e-08 1.5075079e-08 9.956374e-09 9.215329e-08 1.7652805e-07
1.1551213e-08 7.679434e-09 6.1450106e-07 9.945056e-07 3.3029835e-08 6.087817e-08 6.3957835e-08 6.721013e-08
6.419401e-08 7.135625e-08 1.4974454e-08 1.3960622e-08 9.4979654e-08 1.5278331e-07 1.0085645e-08 1.1152792e-08
1.2086946e-07 1.7830209e-07 1.0806274e-08 1.1455912e-08 2.3612806e-08 2.8527428e-08 2.3801482e-08 2.9098292e-08
7.133327e-09 6.092808e-09 6.551767e-08 1.440764e-07 1.01500195e-08 8.475691e-09 5.311415e-08 2.0267274e-07
8.554864e-09 1.088959e-08 5.7199955e-08 5.2199127e-08 5.8768475e-08 4.950763e-08 1.678678e-08 1.318741e-08
2.3146113e-07 3.9658053e-07 2.4666981e-08 2.5965251e-08 9.1113584e-08 1.4776151e-07 1.7592972e-08 1.1984548e-08
2.175611e-08 5.311672e-08 2.2194593e-08 5.5544724e-08 1.9784695e-08 9.272502e-09 2.4388262e-07 1.33341e-07
1.6198335e-08 1.2349215e-08 3.8466354e-07 3.7825518e-07 1.5786432e-08 2.4012754e-08 8.633723e-08 8.285303e-08
8.775447e-08 8.211828e-08 2.2559547e-08 2.239628e-08 1.5575024e-07 2.807841e-07 3.005756e-08 1.7383549e-08
8.022478e-07 1.288868e-06 4.4844917e-08 7.94254e-08 7.261479e-08 4.0281932e-08 6.997228e-08 3.9770615e-08
1.3394555e-08 9.081505e-09 2.0898514e-07 5.454968e-07 2.305655e-08 3.5958394e-08 6.68852e-08 1.4000453e-07
1.1018304e-08 9.54604e-09 7.782918e-08 7.1119224e-08 7.3951114e-08 7.406784e-08 1.4223123e-08 9.813966e-09
1.0620595e-06 1.436384e-06 4.3885755e-08 8.476509e-08 1.3054164e-07 2.7576232e-07 1.4088867e-08 9.302897e-09

exp_avg f4 [16]
00000000: 55a8 3f39 2322 2fb9 a517 8238 e5de 01b8
00000010: 1e97 3fb8 b5c5 20b9 bc1c 8db8 5cc5 b938
00000020: 285c 2738 6cc6 3e39 6937 82b8 9e04 b338
00000030: f16f 31b8 eef6 1339 cc38 8038 6801 e3b8
0.00018277888 -0.00016702017 6.203287e-05 -3.0963583e-05 -4.5678687e-05 -0.0001533244 -6.728756e-05 8.8582485e-05
3.990173e-05 0.0001819373 -6.209204e-05 8.536245e-05 -4.2304342e-05 0.00014111001 6.114095e-05 -0.000108244654

exp_avg_sq f4 [16]
00000000: 525f 5034 5c00 7d35 fb92 d335 2e72 8835
00000010: 0ce8 1336 1704 5136 e49e b234 72ac 9c35
00000020: 8e6f 5d35 1de0 8034 1d81 1735 babb dd35
00000030: 9223 ee34 ee54 2736 45c1 8035 1714 c735
1.9406187e-07 9.425037e-07 1.5763502e-06 1.016602e-06 2.2039776e-06 3.1145807e-06 3.3270692e-07 1.1673094e-06
8.249125e-07 2.4004922e-07 5.643977e-07 1.6520419e-06 4.4356835e-07 2.4934375e-06 9.592992e-07 1.4832502e-06

exp_avg f4 [8, 16]
00000000: 0c05 d2b8 0efe 4b38 9280 bcb8 1f13 1cb8
00000010: a885 d538 b16a c538 369f 5cb8 79bb 0738
00000020: a664 7338 6a38 4d37 86a6 07b7 1fde 11b8
00000030: e5ab 50b9 2668 24b8 e617 6539 a64a 1db8
00000040: 65e3 c1b8 4c3d 17b9 f7ae 0eb9 bdb8 8eb7
00000050: 833b d637 8ea1 d5b8 0005 68b8 2f86 afb7
00000060: 87d5 7538 0052 3d37 0059 6eb8 fcd5 9ab8
00000070: 4f13 a737 69bd c8b8 1cfc 48b9 7f30 77b8
00000080: c828 9734 91d9 6a36 310a 2f34 0ef7 b4b5
00000090: 57b8 0bb5 7cf6 a433 370c 5e0b 005a 99b6
000000a0: e4ea 22b4 e6d9 9eb5 201d fe34 30f3 20b5
000000b0: e274 9635 6aed ab30 d9a3 de32 3d2b 5eb6
000000c0: ef84 e0aa 72a2 aa9f ed47 4a2f 0a34 b030
000000d0: 0e9a da2f 550f e130 0219 2631 5490 0000
000000e0: 0400 0080 be03 0000 f3cd e12e b0d4 a62c
000000f0: 68a7 8531 3feb 0b2c e4a0 c813 535d 34a8
00000100: 2c5c a738 a65f fc36 b113 d038 e1ba ac37
00000110: 7a68 2e38 e8db 1cb7 9bd1 c2b6 9c45 8ab7
00000120: 907d 5eb5 dc57 8a37 cc32 20b7 1643 9b36
00000130: 9bf5 6937 d2a9 b638 e091 6db7 d2e6 fa37
00000140: 68a4 7338 53e8 4f38 53c9 3038 9eab 2137
00000150: 67b9 b6b8 1afd 9537 911f a636 e918 9bb7
00000160: de34 8bb8 ae60 20b8 6435 1337 3057 1938
00000170: 192c bab7 4458 4a35 a04f 63b6 b25e bc38
00000180: 6963 05b6 d1c5 3cb8 002a 2e34 29b3 7836
00000190: ad10 d237 9bba 3b36 c67e 24b8 568f 0438
000001a0: faad 1ab8 8f7c 8937 f41a 97b7 71a2 c4b7
000001b0: 088f b5b7 bdd7 b837 4a4a 7bb8 7b58 08b8
000001c0: 4491 1039 f06e bf35 dc37 0039 04f1 d8b6
000001d0: 5859 a4b9 0893 6738 824b de38 c49b 15b8
000001e0: 199b 76b9 e465 96b7 1893 8736 6c1b e438
000001f0: 72f6 e538 d8bb aa38 2533 a4b8 537e bd38
-0.000100145204 4.863558e-05 -8.988487e-05 -3.7211106e-05 0.00010181527 9.413565e-05 -5.2600364e-05 3.2361106e-05
5.802945e-05 1.2232087e-05 -8.085399e-06 -3.477756e-05 -0.00019900461 -3.9197643e-05 0.00021848045 -3.750124e-05
-9.245313e-05 -0.00014423317 -0.00013607355 -1.7013745e-05 2.55385e-05 -0.000101867234 -5.5317767e-05 -2.092411e-05
5.8611415e-05 1.128437e-05 -5.682651e-05 -7.38315e-05 1.9916943e-05 -9.5720236e-05 -0.00019167404 -5.8934555e-05
2.8155614e-07 3.4995358e-06 1.6301853e-07 -1.3482947e-06 -5.2049785e-07 7.6816804e-08 4.2764834e-32 -4.5702327e-06
-1.5172878e-07 -1.1835334e-06 4.7332378e-07 -5.995853e-07 1.1209888e-06 1.2509365e-09 2.591871e-08 -3.3105746e-06
-3.9882634e-13 -7.2266544e-20 1.8397346e-10 1.2820476e-09 3.9763431e-10 1.6375262e-09 2.4170395e-09 5.1775e-41
-6e-45 1.342e-42 1.0268399e-10 4.741617e-12 3.8898413e-09 1.9883676e-12 5.064575e-27 -1.0012244e-14
7.980349e-05 7.52132e-06 9.921881e-05 2.059102e-05 4.1582134e-05 -9.3495255e-06 -5.806052e-06 -1.6483296e-05
-8.288416e-07 1.6491795e-05 -9.54857e-06 4.62717e-06 1.3945067e-05 8.710068e-05 -1.4160265e-05 2.9909806e-05
5.808883e-05 4.9569015e-05 4.2149168e-05 9.636306e-06 -8.71297e-05 1.7880044e-05 4.9508603e-06 -1.848904e-05
-6.637884e-05 -3.8237013e-05 8.774314e-06 3.6559242e-05 -2.2193462e-05 7.537931e-07 -3.3871984e-06 8.982177e-05
-1.9876409e-06 -4.5006924e-05 1.6220292e-07 3.7059165e-06 2.5041716e-05 2.797379e-06 -3.9218714e-05 3.1604744e-05
-3.687849e-05 1.6389675e-05 -1.8013154e-05 -2.3440663e-05 -2.1643486e-05 2.203497e-05 -5.991225e-05 -3.250733e-05
0.00013787026 1.4262896e-06 0.0001222784 -6.4653595e-06 -0.00031347084 5.5211625e-05 0.00010599849 -3.5669436e-05
-0.00023518167 -1.792884e-05 4.0404375e-06 0.00010876995 0.00010965475 8.14122e-05 -7.829656e-05 9.035752e-05

exp_avg_sq f4 [8, 16]
00000000: bc9e b333 0887 4235 ab3b 7235 4bd3 c235
00000010: 0a77 4336 e05d 2336 cb11 6134 78e2 ee34
00000020: cef4 0e36 5c49 3034 d46b 8335 0b68 d235
00000030: 9966 e734 4703 2e36 058f 9f35 1a48 1e35
00000040: f07f b633 06f8 c135 3675 8435 c3bd ee35
00000050: 38a3 9d36 f4f6 4b36 bf1b 4934 1244 1335
00000060: 378e 5336 45f3 1c34 c12c b235 9dda e935
00000070: 3ada e934 12ea 4b36 7852 b735 498c 8b35
00000080: 9395 5b32 0119 ac35 3a2e fd31 69c8 7932
00000090: 10c7 3432 8202 8133 7afc 9e31 d281 0732
000000a0: b391 b231 42c1 4533 b9e8 c133 13d2 db33
000000b0: b56a af32 acdb 7f32 547e 9531 17b0 0d34
000000c0: 711c 3831 4b89 8530 7122 fa30 d653 2831
000000d0: dfa0 0d31 d6d5 0831 ff4f 4630 ef04 4e30
000000e0: 3722 dd32 afe5 8c31 51e5 a030 5435 5030
000000f0: 90a5 e52f 66d6 432f 0c0d 5632 976d f22f
00000100: d863 8932 59f5 9533 6153 2934 96f9 2a34
00000110: 35c7 3634 3abb 2235 2f0b 9833 1bac 4d31
00000120: 6fd8 0134 97f3 1932 d7d1 e934 256b b933
00000130: 6a08 2c32 cadb 6935 6bf5 2033 d015 9633
00000140: 6711 ab32 71d5 a935 f7df f434 1b3d d834
00000150: a230 2c35 efdc 7435 02fe d232 fac5 f932
00000160: 4f3f 0535 5dcc 1333 88b1 a834 4c3a 7d35
00000170: 1585 0133 df5b 8e34 ce9b 4735 4606 b034
00000180: 26a7 c82d ad84 fc32 c50d ba31 c1cc ba33
00000190: a84b 5e34 ba2e ab33 6fab fd31 d515 bc34
000001a0: e68c 9834 042a fc33 defd 6e33 7db0 0433
000001b0: 69f5 f432 4389 3733 b484 b434 30ce af34
000001c0: 6d89 1534 33c9 3036 8efe 9b35 6cfd ec35
000001d0: d9fd 3f36 4e91 2336 68d2 6f34 c513 8434
000001e0: 08b1 af35 afc2 9d33 0c06 a135 a0a0 f535
000001f0: a133 1435 f214 2f36 6060 3035 951a 5835
8.364211e-08 7.246713e-07 9.0238854e-07 1.4515621e-06 2.9126554e-06 2.4343535e-06 2.0961231e-07 4.4495732e-07
2.1302144e-06 1.6417965e-07 9.791643e-07 1.56765e-06 4.3101753e-07 2.5929928e-06 1.1888047e-06 5.896451e-07
8.498307e-08 1.4451805e-06 9.868879e-07 1.778761e-06 4.697966e-06 3.0393103e-06 1.8729678e-07 5.486082e-07
3.152423e-06 1.4617133e-07 1.3275059e-06 1.7423478e-06 4.3558413e-07 3.0385604e-06 1.3658564e-06 1.0397135e-06
1.2781487e-08 1.2822276e-06 7.3685245e-09 1.4539276e-08 1.05226405e-08 6.007487e-08 4.6271085e-09 7.887552e-09
5.197046e-09 4.6043404e-08 9.029595e-08 1.02361945e-07 2.0421206e-08 1.4892901e-08 4.3508326e-09 1.319571e-07
2.679169e-09 9.716045e-10 1.8199683e-09 2.4494873e-09 2.0609645e-09 1.9912156e-09 7.214566e-10 7.4949374e-10
2.5743345e-08 4.1006483e-09 1.1706708e-09 7.5745743e-10 4.1772497e-10 1.7811316e-10 1.2459406e-08 4.4097412e-10
1.5994303e-08 6.982982e-08 1.5769685e-07 1.5923283e-07 1.7022542e-07 6.0622153e-07 7.080086e-08 2.9929257e-09
1.20928e-07 8.961158e-09 4.355231e-07 8.634223e-08 1.0013631e-08 8.71191e-07 3.747611e-08 6.988887e-08
1.9914934e-08 1.2653601e-06 4.5611498e-07 4.0277595e-07 6.4145763e-07 9.1218584e-07 2.4562727e-08 2.9077444e-08
4.9638487e-07 3.4411972e-08 3.142161e-07 9.433468e-07 3.015619e-08 2.6516406e-07 7.436e-07 3.278712e-07
2.2811596e-11 2.9396995e-08 5.414878e-09 8.6985445e-08 2.0702885e-07 7.9713075e-08 7.382759e-09 3.5033614e-07
2.8414723e-07 1.1742307e-07 5.5644584e-08 3.089416e-08 2.8516938e-08 4.2732847e-08 3.3624167e-07 3.274631e-07
1.3926702e-07 2.6343157e-06 1.1622485e-06 1.7657126e-06 2.8608977e-06 2.4373471e-06 2.2335155e-07 2.46013e-07
1.3090039e-06 7.346295e-08 1.1997195e-06 1.830067e-06 5.5209426e-07 2.6089224e-06 6.5705353e-07 8.050495e-07

exp_avg f4 [8]
00000000: bbe5 5f38 4568 e0b8 5016 b9b5 4937 8730
00000010: 9bff b037 d6de b5b7 f408 a9b6 7b0f e0b8
5.3381296e-05 -0.00010700574 -1.3790068e-06 9.838256e-10 2.109986e-05 -2.1680647e-05 -5.0376348e-06 -0.00010684036

exp_avg_sq f4 [8]
00000000: ec91 8636 9366 b336 fdbc 9b33 8131 9532
00000010: 853c 1d35 8b0c bc35 261a c634 523c 9336
4.0104987e-06 5.346557e-06 7.252127e-08 1.7368395e-08 5.8575125e-07 1.4010742e-06 3.68994e-07 4.3879636e-06

exp_avg f4 [2, 8]
00000000: 7b77 0839 1f1a 3ab9 3df6 c235 569c c42e
00000010: 6a95 3c38 a999 1eb9 f3fa 10b9 105b aeb5
00000020: f047 6938 c60d a3b9 585b 1135 8493 ee2e
00000030: 4ee4 e3b8 901f 01b6 4e8b 9db7 e618 0a3a
0.0001301448 -0.00017748073 1.4525791e-06 8.940819e-11 4.4961846e-05 -0.00015125297 -0.00013826396 -1.2990513e-06
5.5618526e-05 -0.00031100045 5.414963e-07 1.0849191e-10 -0.000108667286 -1.924087e-06 -1.8780727e-05 0.00052679924

exp_avg_sq f4 [2, 8]
00000000: 574d 3338 2db2 cc37 ca9e 4e35 475a 0a34
00000010: d6ee 9b35 8c15 e735 ec74 2436 8df0 8337
00000020: 2b10 3738 c7c8 0838 e5c3 5935 bda5 d533
00000030: 8919 9135 92cb d535 04d8 6a36 ad7c 8d37
4.2748954e-05 2.4401665e-05 7.697205e-07 1.2885094e-07 1.161791e-06 1.7217112e-06 2.4505962e-06 1.5728432e-05
4.3645658e-05 3.2611915e-05 8.1123864e-07 9.948733e-08 1.0810774e-06 1.5928983e-06 3.4994455e-06 1.6866567e-05

exp_avg f4 [2]
00000000: 5641 8a37 5b93 c1b8
1.6481306e-05 -9.230404e-05

exp_avg_sq f4 [2]
00000000: 1974 3137 5f77 5e37
1.0577053e-05 1.3260024e-05

fc1.weight f4 [32, 20]
00000000: 43d3 fcbe 717e 393d f001 493f 7543 d2be
00000010: 9712 afbf 816d 143e bc0d bcbe 584e df3e
00000020: d340 10be 7768 923d 3e98 a23e 208a 03bf
00000030: 801f c2be 72bb cb3e da4a a8bd 9865 bc3c
00000040: 9650 10bd 3e2f 31bd 2bac cbbc 40a1 f0bb
00000050: d212 c8be f568 183e e3a7 b2bf 3c8a 113f
00000060: 13d6 81be a190 973d cf4c babd fb7d 1e3e
00000070: 441c 983d 2bb1 db3d 9e3a 80be 2af0 883d
00000080: 8c39 383c 4e3a 39be 59ef b9bc a011 9739
00000090: 50c3 553b 69a3 523c e5d3 85bb f148 0e3c
000000a0: a5b4 66be 1848 39be 03b2 203f 360a 9cbf
000000b0: 3e70 27be e210 a8be 5582 debe 7b5a 95bc
000000c0: 2aef 81be 2ac2 62be 0d6d 5bbd cbd6 963e
000000d0: 6c63 dabd befb 803d 748e 34bb be45 57bc
000000e0: 50e7 cd3c c96c a23c 8cb9 f23c c15a 88bc
000000f0: e8aa a03d ab4b 82bd a578 373e 0e16 bcbf
00000100: 16ff 453d 64fc f7bd 5037 68bd b52a 4ebd
00000110: 73ed 813e e0f5 90bd 5e81 d53d 5c36 083e
00000120: 3825 733e 2c57 7039 389d 473c 3454 54bc
00000130: f190 823b 2a6d 473b d829 0c3c 1b12 193c
00000140: 486d 3e3e 538d a43e 7cc7 183f 2abb 2cbf
00000150: c4c8 6a3f 589a dcbe b032 c93e 4c76 3cbf
00000160: a5d2 8abf 087e b9be f347 2c3e fa47 2dbf
00000170: 0e3d 96bd d911 b33e 517e a93d 18de 31bd
00000180: 525c 47bd 8a74 a2bd 5b31 2bbd 3cdd dd3d
00000190: 2958 f8be 49b2 393d 89c9 eabd 1e68 3fbf
000001a0: cd03 c63e 640b cabe 5361 a1be a856 e3bd
000001b0: 02f2 1a3e a342 343e 2ebc c6be 5b6e 0e3e
000001c0: e691 07bf 7011 fabe e719 4a3d bd60 17bd
000001d0: 35af 0f3d b7be b53b 9c1c cb3c a24e f4bb
000001e0: 662c dd3c 01fb 03be 99ba 84bf a07f b9bf
000001f0: 491a 9fbe 4602 bebc 0eb6 4cbd 7a90 79bd
00000200: 1adb 44be 48f9 a2bd c0ae 8bbe 0aa9 4abe
00000210: cf96 4dbd 4cfc 0f3e 33a0 69bc ff16 ffbc
00000220: a8f9 15bc 689d e93b 9aac 3e3b 79ea 223c
00000230: 27d9 1d3d ceaf 9dbc f4c3 4d40 820c 913f
00000240: 637f 9c3e 0a03 033d 9483 b9bd da55 463e
00000250: 9605 143e 2733 863e 52be 193d 8db1 9c3d
00000260: 41c6 88bd 40dc 0d3f 920b 123d 00ad 5b3b
00000270: d0ae eabb 07cf 223a 6b28 48bc af92 edbb
00000280: 3eec 02be d770 02bd b543 34be 0f66 153f
00000290: e73c 8f3f a979 12bf 113b 23bf 98df 793d
000002a0: a461 463e 8b1d fabe 3ea9 02bd ff94 27bf
000002b0: 64c8 573e a78a a13e 6a87 f23c 64cd 2fbd
000002c0: 0b13 a83c f51e 893b 5283 b6bc 5f9c a03c
000002d0: 8f46 cf3e 1387 03be 8abe 9ebe dab2 9cbf
000002e0: 602a f1bd b986 9dbe 32ca 3b3e 0cd2 ce3d
000002f0: 5cae 2abd 2ad6 93bd f4f0 973e 5a94 94bd
00000300: 6f80 a4be ddbe 59be 785a c6bc 5aa2 58bc
00000310: d36d 83bc 5af1 353c 6545 793c 2688 21bc
00000320: 57b8 19be 46ac e8bd e5d1 463f 1149 9bbe
00000330: 6c86 e73d 6e79 bdbc e756 b0bd c097 523e
00000340: ca4f 5f3e 75ac 843e c5ec 8bbe 2fe9 88be
00000350: 29c3 97bd 72dc 0e3e a158 dc3c dae7 c7bb
00000360: 78ca 2c3c e0d7 143d 564a cabb d5bc 2bbd
00000370: bf8c d63e dc3a b2bd 1567 3240 3956 fcbe
00000380: b4dc ee3e 3494 4dbe 1eb0 8c3d a9b0 1fbd
00000390: acca 87be a2b5 48bd dd06 223e a315 4f3e
000003a0: 7f97 bc3d 8853 16be 8326 223d 8c17 41ba
000003b0: 9bad 453c 0c41 2d3c 9470 cf3b 3eea 98bb
000003c0: 5299 9dbd 99e9 2c3e 4a50 90bf b0b2 143f
000003d0: 335f 8dbe 7cb9 a0bd 4c84 d1bb f2a6 ec3c
000003e0: 7c7d 7d3e 0ea5 833d ba7f d8bd b07a bf3b
000003f0: ab7e a5bb fa49 1f3e 8350 9c3c f713 1b3d
-0.4937993 0.0452866 0.7851858 -0.4106709 -1.3677548 0.14494897 -0.36729228 0.4361446
-0.14087228 0.07148831 0.31756777 -0.5138264 -0.37914658 0.39791447 -0.08217402 0.022997662
-0.035233103 -0.043257944 -0.02486237 -0.0073434412 -0.3907686 0.14883788 -1.3957485 0.56851554
-0.25358638 0.07400633 -0.09096681 0.15477745 0.07427266 0.107271515 -0.2504472 0.06686433
0.011244189 -0.18088648 -0.022697138 0.00028814096 0.0032617636 0.012856343 -0.0040840977 0.008684383
-0.22529848 -0.18093908 0.62771624 -1.2190616 -0.16351411 -0.3282538 -0.4345881 -0.018231621
-0.2537778 -0.2214438 -0.053570796 0.2946075 -0.106634945 0.06298016 -0.002755073 -0.013139186
0.025134712 0.019827263 0.029629491 -0.016644837 0.07845098 -0.06362089 0.17917116 -1.469423
0.048338972 -0.121086866 -0.056693375 -0.050333697 0.25376472 -0.07078147 0.104250655 0.13301986
0.23744667 0.00022920658 0.01218348 -0.012959529 0.0039845635 0.0030430057 0.008554898 0.009342696
0.18596375 0.32139072 0.5967939 -0.6747309 0.91712594 -0.43086505 0.39296484 -0.73618007
-1.0845534 -0.36228967 0.16824321 -0.6768795 -0.07335864 0.34974554 0.08276046 -0.043424696
-0.048672028 -0.07932384 -0.041795116 0.10833213 -0.4850476 0.04533604 -0.11464221 -0.74768245
0.38674775 -0.39461815 -0.31519565 -0.11100513 0.15131381 0.17603545 -0.38815445 0.13909285
-0.52957 -0.4884143 0.04934111 -0.03695749 0.0350792 0.0055464166 0.024793915 -0.007455663
0.02699871 -0.12888719 -1.0369445 -1.4492073 -0.3107474 -0.023194443 -0.04997831 -0.0609288
-0.19224206 -0.07957703 -0.2728176 -0.19791046 -0.05019265 0.14061087 -0.014259386 -0.031138895
-0.009153761 0.00712936 0.0029094578 0.009943598 0.03853717 -0.01924887 3.215085 1.1331942
0.30565938 0.03198532 -0.090583 0.19368687 0.14455256 0.262109 0.03753502 0.076510526
-0.06678439 0.554142 0.035655566 0.0033519864 -0.0071619526 0.0006210659 -0.012216668 -0.007250152
-0.12785432 -0.031845894 -0.17603953 0.58358854 1.1190461 -0.5721689 -0.63762003 0.06100425
0.19373184 -0.48850664 -0.031899683 -0.65461725 0.21072537 0.31551096 0.029605586 -0.042920485
0.020516893 0.0041845986 -0.022279415 0.019605814 0.4048352 -0.12844495 -0.31004745 -1.2242081
-0.117756605 -0.30766848 0.1833885 0.10098657 -0.04167019 -0.07218583 0.2967602 -0.07254858
-0.32129237 -0.21264215 -0.02421306 -0.013222301 -0.01604358 0.011104906 0.015214299 -0.0098591205
-0.15011726 -0.113609836 0.77664024 -0.30329183 0.11304936 -0.023129191 -0.08610325 0.205657
0.21807781 0.25912824 -0.27329078 -0.26740405 -0.07410271 0.1395128 0.02689773 -0.006100637
0.010546319 0.036338687 -0.0061734123 -0.04192813 0.41904256 -0.08702633 2.7875416 -0.49284533
0.46652758 -0.20076066 0.06869529 -0.038986836 -0.26521814 -0.049001344 0.1582293 0.20223098
0.09208583 -0.14680302 0.03958751 -0.00073658745 0.012065317 0.01057459 0.006330559 -0.0046665957
-0.07695259 0.16885985 -1.1274502 0.58085155 -0.27611694 -0.07847878 -0.006393945 0.0288882
0.247549 0.06427966 -0.10571237 0.005843483 -0.0050505004 0.15555564 0.01908136 0.037860837

fc1.bias f4 [32]
00000000: 440f aa3d 419e 05bf 1d1a 0bbf 40ab d9be
00000010: d724 bb3e 6b89 8a3f 032d 73bf 0f12 26bf
00000020: 59cb 95bf a384 01bf 9f6a 753f 0f2a d5be
00000030: 433e 8dbd 5a00 00bf 2b69 a2bf 96c9 21bf
00000040: fb75 203f 9510 bebf eefe f13f 8655 3abf
00000050: 3cd9 91bf 2db0 49be 7754 a03d 9185 1fbf
00000060: 9d5b 58be 0050 7bbe c315 61bf 760e 253f
00000070: 4ecf 8dbf f79c cebe ed42 87bd 1223 2ebe
0.08303693 -0.521946 -0.5433672 -0.42513466 0.36551544 1.0823187 -0.9499056 -0.64871305
-1.1702682 -0.5059301 0.95865816 -0.4163365 -0.06896641 -0.50000536 -1.2688345 -0.6319822
0.62680024 -1.484881 1.8905923 -0.7278675 -1.139442 -0.19696112 0.078286104 -0.6231318
-0.21128698 -0.24542236 -0.8792383 0.6447519 -1.1078889 -0.4035413 -0.06604562 -0.17005566

fc2.weight f4 [16, 32]
00000000: 252e 07bd 6dd8 033f f0ce 183d 64e4 0a3f
00000010: 7c3d 603d a60c 473d 798d 833f 26a2 073f
00000020: 723a 9cbd d75f ac3e e6bf f2bd c9ee 3a3f
00000030: 5c60 033e 98a0 c93e d06e 723f 503f 3d3f
00000040: 46cc 0f3d 09f5 8c3f 0309 213e 1be0 ae3e
00000050: 56d0 453f 019b 0f3f 3812 303d 8295 473f
00000060: 53ee 903d dca3 ca3e 32b6 803f 3ee8 1ebd
00000070: 52bb 693f 437d 8cbb 05e8 41bd cb5d 343f
00000080: 17e3 cdbd 8a8a 273f 7120 ac3e 0581 2f3f
00000090: e9d4 97bd a167 acbd 9436 8d3f 3695 543f
000000a0: 1143 0a3e bac8 123f 4e98 143d 1afb 3f3f
000000b0: b459 df3c 6893 e03e 9abe 3b3f ffbb 703f
000000c0: 96fb a7bd 50dc a33f a93f b3bd 593a 243e
000000d0: 4061 663f cbda 393f 68a7 8b3e cdd4 543f
000000e0: 0744 b63d dc75 d73e bcc9 9c3f 6415 e2bc
000000f0: 3838 613f fc00 903d 0d10 8cbc 0cf1 5b3f
00000100: b5f8 60bc 56e2 023d d7c4 3cbe 1600 593d
00000110: a8f1 0bbe b8e3 bcbd 0c7c 183d 3f6f e93c
00000120: 60ec 78b6 3402 dc3c 5201 b1bd 2a50 e83d
00000130: f148 b43b 0fba e0bc 24f6 bbb1 e051 c4bd
00000140: 25ea 67be fe26 b9bc 8619 bfbd 386f 20be
00000150: 8217 abbd e7e0 0bbe 13a5 b9bd eaf2 b7bd
00000160: 04fd 18bd 2845 04be 3650 053d 1cc4 1bbe
00000170: b83b e1ba 3903 2abd 4a76 efbd 8c0f 793c
00000180: b91d 55bc ab19 4cbc d6a9 4abd c98f f83c
00000190: 8d21 bebb 7e7b 22bd 6a6a a9bb 5cae 4dbb
000001a0: 48d7 1226 9e15 80bc 19cd a9bc de63 1aba
000001b0: c5ee 56bc 8776 13ba 09b2 3d32 d69d 373d
000001c0: fdf6 31bc 89eb cbba d1b7 8ebd 42d2 a43c
000001d0: 5312 d03a 4682 85ba dcd5 32bc 384e 633a
000001e0: 011d 0ebc efa9 b0bb 738a 61ba 6ec5 c5bc
000001f0: 9582 a6ba 1b38 30bc 7bff e9bc 6fa4 73bd
00000200: eedf bfbc dae0 fe3a 7ba6 a63c 5a74 fdbc
00000210: af3a 36b4 71fc 1ebb a077 6539 6ded a538
00000220: cacf 1f80 f68b 9fba fc2e 2abc 55ea d4b7
00000230: 59c5 33b9 4111 c6b6 bd5c 2900 bc18 f1bd
00000240: 1ef7 6fb5 d69c 3ab9 5696 b9bb c56e 3bbc
00000250: 118c 943b 7927 9039 d638 433a bd9d 62b9
00000260: 1392 11bb 7aae 5dbd 53ac 97b6 c6c0 acba
00000270: bb9c 9a36 7d31 4e3c d65c 9d3b 57ba 6abd
00000280: 3c85 31bf 2a1a 503f f741 823d 768b 0f3e
00000290: 1e70 e53c 5204 16bf 36c4 673f e6ed 8c3f
000002a0: 4f91 6f3e 6146 de3c 7dcb c9be f336 d13e
000002b0: 725e 9b3e 7368 2f3f 7ffd 733f 160c ab3e
000002c0: a37c 0ebe 5c27 803f 39df b3be f021 c33e
000002d0: 56af 263f 3b40 c93e 32d2 39bf ce9f 0a3f
000002e0: 6c1c f6be 0306 063f 0c9c 323f 443e 90bf
000002f0: 7f2b 1e3f 7e01 3b3e 7f8b dabc 0564 153e
00000300: d952 6bbd f5c1 7b3f 111b 173f d79e 99bd
00000310: 31fa 54be e13a febe 7610 903f 544a 523e
00000320: e9bf d23d 222e c73e a4ac 1bbf 867a 783e
00000330: 528c 743e d275 2e3f 69a0 893f 79b0 eb3e
00000340: b9f3 ebbe db28 943f 3ca8 77bf 33d1 e63e
00000350: 0763 6c3f 44e3 8d3e dd4f a5be a8f7 a83e
00000360: 4a07 fabe f538 983e f1b7 c53e 1618 96be
00000370: 0c56 9b3e b738 ba3e d7b0 b1be 96c1 2f3e
00000380: f931 e4be ada8 593f 2409 c73e 074a 003e
00000390: c4d7 83be bd89 e83c fcb6 693f 5060 533c
000003a0: 7b75 d13e 4354 9b3e b8f4 01bf a4dd b13d
000003b0: a5b6 b23e 7857 223f 60e8 8b3f adf8 dd3e
000003c0: c68e 9bbe 4da4 af3f 0b3f 96be a5bb 093f
000003d0: da9e 803f bca2 4a3e 1931 d6bd 190c 1f3f
000003e0: 945d d6be 95f6 ce3e a42c 823d 55d4 9abe
000003f0: a700 0a3e 23ca ce3d c4c7 0abe 3c8c b03e
-0.03300299 0.51502115 0.037306726 0.54254746 0.054746136 0.048596047 1.0277549 0.52981794
-0.07628335 0.3366687 -0.11853008 0.7302061 0.12829727 0.39380336 0.94700336 0.7392473
0.03510692 1.1012279 0.15726094 0.34155354 0.7727102 0.5609589 0.042986125 0.77962506
0.07076707 0.3957814 1.0055602 -0.038795702 0.91301453 -0.0042873933 -0.04734041 0.70455617
-0.100530796 0.6544577 0.336185 0.68556243 -0.07413656 -0.08418203 1.1032281 0.8304018
0.13502146 0.57337534 0.03627806 0.74992526 0.027264453 0.43862462 0.7333771 0.9403686
-0.08202283 1.2801609 -0.087523766 0.16037883 0.8999214 0.72599477 0.27276158 0.8313721
0.08899694 0.42082107 1.2249064 -0.02759809 0.8797641 0.07031438 -0.017097497 0.85914683
-0.013731171 0.031954132 -0.18434463 0.052978598 -0.13666403 -0.092231214 0.037227675 0.02849543
-3.7092468e-06 0.02685652 -0.0864283 0.11343415 0.0055018594 -0.02743247 -5.4703992e-09 -0.09585929
-0.22647913 -0.0226016 -0.0933104 -0.15667427 -0.08354093 -0.13660012 -0.090646885 -0.08981879
-0.03735067 -0.12917006 0.0325472 -0.15211529 -0.0017183935 -0.04150698 -0.11692484 0.015201461
-0.013007575 -0.012457292 -0.049478374 0.030342 -0.0058023394 -0.039668553 -0.0051701562 -0.0031384444
5.0945686e-16 -0.015635308 -0.020727681 -0.0005889515 -0.0131184505 -0.0005625267 1.1041728e-08 0.04482826
-0.010862109 -0.0015557866 -0.06968654 0.02011979 0.0015874602 -0.0010185919 -0.010915246 0.00086710183
-0.008673907 -0.0053913514 -0.00086036994 -0.024141993 -0.0012703711 -0.010755564 -0.028564205 -0.059482988
-0.023422208 0.0019445673 0.020343056 -0.03093927 -1.697142e-07 -0.0024259354 0.00021883706 7.912037e-05
-2.921441e-39 -0.0012172449 -0.0103871785 -2.5381489e-05 -0.00017144288 -5.9028685e-06 3.798524e-39 -0.11772296
-8.939404e-07 -0.00017796768 -0.0056636734 -0.011439984 0.004533299 0.0002749523 0.0007447129 -0.00021611802
-0.002221231 -0.054121472 -4.520212e-06 -0.001318001 4.6078035e-06 0.012585041 0.0048023267 -0.057306614
-0.69343925 0.81289923 0.06360238 0.14018044 0.028007563 -0.5860034 0.9053377 1.1010101
0.23395275 0.027133169 -0.39413062 0.40862235 0.30345494 0.6851875 0.9530868 0.33407658
-0.13914733 1.0012012 -0.35131243 0.3811183 0.6511129 0.39306816 -0.7258636 0.5415009
-0.4806856 0.52352923 0.6976936 -1.1269002 0.6178512 0.18262288 -0.026677845 0.14588936
-0.057452057 0.9834283 0.59025675 -0.075009994 -0.20798565 -0.49654296 1.1255023 0.20536166
0.1029051 0.38902384 -0.60810304 0.24265489 0.23881653 0.6814853 1.0752078 0.46033075
-0.46084383 1.1574968 -0.9674108 0.4508148 0.92338604 0.27712452 -0.32287493 0.33001447
-0.48833686 0.29730955 0.386169 -0.2931525 0.30339086 0.36371395 -0.3470523 0.17163691
-0.44569376 0.85023004 0.3887416 0.12528239 -0.25750554 0.028385991 0.91294837 0.012901381
0.40909943 0.30337724 -0.50764036 0.08684853 0.34904972 0.63414717 1.093029 0.43353787
-0.30382365 1.3722016 -0.29344973 0.5380195 1.0048478 0.1978864 -0.104585834 0.62127835
-0.4186827 0.40422502 0.06356171 -0.3024012 0.13476811 0.10097148 -0.13552767 0.3448199

fc2.bias f4 [16]
00000000: 0f08 853e 090f 513e 66be a23c 6615 60bd
00000010: c460 0dbd 5b0b 2cbf 473f a8bf 82b1 2bbf
00000020: f182 b4be 7d50 41be b977 743c ac37 823e
00000030: ed49 5d3d f7c1 4cbd 5987 693d 750d 2abe
0.2598271 0.20415892 0.01986618 -0.054707907 -0.03451611 -0.6720483 -1.3144311 -0.6706773
-0.3525615 -0.1887836 0.014921122 0.254331 0.05402558 -0.049989667 0.057013843 -0.16606696

fc3.weight f4 [1, 16]
00000000: 0267 07bf d0c7 1abf 4acb 65bd b8b5 a2bd
00000010: 7ba2 813a 5466 75bf 5146 a1bf 31da 4bbf
00000020: f679 72bf 9296 ad3d d0ae a83d d5fc 03bf
00000030: 46ca c43d 6892 c73d 05a5 40bf dc30 1cbf
-0.5289155 -0.6046114 -0.056102075 -0.07944816 0.0009890342 -0.95859265 -1.2599584 -0.7962981
-0.9471735 0.08475985 0.08236468 -0.51557666 0.09608893 0.09744722 -0.752518 -0.61012053
