DRL-course/MADDPG/model_dir/episode-22000.pt (torch_old, 71203 bytes, 99 tensors)

fc1.weight f4 [16, 14]
000000 48 f8 aa bf 6f d1 80 3f db ab b8 bf 33 8f 62 3f
       -1.335702 1.0063914 -1.4427446 0.88499755
000010 fb 7a 8f be f9 70 c3 bd 62 0f 83 3e 78 51 2e 3e
       -0.28023514 -0.09543032 0.25597674 0.17023265
000020 0e f9 ae be e3 88 dd 3e a4 57 74 3e b7 43 86 3d
       -0.3417439 0.432685 0.23861557 0.06555884
000030 67 4a c6 be 85 94 b4 3e 6d 56 98 3f bc 62 c9 3f
       -0.3872864 0.3526956 1.1901375 1.5733256
000040 fd 5b 8e 3f 50 a4 c7 3f 02 5c 41 be 04 c0 f9 3d
       1.1121823 1.5597019 -0.18882754 0.12194827
000050 9f 85 92 3d a8 0e 6a 3e a8 e9 c6 bb c6 94 5a 3f
       0.071543925 0.22857153 -0.0060703345 0.8538326
000060 cd b1 fe bd e9 88 2f 3e 35 f2 74 3e e5 16 4d 3f
       -0.124362566 0.17142071 0.2392052 0.8011306
000070 d8 65 2f bf bc fa 4a 3f 3c 25 1b bf ad 17 3e 3f
       -0.68514776 0.7928884 -0.6060369 0.74254876
000080 0e 57 5f bc 6a 94 26 be 50 0a c9 bc 3f 46 1e bf
       -0.013631595 -0.16267553 -0.02454105 -0.6182594
000090 a7 6f ee 3e b2 cf 18 be 14 13 36 3f 7e 93 bb 3d
       0.4656956 -0.1492298 0.7112286 0.09158991
0000a0 de 71 05 3f 2d 69 e0 3d 47 9d 8d be e2 59 19 3e
       0.5212687 0.10957561 -0.27659056 0.14975694
0000b0 96 4e 20 bf 3b 7d c7 3e a7 78 e6 3e df 6c 3c bf
       -0.6261991 0.3896273 0.45013925 -0.73603624
0000c0 4e fa 37 bd af d6 eb 3d 9f 2f 0e bf 83 9e 2e 3e
       -0.044916444 0.11515557 -0.55541414 0.17052655
0000d0 7d 37 69 be 67 2d f4 3d 06 a7 22 bd b2 58 00 be
       -0.22775073 0.11922722 -0.039710067 -0.12533835
0000e0 5e ec 1a 3f 31 d3 b1 3d fc 92 1b 3f 07 32 39 3d
       0.6051692 0.0868286 0.60771155 0.045213725
0000f0 d1 65 98 3d b0 f0 c5 bd 3f 58 d1 bd 54 6d 9b 3e
       0.07441295 -0.09665048 -0.1022191 0.30356848
000100 0a aa 5a 3e 2b 4b 3f bc 77 d8 a6 bf 13 8c 8a 3e
       0.21353927 -0.011675636 -1.303481 0.27059993
000110 3f 4e 36 3e 92 e1 0d 3e 04 76 0d bf 61 13 01 3c
       0.17803286 0.1385558 -0.552582 0.007878155
000120 a8 b2 0d bf ce fb f9 3c e6 4e 84 be 09 3e 1e be
       -0.5535073 0.030515578 -0.25841445 -0.15453352
000130 b6 29 fe 3f 1b f7 57 3e fe e8 a0 be d3 af ab 3d
       1.9856479 0.21090357 -0.3142776 0.08383145
000140 4a 7a a4 bd 98 d0 c4 3e 23 99 1a 3e 54 52 b2 bd
       -0.08031137 0.38440394 0.1509748 -0.08707109
000150 2f ff 75 bf 72 3f 15 bd 1e 46 59 bf 03 37 10 bd
       -0.96092504 -0.03643746 -0.84872615 -0.035208713
000160 82 d9 1b be 6e 43 42 3e c5 5f ad 3f a4 16 7c 3e
       -0.15219691 0.18971035 1.3544852 0.24618012
000170 21 54 24 3e d2 56 dd 3c c5 36 12 bf 12 67 82 bf
       0.16047718 0.027018938 -0.5711482 -1.0187705
000180 c6 b8 81 3e c0 45 51 bf ce 4a 2e 3f be 69 6a bf
       0.25336283 -0.81747055 0.6808289 -0.915676
000190 8d a2 37 3f 0d 6c 78 bf 13 37 24 3e 88 0f 9e bd
       0.7173241 -0.9703987 0.16036634 -0.07717806
0001a0 8d d7 bf be a8 e2 2e bd f3 ea 10 bf 73 8e 0c 3f
       -0.3746914 -0.042696625 -0.56608504 0.5490486
0001b0 0f 3a 4e bf e4 29 a3 bf ac 4b f9 bd 50 85 03 bf
       -0.8055734 -1.2747159 -0.121726364 -0.51375294
0001c0 51 e6 a6 3f 29 41 9e be b9 b6 a4 3f a4 cc 96 be
       1.3039037 -0.30909088 1.2868263 -0.29453003
0001d0 25 ce 45 3e 4d 77 47 be 9a da 23 3f 0c 50 12 bf
       0.19316919 -0.19479103 0.64005435 -0.5715339
0001e0 ba 64 ff 3e 17 5a 01 bf 0a 18 94 bf 7a 86 76 3e
       0.49881536 -0.5052809 -1.1569836 0.24074736
0001f0 a9 94 39 bf d2 2a 1c 3f b3 a1 0f 3f 44 b0 b1 bf
       -0.7249246 0.6100284 0.5610611 -1.3881917
000200 37 8b 11 3f 44 00 af bf 0d 9b f2 3e 31 16 e4 be
       0.5685305 -1.3671956 0.4738392 -0.4454818
000210 6c 78 f6 3e af 64 07 be 10 b0 51 3e b3 26 99 bf
       0.4813875 -0.13222001 0.20477319 -1.1964935
000220 23 50 c9 3e dd d1 1b 3e 1c 26 2a be 9e d6 cc be
       0.39318952 0.15216775 -0.166161 -0.4000749
000230 e7 7e f7 bd 6d 8e da 3e 48 89 59 bd 8e dc c5 3e
       -0.120847516 0.42686787 -0.053109437 0.38644832
000240 65 53 80 3d 18 13 eb be c0 fb 99 3f ff bf 16 3f
       0.06265906 -0.45913005 1.2029953 0.5888671
000250 63 98 0a 40 cf b3 0a bf fb 25 c3 be fc db fa be
       2.165551 -0.54180616 -0.38114914 -0.4899596
000260 1d 16 60 3e 7d ab e1 bd 7c ea 40 bf 81 94 dc 3e
       0.21883436 -0.11019037 -0.75357795 0.4308205
000270 1d d4 3e bf af f1 f4 3e b1 98 0d be f3 57 48 3e
       -0.7454241 0.4784064 -0.13827778 0.195648
000280 97 65 5c 3e 58 98 32 be 5b 90 a9 3e 84 3a 80 bd
       0.21523128 -0.17440927 0.33117947 -0.06261161
000290 e2 c9 69 3f 9e d7 82 bf 9b de 14 bc 91 e5 8a be
       0.91323674 -1.0222051 -0.009086276 -0.2712827
0002a0 25 bc c3 bf 00 9d 8d bf 15 f2 cb bf 25 4f 89 bf
       -1.5291792 -1.1063538 -1.5933253 -1.0727278
0002b0 cf e4 36 bf 18 9c 5d 3e 34 11 80 bf e7 8e 61 be
       -0.71442884 0.21641576 -1.000525 -0.22027169
0002c0 7d f6 2e bd b8 83 1a bf f0 46 40 bf 5f 98 88 3c
       -0.04271554 -0.60357237 -0.7510824 0.016674219
0002d0 45 01 94 be 7e ca ed bd d3 b1 3b be 88 b4 a5 3e
       -0.2890722 -0.11610888 -0.18329553 0.32364297
0002e0 22 b0 5f be f0 70 a9 3e f9 b3 53 bd 84 62 35 3e
       -0.21844533 0.33093977 -0.051685307 0.17713362
0002f0 2e c5 fb 3e 0a 50 d9 bf e7 c8 85 be 27 f8 8c be
       0.49173874 -1.6977551 -0.2612984 -0.27533075
000300 71 54 77 3e 7f a2 a0 3d 63 4c d5 3d 37 2c c3 3e
       0.24153306 0.07843494 0.1041496 0.3811967
000310 31 dd fd 3e 6f 77 67 bc 98 68 e1 3e 41 92 29 bb
       0.49582818 -0.014127596 0.4402511 -0.0025874528
000320 7f 1e 1a 3f 03 a6 ba be b2 dd 5c be dd 08 a1 be
       0.60202783 -0.36454782 -0.21568945 -0.31452075
000330 a0 5e c2 3d 3c 32 02 bd 30 96 a3 3f 8a 4e 52 bf
       0.094907045 -0.03178619 1.2780209 -0.8215109
000340 ad aa bd 3f a2 63 98 bf 96 77 42 3f c3 99 27 3e
       1.4817711 -1.1905406 0.75963724 0.16367249
000350 a4 35 35 3f d9 7a 8d 3e 11 3f eb bd 1e 00 a2 be
       0.70784974 0.27632788 -0.11486638 -0.31640714
000360 74 ac 06 bf 15 5f ec 3e 7a ce c4 be 8a 72 c9 3e
       -0.5260689 0.46166292 -0.3843878 0.393452
000370 c2 c7 71 3f dd 15 e0 3e 92 a3 ff be 72 f6 ec 3e
       0.9444543 0.4376668 -0.49929482 0.46281773

fc1.bias f4 [16]
000000 9f 3f 69 bf 4c 92 6a bf 75 e9 d7 3e cd 23 f8 3e
       -0.91112703 -0.9162948 0.421703 0.48464814
000010 ca e7 67 3e c8 8d 1a 3f 4a 40 31 be 05 39 6d bf
       0.22647014 0.6037259 -0.1730968 -0.9266513
000020 8a 89 3f bf 4f e8 95 bf 9d c1 aa 3e e8 9c b5 3e
       -0.7481924 -1.171152 0.3335084 0.35471272
000030 66 a3 b8 bf 74 c0 a4 3e 44 43 0d 3e 4a db aa be
       -1.4424865 0.3217808 0.13795191 -0.3337043

fc2.weight f4 [8, 16]
000000 dc a2 e4 be 76 ea 3b bf f6 e9 df bb 7f 87 05 3e
       -0.44655502 -0.73404634 -0.0068333102 0.13039969
000010 87 ca 97 3e 29 d0 73 3d e2 82 ee 3e 7d 0e 8b 3f
       0.29646704 0.05952469 0.4658423 1.0863796
000020 6d 3b 91 3d 2e 96 b2 3f 68 b0 4c 3d 74 ef 35 3f
       0.07091413 1.3952081 0.04997292 0.710685
000030 0d 71 99 3f fd 47 33 3f 02 7a f1 3e 1c 9f 29 bf
       1.1987625 0.7003172 0.47163397 -0.66258407
000040 8f 58 22 bf dd 7a ba 3f ad 8b 6b bc 22 03 aa 3d
       -0.6341638 1.4568745 -0.014376563 0.08301379
000050 19 d8 e1 be 28 bf 9e 3f 92 74 a8 bf 05 a3 7a be
       -0.44110182 1.2402086 -1.3160574 -0.2447625
000060 39 93 40 3f c9 85 f9 be 87 8b f8 3e 0a 6f 00 bd
       0.75224644 -0.48734882 0.4854395 -0.031355895
000070 d4 64 14 be 5e f5 46 be 8b 34 ba 3e f1 77 15 3f
       -0.14491588 -0.19429538 0.36368212 0.5838614
000080 5e 55 25 3e a5 1e a6 3e 76 8d 0b bf e4 f5 f3 be
       0.16145846 0.32445255 -0.5451273 -0.47648537
000090 62 f7 c1 be ee 5b 82 be 2a da 10 bf bb 2f 6f 3e
       -0.3788405 -0.25460762 -0.5658289 0.23358051
0000a0 87 d1 72 bf cb 85 fb 3e f4 28 a3 3c 32 40 c9 3b
       -0.94850963 0.49125513 0.019916989 0.006141686
0000b0 9f 0f cf bd d0 0e 07 3e 27 d7 91 bf 62 22 e7 3e
       -0.10110401 0.13189244 -1.1393784 0.4514342
0000c0 1c 3f 46 be 9d 23 4c be 06 75 df 3d f2 bb 90 bc
       -0.19360012 -0.1993546 0.10910992 -0.017667744
0000d0 1f cc 1a 3d 59 bf 31 bd a1 17 c4 3d c5 5f c4 be
       0.03779232 -0.043395374 0.09574819 -0.38354316
0000e0 b2 92 46 be c0 18 63 be 12 a7 b0 bd 6e a7 5b be
       -0.19391897 -0.2217741 -0.08625616 -0.21450588
0000f0 9a 79 1e bc ac bf 5a be dd b5 fa bd 96 de 71 be
       -0.009672547 -0.2136218 -0.12241719 -0.23620066
000100 0f 7c a9 3d b4 e4 09 3e 86 61 1f bf 9c 83 86 3e
       0.082756154 0.1346615 -0.62258184 0.26272285
000110 58 32 0f bf 1c aa c8 3e e2 56 0e bc 0f aa 8c be
       -0.55936193 0.39192283 -0.008687707 -0.27473494
000120 f4 a5 0a bf 4a 50 ad be d2 39 9e 3f 3c 41 de bf
       -0.54159474 -0.33850318 1.2361395 -1.7363658
000130 16 0c f9 be 4c 8a 3a 3f 94 13 83 bf 13 ff 34 3e
       -0.48642033 0.72867274 -1.024035 0.17675428
000140 ee 7a e7 be 51 db 32 3e 10 a4 32 3f 09 26 81 be
       -0.45210975 0.17466475 0.6978159 -0.2522433
000150 a7 8b e4 bd 8c af 77 3e 32 59 be be 84 46 95 bf
       -0.11159449 0.2418806 -0.37177426 -1.1662145
000160 ce d6 e2 3e d3 c3 0c bf d7 e6 57 bf aa 07 34 3e
       0.44304508 -0.54986304 -0.8433661 0.17581049
000170 52 7f 3b bf 22 91 ca bf 3a 62 13 3f 35 08 61 3e
       -0.7324115 -1.5825541 0.57571757 0.21975787
000180 b3 5c 99 be f0 ff 91 be ab b4 d9 bf 4f 12 02 bf
       -0.29953536 -0.28515577 -1.700826 -0.50809187
000190 0a c1 5c bf 42 ff 1b bf 51 0f 14 3f 24 a5 4c 3f
       -0.86232054 -0.6093637 0.5783587 0.79939485
0001a0 c1 58 51 3f c1 d2 2d 3f 80 7a 13 be 11 a7 13 bf
       0.8177605 0.6789971 -0.14402199 -0.576768
0001b0 f5 21 90 bd dc 0f 9d be dc 7b 78 3f e9 5c 30 3f
       -0.07037727 -0.30676162 0.97063994 0.6889177
0001c0 80 8f a4 3f 95 0b c1 3e a1 8c 19 3f a5 c7 f6 3e
       1.2856293 0.3770415 0.5998021 0.48199192
0001d0 2d f3 49 3f 96 dd af bd 3f c8 04 3f 94 bf 21 bd
       0.7888668 -0.08587186 0.5186805 -0.039489344
0001e0 84 a9 31 bf f8 58 a7 3c ef 47 04 be 89 48 01 3d
       -0.69399285 0.020428166 -0.12918065 0.031563316
0001f0 0c 4f 8e 3f 87 86 b5 bd 89 5b ad be 1f 1f a3 bd
       1.1117873 -0.0886355 -0.33858898 -0.0796492

fc2.bias f4 [8]
000000 39 66 1a 3f c4 70 ee 3e 28 b0 76 bf 2f bc b7 bd
       0.6031223 0.46570408 -0.96362543 -0.0897144
000010 cf c0 42 3c 36 c2 45 3f 79 af 82 3e 4d 85 b6 3e
       0.011886789 0.7724947 0.255245 0.35648575

fc3.weight f4 [2, 8]
000000 2c 04 57 be 93 67 71 3f c6 f1 e7 3e 83 b0 f3 3d
       -0.20997685 0.94298667 0.45301646 0.11898901
000010 c4 ab 45 bf 40 f5 18 bf e1 75 2c 3f 92 98 f1 be
       -0.7721522 -0.5974922 0.6736737 -0.47186714
000020 1d 1b 4d bf 58 be f0 3e 65 09 f5 be 11 0c 91 3c
       -0.80119497 0.4702022 -0.4785873 0.017705949
000030 a6 94 f3 3d d6 19 f3 3e 79 9f 77 3c cc 5a 20 3f
       0.11893587 0.4748065 0.015113705 0.62638545

fc3.bias f4 [2]
000000 67 65 12 bd d4 aa f1 bd
       -0.035741236 -0.11800161

exp_avg f4 [16, 14]
000000 78 bd 77 37 9d a4 7d 38 1e 9d 30 b6 0a c8 a3 38
       1.4766461e-05 6.047321e-05 -2.6317498e-06 7.809706e-05
000010 50 c7 93 b7 63 ac 08 38 00 19 e9 32 6b 11 9b 38
       -1.7616578e-05 3.2585474e-05 2.7136139e-08 7.39422e-05
000020 06 31 a4 b7 5d bd 27 38 76 18 8f b8 df fd 8d 38
       -1.9573152e-05 3.999226e-05 -6.8233276e-05 6.770691e-05
000030 30 6a 0d b8 ae 3d 5c 38 f9 65 36 38 4c d6 c6 b8
       -3.3715914e-05 5.250953e-05 4.348715e-05 -9.4812916e-05
000040 38 85 ec 38 e0 32 ce b8 6a 33 8e 38 ac 8c 51 37
       0.00011278171 -9.832322e-05 6.780664e-05 1.24901235e-05
000050 a4 f3 d5 38 e9 fe 86 38 1b 8a 40 38 ac 01 3b 38
       0.00010202013 6.437099e-05 4.5904988e-05 4.458583e-05
000060 00 82 81 34 59 70 3e 39 9e a8 0e 38 56 58 f1 b7
       2.412271e-07 0.00018161665 3.4012475e-05 -2.8770573e-05
000070 a7 6d d8 38 e9 3e ae 38 4d 70 60 38 c4 52 8b 38
       0.00010320107 8.3086845e-05 5.351035e-05 6.643453e-05
000080 8f f3 e6 37 cc 4b 69 38 02 b3 a7 b7 36 be ae 38
       2.7531552e-05 5.562212e-05 -1.9991308e-05 8.332396e-05
000090 8f 83 08 37 d5 36 90 38 b0 9d c0 b8 21 a2 1e 38
       8.136863e-06 6.876668e-05 -9.184645e-05 3.782113e-05
0000a0 a0 60 ae b6 96 80 90 b7 1b 7b ed 37 d1 a5 78 b7
       -5.1968527e-06 -1.7226015e-05 2.8309927e-05 -1.4820559e-05
0000b0 b8 03 a8 36 a2 d6 8f b7 44 16 ce 36 84 08 11 38
       5.007223e-06 -1.7146875e-05 6.1418705e-06 3.4578625e-05
0000c0 1f c7 65 b9 1b 0d a2 39 38 ae f2 b7 51 3f 85 38
       -0.0002191332 0.00030908812 -2.8929775e-05 6.353728e-05
0000d0 94 1c bc b8 84 2e db 38 80 7f db b7 ab 3c 42 38
       -8.969862e-05 0.00010451398 -2.6166206e-05 4.6309706e-05
0000e0 a0 cc a3 35 b6 ac af b8 71 38 8e b8 7e 4c b2 b8
       1.2204e-06 -8.37682e-05 -6.781601e-05 -8.501949e-05
0000f0 18 63 0e b8 8c 56 a4 38 f2 61 03 ba c1 cb 19 3a
       -3.3947726e-05 7.83625e-05 -0.00050118484 0.00058668485
000100 74 70 88 b8 c2 ba e1 38 30 df 8d b9 b6 7c 97 39
       -6.5059314e-05 0.000107636224 -0.00027059903 0.0002889388
000110 f2 d5 12 b8 68 6c f1 38 e9 b7 df 38 54 ad 8a b7
       -3.5008365e-05 0.00011511968 0.000106677246 -1.6531594e-05
000120 94 bd f5 38 13 04 88 37 98 1b a4 37 ab 34 e7 b7
       0.00011717822 1.621436e-05 1.9563173e-05 -2.7561871e-05
000130 d2 d8 cc b7 a8 24 d9 38 3d 7a ec 38 c2 4d 2e 38
       -2.441966e-05 0.00010354194 0.000112761256 4.155725e-05
000140 e2 e8 b5 39 0e 08 32 b9 f4 81 4b 38 3a 19 a7 b8
       0.00034696521 -0.00016978403 4.852e-05 -7.967879e-05
000150 80 19 9d b8 39 42 2b 38 c3 a5 13 b8 b0 ce 0e 35
       -7.491093e-05 4.083125e-05 -3.520191e-05 5.319989e-07
000160 02 04 c4 b7 6c b0 18 38 5b f9 58 38 f5 5e 95 b8
       -2.3366887e-05 3.640393e-05 5.1730643e-05 -7.122561e-05
000170 41 1d 05 b8 63 1e d8 b6 85 c3 ed b8 69 00 8e b7
       -3.1736916e-05 -6.440839e-06 -0.00011337459 -1.692791e-05
000180 68 d8 9f b8 80 f8 8b 38 f2 40 31 b9 22 87 12 38
       -7.6220196e-05 6.674323e-05 -0.0001690423 3.4934965e-05
000190 83 1f 2d b9 ac 85 b2 38 a6 6f ee b7 c8 eb 4f b8
       -0.00016510305 8.5126e-05 -2.8423801e-05 -4.9572234e-05
0001a0 bf 4d 03 3a da 64 3b ba 60 b8 7e 38 ea 8e 3c b9
       0.00050088385 -0.0007148512 6.073003e-05 -0.00017982317
0001b0 7c f1 cb b8 99 30 a4 39 88 21 3c b8 4c 81 da 37
       -9.724774e-05 0.00031316726 -4.485392e-05 2.6047834e-05
0001c0 6a 29 54 38 c2 99 df 37 85 09 80 38 09 34 51 38
       5.058331e-05 2.665527e-05 6.105289e-05 4.9877945e-05
0001d0 ae 88 c9 37 5a 7d e9 b7 5c de 6b 37 42 0f 04 39
       2.4024714e-05 -2.7834136e-05 1.4058864e-05 0.00012594185
0001e0 d2 44 7d 37 32 6a 2d 38 28 37 dc 39 44 56 9f b9
       1.5095999e-05 4.1345316e-05 0.00042002765 -0.00030391116
0001f0 38 67 70 38 3c ca d3 b8 e0 ef 29 b9 14 e2 7d 38
       5.731659e-05 -0.00010098933 -0.00016206456 6.0530452e-05
000200 54 cc 0e b9 28 93 a9 38 e2 1f 5e b8 48 a4 aa b7
       -0.00013618293 8.085958e-05 -5.2958618e-05 -2.0342079e-05
000210 d7 3a 48 b8 fe e3 15 39 4b 6c 9f b8 3d af 90 b7
       -4.7738515e-05 0.00014294681 -7.601882e-05 -1.724774e-05
000220 33 ee 25 39 e5 06 03 b9 f2 76 1e b8 ac d1 58 b8
       0.00015824362 -0.00012495702 -3.7780912e-05 -5.1693685e-05
000230 cc f8 e6 b7 5a 74 81 37 a9 08 fa b7 e0 5a 83 37
       -2.7533992e-05 1.5432179e-05 -2.9806355e-05 1.5658734e-05
000240 0f 2e 1a b7 04 07 2e b7 6c f9 55 37 ee e0 55 b8
       -9.189839e-06 -1.0372842e-05 1.2753862e-05 -5.099264e-05
000250 f0 cf b3 35 d0 b7 76 36 ba 96 46 37 d3 b8 12 37
       1.3397057e-06 3.676385e-06 1.1836813e-05 8.745311e-06
000260 0c 59 d2 35 c6 9d 01 b7 8e 83 6c 37 68 f3 cc b7
       1.5672135e-06 -7.725734e-06 1.4097326e-05 -2.443204e-05
000270 c3 68 09 b7 8d 74 f6 b7 99 83 06 b7 0b 46 ff b7
       -8.190228e-06 -2.9379758e-05 -8.017662e-06 -3.0430985e-05
000280 00 de 52 b7 8e f2 d7 b8 4d 43 c9 b7 a8 75 8c b7
       -1.2568664e-05 -0.00010297178 -2.3992407e-05 -1.6744088e-05
000290 4f 7a 8a 38 6b 45 7f b8 48 d5 80 b7 f1 b1 99 37
       6.6031345e-05 -6.086139e-05 -1.5358106e-05 1.8321882e-05
0002a0 96 e1 92 36 ba ca 72 b7 ca 21 85 b7 64 67 a8 b7
       4.3774007e-06 -1.4471525e-05 -1.587057e-05 -2.0075306e-05
0002b0 40 58 e2 35 1f a2 62 37 92 66 0b b9 d6 1e 69 38
       1.6863996e-06 1.35083965e-05 -0.00013294283 5.5580247e-05
0002c0 1b 80 62 b8 1c 91 26 37 37 f9 3e b9 d3 75 49 39
       -5.4001906e-05 9.928157e-06 -0.00018212652 0.00019212747
0002d0 70 ec 17 b6 3e 0f 7f 38 42 52 33 b9 82 a6 c6 b6
       -2.2638378e-06 6.0810933e-05 -0.00017101414 -5.920244e-06
0002e0 2b 06 0d b9 42 37 18 38 48 ed 6a b8 1d b7 36 b8
       -0.00013449106 3.6291087e-05 -5.6010933e-05 -4.356272e-05
0002f0 9b fd b7 b8 b0 d6 87 37 80 ea 69 b8 60 7c 01 b6
       -8.773358e-05 1.6193226e-05 -5.5769924e-05 -1.9294894e-06
000300 6e 93 33 39 58 62 17 b9 8b d9 87 37 b9 27 4e b8
       0.00017125692 -0.00014437118 1.6194555e-05 -4.9151222e-05
000310 0e 86 2d b8 29 42 06 38 1e 6f d8 b7 74 ad 4f 38
       -4.1371262e-05 3.2009706e-05 -2.580095e-05 4.9514187e-05
000320 33 7b 9f 37 99 2e 64 b6 7a 56 67 39 5e 86 1f b9
       1.9011646e-05 -3.400177e-06 0.00022062092 -0.00015213477
000330 f2 3e 4c 38 58 d5 2a b8 ee cc 4e b8 ee f9 6f 38
       4.8696013e-05 -4.072985e-05 -4.9305083e-05 5.7214806e-05
000340 ee 1e 52 b8 10 e7 ce 37 48 fa 34 38 e6 f9 80 36
       -5.0096707e-05 2.466471e-05 4.3148437e-05 3.8437893e-06
000350 89 37 d2 38 60 01 40 38 58 4f 0b 38 e1 e6 d1 37
       0.000100239246 4.5777648e-05 3.3214077e-05 2.5022253e-05
000360 ba ff 39 39 9c d2 5b b8 b9 da 73 37 8c fd cc b7
       0.0001773824 -5.2409814e-05 1.4534854e-05 -2.4436762e-05
000370 46 07 11 b9 a4 24 91 38 d3 e9 90 37 0e c9 85 b7
       -0.00013830987 6.920964e-05 1.727502e-05 -1.5948459e-05

exp_avg_sq f4 [16, 14]
000000 b0 fc 21 33 a9 0e 30 33 34 25 2a 33 ac 16 44 33
       3.771555e-08 4.0991527e-08 3.9615045e-08 4.5655426e-08
000010 00 15 90 32 7b b1 1c 32 76 da f4 32 11 8e 33 34
       1.6773356e-08 9.1207495e-09 2.8504683e-08 1.6722358e-07
000020 ce ee 42 32 44 75 16 32 63 ef 2a 33 56 8d b3 33
       1.1346584e-08 8.757812e-09 3.979893e-08 8.361046e-08
000030 9e d4 4c 32 b7 63 e0 31 51 6c 80 34 43 23 dc 33
       1.1922706e-08 6.5305943e-09 2.3920668e-07 1.02509624e-07
000040 9a 8e 78 34 f3 3b de 33 30 d1 a3 32 e9 8b ff 32
       2.3148678e-07 1.0348585e-07 1.9070825e-08 2.974953e-08
000050 d0 07 20 34 f8 22 a9 35 9f c1 aa 32 a9 71 91 33
       1.4904003e-07 1.2601658e-06 1.9878653e-08 6.772763e-08
000060 f8 5a 4f 34 81 a4 9f 35 bf 72 ab 32 7d 06 84 33
       1.9311472e-07 1.18943e-06 1.99592e-08 6.147909e-08
000070 b3 a6 94 33 55 12 b4 33 c3 99 aa 33 23 56 af 33
       6.9221095e-08 8.385238e-08 7.944211e-08 8.164741e-08
000080 9e 73 96 32 cb 8a 71 32 dd da f2 33 c5 5a 84 34
       1.7514875e-08 1.4059604e-08 1.1308814e-07 2.465296e-07
000090 40 d6 8e 32 d3 5e 8a 32 f1 db 4c 34 d0 59 e5 34
       1.6628405e-08 1.6108435e-08 1.9078995e-07 4.271992e-07
0000a0 5f bd af 32 78 91 b0 32 5b ad 15 34 af f7 20 34
       2.0458797e-08 2.0555248e-08 1.3939773e-07 1.4991268e-07
0000b0 02 76 0a 34 65 8f 1d 34 2f af 54 32 b4 4c 2b 32
       1.2895183e-07 1.4673931e-07 1.2379856e-08 9.97095e-09
0000c0 a4 d9 70 34 89 eb 63 35 07 83 58 32 7f b2 f4 32
       2.2430919e-07 8.490684e-07 1.2602647e-08 2.848651e-08
0000d0 db 1b 44 34 14 fb 7b 35 88 c6 26 32 64 1b 09 33
       1.8264056e-07 9.3870153e-07 9.7076125e-09 3.192271e-08
0000e0 f1 c0 33 33 d3 f3 af 33 c3 7a 29 33 b7 ed bd 33
       4.1852164e-08 8.193424e-08 3.946003e-08 8.8442384e-08
0000f0 54 83 1d 32 97 c1 fb 31 19 73 be 34 3f 4f 08 35
       9.168463e-09 7.32707e-09 3.5474002e-07 5.0779266e-07
000100 a6 8d 72 32 f1 4c ee 32 9d f7 98 34 6d 31 bb 34
       1.4118461e-08 2.7741835e-08 2.849237e-07 3.4867426e-07
000110 00 45 65 32 aa 2b a8 32 06 f3 96 33 bc 4d 90 33
       1.3345243e-08 1.957763e-08 7.029125e-08 6.719662e-08
000120 ec b2 91 33 c4 5e 92 33 b5 db bb 32 cc 3d c6 32
       6.7846344e-08 6.8158926e-08 2.1869576e-08 2.3078336e-08
000130 f8 8b fb 33 43 b5 b7 34 cd 6a d1 32 ed 18 bf 32
       1.17135585e-07 3.4218291e-07 2.437937e-08 2.2246661e-08
000140 e3 bf bf 34 ea e9 18 35 75 e7 03 33 2c 5a 27 33
       3.5716138e-07 5.69648e-07 3.0711323e-08 3.896473e-08
000150 35 18 ef 32 ea 24 eb 32 02 4b d9 32 b4 12 f6 32
       2.783427e-08 2.7374387e-08 2.5296234e-08 2.8646674e-08
000160 ae a9 9e 31 9a 2c 95 31 1a 1a a1 33 7a 37 2c 34
       4.6176956e-09 4.3415413e-09 7.5018946e-08 1.603893e-07
000170 47 58 15 32 4c 75 07 32 90 04 48 33 a9 8b af 33
       8.693013e-09 7.8847044e-09 4.657028e-08 8.1744766e-08
000180 07 6f c4 31 d8 ef 96 31 64 b6 3e 34 b1 e5 12 34
       5.716973e-09 4.3928416e-09 1.7761482e-07 1.3680871e-07
000190 6f ab 3a 34 20 a0 20 34 bc e8 bd 32 48 7f ca 32
       1.7384967e-07 1.4959414e-07 2.2108331e-08 2.3573776e-08
0001a0 53 8a 2f 35 f5 8e 27 35 e4 ed 20 33 c6 57 3e 33
       6.539387e-07 6.242038e-07 3.7469263e-08 4.431765e-08
0001b0 c7 e6 7d 34 e0 ab bf 34 0a 5e a4 32 f7 07 8b 32
       2.3646417e-07 3.5701578e-07 1.9134877e-08 1.6185352e-08
0001c0 ea 64 87 33 13 03 1a 33 c6 99 73 33 af 6a 2c 33
       6.3047835e-08 3.5858715e-08 5.6717703e-08 4.01439e-08
0001d0 40 47 7e 32 b4 2a 1b 32 5a 68 b7 33 d0 d1 06 34
       1.4800946e-08 9.031897e-09 8.540583e-08 1.2556052e-07
0001e0 ab 8b 25 32 93 f2 c2 31 79 3c 6b 34 28 55 13 35
       9.636021e-09 5.6737206e-09 2.190808e-07 5.4885686e-07
0001f0 c0 e0 aa 32 4b 27 0a 33 f8 b2 90 33 ad 01 87 33
       1.989281e-08 3.2166366e-08 6.738077e-08 6.286732e-08
000200 6c 6c 8e 33 e6 9c 91 33 bf 2e 80 32 b4 59 71 32
       6.632112e-08 6.780628e-08 1.4922419e-08 1.4048442e-08
000210 f4 fe de 33 8f ab 37 34 6d 72 27 32 64 5c 43 32
       1.0384056e-07 1.7105616e-07 9.746697e-09 1.1371501e-08
000220 5a ad d2 33 56 63 1b 34 69 b6 1f 32 33 9d 16 32
       9.8104195e-08 1.4471638e-07 9.296493e-09 8.766892e-09
000230 08 21 ed 32 0c 11 14 33 03 27 ec 32 f0 25 14 33
       2.7605452e-08 3.447444e-08 2.7491756e-08 3.449344e-08
000240 ba 49 0e 32 60 06 e0 31 a1 b9 88 33 78 5e 2d 34
       8.282251e-09 6.5199828e-09 6.366759e-08 1.6146248e-07
000250 27 4c 47 32 cb 93 21 32 10 02 83 33 80 10 89 34
       1.160064e-08 9.405038e-09 6.100538e-08 2.5530244e-07
000260 64 e6 26 32 50 d5 5b 32 36 41 94 33 1e 7d 81 33
       9.7148565e-09 1.2795979e-08 6.903649e-08 6.029789e-08
000270 2c 1e 98 33 e7 b6 75 33 78 ab a4 32 a5 e5 73 32
       7.08354e-08 5.7209856e-08 1.9170088e-08 1.4196677e-08
000280 c2 55 59 34 8c 64 f4 34 64 a2 e3 32 93 01 e8 32
       2.0240898e-07 4.55217e-07 2.6500125e-08 2.700907e-08
000290 6d 7b da 33 53 03 32 34 2c 43 ab 32 fd ae 65 32
       1.0173867e-07 1.6578751e-07 1.9937566e-08 1.3369342e-08
0002a0 54 d4 cb 32 14 9e 34 33 82 f4 c7 32 f2 b5 35 33
       2.3728866e-08 4.2053287e-08 2.3277838e-08 4.2307825e-08
0002b0 74 90 bb 32 d6 ab 37 32 cb db 1a 34 83 a7 b5 33
       2.1835355e-08 1.0691073e-08 1.4422328e-07 8.4589395e-08
0002c0 e8 37 89 32 bd b6 18 32 b2 fa 43 34 1d d4 24 34
       1.5974322e-08 8.889114e-09 1.8251993e-07 1.5350857e-07
0002d0 e3 6f 61 32 b1 01 51 32 5e 03 c7 33 b4 b3 a9 33
       1.3122164e-08 1.2165786e-08 9.267272e-08 7.9023636e-08
0002e0 a4 17 cc 33 9c fe a1 33 e3 5a d6 32 ac 0c be 32
       9.5037905e-08 7.54346e-08 2.495421e-08 2.2124674e-08
0002f0 4d 4c 3a 34 d5 35 85 34 79 6e 0a 33 3f 9b 99 32
       1.7350358e-07 2.4812348e-07 3.2231103e-08 1.7882142e-08
000300 f2 4b 13 35 0b 40 6e 35 e0 2e 22 33 d9 7d 57 33
       5.487228e-07 8.8755104e-07 3.7761197e-08 5.0173046e-08
000310 35 db ab 33 37 8e 24 33 69 2b a4 33 16 70 1e 33
       8.0026815e-08 3.831357e-08 7.6447414e-08 3.6889183e-08
000320 7b 95 54 32 d5 51 14 32 e0 4a 16 34 69 fe 0c 35
       1.2374012e-08 8.63334e-09 1.3997078e-07 5.252428e-07
000330 24 97 83 32 6b a4 05 33 d3 aa a0 33 60 c5 0d 34
       1.5319138e-08 3.1116013e-08 7.481653e-08 1.3203453e-07
000340 d7 1b 32 32 b0 e8 24 32 95 97 af 33 e6 a6 7a 33
       1.0367294e-08 9.598963e-09 8.176645e-08 5.8359454e-08
000350 b5 2f a3 33 85 4c 82 33 92 f6 5d 32 96 70 18 32
       7.598957e-08 6.0675156e-08 1.2919957e-08 8.8731635e-09
000360 63 3e e7 34 ef 31 13 35 02 a2 d8 32 3b 4d 09 33
       4.3072495e-07 5.483443e-07 2.5219382e-08 3.196804e-08
000370 1e 5e 0d 34 e7 81 68 34 35 e1 4f 32 9c c8 1b 32
       1.3165888e-07 2.1653942e-07 1.2100192e-08 9.067801e-09

exp_avg f4 [16]
000000 f8 5c db 38 a6 ec 68 38 3e 63 fe 38 66 18 78 39
       0.000104600505 5.5533506e-05 0.00012130149 0.00023660212
000010 e3 98 25 3a 39 15 ce b9 15 37 8a 39 5c d8 03 ba
       0.00063170324 -0.00039307194 0.0002636245 -0.00050294935
000020 d9 e7 58 b9 c1 32 e4 b8 8a 7e 0f b9 ae db 7f b8
       -0.00020685735 -0.00010881341 -0.00013684682 -6.100133e-05
000030 44 9a 15 39 dc c3 a6 38 ac 7b 50 b9 0a 65 0e b9
       0.00014267216 7.9519785e-05 -0.00019882497 -0.00013579815

exp_avg_sq f4 [16]
000000 b8 f7 44 34 b0 62 8c 35 e5 50 00 36 f6 ca 99 35
       1.8344042e-07 1.0459535e-06 1.9120573e-06 1.1458458e-06
000010 8d 16 a6 35 6a dd 55 36 cf 99 77 34 57 ad 8a 35
       1.2374527e-06 3.1868353e-06 2.3059623e-07 1.033225e-06
000020 1f e5 17 35 6e b5 63 34 ef 5c 37 35 b9 2e 08 36
       5.65853e-07 2.1207026e-07 6.830805e-07 2.0292775e-06
000030 3c 99 a9 34 54 fe 2a 36 5f e8 7e 35 e3 da a7 35
       3.1590196e-07 2.5480012e-06 9.496052e-07 1.2506174e-06

exp_avg f4 [8, 16]
000000 5a a3 3c 38 55 f2 13 38 f6 17 eb 38 fc cd d3 b7
       4.4974826e-05 3.527322e-05 0.00011210136 -2.5249079e-05
000010 7c b2 d1 b9 d2 10 d7 38 d2 e8 ac 38 d0 51 8c b9
       -0.00039996568 0.00010255132 8.244965e-05 -0.00026763836
000020 16 43 fd b9 d4 fe c3 b8 60 55 55 38 e4 92 20 39
       -0.00048305903 -9.34579e-05 5.086267e-05 0.0001531351
000030 5e 66 8d b8 30 ef f4 b7 38 72 d3 b8 49 a3 97 b9
       -6.742471e-05 -2.9198447e-05 -0.00010082539 -0.0002892262
000040 bc e4 f2 b8 d2 d6 14 b9 8c d3 53 b9 1a 89 e8 b9
       -0.00011582064 -0.00014194407 -0.00020201335 -0.00044352637
000050 44 b2 00 ba 81 af ea b9 b4 c7 c5 b8 c0 37 15 b7
       -0.0004909376 -0.0004476272 -9.4308896e-05 -8.894072e-06
000060 70 9c 0f b8 24 0e 29 37 76 7b 96 b9 8e 2d 86 b9
       -3.423955e-05 1.0076477e-05 -0.00028702215 -0.00025592413
000070 82 99 4f b9 49 86 65 b9 51 44 2d b9 90 c1 4c b9
       -0.00019798244 -0.00021889167 -0.00016524016 -0.00019527064
000080 a5 9d 51 31 a8 ef 5e b7 fe 70 08 b6 d6 20 19 b6
       3.0503113e-09 -1.32880305e-05 -2.033135e-06 -2.281789e-06
000090 75 cd 09 b7 19 81 85 b6 11 2b 5e 1e 80 3f 14 b7
       -8.213673e-06 -3.978738e-06 1.1761488e-20 -8.836272e-06
0000a0 d1 e5 94 b5 d0 5f f9 1f 21 1d d9 b6 d0 a0 b6 b5
       -1.1093745e-06 1.0561411e-19 -6.470495e-06 -1.3606859e-06
0000b0 ff e8 59 b6 9b fb 5d b4 4e 1d 2b b5 6b f5 94 b7
       -3.2471141e-06 -2.0673762e-07 -6.374511e-07 -1.7757257e-05
0000c0 1d 1b 1b b1 43 55 55 af dd a2 8c 33 8a b6 5a 33
       -2.257088e-09 -1.9402528e-10 6.548883e-08 5.09231e-08
0000d0 cb 6e 16 34 cc 44 56 ac 0b 26 d8 23 cd 67 90 0f
       1.4010145e-07 -3.044942e-12 2.3434879e-17 1.4239479e-29
0000e0 04 00 00 80 2e 85 ef 0c 4f ab 40 32 54 42 61 25
       -6e-45 3.6903935e-31 1.1214822e-08 1.9538112e-16
0000f0 b6 63 5c b3 2d 31 0c b0 cf bc c8 26 ae cd 86 ab
       -5.1313428e-08 -5.1001586e-10 1.3928964e-15 -9.57836e-13
000100 d1 0b 3f 38 d8 1e df 38 ba 6d de 38 65 38 d1 38
       4.5548953e-05 0.00010639214 0.00010606223 9.976401e-05
000110 00 10 64 39 3b 10 2b 39 2f e4 0b 38 63 36 a6 37
       0.00021749735 0.00016313877 3.3352695e-05 1.9814068e-05
000120 8f 87 c3 38 b7 ed ce 36 86 f5 4b 39 0d 8c 39 38
       9.323574e-05 6.166952e-06 0.00019451053 4.423787e-05
000130 03 54 58 37 19 9e 25 39 15 60 96 37 1e b9 bc 38
       1.2894164e-05 0.00015794522 1.7926135e-05 8.999019e-05
000140 74 c9 ef 37 c3 1c 75 39 60 a7 9a 37 06 8b 5a 39
       2.858483e-05 0.00023375735 1.843617e-05 0.0002084189
000150 16 09 ba 39 da b7 8c 39 d0 20 27 38 00 38 97 38
       0.00035483454 0.0002683986 3.984646e-05 7.210672e-05
000160 7a 9e 62 39 b0 c5 d0 37 14 0c 36 39 5b 9a 91 38
       0.00021612077 2.4887588e-05 0.00017361372 6.94289e-05
000170 3e 6a 4c 38 84 8b a6 36 0a 70 58 39 cc a0 81 39
       4.8736336e-05 4.9634273e-06 0.00020641103 0.000247246
000180 ad ee 59 b5 64 de 58 b7 3f 9c 83 37 0b 14 00 b9
       -8.118612e-07 -1.2926383e-05 1.5689175e-05 -0.00012214498
000190 56 59 c7 b8 f0 24 22 37 73 c1 08 38 ca 19 b1 b8
       -9.5056996e-05 9.664553e-06 3.260509e-05 -8.444821e-05
0001a0 55 84 f2 b7 21 99 49 b8 0e 4d 2c b8 37 31 0c b8
       -2.891027e-05 -4.8064747e-05 -4.107976e-05 -3.3424436e-05
0001b0 f5 59 6d b8 00 ab d2 34 0c 5f 34 b9 b3 f9 85 b9
       -5.6588982e-05 3.9239967e-07 -0.00017201545 -0.00025553777
0001c0 a8 ef 0a 38 da 80 62 39 16 84 b7 37 02 52 b2 39
       3.312496e-05 0.0002160104 2.1876807e-05 0.00034011906
0001d0 eb 9c 6c 3a d9 e7 c1 39 02 12 f2 b7 b0 05 3c 39
       0.0009026068 0.0003698457 -2.8857034e-05 0.00017931196
0001e0 ad 64 1f 3a ec 43 2c 38 38 77 0d 39 7a a8 e8 37
       0.00060803705 4.1071253e-05 0.0001349122 2.7735008e-05
0001f0 a8 27 4d 39 93 32 2e 39 3a e4 53 39 53 6c 16 3a
       0.00019565097 0.00016612773 0.00020207549 0.00057381875

exp_avg_sq f4 [8, 16]
000000 5d aa b4 33 4b 00 77 35 72 77 93 35 e3 df be 35
       8.412892e-08 9.2015097e-07 1.0987117e-06 1.4221263e-06
000010 0c 51 d0 35 c8 24 26 36 75 d9 6a 34 df 36 a2 34
       1.5520795e-06 2.4757337e-06 2.1872059e-07 3.0214775e-07
000020 91 d6 b2 35 b2 35 42 34 d2 a6 98 35 0f 99 02 36
       1.332448e-06 1.8087192e-07 1.1373434e-06 1.9460601e-06
000030 82 5a 97 34 c0 d4 4a 36 87 2a ae 35 4b 1b d9 34
       2.8191795e-07 3.0224182e-06 1.2976387e-06 4.0439258e-07
000040 93 ba b2 33 2f 97 f1 35 77 a2 9e 35 36 fc d0 35
       8.3227086e-08 1.79999e-06 1.1819201e-06 1.5570611e-06
000050 9d b7 13 36 63 18 3b 36 fe 5c 35 34 8f 59 95 34
       2.2011584e-06 2.7879366e-06 1.6890769e-07 2.7818575e-07
000060 9a 78 d9 35 49 5a 1b 34 cf 49 c7 35 66 e6 0f 36
       1.620286e-06 1.4468345e-07 1.4848137e-06 2.144277e-06
000070 eb c3 37 34 53 c7 63 36 d5 0d c0 35 2f df 31 35
       1.7114478e-07 3.3941658e-06 1.430914e-06 6.6262413e-07
000080 e9 e9 8c 32 11 ef dc 35 5c 5f 22 32 ea 03 a0 32
       1.6404515e-08 1.6460855e-06 9.451323e-09 1.8628231e-08
000090 f3 f6 64 32 51 a1 a5 33 dd 2a cc 31 9e 76 24 32
       1.3327496e-08 7.7127545e-08 5.9420544e-09 9.573027e-09
0000a0 6d 4d e5 31 6d ed 7d 33 3b ec f8 33 06 23 0d 34
       6.6735795e-09 5.912209e-08 1.159137e-07 1.314439e-07
0000b0 09 62 e0 32 75 3d a4 32 6f aa bf 31 03 9b 34 34
       2.6121613e-08 1.912006e-08 5.5782077e-09 1.6820199e-07
0000c0 9d 6e 6c 31 26 7c ab 30 ed 9a 20 31 67 27 58 31
       3.4405396e-09 1.2477173e-09 2.337113e-09 3.1454535e-09
0000d0 49 dd 35 31 84 b4 2f 31 2a 8d 7e 30 7c 48 84 30
       2.6464753e-09 2.5568463e-09 9.260527e-10 9.624865e-10
0000e0 e9 fc 0d 33 0a f0 b4 31 3a 9e ce 30 51 b0 85 30
       3.305914e-08 5.2659788e-09 1.5033443e-09 9.727136e-10
0000f0 37 20 13 30 9a 7d 7b 2f ad 70 89 32 2f a9 1b 30
       5.352407e-10 2.287294e-10 1.6000138e-08 5.6629096e-10
000100 f7 6a 89 32 9f b8 a5 33 4a d1 52 34 bc 08 4a 34
       1.5997541e-08 7.7169936e-08 1.9633913e-07 1.8815894e-07
000110 2a a4 52 34 0c 92 26 35 f0 54 54 33 d8 8e 3a 31
       1.9617497e-07 6.2052345e-07 4.9437347e-08 2.714776e-09
000120 1a 25 17 34 de 06 36 32 76 68 03 35 ed c4 e5 33
       1.4076468e-07 1.0595356e-08 4.8953314e-07 1.0699464e-07
000130 6f 64 3f 32 71 2d 93 35 ee 08 46 33 41 e7 b8 33
       1.1140499e-08 1.0965579e-06 4.610859e-08 8.6102325e-08
000140 d9 8f b0 32 a3 d3 d6 35 43 31 17 35 4b 1b f6 34
       2.0554511e-08 1.6005837e-06 5.632357e-07 4.584093e-07
000150 4a c1 07 35 d2 6d 91 35 f0 b2 04 33 2f ec bc 32
       5.057269e-07 1.0835304e-06 3.0896388e-08 2.1993484e-08
000160 2a 90 db 34 1f 38 32 33 e3 43 d3 34 b1 5b 9f 35
       4.0896822e-07 4.1494896e-08 3.9351207e-07 1.1873109e-06
000170 98 3c ea 32 47 63 a7 34 4e 96 63 35 10 8c b5 34
       2.726874e-08 3.1178408e-07 8.478281e-07 3.3815786e-07
000180 99 3a 91 2d 75 2d 13 33 a0 83 92 31 12 94 ff 32
       1.6510614e-11 3.4267448e-08 4.2641233e-09 2.9753242e-08
000190 1b 03 9d 33 07 83 b4 33 ce f2 a3 31 b3 a4 51 34
       7.311447e-08 8.405737e-08 4.771528e-09 1.9524559e-07
0001a0 a3 a4 9c 34 86 c0 0f 34 f7 7e 57 33 9c 62 d8 32
       2.9177053e-07 1.3387952e-07 5.0174062e-08 2.5190552e-08
0001b0 27 35 15 32 42 a7 31 33 7e 4c ae 34 fe 6b e7 33
       8.685027e-09 4.1363144e-08 3.246568e-07 1.07764194e-07
0001c0 e3 ee 16 34 1c 02 60 36 2f a1 bf 35 54 21 f3 35
       1.4056745e-07 3.337983e-06 1.427752e-06 1.8114611e-06
0001d0 3e e2 f6 35 94 e2 2e 36 8b 77 81 34 62 9b fa 33
       1.8394273e-06 2.6059906e-06 2.41151e-07 1.1669796e-07
0001e0 ee 4c 62 35 6f 09 c1 33 d7 2c c2 35 67 7b 1a 36
       8.430351e-07 8.988979e-08 1.4467176e-06 2.3019618e-06
0001f0 50 cf dc 34 a3 fc 52 36 30 52 4f 35 0c 0f 45 35
       4.1129033e-07 3.1439492e-06 7.723311e-07 7.3410115e-07

exp_avg f4 [8]
000000 24 13 01 b9 42 24 15 ba fa bb b4 b6 e0 9a 00 34
       -0.00012309529 -0.0005689302 -5.3863014e-06 1.1977272e-07
000010 24 d1 72 39 79 00 ca 39 e7 6d 5d b9 96 cb f7 39
       0.0002315683 0.00038528795 -0.00021117144 0.00047263195

exp_avg_sq f4 [8]
000000 2c 06 84 36 ac 23 a3 36 19 c0 c7 33 19 97 bf 32
       3.934625e-06 4.8619313e-06 9.301602e-08 2.2304038e-08
000010 ba a6 3a 35 72 1d d0 35 9f f4 5a 34 68 e7 99 36
       6.953302e-07 1.5505777e-06 2.0391825e-07 4.5866946e-06

exp_avg f4 [2, 8]
000000 12 5f cc ba 21 e3 c2 ba 63 96 22 35 9a 3b 1f 32
       -0.0015592298 -0.0014868715 6.0568544e-07 9.26857e-09
000010 8a a2 5b b9 47 5c ed b9 76 1a 03 ba c5 1d bc ba
       -0.00020946018 -0.00045272915 -0.00050011964 -0.0014352134
000020 b4 a8 7b 3a 90 bf a5 3a f2 4f 1e 36 95 4b 48 31
       0.0009600029 0.0012645591 2.359037e-06 2.9146794e-09
000030 f6 b3 03 b8 50 ff 19 39 84 52 5b 3a e1 a0 ab 39
       -3.1400436e-05 0.00014686328 0.0008366483 0.00032735526

exp_avg_sq f4 [2, 8]
000000 56 0e 21 38 b0 13 d6 37 23 aa 84 35 83 ab 31 34
       3.8398743e-05 2.5519956e-05 9.884283e-07 1.6546805e-07
000010 25 5b af 35 9c 7f fc 35 df f5 ff 35 d6 44 79 37
       1.3065043e-06 1.8812602e-06 1.9070538e-06 1.4857584e-05
000020 27 51 36 38 bf 93 14 38 dd d1 8b 35 57 2e 09 34
       4.346776e-05 3.542355e-05 1.0417385e-06 1.2775978e-07
000030 e7 8d a8 35 50 89 e1 35 45 e3 5c 36 be f2 90 37
       1.2558274e-06 1.680377e-06 3.2914843e-06 1.7279173e-05

exp_avg f4 [2]
000000 69 e9 47 ba c6 62 d7 39
       -0.00076260284 0.00041081588

exp_avg_sq f4 [2]
000000 cb 3a 40 37 74 33 7f 37
       1.1457781e-05 1.5211164e-05

fc1.weight f4 [32, 20]
000000 4e c0 c8 be fc 63 3f bd 9c 6c 3b 3f 7a e8 c6 be
       -0.39209217 -0.046726212 0.732126 -0.3884924
000010 6c ef b4 bf 91 f3 ee 3d 4a a4 ba be 73 78 cc 3e
       -1.4135566 0.1166755 -0.36453468 0.39935645
000020 ad 50 cf bd 67 82 0f 3d 40 ad 2f 3e 69 22 be be
       -0.101228096 0.03503647 0.17155933 -0.37135628
000030 8b f8 aa be d6 a9 45 3e 90 0c a2 bd c5 9a 87 3d
       -0.33392748 0.19303069 -0.07912552 0.06621317
000040 32 e9 6e bb d2 b4 86 bc 4a 73 bf bb 09 9e a2 3d
       -0.0036454913 -0.016443644 -0.005842601 0.07940299
000050 08 9d c6 be 66 a9 27 3e 9b b9 ae bf 20 b9 08 3f
       -0.3879168 0.16373214 -1.3650392 0.5340748
000060 b4 a2 50 be 56 68 ea 3c 14 ef c4 bd f3 bd 21 3e
       -0.20374566 0.028614204 -0.09615913 0.15795116
000070 68 ae f9 3c 38 43 35 3e 74 f1 80 be 9e 05 a8 3c
       0.030478671 0.17701423 -0.25184214 0.020510491
000080 38 96 15 3d bb 04 1f be 28 de c1 bc 12 f4 24 3a
       0.036520213 -0.15529148 -0.023665503 0.0006292473
000090 80 df fb b7 7b 9f d4 3b 76 df 76 bc c1 9e 34 3c
       -3.0025607e-05 0.006488738 -0.015067926 0.011024178
0000a0 49 49 14 be 47 6e 68 be f7 a9 2e 3f b8 84 97 bf
       -0.14481081 -0.22698317 0.68228096 -1.1837378
0000b0 a9 a5 15 bd d3 31 a6 be 62 f3 bd be a4 33 e1 3b
       -0.03653494 -0.32459888 -0.3709975 0.006872611
0000c0 4a 1f ce bd 07 29 1a be 0c 67 38 bd da 4d b5 3e
       -0.10064562 -0.15054713 -0.04502015 0.3541096
0000d0 0d c3 4b be 63 da af bc 3b 8f 94 bb 77 8a 77 3c
       -0.19898625 -0.02146644 -0.004533676 0.015108696
0000e0 ef a5 85 3c f1 f7 93 3c e1 25 1a 3d 28 bf 64 bc
       0.016314475 0.018062564 0.03763378 -0.013961591
0000f0 d9 c5 e6 3c 55 f3 20 bd 62 29 21 3e 10 87 b6 bf
       0.028170513 -0.03929456 0.15738443 -1.4259968
000100 d9 d2 2f 3e b8 6f 17 be 1c 21 f2 bc 39 94 5a bd
       0.17170276 -0.14788711 -0.029556803 -0.053364012
000110 66 34 31 3e e9 e0 26 3c de a8 c7 3d 84 d1 41 3e
       0.17305145 0.010185459 0.09749006 0.1892758
000120 39 69 8f 3e ac db a5 3c e7 23 39 3c b0 b6 0f bb
       0.28009966 0.02024635 0.011300064 -0.0021928959
000130 03 f1 86 3b 29 a6 94 bb b3 d3 38 bc 80 11 eb 3b
       0.0041180863 -0.0045364094 -0.011280942 0.007173717
000140 1e 25 42 3c 20 49 d4 3e 79 d1 0b 3f e8 0a 12 bf
       0.01184967 0.4146204 0.54616505 -0.5704789
000150 63 ae 8f 3f c7 94 c9 be 1d 96 c0 3e 55 01 1d bf
       1.1225094 -0.3937132 0.37614527 -0.6133016
000160 e9 63 66 bf 40 97 65 bf 89 f6 81 3d db 86 32 bf
       -0.899962 -0.89683914 0.06345851 -0.69737023
000170 33 7f a0 be 1d 60 ea 3e 81 bb 64 3d 69 6a af bd
       -0.31347045 0.45776454 0.05584288 -0.08565218
000180 4b 02 0f bd 78 02 8e bb c5 6d 98 bd e7 44 83 3d
       -0.034914296 -0.0043337904 -0.07442812 0.064096265
000190 80 21 05 bf 99 04 c7 3d a0 80 d8 bd dc 70 32 bf
       -0.5200424 0.09717674 -0.10571408 -0.6970346
0001a0 86 57 a4 3e 09 7f 8e be 90 e6 af be 16 2c ad bd
       0.32098025 -0.27831295 -0.34355593 -0.08455674
0001b0 da 8f 0f 3e 23 f1 66 3e 79 60 dd be 99 c5 ba 3d
       0.14019719 0.22552924 -0.43237665 0.0911972
0001c0 df 93 7b be 24 4f b8 be 2b 5c 9e 3d b3 25 46 bc
       -0.24568127 -0.3599788 0.077324234 -0.012093949
0001d0 4c 21 1b 3c cf b0 a4 3c ab 91 e0 3a c4 b4 22 3c
       0.009468388 0.02010384 0.0017133256 0.009930793
0001e0 5c 6c 24 3a 89 68 44 be 71 b9 85 bf e1 50 b8 bf
       0.00062722503 -0.19180502 -1.0447217 -1.4399682
0001f0 80 4a 9c be 7d 03 44 bd 21 69 42 bd 01 b0 9a bd
       -0.3052559 -0.04785489 -0.04746354 -0.07553101
000200 0a 5d 66 be 85 a1 89 bd 2e c7 56 be d9 46 4f be
       -0.22496429 -0.067202605 -0.20974419 -0.2024187
000210 89 ff 0b 3d 82 8e 11 3e 46 b3 a5 bc 2d ef f5 bc
       0.034179244 0.14214519 -0.020227086 -0.030021274
000220 07 11 9c bb 3c 94 18 bb 44 35 28 bc 7a 86 0a 3c
       -0.004762772 -0.0023281714 -0.010266606 0.008454913
000230 6a 9d 97 bd 14 d3 e5 bc 37 59 4b 40 8d 20 87 3f
       -0.07403071 -0.028054751 3.1773202 1.0556809
000240 79 d3 cc 3e c8 62 98 bc 40 a8 a4 bd 41 3d 52 3e
       0.4000509 -0.01860179 -0.08039904 0.20531179
000250 f7 79 69 3e db b3 80 3e 98 e8 aa 3d 49 9a 0a 3e
       0.22800432 0.2513722 0.08345145 0.13535418
000260 0b 3f e7 bd 98 5c c3 3e ff 23 4b 3d 71 dc 23 bb
       -0.11291321 0.3815658 0.049594875 -0.002500322
000270 77 df 01 bc 5a ff 26 3c 1f 22 b6 bc da 77 3d 3c
       -0.007926813 0.0101927165 -0.022233067 0.011564219
000280 0d ec 0d be 5a 31 2d 3e 2c c0 de bd d4 01 ec 3e
       -0.13859577 0.16913357 -0.108764976 0.46095145
000290 1d 74 8c 3f 65 19 f3 be 34 e8 04 bf 7c a8 7a 3d
       1.0972935 -0.47480312 -0.51916814 0.061195835
0002a0 64 92 2c 3d ce d0 b0 be 01 b4 33 bb 12 71 29 bf
       0.042131796 -0.34534305 -0.0027420523 -0.66188157
0002b0 b2 18 b9 3e d6 1f 37 3e 62 86 5f 3c 28 f6 b1 b9
       0.36151654 0.17883238 0.013642879 -0.00033943471
0002c0 94 e2 02 bc 31 13 a7 bb 88 48 ce bd fe cc 76 3d
       -0.007988591 -0.0050987233 -0.10072428 0.06025409
0002d0 ba c4 ad 3e ff 75 fa bd 3d c4 a7 be 8c 38 9b bf
       0.33939153 -0.12229537 -0.32766905 -1.2126632
0002e0 2b 61 71 bd 03 24 a0 be 8e 91 57 3e ee cf aa 3d
       -0.058930557 -0.31277475 0.21051618 0.08340441
0002f0 fe c9 a3 bd 86 61 bf bc e6 9c 8a 3e 35 25 bd bd
       -0.07997511 -0.023361932 0.2707283 -0.09235612
000300 8f 90 85 be 1d 2f 68 be f7 68 b6 bc 22 62 9f bc
       -0.26086852 -0.22674222 -0.022266848 -0.019455973
000310 fd 8b fc 3b eb 10 79 3c 6e b9 81 3c 09 06 b6 bb
       0.0077071176 0.015201787 0.01583549 -0.0055549187
000320 18 57 1b be 6d 6b 95 bd 0c cc 45 3f d2 5d 91 be
       -0.15169942 -0.072958805 0.77264476 -0.28391892
000330 94 42 73 3d d7 a7 25 3d fc 3d cc bd 69 f8 56 3e
       0.059389666 0.040443268 -0.0997276 0.20993198
000340 2b 4d 88 3e 3c 51 6b 3e 35 4c 93 be 3a dc 8d be
       0.26621374 0.22980207 -0.2876908 -0.27707082
000350 86 b5 09 bd 2d 58 18 3e 5a 05 81 3b ea 07 49 3b
       -0.03362038 0.14877386 0.0039374055 0.0030674883
000360 70 f1 9f 3c 3a 99 13 3d 91 72 b2 3c e5 6f b5 bc
       0.019524306 0.0360348 0.021783145 -0.022148082
000370 7d 43 e3 3e 0b e7 8a bc b9 22 2a 40 26 f5 fd be
       0.44387427 -0.016955873 2.6583693 -0.49601096
000380 67 50 c6 3e fd 9a ec bd b2 a9 0a 3d 19 72 ca bc
       0.38733217 -0.11552999 0.03385324 -0.02471261
000390 a9 1a 25 be 12 af ed 3a dd fd 2e 3e bd cc 52 3e
       -0.16123451 0.001813384 0.17089029 0.20585914
0003a0 89 94 8b 3e e3 a6 9d bd 64 f7 03 3d 5e 40 8a 3a
       0.2726176 -0.07697847 0.032218352 0.0010547747
0003b0 68 ea 11 39 30 1e 76 3c a0 4c ee b8 11 b0 6f 3c
       0.000139156 0.015021846 -0.00011362997 0.01462938
0003c0 e8 7a b4 bd fd 16 27 3e 34 03 8d bf a3 95 0d 3f
       -0.08812505 0.16317363 -1.1016603 0.5530645
0003d0 a4 20 43 be 86 3b d5 bc f0 21 5c ba f0 6d 11 3d
       -0.1905542 -0.02602936 -0.0008397391 0.035505235
0003e0 f8 6a 60 3e 41 a8 e7 3d c4 38 fd bd ad cb c9 bc
       0.21915805 0.11311389 -0.12364343 -0.024633253
0003f0 ac b9 91 3d d5 4d 22 3e 06 a8 01 3d 04 4f 10 3d
       0.07115492 0.15850003 0.03165438 0.035231605

fc1.bias f4 [32]
000000 a0 0b db 3d 23 0e 0b bf ae 56 01 bf 80 34 c4 be
       0.10695577 -0.54318446 -0.5052289 -0.38321304
000010 34 3b ad 3e 27 61 8c 3f 80 9c 70 bf 14 55 20 bf
       0.3383423 1.0967149 -0.939888 -0.6262982
000020 e8 a5 a0 bf 5a f9 f6 be 47 ed 72 3f 11 63 bf be
       -1.255063 -0.48237115 0.94893306 -0.3738027
000030 d0 8f 89 bd a8 f7 00 bf f5 77 a2 bf 62 70 1c bf
       -0.06716883 -0.50377893 -1.2692858 -0.6110898
000040 ca e9 20 3f fd 5c be bf eb 9d ef 3f e1 23 2d bf
       0.62856734 -1.4872128 1.8720068 -0.6763287
000050 eb e2 8e bf bc b6 45 be ed f7 ff 3d 9b d9 1c bf
       -1.1163 -0.19307989 0.1249846 -0.6126954
000060 57 1a 47 be d9 78 8b be e5 05 51 bf 6e dc 25 3f
       -0.19443642 -0.27240637 -0.8164962 0.64789474
000070 d5 17 8a bf b4 7f ca be 8b 99 34 bd ec af 3a be
       -1.0788523 -0.39550555 -0.044091742 -0.18231171

fc2.weight f4 [16, 32]
000000 02 28 7c bd 4b d7 0c 3f df 55 9a 3d c4 35 0a 3f
       -0.061561592 0.5501601 0.0753591 0.5398829
000010 04 88 1c 3d 22 2c 7c 3d df e0 84 3f 89 18 26 3f
       0.038215652 0.061565526 1.0381125 0.6488119
000020 ab b2 aa bd ba 80 b1 3e 6a 83 14 be d9 f3 26 3f
       -0.083348595 0.34668523 -0.14503255 0.6521583
000030 68 f2 0e 3e 35 c6 d0 3e 10 c9 73 3f 60 54 35 3f
       0.13959658 0.4077622 0.9522867 0.7083187
000040 94 1c 46 3d 73 7d 8e 3f 78 3c 1e 3e 65 87 b2 3e
       0.048367098 1.1132034 0.15452754 0.34868923
000050 ba 7d 46 3f e1 21 01 3f 8b ce a5 3c 4f b8 48 3f
       0.77535594 0.5044232 0.020240089 0.7840623
000060 e4 50 88 3d 7b 0f cc 3e 62 36 86 3f 66 8a 36 bd
       0.06656054 0.3985556 1.0485346 -0.04456558
000070 0f b5 59 3f ae ec 96 bc 44 46 65 bd b5 53 32 3f
       0.850419 -0.018423405 -0.055975214 0.69658977
000080 3d 81 cb bd 97 20 31 3f 34 06 bf 3e ba d6 2e 3f
       -0.099367596 0.69190353 0.3730942 0.68296397
000090 e1 c4 b1 bd a2 89 8b bd d2 a6 8e 3f a9 44 74 3f
       -0.0868013 -0.06813361 1.114466 0.9541727
0000a0 a8 96 0b 3e 3b 9f 15 3f 11 87 d9 3c fd 10 2c 3f
       0.1363169 0.5844609 0.026553662 0.6721342
0000b0 c0 06 31 3d 6d 7b e8 3e ca 68 3c 3f 19 4d 67 3f
       0.043219328 0.45406666 0.73597395 0.90352017
0000c0 b7 5c 81 bd 94 b0 a5 3f 1a fd 9f bd bb c1 2b 3e
       -0.06316512 1.2944512 -0.07811947 0.16773121
0000d0 c8 25 67 3f fd 9a 2b 3f 63 63 81 3e 2e 0e 56 3f
       0.90292025 0.6703337 0.2527114 0.83615386
0000e0 a0 a9 ba 3d 5c 59 d8 3e ae 9e a2 3f 00 a2 f9 36
       0.09114385 0.42255676 1.2704675 7.4396376e-06
0000f0 81 cd 4f 3f 13 fb 6d 3d 89 48 1a bd 57 5c 59 3f
       0.8117295 0.05810077 -0.03766683 0.84906524
000100 b2 f4 41 bc a0 e2 10 3d 3c 92 45 be 62 ca 61 3d
       -0.011838125 0.035372376 -0.19294065 0.055124648
000110 74 82 35 be 58 33 ce bd 44 a9 2e 3d d0 d8 4a 3d
       -0.17725545 -0.10068387 0.042641893 0.049523175
000120 f8 8c 3f bc e6 99 ef 3c df c2 dc bd 0e 56 1a 3e
       -0.011691324 0.02924819 -0.10779356 0.1507189
000130 97 b8 d8 3b 61 e0 73 bd 5e a7 d8 b3 bb d3 c9 bd
       0.0066138017 -0.059540156 -1.0088728e-07 -0.098548375
000140 d7 cd af be 0e c8 fe bc 35 d8 c9 bd e6 e8 29 be
       -0.3433673 -0.031101253 -0.09855691 -0.1659275
000150 9a 65 c8 bd dc 64 7c be d1 9e da bd c5 67 cd bd
       -0.09785004 -0.2464785 -0.10674823 -0.10029558
000160 4a 66 3f bd bc db 09 be 4f f4 2f 3d b4 05 28 be
       -0.04672841 -0.13462728 0.0429576 -0.16408426
000170 81 00 34 3c 96 53 4e bd 18 c2 03 be ea b8 80 3c
       0.010986448 -0.050372683 -0.1286701 0.015713174
000180 ad 23 83 bc 45 ef b8 bc 82 b6 71 bd 59 fe 17 3d
       -0.016008222 -0.02257503 -0.059011944 0.0371078
000190 4e 65 a8 bc 56 3f 61 bd a8 99 17 bc 40 ed 68 bc
       -0.020556118 -0.054992042 -0.009252943 -0.014216721
0001a0 8b 0e ad af 29 20 c3 bc 07 d3 93 bd f9 bd d3 bb
       -3.147885e-10 -0.023819046 -0.07217985 -0.0064618555
0001b0 b5 c5 09 bd 04 3a ab bb a9 e1 3d 34 03 fe 4e 3d
       -0.033635814 -0.005225422 1.7684091e-07 0.050535213
0001c0 6d 4f e4 bc a4 d2 64 bb 2f b1 01 be df e7 d7 3c
       -0.027869904 -0.003491559 -0.12665246 0.026355682
0001d0 9a e0 4c 3b ec 84 5d bc 03 84 b2 bc 6b 69 c0 3a
       0.0031261803 -0.013520461 -0.021791464 0.0014679855
0001e0 0d 9e 98 bc 30 2e d8 bb e0 a7 f5 ba 63 73 1b bd
       -0.018630052 -0.006597303 -0.0018742047 -0.03795184
0001f0 6b 1b a1 bb b2 11 9d bc 84 3a 27 bd 83 1b 8e bd
       -0.0049165986 -0.019173477 -0.04082729 -0.06938841
000200 c4 2d d9 bc 81 c1 6f 3b 48 08 bc 3c 7b 67 23 bd
       -0.02651108 0.0036583843 0.022953168 -0.03989361
000210 46 59 d3 b5 12 48 7e bb 93 ac a2 39 50 c7 40 39
       -1.5746707e-06 -0.0038800281 0.00031027626 0.00018384797
000220 ca cf 1f 80 68 27 d1 ba 6f ca 95 bc a2 95 d8 b8
       -2.921441e-39 -0.0015957179 -0.018285004 -0.00010327554
000230 36 e8 14 ba 70 c6 e9 b7 bd 5c 29 00 76 b8 05 be
       -0.0005680354 -2.786817e-05 3.798524e-39 -0.13058648
000240 62 9b f2 b6 58 3e 82 b9 ae c7 2b bc ae 03 71 bc
       -7.230251e-06 -0.00024841982 -0.010484619 -0.01471035
000250 0f 9c dc 3b e8 04 27 3a 95 6b de 3a 9c 40 2b ba
       0.006732471 0.00063712755 0.0016969318 -0.000653276
000260 f6 91 8f bb 02 f0 8a bd 5f e1 fd b7 39 ed 49 bb
       -0.0043814136 -0.06784059 -3.0264897e-05 -0.0030811562
000270 b0 ef ee 37 20 52 78 3c 20 60 c7 3b 22 08 8b bd
       2.8483424e-05 0.015156299 0.006084457 -0.067886606
000280 f6 0a 34 bf a0 a8 50 3f 67 b4 8c 3d 5c eb 15 3e
       -0.70329225 0.815073 0.068703465 0.14640564
000290 13 4a 9f bd 39 f6 18 bf 29 62 6a 3f 85 1a 85 3f
       -0.077778004 -0.59750706 0.9155603 1.0398718
0002a0 66 c8 37 3e 95 f0 02 3d a3 31 cd be 60 e6 ec 3e
       0.1794754 0.03196772 -0.40076932 0.46269512
0002b0 da e9 9b 3e 54 35 31 3f be 67 75 3f 29 95 b4 3e
       0.30451852 0.69222 0.95861423 0.3527005
0002c0 39 cf 14 be e2 25 81 3f b2 bc ad be 6f 38 cb 3e
       -0.14532174 1.0089686 -0.33933026 0.39691493
0002d0 a1 6e 27 3f 0a c6 bd 3e 3c c0 31 bf 98 e6 0b 3f
       0.6540318 0.37065154 -0.6943395 0.54648733
0002e0 b8 ff 0c bf 8d 84 08 3f fd 19 2f 3f 62 cd 8e bf
       -0.55077696 0.53327256 0.6839903 -1.1156428
0002f0 bd 27 27 3f ea f0 58 3e a6 b0 3d 3c a5 99 1d 3e
       0.6529501 0.21185651 0.011577761 0.15390642
000300 8a 5e fb bc 20 ee 81 3f bb ed 15 3f 02 66 95 bd
       -0.030684728 1.0150795 0.5856587 -0.07294847
000310 1d 3e 8c be 1b 68 ea be e7 d2 91 3f e9 d9 83 3e
       -0.2739114 -0.4578255 1.1392487 0.2575219
000320 ec 42 47 3e 54 18 c9 3e fd 20 1a bf b7 37 7f 3e
       0.19459122 0.39276373 -0.60206586 0.24923597
000330 20 4e 86 3e 84 80 35 3f 27 76 8a 3f c9 76 ee 3e
       0.2623148 0.70899224 1.0817307 0.46575
000340 43 2b dc be 5c 55 95 3f b1 7f 71 bf 4c fd ee 3e
       -0.43001756 1.1666675 -0.94335467 0.46677625
000350 8e 6b 6d 3f 51 cd aa 3e 67 ef 74 be a6 59 ad 3e
       0.9274224 0.3335977 -0.2391945 0.3385746
000360 f3 fd 03 bf e5 ee ae 3e 84 bf b6 3e 2a 95 a3 be
       -0.5155937 0.34166637 0.3569299 -0.3194974
000370 9c d9 9f 3e 7c 39 bf 3e dc 79 5c be 09 de 44 3e
       0.3122071 0.37348545 -0.2153086 0.19225325
000380 71 9d d8 be 71 11 54 3f 17 a6 a1 3e 9f 66 13 3e
       -0.42307618 0.82839113 0.3157203 0.14394616
000390 95 cc c7 be 35 4a ac bc ce 95 6b 3f 15 2b e7 3d
       -0.3902327 -0.021031478 0.9202546 0.11287514
0003a0 43 ac d6 3e 75 0c 9f 3e fb c9 04 bf 19 27 ab 3c
       0.419283 0.3106419 -0.518707 0.020892667
0003b0 6a 98 a6 3e 17 35 22 3f 6c 3d 8c 3f 05 5f d4 3e
       0.32538158 0.6336226 1.0956244 0.41478744
0003c0 a2 5e 7f be 11 ad b1 3f 87 2f c4 be 87 60 0c 3f
       -0.24938443 1.3880941 -0.3831751 0.5483479
0003d0 cf d5 7f 3f 15 7f 33 3e 65 c6 92 bd 19 53 25 3f
       0.9993562 0.17528947 -0.07166747 0.6457992
0003e0 42 1e c7 be 65 ed c5 3e e5 6b 1b 3e e6 de 8e be
       -0.38890272 0.3865768 0.15177877 -0.27904433
0003f0 23 bf 04 3e 9f 79 05 3e 13 5f 37 be 26 e6 b0 3e
       0.12963538 0.13034676 -0.17907362 0.3455059

fc2.bias f4 [16]
000000 91 7a 85 3e 0f ee 65 3e 80 56 ad 3c 14 41 81 bd
       0.26070073 0.22454093 0.02115941 -0.06311241
000010 51 73 21 bd 18 c6 2a bf a4 66 a0 bf f1 81 32 bf
       -0.039416615 -0.6670852 -1.2531323 -0.69729525
000020 c6 87 b7 be fb c8 48 be 4a 7a 7d 3c 52 d2 82 3e
       -0.35845774 -0.19607918 0.0154710505 0.25551087
000030 4f 46 65 3d a0 6d 47 bd f9 e6 b0 3d e0 2f 2d be
       0.055975255 -0.04868853 0.086378045 -0.16912794

fc3.weight f4 [1, 16]
000000 37 0a 0b bf ed 4e 1e bf 41 2c 78 bd de fa a3 bd
       -0.5431246 -0.6183918 -0.06058908 -0.080068335
000010 49 3f bd 3a dd af 77 bf e6 6a a2 bf 14 9d 4e bf
       0.0014438416 -0.9675272 -1.2688873 -0.8070843
000020 0a 6c 76 bf 1b ee b7 3d 14 7f af 3d 99 10 07 bf
       -0.96258605 0.08980962 0.0856916 -0.527597
000030 80 45 d4 3d 99 ea dd 3d f9 8c 45 bf 4b 18 1c bf
       0.103648186 0.108357616 -0.7716823 -0.6097457
