DRL-course/MADDPG/model_dir/episode-26000.pt (torch_old, 71203 bytes, 99 tensors)

fc1.weight f4 [16, 14]
-1.6201675 1.6233706 -1.548123 1.53186 -0.07636647 0.3887125 0.5350445 -0.16303158
0.050100226 0.12538502 0.31284294 -0.22416273 0.046997283 0.20086941 1.0941468 2.0336976
1.0661858 1.9621012 0.31957805 0.036730297 -0.17779909 -0.064756386 0.13621278 0.641171
-0.0148088345 0.07278415 0.28903082 0.58479464 -1.0437925 0.48717493 -1.0892372 0.5282646
-0.045590702 0.07150985 0.097417034 -0.4535803 0.43005732 -0.5461612 1.3560553 0.11285969
0.46562883 -0.16576569 -0.3515569 0.21415631 -0.5834643 0.30431038 0.36332723 -0.53913605
0.054730628 0.14264037 -0.65633196 0.095789485 -0.24103953 0.004439633 -0.41934884 -0.26411015
0.73780453 0.039392516 0.75532496 -0.015403455 0.08909107 -0.12447808 -0.22219552 0.2185652
0.2394553 0.12541297 -1.39386 0.54906875 -0.19524188 0.20593296 -0.7243029 0.2734553
-0.65214694 0.24169928 0.025769422 -0.09902267 2.3541455 -0.30537683 -0.080654524 -0.08940879
-0.12383527 0.25651014 0.26697034 -0.19007687 -1.2826486 -0.051869273 -1.2924588 -0.09695832
-0.15326908 -0.07632608 1.4266207 0.14727941 -0.056492623 0.13646597 -0.2955251 -0.7402483
0.2860723 -0.6369888 0.839602 -0.4011444 0.7879277 -0.43776888 0.1780438 0.117600136
-0.007224871 0.20257248 -0.21290624 0.77026623 -0.8508977 -1.541358 0.117830046 -1.1428705
1.2280201 -0.28531972 1.2596912 -0.27260795 0.14231636 -0.16852227 0.42943925 -0.90785265
0.70795554 -1.0909629 -1.2317463 0.29581356 -0.5633817 0.2552626 0.78807926 -1.3863235
0.9785598 -1.3814647 0.17545173 -0.29777706 -0.08971175 -0.5655653 0.9765606 -1.3947669
0.13249664 -0.010294012 0.2269514 -0.16101438 0.14667484 0.30429217 0.00041547278 0.19732341
-0.26825336 -0.21931231 0.60782486 0.46440136 2.2033684 -0.8798754 0.021691943 -0.57100064
-0.084707335 -0.16868262 -0.69401234 0.23567118 -0.6903022 0.30479163 -0.19716771 -0.16361903
0.2577102 0.26388752 0.40317556 -0.254315 1.2185781 -0.9765492 0.24104725 0.08695664
-2.125326 -1.0627261 -2.0753953 -1.0313709 -0.63116515 0.002373581 -0.77262676 -0.2777622
0.29863095 -0.71553254 -0.38138598 -0.123433076 -0.40047863 -0.13914785 -0.21889101 0.4160782
-0.21876793 0.47794893 -0.07939407 0.24330951 0.5046876 -1.6621733 -0.088172875 -0.6115791
0.329925 0.34685892 0.16629167 0.36606702 0.38187286 0.14281501 0.3551791 0.038122464
-0.19482994 -0.09385389 -0.031031014 -0.4677081 -0.2414093 -0.0068525206 1.207328 -0.6667386
1.7528666 -1.7133201 0.67493826 0.2558226 0.7169726 0.29040495 0.24075566 -0.22250462
-0.59412545 0.43184265 -0.20626806 0.22487517 1.0040683 -0.04576093 -0.29940996 0.16849904
00000000: a661 cfbf 9cca cf3f e528 c6bf fd13 c43f
00000010: 0666 9cbd 5305 c73e adf8 083f c0f1 26be
00000020: e535 4d3d ee64 003e f32c a03e ea8a 65be
00000030: 3980 403d b6b0 4d3e 010d 8c3f 1a28 0240
00000040: c778 883f 2226 fb3f bc9f a33e 8272 163d
00000050: f710 36be ff9e 84bd 5d7b 0b3e c823 243f
00000060: c1a0 72bc db0f 953d d9fb 933e 1ab5 153f
00000070: fe9a 85bf fe6e f93e 206c 8bbf 593c 073f
00000080: 51bd 3abd c273 923d 9582 c73d ad3b e8be
00000090: 7930 dc3e 38d1 0bbf 3893 ad3f fb22 e73d
000000a0: e766 ee3e 7bbe 29be 44ff b3be cb4b 5b3e
000000b0: eb5d 15bf 92ce 9b3e 0706 ba3e d204 0abf
000000c0: 392d 603d 5110 123e 5f05 28bf 472d c43d
000000d0: 11d3 76be 577a 913b e4b4 d6be 7239 87be
000000e0: c2e0 3c3f 0c5a 213d fa5c 413f c65e 7cbc
000000f0: 6175 b63d 5dee febd 3987 63be 8ecf 5f3e
00000100: c533 753e 426c 003e 016a b2bf c58f 0c3f
00000110: 7ded 47be 17e0 523e ea6b 39bf 5502 8c3e
00000120: 1af3 26bf 0480 773e 651a d33c 66cc cabd
00000130: 52aa 1640 5a5a 9cbe 332e a5bd f51b b7bd
00000140: 599d fdbd 4c55 833e 56b0 883e 83a3 42be
00000150: d42d a4bf e074 54bd 4a6f a5bf 1592 c6bd
00000160: 92f2 1cbe d950 9cbd 829b b63f 6ad0 163e
00000170: cf64 67bd bcbd 0b3e 114f 97be ea80 3dbf
00000180: 1278 923e b311 23bf 28f0 563f cc62 cdbe
00000190: a1b5 493f 3e23 e0be 1d51 363e 57d8 f03d
000001a0: 9cbe ecbb 296f 4f3e 1804 5abe 2b30 453f
000001b0: 6fd4 59bf 384b c5bf e150 f13d 9549 92bf
000001c0: c32f 9d3f 6d15 92be 903d a13f 4593 8bbe
000001d0: 61bb 113e 1a91 2cbe 76df db3e 0869 68bf
000001e0: 933c 353f aca4 8bbf dda9 9dbf e074 973e
000001f0: c839 10bf c8b1 823e 90bf 493f 0c73 b1bf
00000200: e582 7a3f d6d3 b0bf 9ea9 333e 3c76 98be
00000210: cbba b7bd e3c8 10bf e0ff 793f b987 b2bf
00000220: 33ad 073e 37a8 28bc f365 683e f4e0 24be
00000230: ee31 163e 2fcc 9b3e d0d3 d939 260f 4a3e
00000240: 8158 89be 6893 60be 699a 1b3f 04c6 ed3e
00000250: fd03 0d40 843f 61bf 4db3 b13c 192d 12bf
00000260: 0a7b adbd 23bb 2cbe cbaa 31bf c953 713e
00000270: a5b7 30bf a60d 9c3e 55e6 49be bf8b 27be
00000280: 97f2 833e 441c 873e 076d ce3e 9335 82be
00000290: 5efa 9b3f 21ff 79bf 17d5 763e 5316 b23d
000002a0: 5705 08c0 6907 88bf 47d3 04c0 f603 84bf
000002b0: 0a94 21bf 158e 1b3b deca 45bf d936 8ebe
000002c0: 28e6 983e 242d 37bf 0645 c3be 7bca fcbd
000002d0: 890b cdbe c67c 0ebe f724 60be 3408 d53e
000002e0: b304 60be b9b5 f43e 5c99 a2bd 2126 793e
000002f0: 3533 013f 18c2 d4bf fb93 b4bd 7390 1cbf
00000300: eeeb a83e 7e97 b13e 5d48 2a3e 236d bb3e
00000310: d784 c33e 193e 123e 09da b53e 4d26 1c3d
00000320: 8081 47be 7836 c0bd c134 febc 7077 efbe
00000330: 0034 77be 1c8b e0bb b989 9a3f 62af 2abf
00000340: ef5d e03f 134e dbbf c1c8 2c3f 2efb 823e
00000350: 848b 373f f5af 943e a788 763e 40d8 63be
00000360: 9b18 18bf 7b1a dd3e ef37 53be ad45 663e
00000370: 4f85 803f d06f 3bbd 434c 99be 038b 2c3e

fc1.bias f4 [16]
-0.62233245 -1.1122397 0.4872329 0.40544018 0.14325431 0.70276576 0.033443175 -0.87771845
-0.492134 -1.5577313 0.56237525 0.16259828 -1.5790827 0.15792035 0.09526012 -0.17077479
00000000: 2e51 1fbf df5d 8ebf 9776 f93e db95 cf3e
00000010: 42b1 123e 75e8 333f b6fb 083d 28b2 60bf
00000020: fdf8 fbbe bd63 c7bf d3f7 0f3f 2a80 263e
00000030: 621f cabf dfb5 213e bd17 c33d 96df 2ebe

fc2.weight f4 [8, 16]
-0.5946603 -0.89910585 0.19011061 0.23192288 0.34417403 -0.03629195 0.46091038 1.0891459
0.16874105 1.7067244 0.06248038 0.61488473 1.420119 0.7842677 0.22086315 -0.3705118
-0.36345047 1.5724123 -0.1638435 0.15415545 -0.39357713 1.3120297 -1.214412 -0.41436368
0.6566786 -0.13345605 0.58872205 0.09563297 0.06721995 -0.1618599 0.48189682 0.34085906
0.107301004 0.29640326 -0.5924581 -0.44666544 -0.35444063 -0.2525858 -0.5658289 0.49690133
-0.93994117 0.5037642 0.023242718 0.013436882 -0.17870456 0.13125953 -1.151515 0.43475822
-0.19341356 -0.19932215 0.110052824 -0.020604193 0.03490533 -0.047284853 0.08387626 -0.38354316
-0.19391897 -0.2217741 -0.08752812 -0.21458927 -0.029893147 -0.21400352 -0.12240126 -0.23627844
-0.108613685 0.30111653 -0.98481375 0.29866132 -1.0123016 0.6237381 0.45304564 -0.3776772
-0.6136368 -0.49635553 1.1040988 -1.8313653 -0.0058978256 0.5456231 -0.7976935 -0.0769589
-0.24112707 0.1874249 0.90454274 -0.45734072 -0.1567195 0.089914255 -0.62935966 -1.0372474
0.41109866 -0.3734357 -0.8020842 0.107473224 -0.663816 -1.4170692 0.52875775 0.16781886
1.006236 -0.23867784 -1.9447213 0.0073357346 -0.99850845 -0.72198915 0.63160235 0.46170098
1.0627769 1.2407045 0.049319044 -0.17824748 -0.081372865 -0.28944626 1.1305442 0.7152913
1.77951 0.5169707 0.6745336 0.42773798 0.7763875 -0.34775335 0.4043184 0.103566915
-0.5991797 -0.1316513 -0.15394773 -0.040656317 1.1254531 -0.20219985 -0.30429938 -0.3633628
00000000: a83b 18bf cd2b 66bf 5bac 423e 317d 6d3e
00000010: 9437 b03e dea6 14bd 72fc eb3e 2269 8b3f
00000020: 74ca 2c3e f275 da3f 6deb 7f3d 1669 1d3f
00000030: 76c6 b53f c5c5 483f f329 623e b9b3 bdbe
00000040: 2e16 babe ce44 c93f 97c6 27be edda 1d3e
00000050: f182 c9be 97f0 a73f da71 9bbf 7a27 d4be
00000060: 171c 283f b4a8 08be 7db6 163f 38db c33d
00000070: 9daa 893d 9abe 25be 2ebb f63e 1485 ae3e
00000080: a1c0 db3d 2bc2 973e 56ab 17bf 55b1 e4be
00000090: 3e79 b5be ed52 81be 2ada 10bf da69 fe3e
000000a0: fc9f 70bf b1f6 003f 8367 be3c 5e26 5c3c
000000b0: 54fe 36be e668 063e d864 93bf a198 de3e
000000c0: 340e 46be 1b1b 4cbe 6063 e13d 20ca a8bc
000000d0: e4f8 0e3d c3ad 41bd 51c7 ab3d c55f c4be
000000e0: b292 46be c018 63be f141 b3bd 4abd 5bbe
000000f0: 79e2 f4bc bd23 5bbe 83ad fabd faf2 71be
00000100: da70 debd f22b 9a3e c11c 7cbf 23ea 983e
00000110: 1993 81bf 4dad 1f3f 99f5 e73e e85e c1be
00000120: 4d17 1dbf 5022 febe 1c53 8d3f 2e6a eabf
00000130: 8c42 c1bb f5ad 0b3f a435 4cbf a19c 9dbd
00000140: 04ea 76be 50ec 3f3e 1d90 673f 9028 eabe
00000150: 147b 20be f724 b83d b71d 21bf 86c4 84bf
00000160: 867b d23e f732 bfbe 6455 4dbf ec1a dc3d
00000170: d8ef 29bf 8662 b5bf ab5c 073f b5d8 2b3e
00000180: 57cc 803f f767 74be a1ec f8bf 9a60 f03b
00000190: 409e 7fbf 48d4 38bf b1b0 213f 1264 ec3e
000001a0: 1309 883f 68cf 9e3f c402 4a3d 8286 36be
000001b0: d1a6 a6bd 4d32 94be acb5 903f 551d 373f
000001c0: fcc6 e33f 3158 043f 3cae 2c3f 7900 db3e
000001d0: 55c1 463f ba0c b2be d202 cf3e e41a d43d
000001e0: d763 19bf 99cf 06be 79a4 1dbe 3d87 26bd
000001f0: d90e 903f 7a0d 4fbe 21cd 9bbe b00a babe

fc2.bias f4 [8]
0.6760453 0.42856613 -0.9702602 -0.09065631 -0.07052733 0.8117689 0.5152399 0.4126876
00000000: 4e11 2d3f 056d db3e f962 78bf 04aa b9bd
00000010: a270 90bd 16d0 4f3f c3e6 033f ca4b d33e

fc3.weight f4 [2, 8]
-0.19016272 0.9260873 0.43708298 0.11898063 -0.92238575 -0.50721955 0.886214 -0.5375198
-0.8647783 0.44579643 -0.4883111 0.017671589 0.024121638 0.3295962 -0.18263045 0.66932607
00000000: 04ba 42be 0f14 6d3f 57c9 df3e 1eac f33d
00000010: 7921 6cbf 24d9 01bf ecde 623f e69a 09bf
00000020: 1c62 5dbf 6e3f e43e ea03 fabe 02c4 903c
00000030: be9a c53c d5c0 a83e 7a03 3bbe f458 2b3f

fc3.bias f4 [2]
-0.083614945 -0.15959539
00000000: 503e abbd f96c 23be

exp_avg f4 [16, 14]
-7.69219e-05 -2.2243437e-05 -5.7520065e-05 -7.960912e-05 -3.849307e-05 -4.4951877e-05 -8.402694e-05 4.7321264e-05
1.7982073e-07 3.710631e-06 -4.0360632e-05 3.4753862e-06 -1.6022146e-05 1.6064241e-06 5.290327e-06 -3.4268796e-05
5.052957e-05 1.3533445e-06 3.547745e-05 -3.1229087e-05 6.1340084e-05 4.322445e-05 -3.362867e-05 9.122565e-06
6.294726e-05 -2.7907048e-05 -2.8563118e-06 5.6092984e-05 -2.7797789e-05 -5.5678276e-05 8.986226e-07 -5.85353e-05
-1.5596212e-05 -6.4658285e-05 2.227417e-06 -8.07778e-05 -4.9384675e-05 -1.3159532e-05 -7.551121e-05 -0.00018603708
-3.3530072e-05 -2.2011849e-05 -2.985263e-05 -1.9827336e-05 -2.5707503e-05 -1.1336628e-05 -7.5142034e-06 -1.6804384e-05
-7.064604e-06 -9.769318e-05 -1.0677953e-05 -2.116625e-05 4.387693e-06 1.6975904e-05 9.134208e-06 6.993406e-06
-1.2004983e-05 -3.569839e-05 -4.1916184e-05 -3.8000464e-05 1.8218518e-05 -3.466099e-05 0.00016842423 -0.00019449135
1.0415758e-05 -5.2786683e-05 1.5437183e-06 -7.6488344e-05 -4.645184e-06 -3.817133e-05 4.4734094e-05 7.841078e-05
3.2519274e-05 2.6183758e-05 -1.934234e-05 2.2323431e-05 1.8328732e-05 -4.4109584e-06 -2.697635e-06 5.7583256e-05
2.7026239e-05 5.0087092e-05 1.52129005e-05 1.797367e-05 -0.000102457445 -0.000116251416 -1.3221062e-05 -5.014952e-05
-1.4365029e-05 -6.255238e-05 -0.00011412688 -9.419094e-05 -8.700228e-05 -8.5421496e-05 -6.925432e-05 3.8524675e-05
2.829046e-05 1.682789e-05 -3.5330526e-05 -9.000324e-05 -2.482684e-06 -3.6494846e-05 6.970085e-06 -2.8651382e-05
-0.00020529784 0.00016255531 -4.205022e-05 1.6523012e-05 5.002304e-05 -1.9786694e-05 -3.5034188e-06 -2.7560107e-05
-2.057829e-05 8.4980515e-05 -3.9079718e-05 8.112872e-05 -2.9589546e-05 5.0889492e-05 -4.984334e-05 4.979768e-05
4.196557e-05 3.6170455e-05 -7.6671975e-05 6.8407135e-05 -2.5866731e-05 -4.666039e-06 4.850117e-07 3.2676246e-05
1.3842899e-05 3.1097752e-05 -1.6917056e-07 3.2396973e-05 -1.0276474e-05 2.3505585e-05 3.3938086e-06 1.8361987e-05
-4.840487e-05 8.9206704e-05 -2.8087625e-05 -1.9838455e-05 -4.433944e-05 3.3599103e-05 -1.451024e-05 4.4757853e-05
-2.5720376e-05 1.2424499e-05 1.1536636e-06 -2.5520589e-05 4.5361558e-06 -3.0503052e-06 -2.3591596e-05 5.066964e-05
1.6391085e-05 1.9061112e-05 6.751812e-05 3.4360346e-05 1.6228629e-05 -1.3030814e-05 2.4242645e-05 4.3157863e-05
-2.1582071e-05 0.00023934354 1.77782e-05 7.5200674e-05 4.534291e-05 3.6252009e-06 -7.311852e-06 -1.6022432e-05
-1.8483197e-05 -5.9012687e-05 -1.1834595e-07 -3.5946825e-05 -6.4397077e-06 -5.6903414e-06 -9.065092e-06 1.3156897e-05
6.516203e-08 1.821034e-05 -8.753341e-05 9.1666065e-05 6.4292003e-06 1.3381561e-05 4.438087e-05 -2.9791318e-05
3.9133774e-05 1.7827097e-07 6.963862e-06 5.2441137e-05 4.0645253e-05 -4.807658e-05 -1.1790837e-05 6.3887837e-06
-5.5081127e-05 5.68302e-05 -9.9764475e-06 5.967886e-05 2.973489e-05 6.376992e-05 -1.7961625e-05 2.2017883e-05
-3.5551366e-05 2.7317905e-05 -1.3529536e-05 0.000100301644 3.2884534e-05 1.3624343e-05 4.041269e-06 1.4215735e-05
2.0696309e-05 2.3493187e-05 2.1683204e-06 4.051629e-05 -1.4554984e-05 1.4451277e-05 -2.1458416e-05 2.9986022e-05
-8.495763e-05 0.00012103082 -1.3378604e-05 3.4843084e-05 -1.27700205e-05 6.115835e-05 -3.3367924e-06 2.0505302e-05
00000000: 2151 a1b8 6b97 bab7 b341 71b8 d2f3 a6b8
00000010: 9f73 21b8 b68a 3cb8 9f37 b0b8 d27a 4638
00000020: bf14 4134 2804 7936 e648 29b8 ae3a 6936
00000030: 4c67 86b7 509c d735 9083 b136 d7bb 0fb8
00000040: b6ef 5338 90a4 b535 9fcd 1438 fafb 02b8
00000050: b5a3 8038 e64b 3538 820c 0db8 1e0d 1937
00000060: 8e02 8438 ee19 eab7 10af 3fb6 6245 6b38
00000070: 4c2f e9b7 1888 69b8 e038 7135 cd83 75b8
00000080: 9cd4 82b7 2799 87b8 bc7a 1536 4067 a9b8
00000090: 6422 4fb8 c2c7 5cb7 c65b 9eb8 f312 43b9
000000a0: a4a2 0cb8 16a6 b8b7 096c fab7 e152 a6b7
000000b0: 71a6 d7b7 7232 3eb7 8422 fcb6 24f7 8cb7
000000c0: 7c0c edb6 a0e0 ccb8 7525 33b7 2d8e b1b7
000000d0: ff39 9336 7a67 8e37 203f 1937 e6a8 ea36
000000e0: 0269 49b7 dbba 15b8 29cf 2fb8 b062 1fb8
000000f0: f8d3 9837 f460 11b8 099b 3039 60f0 4bb9
00000100: 57bf 2e37 4567 5db8 c231 cf35 5e68 a0b8
00000110: d4dd 9bb6 271a 20b8 dea0 3b38 7870 a438
00000120: 4e65 0838 31a5 db37 5c41 a2b7 3443 bb37
00000130: a7c0 9937 d801 94b6 0409 35b6 8d85 7138
00000140: 68b6 e237 9b14 5238 e93a 7f37 2ac6 9637
00000150: 6cde d6b8 01cc f3b8 07d0 5db7 a357 52b8
00000160: 5401 71b7 8e2e 83b8 6757 efb8 6088 c5b8
00000170: fe74 b6b8 5124 b3b8 a13c 91b8 8e95 2138
00000180: 4d51 ed37 9e29 8d37 dd2f 14b8 1fc0 bcb8
00000190: 309c 26b6 0b12 19b8 93e0 e936 6058 f0b7
000001a0: 3845 57b9 9c73 2a39 145f 30b8 e69a 8a37
000001b0: d5cf 5138 9afb a5b7 471c 6bb6 e130 e7b7
000001c0: 8b9f acb7 9137 b238 87e9 23b8 a623 aa38
000001d0: 1137 f8b7 2d72 5538 e10e 51b8 dadd 5038
000001e0: 3004 3038 bbb5 1738 f4ca a0b8 cd75 8f38
000001f0: 62fc d8b7 f890 9cb6 c031 0235 da0d 0938
00000200: cc3e 6837 f56e 0238 40a5 35b4 fce1 0738
00000210: 1f69 2cb7 dc2d c537 30c1 6336 1108 9a37
00000220: 5506 4bb8 7c14 bb38 b79d ebb7 c26a a6b7
00000230: 1cf9 39b8 c3ec 0c38 0271 73b7 61ba 3b38
00000240: 16c2 d7b7 d172 5037 94d7 9a35 0c15 d6b7
00000250: 4835 9836 d8b3 4cb6 91e6 c5b7 1d86 5438
00000260: 967f 8937 6de5 9f37 8498 8d38 241e 1038
00000270: b722 8837 ec9e 5ab7 af5c cb37 6704 3538
00000280: 250b b5b7 4bf8 7a39 6522 9537 0eb5 9d38
00000290: 942e 3e38 7a48 7336 5558 f5b6 e967 86b7
000002a0: 5d0c 9bb7 6484 77b8 6025 feb3 9cc5 16b8
000002b0: ab14 d8b6 a9ef beb6 4616 18b7 71bc 5c37
000002c0: 34ef 8b33 68c2 9837 2492 b7b8 d83c c038
000002d0: 69ba d736 5e81 6037 9925 3a38 5ee8 f9b7
000002e0: 9223 2438 c06a 3f34 1eab e936 3ef4 5b38
000002f0: 827a 2a38 d6a5 49b8 42d1 45b7 3c5f d636
00000300: e906 67b8 f65c 6e38 8460 27b7 b04f 7a38
00000310: 316f f937 37bc 8538 4cac 96b7 0bb3 b837
00000320: fd1c 15b8 c128 e537 eafc 62b7 0959 d238
00000330: 80ed 0938 1c94 6437 3d9a 8736 1e80 6e37
00000340: fc9c ad37 3c13 c537 7683 1136 09f0 2938
00000350: 2e31 74b7 c373 7237 9901 b4b7 7e8a fb37
00000360: 482b b2b8 edd1 fd38 ab74 60b7 7a24 1238
00000370: d23e 56b7 2442 8038 a8ed 5fb6 cd02 ac37

exp_avg_sq f4 [16, 14]
3.8728963e-08 4.2020023e-08 3.929753e-08 4.2839346e-08 1.6515502e-08 1.707733e-08 2.8897732e-08 1.2796947e-07
1.0740935e-08 1.2633718e-08 3.9499845e-08 7.765292e-08 1.0904222e-08 1.2359042e-08 1.6972021e-07 8.2534605e-08
1.6208476e-07 8.734286e-08 2.0845906e-08 3.481564e-08 1.1898732e-07 7.9239953e-07 2.0602059e-08 5.229044e-08
1.493262e-07 7.719662e-07 2.0333047e-08 5.201349e-08 5.1068717e-08 6.096449e-08 5.7813317e-08 6.036018e-08
1.6537903e-08 1.6993464e-08 8.975249e-08 1.6609559e-07 1.5790146e-08 1.6855829e-08 1.5491494e-07 2.9022488e-07
1.9841998e-08 1.9378561e-08 8.612386e-08 9.6121774e-08 7.980813e-08 9.4352835e-08 8.375236e-09 6.7538646e-09
1.9984616e-07 6.057715e-07 1.04739e-08 2.3293198e-08 1.4167671e-07 5.867454e-07 7.516591e-09 2.1591976e-08
4.0023426e-08 1.229046e-07 3.8286565e-08 1.3965504e-07 1.07362474e-08 1.0162153e-08 1.2131071e-06 1.4199791e-06
3.310408e-08 9.1849614e-08 6.238157e-07 4.288819e-07 2.4040451e-08 3.8221177e-08 5.6218212e-08 7.6571006e-08
5.3773096e-08 8.1009844e-08 1.9379266e-08 2.2450038e-08 9.5145225e-08 3.0400867e-07 2.2721077e-08 1.9219062e-08
9.861667e-07 1.5545928e-06 4.162398e-08 8.7733746e-08 2.8724397e-08 2.9424411e-08 2.513367e-08 3.0525676e-08
1.108448e-08 1.0668507e-08 1.0470108e-07 1.44873e-07 1.4067886e-08 1.3975537e-08 5.2336837e-08 6.701388e-08
1.1472543e-08 8.732723e-09 1.2093024e-07 1.1027419e-07 1.1929274e-07 1.1995922e-07 1.816811e-08 1.7848981e-08
8.1973144e-07 9.827893e-07 4.2943537e-08 7.3795746e-08 1.5286163e-07 3.0922405e-07 1.5237926e-08 1.3129864e-08
5.6073443e-08 5.480743e-08 5.020963e-08 6.141635e-08 1.492732e-08 1.1007534e-08 8.093008e-08 1.6029792e-07
1.238653e-08 8.348526e-09 6.196641e-07 9.857037e-07 3.266799e-08 5.981189e-08 5.7054187e-08 6.9154005e-08
5.780136e-08 7.317252e-08 1.5060502e-08 1.4561831e-08 8.040544e-08 1.3287413e-07 9.842075e-09 1.118628e-08
1.3213618e-07 1.9299273e-07 1.1971183e-08 1.4284405e-08 2.0268258e-08 2.419551e-08 2.0131077e-08 2.4779796e-08
6.462608e-09 5.774498e-09 6.398834e-08 1.2899561e-07 8.765294e-09 7.844935e-09 4.5197748e-08 1.6103218e-07
7.789397e-09 9.618816e-09 4.7314938e-08 4.4161414e-08 4.8465797e-08 4.1491155e-08 1.5423485e-08 1.2107207e-08
2.0450406e-07 3.7117778e-07 2.1838138e-08 2.5147045e-08 7.418477e-08 1.2094854e-07 1.5593413e-08 1.11112115e-08
1.9850114e-08 4.638611e-08 1.9931683e-08 4.842714e-08 1.7001533e-08 7.903387e-09 2.1251034e-07 1.1975963e-07
1.3579685e-08 1.0973987e-08 3.3828783e-07 3.4452415e-07 1.3755669e-08 2.1845645e-08 7.184627e-08 7.373507e-08
7.2947564e-08 7.2668215e-08 2.0000657e-08 2.018864e-08 1.2596891e-07 2.430962e-07 2.5698398e-08 1.5152882e-08
7.1833824e-07 1.2942622e-06 4.0942e-08 7.992283e-08 6.177351e-08 3.7360227e-08 5.929875e-08 3.842566e-08
1.3464256e-08 1.0164252e-08 1.8258507e-07 4.6301562e-07 2.2779863e-08 3.3391373e-08 5.668956e-08 1.1882316e-07
1.1675223e-08 1.0081058e-08 6.467534e-08 6.252117e-08 6.1959646e-08 6.50084e-08 1.3485779e-08 9.4923385e-09
9.59607e-07 1.3970732e-06 3.9337117e-08 8.106592e-08 1.0753345e-07 2.3020331e-07 1.3332059e-08 8.6217415e-09
00000000: f256 2633 8179 3433 17c8 2833 5cfe 3733
00000010: f9dd 8d32 72b1 9232 c93a f832 fb67 0934
00000020: 2287 3832 ae0b 5932 8aa6 2933 25c2 a633
00000030: 4755 3b32 a453 5432 563c 3634 e13d b133
00000040: 8509 2e34 3f91 bb33 a210 b332 3388 1533
00000050: f985 ff33 48b5 5435 68f8 b032 f295 6033
00000060: 7956 2034 1d39 4f35 d8a8 ae32 7065 5f33
00000070: a656 5b33 95eb 8233 6a4e 7833 5c9f 8133
00000080: 3c0f 8e32 06f9 9132 f4bd c033 0258 3234
00000090: e6a2 8732 5cca 9032 b256 2634 34d0 9b34
000000a0: 0471 aa32 e875 a632 18f3 b833 816b ce33
000000b0: fc62 ab33 059f ca33 ade2 0f32 9f0f e831
000000c0: 4b95 5634 4d9c 2235 b3f0 3332 4916 c832
000000d0: cc1f 1834 d680 1d35 5122 0132 4279 b932
000000e0: 39e6 2b33 c2f7 0334 8670 2433 16f4 1534
000000f0: 8472 3832 9f95 2e32 0bd2 a235 1c96 be35
00000100: 522e 0e33 dc3e c533 4a74 2735 1441 e634
00000110: 8381 ce32 a128 2433 9474 7133 5b6f a433
00000120: 25f4 6633 a2f7 ad33 7577 a632 28d8 c032
00000130: a452 cc33 a236 a334 2d2c c332 2a17 a532
00000140: 6e5c 8435 67a7 d035 0dc6 3233 2368 bc33
00000150: 9ebd f632 f7c0 fc32 86e5 d732 561b 0333
00000160: 0f6e 3e32 9748 3732 07d8 e033 638e 1b34
00000170: 38af 7132 1019 7032 f6c8 6033 45e9 8f33
00000180: c718 4532 ec06 1632 0dd9 0134 e1cf ec33
00000190: f016 0034 24ce 0034 1910 9c32 5352 9932
000001a0: 840b 5c35 62e8 8335 eb70 3833 a479 9e33
000001b0: 4922 2434 6e03 a634 8ee4 8232 c191 6132
000001c0: 67d5 7033 6865 6b33 12a6 5733 ffe3 8333
000001d0: 8639 8032 a61b 3d32 c8cb ad33 5b1e 2c34
000001e0: 89cc 5432 356d 0f32 fe56 2635 854c 8435
000001f0: d64e 0c33 ef71 8033 be0b 7533 d181 9433
00000200: 4441 7833 0523 9d33 655e 8132 9c2b 7a32
00000210: 5cab ac33 2aac 0e34 e715 2932 c82d 4032
00000220: 51e1 0d34 7039 4f34 d2a9 4d32 7a67 7532
00000230: 5f1a ae32 7dd6 cf32 b5ec ac32 59db d432
00000240: b30d de31 0669 c631 f669 8933 0b82 0a34
00000250: 2c96 1632 64c6 0632 731f 4233 30e8 2c34
00000260: 21d2 0532 0040 2532 5337 4b33 fdab 3d33
00000270: b528 5033 0234 3233 9a7c 8432 0f00 5032
00000280: a695 5b34 4946 c734 9396 bb32 f002 d832
00000290: 824f 9f33 15de 0134 47f2 8532 a0e3 3e32
000002a0: dd82 aa32 113a 4733 3c36 ab32 34fe 4f33
000002b0: c40a 9232 77c7 0732 662e 6434 4797 0034
000002c0: 164c 6932 1b88 3c32 ed9d b534 0af7 b834
000002d0: 1252 6c32 15a7 bb32 e849 9a33 4958 9e33
000002e0: 59a7 9c33 c60d 9c33 e9cd ab32 4a6b ad32
000002f0: 1242 0734 e382 8234 60bf dc32 8a29 8232
00000300: d4d3 4035 83b6 ad35 34d8 2f33 0aa2 ab33
00000310: 59a8 8433 0176 2033 aaaf 7e33 7609 2533
00000320: 6d50 6732 da9e 2e32 9a0c 4434 6294 f834
00000330: 73ad c332 346a 0f33 d57a 7333 b92b ff33
00000340: 2c94 4832 f630 2d32 a5e3 8a33 6043 8633
00000350: ad0e 8533 bf9a 8b33 15af 6732 bf13 2332
00000360: d8cb 8035 1283 bb35 9ef3 2833 7616 ae33
00000370: 24ed e633 ce2d 7734 040b 6532 d21e 1432

exp_avg f4 [16]
-4.6496214e-05 9.423567e-05 -5.2259886e-05 1.9555007e-05 -0.00012994374 0.0001596306 -6.961997e-05 1.2512934e-05
-0.0001384914 -2.2998485e-05 -3.1602308e-06 0.00012910485 8.14784e-05 0.00013527807 3.1003194e-05 -1.3726996e-05
00000000: ee04 43b8 64a0 c538 a031 5bb8 0f0a a437
00000010: 8241 08b9 8362 2739 f000 92b8 a4ee 5137
00000020: 0138 11b9 dfec c0b7 5a14 54b6 5260 0739
00000030: 62df aa38 6ed9 0d39 6d09 0238 004d 66b7

exp_avg_sq f4 [16]
2.2340755e-07 7.870809e-07 1.3243905e-06 8.249045e-07 2.119205e-06 2.642856e-06 3.6965528e-07 1.0315686e-06
7.620519e-07 2.3898446e-07 4.5776036e-07 1.3704586e-06 3.8236436e-07 2.1607839e-06 8.289317e-07 1.2724738e-06
00000000: cde1 6f34 ca47 5335 b6c1 b135 016f 5d35
00000010: aa37 0e36 ec5b 3136 0975 c634 6d74 8a35
00000020: cf8f 4c35 c64d 8034 1bc2 f534 99f0 b735
00000030: c247 cd34 fc01 1136 c183 5e35 dec9 aa35

exp_avg f4 [8, 16]
-4.4948163e-05 5.2781206e-06 -8.678071e-05 -1.1701311e-05 0.0001268267 -1.1717391e-05 -3.9508705e-05 5.9871483e-05
0.00019602438 3.007786e-05 -1.6704558e-05 5.3289616e-05 -7.776561e-05 -1.4140212e-05 7.530641e-05 0.00013345775
3.2497755e-06 1.1911412e-05 0.00012276639 -4.9918555e-05 -6.19411e-06 4.618447e-05 -2.4797879e-05 -4.0106847e-06
-9.872856e-05 -0.0001252072 9.1364396e-05 -2.1866745e-05 -4.6768923e-06 6.16435e-05 -9.593699e-06 3.759428e-05
8.43844e-07 2.0410629e-05 3.54351e-06 8.062349e-06 1.855837e-05 -2.8201994e-06 1.54e-43 1.4586705e-05
-1.2359895e-08 6.727716e-11 1.1379503e-05 1.8051705e-05 1.3482412e-05 8.2630874e-07 2.0928888e-07 6.74306e-05
-1.7344659e-08 -2.627616e-31 -2.0222724e-07 -3.3653045e-08 -4.511104e-08 -3.662645e-08 8.788363e-21 6e-45
-6e-45 6e-45 -5.418653e-08 -2.1868507e-14 -5.93821e-16 -1.8415359e-14 -1.5491335e-16 7.0919675e-13
-9.451181e-06 -1.5641643e-05 1.5127138e-05 2.3767112e-05 9.816036e-06 -3.7064838e-05 4.267944e-06 -2.0093501e-05
5.123337e-05 1.4373319e-05 -0.00010721875 -1.1685834e-05 1.8349005e-05 5.589593e-05 7.718815e-06 -1.1489514e-05
-5.6672296e-05 -6.105782e-05 -0.00014028583 -1.7368044e-05 -2.2882112e-05 -4.186144e-05 -2.3746968e-06 -7.043287e-06
2.1393706e-05 1.4572397e-05 -3.1923762e-05 -1.7958311e-05 -1.731387e-05 -7.8016084e-05 -2.2067468e-05 -3.7538943e-05
-1.7284657e-07 -3.4024229e-06 -2.188278e-05 -3.9464278e-05 5.204632e-05 -7.9059355e-05 -7.333494e-05 2.1641816e-05
-6.7541536e-05 -0.00010862842 1.38008545e-05 -3.47525e-05 -2.8810275e-05 -3.330136e-05 -4.718506e-05 4.75339e-05
-1.3964956e-05 -0.00015941427 -3.7075682e-05 1.3769983e-05 -0.0002197627 -0.00011157944 6.0989893e-05 -5.2168893e-05
-0.00020684421 6.382908e-06 -0.00013681596 -1.8552797e-05 0.000111614056 -2.5191734e-05 -8.9082045e-05 -0.00021536676
00000000: b986 3cb8 b61a b136 0afe b5b8 c050 44b7
00000010: c8fc 0439 d095 44b7 26b6 25b8 841e 7b38
00000020: e58b 4d39 b64f fc37 c420 8cb7 4a83 5f38
00000030: 1816 a3b8 c03b 6db7 d2ed 9d38 cbf0 0b39
00000040: b816 5a36 20d7 4737 daba 0039 a45f 51b8
00000050: 00d7 cfb6 32b6 4138 0a05 d0b7 8593 86b6
00000060: 7e0c cfb8 0d4a 03b9 e39a bf38 7a6e b7b7
00000070: 33ee 9cb6 9a46 8138 a0f4 20b7 8dae 1d38
00000080: 8584 6235 7e37 ab37 0acd 6d36 8643 0737
00000090: ccad 9b37 a842 3db6 6e00 0000 6cb9 7437
000000a0: 6557 54b2 adf1 932e 98ea 3e37 be6d 9737
000000b0: 8532 6237 81cf 5d35 e4b8 6034 8769 8d38
000000c0: 4ffd 94b2 c28a aa8c cd23 59b4 ea89 10b3
000000d0: 1dc0 41b3 354f 1db3 ea01 261e 0400 0000
000000e0: 0400 0080 0400 0000 b8ba 68b3 58f9 c4a8
000000f0: 4228 2ba6 edde a5a8 5a9a 32a5 039f 472b
00000100: 8390 1eb7 2c36 83b7 90ca 7d37 7c5f c737
00000110: 8eaf 2437 1176 1bb8 5c35 8f36 778e a8b7
00000120: 6ae3 5638 ef24 7137 a1da e0b8 460e 44b7
00000130: 30ec 9937 cc71 6a38 0f80 0137 16c3 40b7
00000140: 6ab3 6db8 2b0c 80b8 b119 13b9 97b1 91b7
00000150: f6f2 bfb7 6194 2fb8 fb5c 1fb6 6055 ecb6
00000160: a276 b337 f87b 7437 e1e5 05b8 2ea5 96b7
00000170: 413d 91b7 919c a3b8 871d b9b7 2273 1db8
00000180: b497 39b4 2e55 64b6 ea90 b7b7 7286 25b8
00000190: 504c 5a38 abcc a5b8 65cb 99b8 728b b537
000001a0: 16a5 8db8 70cf e3b8 388a 6737 36c3 11b8
000001b0: 98ad f1b7 10ad 0bb8 93e8 45b8 235f 4738
000001c0: 084b 6ab7 7128 27b9 b681 1bb8 a005 6737
000001d0: 1a70 66b9 c1ff e9b8 66cf 7f38 eccf 5ab8
000001e0: 52e4 58b9 c32c d636 4176 0fb9 d4a1 9bb7
000001f0: 5712 ea38 d652 d3b7 8fd1 bab8 13d4 61b9

exp_avg_sq f4 [8, 16]
7.972581e-08 5.6722195e-07 7.4437395e-07 1.2974017e-06 3.037132e-06 2.2190482e-06 1.9946171e-07 3.9306454e-07
2.0360158e-06 1.4182552e-07 8.581703e-07 1.2559273e-06 3.8903377e-07 2.1083745e-06 9.681926e-07 5.9037467e-07
9.185434e-08 1.159184e-06 8.047437e-07 1.5414862e-06 4.4264066e-06 2.6463442e-06 1.7298629e-07 4.8106824e-07
2.8234995e-06 1.2715142e-07 1.1253961e-06 1.3844461e-06 3.8418708e-07 2.4474507e-06 1.1010815e-06 9.50043e-07
9.977577e-09 9.987771e-07 5.7539866e-09 1.1400401e-08 8.409944e-09 4.6797734e-08 3.6031582e-09 6.630317e-09
4.0472905e-09 3.586691e-08 7.036381e-08 7.97755e-08 1.5949588e-08 1.1600121e-08 3.388829e-09 1.0419728e-07
2.0862831e-09 7.565935e-10 1.4172447e-09 1.9074338e-09 1.6048904e-09 1.5505718e-09 5.618021e-10 5.8363536e-10
2.0046494e-08 3.1931977e-09 9.1160895e-10 5.898366e-10 3.2528527e-10 1.386978e-10 9.7022115e-09 3.4338915e-10
2.0116657e-08 6.451247e-08 1.2720113e-07 1.330355e-07 1.4327492e-07 5.4433514e-07 7.540018e-08 3.4109437e-09
9.6893025e-08 7.1928743e-09 3.744208e-07 6.9093716e-08 1.2929927e-08 6.8366074e-07 3.0550936e-08 5.6709993e-08
1.9606377e-08 9.946698e-07 3.6955348e-07 3.2574764e-07 5.529778e-07 7.282931e-07 1.9513497e-08 2.3413985e-08
4.1484392e-07 2.764813e-08 2.492473e-07 7.3946245e-07 2.3881304e-08 2.1279311e-07 5.901737e-07 2.7072483e-07
5.6427063e-10 2.5173502e-08 5.212563e-09 9.849129e-08 2.2440335e-07 7.3670364e-08 1.24059305e-08 3.0880722e-07
2.4800812e-07 1.00329174e-07 6.140076e-08 3.298148e-08 3.5179205e-08 3.694127e-08 2.7690126e-07 3.3889444e-07
1.458247e-07 2.0788762e-06 9.742938e-07 1.5780228e-06 3.1554425e-06 2.2104532e-06 2.0887141e-07 2.2750075e-07
1.3929356e-06 6.1566155e-08 1.0359676e-06 1.4644112e-06 5.0246194e-07 2.122424e-06 5.376889e-07 7.7004717e-07
00000000: ba35 ab33 3243 1835 fdd0 4735 6222 ae35
00000010: 88d1 4b36 f5ea 1436 9e2b 5634 6106 d334
00000020: 7ca2 0836 b448 1834 045d 6635 5591 a835
00000030: 65dc d034 997d 0d36 d8f2 8135 3d7a 1e35
00000040: 7541 c533 4295 9b35 9105 5835 10e5 ce35
00000050: 8b86 9436 d997 3136 1cbe 3934 c222 0135
00000060: 5a7b 3d36 1e87 0834 510c 9735 35d1 b935
00000070: 4542 ce34 e23e 2436 dfc8 9335 7506 7f35
00000080: d969 2b32 b80d 8635 9ab4 c531 7edb 4332
00000090: 537b 1032 a7fe 4833 6e9b 7731 e3d0 e331
000000a0: 5810 8b31 160c 1a33 ea1a 9733 0c51 ab33
000000b0: 8401 8932 df49 4732 e9e0 6831 0fc3 df33
000000c0: 485e 0f31 89f8 4f30 ddc8 c230 ee13 0331
000000d0: 1093 dc30 e51b d530 4f6d 1a30 b06d 2030
000000e0: b532 ac32 546f 5b31 c794 7a30 1022 2230
000000f0: d5d3 b22f f67f 182f c7ae 2632 bac7 bc2f
00000100: ffcc ac32 1b8a 8a33 c894 0834 85d8 0e34
00000110: 1cd7 1934 6d1e 1235 b0eb a133 f565 6a31
00000120: 8113 d033 3125 f731 0104 c934 ac60 9433
00000130: 6c22 5e32 cf84 3735 1c37 0333 4c91 7333
00000140: e16a a832 9880 8535 0b67 c634 6ae2 ae34
00000150: 5870 1435 ec7f 4335 a29e a732 e61f c932
00000160: b7b7 de34 e17e ed32 4ad0 8534 797f 4635
00000170: 8b23 cd32 207c 6434 6e6c 1e35 2358 9134
00000180: 041b 1b30 1e3d d832 301a b331 2982 d333
00000190: 86f3 7034 b634 9e33 dc21 5532 24ca a534
000001a0: fa25 8534 8c74 d733 6ddb 8333 85a7 0d33
000001b0: f217 1733 5ba9 1e33 05a9 9434 4cf1 b534
000001c0: fd93 1c34 d282 0b36 7bc4 8235 73cc d335
000001d0: 17c2 5336 4c57 1436 2346 6034 ee46 7434
000001e0: e7f4 ba35 5a36 8433 930b 8b35 c98c c435
000001f0: ece0 0635 f76e 0e36 b355 1035 3db5 4e35

exp_avg f4 [8]
4.9238108e-05 2.2656212e-05 2.1519569e-05 -1.2209325e-07 1.5409028e-06 -0.00011577808 -6.48775e-05 -0.00016634712
00000000: 0485 4e38 d80d be37 ec84 b437 bd18 03b4
00000010: 04d1 ce35 e2cd f2b8 d80e 88b8 776d 2eb9

exp_avg_sq f4 [8]
3.5842054e-06 4.5818374e-06 5.6603458e-08 1.352489e-08 4.860781e-07 1.1451245e-06 3.6586434e-07 3.9431816e-06
00000000: 2e88 7036 afbd 9936 291c 7333 185b 6832
00000010: 087b 0235 2eb2 9935 036c c434 ac4f 8436

exp_avg f4 [2, 8]
-0.00026114436 0.00034925618 4.094022e-06 -2.0473296e-08 0.00014808026 6.656771e-05 -0.00028543908 -0.00013786419
-7.0329756e-05 -0.00048208341 -1.5745183e-05 1.1929295e-08 5.136088e-05 -0.00010008301 -0.00027935757 2.9976945e-05
00000000: 34ea 88b9 5f1c b739 625f 8936 41dd afb2
00000010: fe45 1b39 449a 8b38 fca6 95b9 a38f 10b9
00000020: 007e 93b8 24c0 fcb9 8614 84b7 98f1 4c32
00000030: 536c 5738 a8e3 d1b8 bd76 92b9 0077 fb37

exp_avg_sq f4 [2, 8]
3.670023e-05 2.0416255e-05 5.994133e-07 1.0033693e-07 9.63452e-07 1.3851196e-06 2.1323879e-06 1.3754388e-05
3.8211114e-05 2.842443e-05 6.3179e-07 7.747137e-08 9.07737e-07 1.3178897e-06 3.0930364e-06 1.49055895e-05
00000000: 92ee 1938 9343 ab37 5ee7 2035 d078 d733
00000010: f54f 8135 59e8 b935 251a 0f36 a6c2 6637
00000020: df44 2038 0071 ee37 4798 2935 565e a633
00000030: 36ab 7335 58e2 b035 f691 4f36 0513 7a37

exp_avg f4 [2]
6.42599e-05 -0.00012943332
00000000: 45c3 8638 7eb8 07b9

exp_avg_sq f4 [2]
8.723662e-06 1.1069524e-05
00000000: d85b 1237 3eb7 3937

fc1.weight f4 [32, 20]
-0.61728776 0.13922255 0.78851366 -0.49000448 -1.0647792 0.2946425 -0.3567473 0.43167022
-0.1772903 0.15950948 0.33732334 -0.6512724 -0.25716808 0.66522086 -0.08379108 -0.0045677307
-0.037535332 -0.048619602 -0.008487938 -0.026955986 -0.34902355 0.15108518 -1.4104315 0.61767757
-0.23010959 0.09095548 -0.08345519 0.14597031 0.09406887 0.08880804 -0.26440787 0.13063154
-0.06250891 -0.16463128 -0.021406904 -0.0014593923 0.0010091175 0.011235314 -0.0050747553 0.008868531
-0.3558654 -0.084024444 0.55231297 -1.2304349 -0.15739258 -0.24072988 -0.4810823 -0.08473596
-0.44230577 -0.21628052 -0.002364752 0.2681999 -0.1526494 0.16798502 0.02804648 -0.03574308
0.029040335 0.036345582 0.003332768 -0.008610223 0.1256498 -0.11353467 0.18914853 -1.5104631
-0.031038003 -0.09117142 -0.071634986 -0.044293422 0.23023434 -0.1384361 0.09136232 0.15141475
0.18728393 -0.05113155 0.002339446 -0.03573966 -0.0035419075 -0.008245081 -0.0112438975 0.0045191674
0.23518367 0.36067244 0.58926713 -0.5645 0.74037135 -0.59665376 0.1764858 -0.7461919
-1.214127 -0.20490082 0.15024948 -0.7190353 -0.0036991974 0.24260078 0.048300117 0.026798343
-0.10918739 -0.0019918443 -0.0034921246 0.056024328 -0.49996853 -0.040728126 -0.1058145 -0.82576257
0.34633985 -0.33147198 -0.33839127 -0.14960724 0.14347501 0.12605222 -0.39367247 0.22026058
-0.6769422 -0.39520997 0.0035030774 -0.0780259 0.032923657 0.028086307 -0.004195609 -0.085826
0.024030661 -0.1745965 -1.039898 -1.4655651 -0.2841528 -0.00868527 -0.031515945 -0.06744246
-0.07547472 -0.11394614 -0.28803706 -0.20572752 -0.10734751 0.052671358 -0.009028595 -0.022536179
0.0029132986 0.0036354568 -0.00840172 0.0030506577 0.0516059 0.07294784 3.2198899 1.2425956
0.40146646 -0.10009091 -0.09869237 0.20839295 0.016947815 0.28922987 0.038460262 0.025630958
-0.049556684 0.6237221 0.03197126 0.019875176 0.006467174 -0.0042425217 -0.004935433 -0.0067528766
-0.18794686 -0.10765283 -0.18661277 0.5862116 0.8399334 -0.52620137 -0.6829095 0.04345659
-0.030399328 -0.35760263 0.03740882 -0.59094393 0.34668458 0.33110803 0.029645864 0.056842156
0.090092845 0.05394271 0.027608408 -0.030407483 0.39229986 -0.15721689 -0.30138567 -1.229034
-0.15124108 -0.21315469 0.1604373 0.12643728 -0.11831631 -0.09856554 0.31323558 -0.03512285
-0.26906213 -0.1606602 -0.017762057 -0.0023047677 0.012764237 0.0033173203 0.019807503 -0.016078422
-0.1741941 -0.15255973 0.7819378 -0.33418676 0.1424843 -0.03924614 -0.08858266 0.20474185
0.21650967 0.23088853 -0.24637853 -0.29053512 -0.08470514 0.17303538 0.019393675 0.0058653383
-0.0017754659 0.022901755 -0.030312272 -0.01338758 0.39408973 -0.17649598 2.8671885 -0.49452212
0.38978744 -0.19255695 0.12830846 -0.04762302 -0.3958324 -0.093351446 0.26547372 0.1688827
0.026039686 -0.21555783 0.047480553 -0.0103423055 0.008257244 0.008208001 0.012569699 -0.0012477264
-0.06379555 0.15458728 -1.1418684 0.61816436 -0.31720144 -0.03673489 -0.017744968 0.030824332
0.19652212 0.08714818 -0.14281572 0.03390929 0.0011711989 0.18788895 -0.015527513 0.015246029
00000000: 9206 1ebf 5b90 0e3e 08dc 493f dee1 fabe
00000010: af4a 88bf 62db 963e 95a7 b6be e103 dd3e
00000020: 978b 35be 7456 233e a5b5 ac3e cab9 26bf
00000030: 89ab 83be ea4b 2a3f a89a abbd e7ac 95bb
00000040: a6be 19bd 5925 47bd fe10 0bbc cdd2 dcbc
00000050: 37b3 b2be 13b6 1a3e 0589 b4bf 1e20 1e3f
00000060: d9a1 6bbe de46 ba3d 8eea aabd 3e79 153e
00000070: 2ea7 c03d fde0 b53d 7860 87be 46c4 053e
00000080: ac04 80bd 1a95 28be 885d afbc 1449 bfba
00000090: 5d44 843a 5314 383c 224a a6bb 514d 113c
000000a0: fd33 b6be 0215 acbd 6264 0d3f e47e 9dbf
000000b0: 852b 21be e581 76be 6b50 f6be 0c8a adbd
000000c0: e775 e2be a478 5dbe f5f9 1abb 7f51 893e
000000d0: 2050 1cbe 4404 2c3e bbc1 e53c 5667 12bd
000000e0: ffe5 ed3c 1bdf 143d 926a 5a3b e511 0dbc
000000f0: 57aa 003e dd84 e8bd 27b0 413e db56 c1bf
00000100: 6943 febc 15b8 babd 5db5 92bd 056d 35bd
00000110: 8dc2 6b3e 31c2 0dbe 2b1c bb3d 780c 1b3e
00000120: 5cc7 3f3e 516f 51bd 6451 193b c063 12bd
00000130: 591f 68bb 6016 07bc 5338 38bc 8615 943b
00000140: fdd3 703e 0faa b83e 36da 163f 1283 10bf
00000150: fa88 3d3f 4dbe 18bf b2b8 343e 6f06 3fbf
00000160: 8368 9bbf 85d1 51be 00db 193e b312 38bf
00000170: 3c6e 72bb 576c 783e 58d6 453d 3388 db3c
00000180: a39d dfbd 9a89 02bb 21dc 64bb c479 653d
00000190: e0fb ffbe 89d2 26bd 46b5 d8bd 2d65 53bf
000001a0: 7553 b13e b2b6 a9be 9f41 adbe a432 19be
000001b0: 1deb 123e d513 013e 708f c9be fd8b 613e
000001c0: 164c 2dbf f658 cabe e393 653b 0bcc 9fbd
000001d0: f5da 063d 4115 e63c 527b 89bb 8bc5 afbd
000001e0: f3db c43c 6dc9 32be 611b 85bf a397 bbbf
000001f0: 7a7c 91be aa4c 0ebc dd16 01bd 461f 8abd
00000200: 7d92 9abd 985c e9bd 9879 93be 3caa 52be
00000210: 03d9 dbbd ecbd 573d acec 13bc cb9d b8bc
00000220: 0aed 3e3b d840 6e3b 5ea7 09bc 8bed 473b
00000230: b560 533d ad65 953d ad12 4e40 5f0d 9f3f
00000240: 038d cd3e 77fc ccbd 3a1f cabd f664 553e
00000250: 25d6 8a3c f015 943e 8288 1d3d 04f8 d13c
00000260: f3fb 4abd 40ac 1f3f 4cf4 023d 44d1 a23c
00000270: 96ea d33b da04 8bbb 6ab9 a1bb 3c47 ddbb
00000280: 2475 40be 1679 dcbd 6b17 3fbe f711 163f
00000290: e005 573f 22b5 06bf 28d3 2ebf 8aff 313d
000002a0: 0308 f9bc b117 b7be fe39 193d 1a48 17bf
000002b0: a480 b13e fe86 a93e e2db f23c 52d3 683d
000002c0: 9982 b83d 08f3 5c3d 072b e23c 1d19 f9bc
000002d0: 87db c83e 77fd 20be 394f 9abe fc50 9dbf
000002e0: f1de 1abe 3945 5abe ad49 243e c678 013e
000002f0: d24f f2bd bbdc c9bd 6a60 a03e fadc 0fbd
00000300: 83c2 89be 1c84 24be bc81 91bc 960b 17bb
00000310: 1721 513c 6667 593b 5843 a23c e5b6 83bc
00000320: f05f 32be 9e38 1cbe 132d 483f 871a abbe
00000330: 68e7 113e 8fc0 20bd d36a b5bd d9a7 513e
00000340: b6b4 5d3e 0b6e 6c3e a74a 7cbe 05c1 94be
00000350: e379 adbd 3030 313e 7cdf 9e3c 0632 c03b
00000360: c0b6 e8ba 769c bb3c 7151 f8bc 9557 5bbc
00000370: 21c6 c93e 5dbb 34be 0480 3740 0132 fdbe
00000380: 3892 c73e a62d 45be 4b63 033e 5b10 43bd
00000390: 8baa cabe 0b2f bfbd 2cec 873e 96ef 2c3e
000003a0: 2e51 d53c 31bb 5cbe f87a 423d c672 29bc
000003b0: 6449 073c da7a 063c 24f1 4d3c c08a a3ba
000003c0: 3ea7 82bd 214c 1e3e be28 92bf 0540 1e3f
000003d0: 3a68 a2be 5377 16bd e55d 91bc 4f83 fc3c
000003e0: 183d 493e bf7a b23d 493e 12be 78e4 0a3d
000003f0: ea82 993a f665 403e 1c67 7ebc 7bca 793c

fc1.bias f4 [32]
0.07512036 -0.5158068 -0.5602882 -0.44052014 0.4720468 1.0241312 -0.9462015 -0.62073845
-1.169542 -0.53956723 0.9593033 -0.49380663 -0.06263948 -0.4818256 -1.2748573 -0.6286195
0.6323581 -1.4852203 1.8733314 -0.73342615 -1.1559114 -0.18053477 0.052304313 -0.62173975
-0.27779573 -0.24947216 -0.94383454 0.6591863 -1.1407231 -0.40665463 -0.02921241 -0.1894438
00000000: b4d8 993d ea0b 04bf 0c6f 0fbf db8b e1be
00000010: 1eb0 f13e bb16 833f 433a 72bf b7e8 1ebf
00000020: 8db3 95bf 1421 0abf e794 753f 39d4 fcbe
00000030: 2149 80bd d8b1 f6be 862e a3bf 35ed 20bf
00000040: 38e2 213f b31b bebf 53c9 ef3f d1c1 3bbf
00000050: e8f4 93bf 1bde 38be 0c3d 563d 562a 1fbf
00000060: 3e3b 8ebe a175 7fbe 249f 71bf 6fc0 283f
00000070: 3703 92bf 0935 d0be dd4e efbc 8efd 41be

fc2.weight f4 [16, 32]
-0.013425833 0.48328084 -0.00039854835 0.5426064 0.05624074 0.045897372 1.0250176 0.48007098
-0.08270527 0.32135633 -0.09646448 0.7665488 0.11612508 0.37789455 0.92518854 0.73043257
0.031216642 1.0864822 0.15342735 0.33749673 0.7522604 0.5933005 0.0588432 0.7786684
0.055097643 0.3871372 0.9886939 -0.025546327 0.9262435 0.010204207 -0.04974879 0.7078328
-0.09922129 0.6212729 0.30472708 0.6848771 -0.07799558 -0.0710405 1.1003416 0.7751469
0.1255881 0.55616564 0.043571178 0.78673065 0.011281154 0.42020538 0.7119884 0.9292373
-0.07678986 1.2625936 -0.09473765 0.15642352 0.8773365 0.7586612 0.27890152 0.8304405
0.053534538 0.41256657 1.2066439 -0.039596677 0.8949894 0.08169965 -0.036561184 0.86269027
-0.01304303 0.028454812 -0.17500262 0.050632797 -0.10292546 -0.08344643 0.031882342 0.023746017
-8.56214e-11 0.024365436 -0.06225253 0.08915718 0.00445916 -0.011289871 -1.8382212e-10 -0.092880145
-0.13817438 -0.0156936 -0.08081292 -0.14674464 -0.06974479 -0.06377741 -0.0752051 -0.07919174
-0.028910486 -0.1232133 0.02813099 -0.13472115 -0.0014398772 -0.033276103 -0.10482522 0.0146382125
-0.010262493 -0.0063084154 -0.04046159 0.024111079 -0.001356091 -0.027311767 -0.0026560344 -0.00055140385
-1.0621146e-21 -0.00966248 -0.004942064 -3.6688278e-05 -0.0044556833 -4.2647775e-05 4.3908918e-10 0.0390976
-0.0036863587 -0.0006161055 -0.035173155 0.014780264 0.000730656 -5.0640385e-05 -0.0049455212 0.00047477963
-0.0036130466 -0.0042814133 -0.00035260277 -0.014391916 -0.00026797393 -0.005550412 -0.018990034 -0.049891327
-0.020333823 0.0009432787 0.017724583 -0.023142673 -1.28845175e-08 -0.001417849 0.00014683628 3.0102317e-05
-2.921441e-39 -0.0008934346 -0.0054383855 -5.0516787e-06 -4.3300126e-05 -9.883701e-07 3.798524e-39 -0.104582675
-7.9762714e-08 -0.000121567966 -0.002798794 -0.008584143 0.002884476 0.000104943014 0.0002897919 -6.0696682e-05
-0.0010204411 -0.04181284 -5.033785e-07 -0.000497967 5.633868e-07 0.010178082 0.0036650007 -0.047227826
-0.6944819 0.8097674 0.08956137 0.14574076 0.087342374 -0.56581515 0.90647393 1.0991493
0.058908824 0.032146618 -0.40046707 0.2651005 0.30718666 0.6764085 0.94892776 0.34680545
-0.13010022 0.9924134 -0.3401558 0.3699258 0.65725285 0.4499782 -0.69330734 0.54090065
-0.39618933 0.5199827 0.7904975 -1.1533126 0.49295363 0.15905635 -0.0383164 0.14812744
-0.024925448 0.976353 0.5873555 -0.06905934 -0.22280383 -0.54959804 1.1254227 0.25995025
0.045544717 0.38925862 -0.61013734 0.23535886 0.24137837 0.67784894 1.0684222 0.45235857
-0.4963424 1.1471235 -0.9463495 0.44357702 0.9195933 0.28687507 -0.33455926 0.3306897
-0.46681437 0.29608223 0.46028337 -0.25877666 0.29363638 0.36546046 -0.36367586 0.17353739
-0.37740627 0.8738654 0.45132646 0.10037639 -0.15853901 0.054017466 0.9077958 -0.1462596
0.304473 0.29069275 -0.4908301 0.105859935 0.35501286 0.63886034 1.0692458 0.44807392
-0.29035306 1.3542951 -0.2865745 0.5389814 1.0043938 0.20872794 -0.14555357 0.5989256
-0.39612153 0.4082849 -0.020179909 -0.31494445 0.11196105 0.11106923 -0.13895473 0.32235694
00000000: 06f8 5bbc 9670 f73e 41f4 d0b9 41e8 0a3f
00000010: b15c 663d e2fe 3b3d c733 833f ddcb f53e
00000020: 6161 a9bd d188 a43e 2b8f c5bd 8b3c 443f
00000030: fcd2 ed3d 657b c13e 28d9 6c3f a1fd 3a3f
00000040: 0bba ff3c d911 8b3f 0f1c 1d3e 5fcc ac3e
00000050: 2394 403f 8be2 173f 9105 713d d056 473f
00000060: 11ae 613d d936 c63e 0b1b 7d3f 8846 d1bc
00000070: 4b1e 6d3f 8c2f 273c 63c5 4bbd 8834 353f
00000080: 8834 cbbd be0b 1f3f 3005 9c3e 1b54 2f3f
00000090: 26bc 9fbd af7d 91bd fed7 8c3f 0770 463f
000000a0: 2b9a 003e df60 0e3f b177 323d 2e67 493f
000000b0: 97d4 383c 2925 d73e df44 363f 7fe2 6d3f
000000c0: 0144 9dbd ab9c a13f d005 c2bd 7d2d 203e
000000d0: 2099 603f 9f37 423f 2ecc 8e3e c097 543f
000000e0: 0847 5b3d ed3b d33e 4f73 9a3f 2030 22bd
000000f0: 061e 653f 2552 a73d 2ec1 15bd 45d9 5c3f
00000100: 6fb2 55bc 111a e93c e333 33be 5664 4f3d
00000110: 95ca d2bd f6e5 aabd 0f97 023d 0287 c23c
00000120: 9048 bcae 069a c73c 82fc 7ebd 0a98 b63d
00000130: 251e 923b 27f9 38bc 541d 4aaf f237 bebd
00000140: 967d 0dbe dd8f 80bc 3f81 a5bd 3a44 16be
00000150: 5bd6 8ebd bb9d 82bd 2205 9abd 472f a2bd
00000160: afd5 ecbc 4157 fcbd f672 e63c 57f4 09be
00000170: 43ba bcba 864c 08bd 9bae d6bd 1dd5 6f3c
00000180: 0424 28bc d3b6 cebb 0dbb 25bd 9984 c53c
00000190: ddbe b1ba edbc dfbc dd10 2ebb 168c 10ba
000001a0: 9280 a09c 614f 1ebc 0af1 a1bb bde1 19b8
000001b0: fb00 92bb b3e0 32b8 4f64 f12f ce24 203d
000001c0: d696 71bb 2482 21ba ba11 10bd ec28 723c
000001d0: 7e89 3f3a b366 54b8 0a0e a2bb d8eb f839
000001e0: ddc8 6cbb 194b 8cbb 8bdd b8b9 12cc 6bbc
000001f0: da7e 8cb9 3be0 b5bb fd90 9bbc d95a 4cbd
00000200: 1e93 a6bc 5d46 773a 2533 913c b495 bdbc
00000210: b55a 5db2 1ed7 b9ba 10f8 1939 3c84 fc37
00000220: cacf 1f80 6235 6aba 7c34 b2bb 9781 a9b6
00000230: 289d 35b8 23a8 84b5 bd5c 2900 712f d6bd
00000240: 044a abb3 4ef2 feb8 f96b 37bb 81a4 0cbc
00000250: 7a09 3d3b da14 dc38 36ef 9739 9194 7eb8
00000260: 52c0 85ba f143 2bbd e81f 07b5 008a 02ba
00000270: a53b 1735 f8c1 263c 8230 703b f771 41bd
00000280: 91c9 31bf eb4c 4f3f f46b b73d 113d 153e
00000290: 8fe0 b23d 43d9 10bf ad0e 683f edb0 8c3f
000002a0: 614a 713d 2cac 033d 050a cdbe 41bb 873e
000002b0: 9247 9d3e 1c29 2d3f eeec 723f 7c90 b13e
000002c0: fe38 05be ce0e 7e3f e728 aebe ea66 bd3e
000002d0: b941 283f 8b63 e63e 977c 31bf 7778 0a3f
000002e0: 54d9 cabe 961d 053f 0b5e 4a3f bf9f 93bf
000002f0: 6b64 fc3e abdf 223e a8f1 1cbd b8ae 173e
00000300: 7430 ccbc 45f2 793f ee5c 163f fc6e 8dbd
00000310: b026 64be 75b2 0cbf da0d 903f 3318 853e
00000320: 198d 3a3d e84c c73e f631 1cbf ea01 713e
00000330: e42b 773e 8287 2d3f 0fc2 883f 8b9b e73e
00000340: 9720 febe f1d4 923f f643 72bf 871c e33e
00000350: 776a 6b3f 4ae1 923e 5a4b abbe 2950 a93e
00000360: 4b02 efbe 1798 973e 43aa eb3e 607e 84be
00000370: 8257 963e a21d bb3e b933 babe c9b3 313e
00000380: 653b c1be a5b5 5f3f 4314 e73e 2392 cd3d
00000390: 0d58 22be 6b41 5d3d 4e65 683f 14c5 15be
000003a0: e3e3 9b3e aed5 943e 154e fbbe 18cd d83d
000003b0: 3fc4 b53e 5a8c 233f 0cdd 883f f269 e53e
000003c0: 28a9 94be 8b59 ad3f e5b9 92be affa 093f
000003d0: fa8f 803f c7bc 553e ff0b 15be 3053 193f
000003e0: 71d0 cabe b80a d13e 5650 a5bc 6640 a1be
000003f0: d64b e53d 4478 e33d 264a 0ebe f80b a53e

fc2.bias f4 [16]
0.2555341 0.18396029 0.019193958 -0.046472903 -0.029662391 -0.6712807 -1.3133239 -0.67456377
-0.35481274 -0.1821171 0.013002868 0.24973771 0.05026432 -0.048122086 0.042308517 -0.18435608
00000000: 5ed5 823e 1660 3c3e a63c 9d3c 5f5a 3ebd
00000010: 8bfe f2bc 0dd9 2bbf ff1a a8bf 36b0 2cbf
00000020: 04aa b5be e87c 3abe fb09 553c 3ebb 7f3e
00000030: f6e1 4d3d aa1b 45bd b24b 2d3d d7c7 3cbe

fc3.weight f4 [1, 16]
-0.5142538 -0.58933824 -0.053198226 -0.07874661 0.0006418016 -0.9536296 -1.2629565 -0.78425854
-0.939505 0.079243116 0.078690454 -0.50365025 0.087519236 0.08752126 -0.7356666 -0.6027727
00000000: 23a6 03bf dfde 16bf 62e6 59bd e745 a1bd
00000010: 943e 283a 1221 74bf 8fa8 a1bf 2bc5 48bf
00000020: 6683 70bf 374a a23d 7628 a13d 39ef 00bf
00000030: 493d b33d 593e b33d a554 3cbf 504f 1abf
