DRL-course/MADDPG/model_dir/episode-10000.pt (torch_old, 71203 bytes, 99 tensors)

fc1.weight f4 [16, 14]
0	0xbf261ab6	-0.6488451
1	0x3e83c1f2	0.25733906
2	0xbf19d0dc	-0.6008432
3	0x3f06742b	0.5252101
4	0x3d697fc2	0.057006605
5	0xbe4d9770	-0.200773
6	0xbdf5c730	-0.120008826
7	0x3e8b7007	0.27233908
8	0x3eebec4b	0.46078715
9	0x3f0acb9f	0.5421695
10	0xbb9fe14a	-0.0048791515
11	0x3da1bef1	0.07897747
12	0x3eabbb22	0.33541209
13	0x3ecbefab	0.3983129
14	0x3f1a99de	0.6039103
15	0x3f8341c2	1.0254443
16	0x3f24f5d0	0.6443758
17	0x3f8b47fd	1.0881344
18	0xbea359f6	-0.31904572
19	0x3f8dbd27	1.107335
20	0x3e560d68	0.20903552
21	0x3e4dc94b	0.20096318
22	0xbdd17409	-0.1022721
23	0x3e62c364	0.22144848
24	0x3e3ab070	0.18231368
25	0x3e4dcb1e	0.20097014
26	0xbd80e86b	-0.0629433
27	0x3e723ebe	0.23656747
28	0xbf20e109	-0.62843376
29	0x3f422594	0.7583859
30	0xbe66e810	-0.22549462
31	0x3ea01743	0.31267747
32	0x3ddbf184	0.10739425
33	0xba57b5b0	-0.00082286727
34	0xbe6e9edd	-0.23302789
35	0xbea491b7	-0.32142422
36	0xbe638e92	-0.22222355
37	0xbf3da844	-0.7408488
38	0x3e806387	0.25075933
39	0xbe8cd7a2	-0.27508265
40	0x3df42044	0.11920217
41	0xbd540817	-0.051765528
42	0xbeea49d7	-0.4575946
43	0x3e1fd750	0.15609479
44	0xbf3081f8	-0.68948317
45	0x3e5bbc0c	0.21458453
46	0x3e8dacf7	0.27671024
47	0x3dd0e5c9	0.10200078
48	0xbecf01d4	-0.40431082
49	0x3d14a882	0.036293514
50	0xbe835aef	-0.25655314
51	0xbdf7456c	-0.12073788
52	0xbe1f04ba	-0.15529147
53	0x3d8fc1d8	0.07019395
54	0xbd908d46	-0.07058196
55	0x3ea476c2	0.32121855
56	0xbecbd84c	-0.3981346
57	0x3eb21a3b	0.34785637
58	0xbeb0d0c7	-0.34534284
59	0x3eb83cfb	0.35984024
60	0xbdf17fa7	-0.11791926
61	0x3cbb46d6	0.022860926
62	0x3eb24e61	0.34825423
63	0x3e5426c7	0.20717917
64	0x3eafc781	0.34331897
65	0x3e892adc	0.26790512
66	0xbf2d1c57	-0.6762137
67	0x3eb2d80b	0.34930453
68	0xbea9f687	-0.33195898
69	0x3ee2d6f2	0.44304615
70	0x3eaccd93	0.3375059
71	0x3e4d136b	0.20026939
72	0x3ef18130	0.47168875
73	0x3d1c264b	0.038122457
74	0x3eb8bec7	0.36083052
75	0xbf2d0be8	-0.6759629
76	0x3f54db33	0.8314697
77	0x3dabde19	0.08391971
78	0xbe2b99ff	-0.16757964
79	0x3e757839	0.23971643
80	0x3f7dde2f	0.9916715
81	0xbd224873	-0.039619874
82	0x3e95f9d1	0.29292157
83	0x3e5714da	0.21004048
84	0xbeca80ec	-0.39551485
85	0x3e0cb51c	0.13740963
86	0xbef6ab47	-0.4817755
87	0x3e3db4b0	0.18525958
88	0x3eba880c	0.3643192
89	0xbeb5e9b8	-0.35529876
90	0x3f0bfaef	0.5467977
91	0xbe0ea55b	-0.13930266
92	0x3d888ca7	0.06667452
93	0x3f88b2b4	1.0679536
94	0xbf2abe0f	-0.66696256
95	0xbd0ca8be	-0.034340613
96	0xbf34f73c	-0.7068975
97	0xbf971496	-1.1803157
98	0x3f3f2982	0.7467271
99	0xbed83bf9	-0.42233256
100	0x3f5d6139	0.86476475
101	0xbf0f792d	-0.56044275
102	0xbea709f0	-0.3262477
103	0xbe330822	-0.17483571
104	0x3e0c89b1	0.137244
105	0xbe1288a0	-0.14309931
106	0xbde38c0e	-0.11110698
107	0xbf060f30	-0.52366924
108	0x3e27816c	0.16357964
109	0xbdfd05f1	-0.12354649
110	0x3e91d778	0.28484702
111	0xbf3ef89f	-0.74598116
112	0x3f73b025	0.9519065
113	0xbeb9ebeb	-0.36312804
114	0x3f87118f	1.0552233
115	0xbf207ba8	-0.62688684
116	0x3de2deb2	0.11077632
117	0xbed71436	-0.42007607
118	0xbeb0c5ab	-0.3452581
119	0xbf2ee72d	-0.68321496
120	0x3db16d6f	0.08663451
121	0xbec2f257	-0.38075516
122	0xbe86574b	-0.26238474
123	0x3e9ece36	0.310167
124	0x3f2b5ddb	0.6694009
125	0x3eefc976	0.4683339
126	0x3e939f04	0.28832257
127	0xbf40a46d	-0.75250894
128	0x3ed4b599	0.41544798
129	0xbec63c91	-0.38718084
130	0x3dac01c3	0.083987735
131	0x3ead391a	0.33832628
132	0x3d535c0f	0.051601466
133	0xbc6075e6	-0.013699984
134	0x3e24df46	0.16100797
135	0xbe713e2e	-0.23558876
136	0x3acaaf8b	0.0015463693
137	0xbd3be114	-0.045868948
138	0x3ded0226	0.115726754
139	0xbea6e63d	-0.32597533
140	0x3de68666	0.11256103
141	0xbcb5aa8d	-0.022176052
142	0x3cd2b387	0.025720371
143	0xbd9fb0a2	-0.07797362
144	0xbf468f14	-0.7756207
145	0x3e45ff45	0.19335659
146	0x3f326160	0.6967983
147	0x3d51a21e	0.051179998
148	0x3f8399f7	1.0281361
149	0x3e9588ee	0.29206032
150	0x3ec0c582	0.37650687
151	0x3e7ca901	0.24673845
152	0x3e9f4d0e	0.31113476
153	0x3dba4cdf	0.09096693
154	0xbef91167	-0.4864609
155	0x3d11ac1f	0.035564538
156	0xbe289151	-0.16461684
157	0x3dd9cc95	0.10634724
158	0xbebd42b9	-0.36964968
159	0x3ed648c5	0.41852394
160	0xbe0cead8	-0.13761461
161	0x3e5efba7	0.21775685
162	0xbcfe6dda	-0.03105824
163	0x3eb00452	0.34378296
164	0x3e03cad8	0.12870347
165	0xbf93e25e	-1.1553457
166	0x3da42553	0.080149315
167	0xbf6a1e4f	-0.914525
168	0xbfaff3c9	-1.3746272
169	0xbf800b12	-1.0003378
170	0xbfc042d2	-1.5020392
171	0xbf710f47	-0.94163936
172	0x3eaaa80e	0.3333134
173	0xbea7ee50	-0.32799006
174	0xbf03e864	-0.51526475
175	0xbea7d283	-0.32777795
176	0xbf17783e	-0.5916785
177	0xbf3ffe76	-0.7499765
178	0xbedb745c	-0.42862213
179	0xbe1356ad	-0.14388533
180	0xbf08fb0e	-0.5350808
181	0xbf5900c6	-0.84766805
182	0xbe9c1fde	-0.30493063
183	0x3ee42443	0.44558915
184	0xbdef7c2d	-0.116936065
185	0x3e8dcdd8	0.2769611
186	0x3b5ebd28	0.0033987258
187	0xbdb00c62	-0.08596112
188	0x3f299005	0.6623538
189	0xbfb1017d	-1.3828579
190	0x3f11cfec	0.5695789
191	0xbfcbc12c	-1.5918326
192	0xbea3cace	-0.31990665
193	0x3ea03dcd	0.3129715
194	0xbe16bb71	-0.1471994
195	0x3e248b09	0.16068663
196	0x3f61a76b	0.88146085
197	0xbe107ff9	-0.14111318
198	0x3f38c25f	0.72171587
199	0xbe13530a	-0.14387146
200	0x3eaf9e30	0.34300375
201	0xbdf6b832	-0.12046851
202	0x3d3a8bf7	0.045543637
203	0x3e030b18	0.127972
204	0x3eaad331	0.3336425
205	0x3e96752d	0.29386273
206	0x3ecdcc9b	0.40195164
207	0xbf7cbff6	-0.9873041
208	0x3d932915	0.0718557
209	0xbf8ffccb	-1.1249021
210	0x3ed1e8ca	0.40997916
211	0x3f2c1492	0.6721889
212	0x3eaa738e	0.33291286
213	0x3f773d9f	0.965784
214	0x3f06164a	0.5237776
215	0xbfa7f2d2	-1.3120978
216	0x3ec05493	0.37564525
217	0xbda6fece	-0.08154069
218	0x3ebccaf5	0.36873594
219	0xbecf66d6	-0.40508145
220	0xbdabb224	-0.08383587
221	0xbdcfa074	-0.10138026
222	0xbce55286	-0.027993452
223	0xbf674919	-0.90345913

fc1.bias f4 [16]
0	0xbf23a3cc	-0.6392181
1	0xbe3c2384	-0.18372923
2	0x3f27ae0e	0.6549996
3	0x3f431e3a	0.76218
4	0x3e9d5801	0.30731204
5	0x3f119d18	0.5688033
6	0x3e66afeb	0.22528045
7	0xbfa647ef	-1.2990702
8	0xbe74ebbd	-0.23918052
9	0xbf52babc	-0.82316184
10	0x3ec67b0a	0.38765746
11	0x3f2f7d85	0.685509
12	0xbec1bc9f	-0.3783922
13	0x3f302720	0.688097
14	0x3e166aa4	0.14689118
15	0x3d29cf9f	0.04145777

fc2.weight f4 [8, 16]
0	0xbea654d8	-0.32486606
1	0xbe9839e6	-0.29731673
2	0x3bbc1699	0.0057399985
3	0x3dc45e52	0.09588303
4	0x3d9c6688	0.07636744
5	0x3ee88571	0.45414308
6	0xbd02baee	-0.03191655
7	0x3eeec20b	0.46632418
8	0x3e80abf7	0.251312
9	0x3efeec7e	0.49789804
10	0xbd063290	-0.032763064
11	0x3f364e9b	0.7121369
12	0x3fa2f9e7	1.2732514
13	0x3f2957b9	0.6614948
14	0x3f181357	0.5940451
15	0xbf204353	-0.6260273
16	0xbcb45f2d	-0.02201804
17	0x3f5f96d6	0.8733953
18	0xbd9c4cbb	-0.07631823
19	0xbe3c95f5	-0.18416579
20	0xbd1ccc57	-0.03828081
21	0x3f751785	0.9573901
22	0xbc5a876c	-0.013337951
23	0x3e73af8c	0.23797435
24	0x3e0a691c	0.13516659
25	0xbd82b1d1	-0.06381572
26	0x3f0a2125	0.53956825
27	0x399874c2	0.0002907869
28	0xbe3ed1e5	-0.18634756
29	0xbc95d40c	-0.018289588
30	0x3e502bb0	0.20329165
31	0xbe667a9b	-0.22507708
32	0x3e22d4a3	0.15901427
33	0x3ea913df	0.33022973
34	0xbf0bd9de	-0.54629314
35	0xbef0cc1f	-0.47030732
36	0xbeb7e91a	-0.3592003
37	0xbe7a796e	-0.24460384
38	0xbf1007fe	-0.56262195
39	0x3e824d0c	0.25449407
40	0xbf75aa86	-0.95963323
41	0x3f0192e0	0.5061474
42	0x3ceba2eb	0.028764209
43	0x3c17930d	0.009251368
44	0xbda6af91	-0.081389554
45	0x3e00b734	0.12569886
46	0xbf929277	-1.1450948
47	0x3eef3226	0.46717948
48	0xbe45ef56	-0.1932958
49	0xbe4d4153	-0.2004445
50	0x3dd7505f	0.105133764
51	0xbbca9c7c	-0.006183205
52	0x3d49d386	0.04927399
53	0xbd2aedfe	-0.041730873
54	0x3dc29339	0.09500737
55	0xbec4356b	-0.38322005
56	0xbe4692b2	-0.19391897
57	0xbe630033	-0.22168045
58	0xbdb858a2	-0.0900128
59	0xbe5fff6f	-0.21874784
60	0xbb8ab652	-0.00423316
61	0xbe56e548	-0.20985901
62	0xbdfacc76	-0.12246029
63	0xbe71b856	-0.23605475
64	0xbe0c1d06	-0.13682947
65	0xbecd47a0	-0.40093708
66	0xbdc386e4	-0.09547213
67	0x3e91f38b	0.2850612
68	0xbeb49b41	-0.352747
69	0xbe0a0af6	-0.13480744
70	0xbebb8c22	-0.3663035
71	0xbe38d424	-0.18049675
72	0xbebd5113	-0.36975917
73	0xbe7d1d40	-0.24718189
74	0x3eb594ff	0.35465237
75	0xbf840ea2	-1.0316966
76	0xbe0f05a4	-0.13966995
77	0x3f562e9c	0.8366487
78	0xbebccd00	-0.36875153
79	0x3c7036e4	0.014661524
80	0xbf115be0	-0.56780815
81	0x3e84a0fc	0.2590407
82	0x3f1d79a3	0.6151373
83	0xbce5e963	-0.028065389
84	0xbeb5a2a3	-0.35475644
85	0x3e1b8281	0.15186502
86	0xbee113b5	-0.43960348
87	0xbfd528b9	-1.6653053
88	0xbdc01b0e	-0.0938016
89	0xbd5c1b85	-0.053737182
90	0xbe3ea199	-0.18616332
91	0xbc7d575e	-0.0154627245
92	0xbdff959c	-0.124797076
93	0xbfcd92e6	-1.6060455
94	0x3e3c41c1	0.18384458
95	0x3eb3f401	0.35147098
96	0x3d0a7710	0.033804953
97	0xbe796d78	-0.24358165
98	0xbf82d720	-1.0221901
99	0xbf2350a8	-0.63794947
100	0xbe4301b3	-0.19043617
101	0x3cb599e7	0.022168113
102	0xbf788148	-0.9707227
103	0x3efdd1a6	0.49574012
104	0x3f1ec72b	0.62022656
105	0x3d9a43f7	0.075324945
106	0x3f312bd4	0.692075
107	0xbffa75b3	-1.9567169
108	0xbec479cd	-0.38374177
109	0xbfdae3f7	-1.7100819
110	0x3f0cc36c	0.5498569
111	0x3f3e6139	0.743671
112	0x3efbfe6d	0.4921755
113	0x3e5ad929	0.21371903
114	0x3f1280b7	0.57227653
115	0x3efe70aa	0.4969533
116	0x3f2cd1e9	0.675078
117	0xbd272704	-0.040808693
118	0x3f2924b8	0.66071653
119	0xbf902c6c	-1.1263556
120	0xbea321d4	-0.31861746
121	0xbe85d048	-0.26135468
122	0x3e085380	0.13313103
123	0x3d675950	0.05648166
124	0x3f34534f	0.7043962
125	0xbd556ce2	-0.052105792
126	0xbefb86c2	-0.4912625
127	0x3e4cf743	0.20016198

fc2.bias f4 [8]
0	0x3ed17968	0.40912938
1	0x3efdfe2b	0.49607977
2	0xbf739ed2	-0.95164216
3	0xbdaeb70e	-0.08531009
4	0xbdff0b5b	-0.12453338
5	0x3f24cf8c	0.6437919
6	0x3eb3cd88	0.35117745
7	0x3ede6bfa	0.43441755

fc3.weight f4 [2, 8]
0	0x3cee68cd	0.029102707
1	0x3f2a3583	0.664879
2	0x3ee9d453	0.45669803
3	0x3df2ae1f	0.11849617
4	0xbdc4664c	-0.09589824
5	0xbefc1ade	-0.49239248
6	0x3f1a1b37	0.60197777
7	0xbefbd168	-0.49183202
8	0xbf2735fa	-0.65316737
9	0x3e8237be	0.25433153
10	0xbef6c7c4	-0.48199284
11	0x3c98534f	0.018594412
12	0x3efe38fc	0.4965285
13	0x3f3788da	0.71693194
14	0xbe70f81d	-0.23532148
15	0x3f1341cc	0.57522273

fc3.bias f4 [2]
0	0x3ce01a9b	0.027356436
1	0xbc2f8bc4	-0.010714475

exp_avg f4 [16, 14]
0	0x373217d4	1.0615175e-05
1	0xb69e34cc	-4.7149133e-06
2	0x3765ff0a	1.3708845e-05
3	0xb7b4fe08	-2.1575965e-05
4	0x37598a6c	1.2966437e-05
5	0xb5c7545c	-1.4851207e-06
6	0x38507819	4.9702914e-05
7	0xb8a48fc0	-7.846905e-05
8	0x377fef85	1.5254952e-05
9	0xb71a0e25	-9.182409e-06
10	0x36167e12	2.2425124e-06
11	0xb89d5d35	-7.5037045e-05
12	0x3518e4f2	5.695757e-07
13	0xb707f14d	-8.102809e-06
14	0xb844c50e	-4.6913563e-05
15	0xb726007b	-9.894483e-06
16	0x3710b299	8.624652e-06
17	0x3799223e	1.8254967e-05
18	0xb8c1b577	-9.2367576e-05
19	0x3615ac58	2.2303047e-06
20	0x3835561f	4.323397e-05
21	0x38f428da	0.00011642436
22	0x37953aff	1.7789656e-05
23	0x388647ca	6.40299e-05
24	0x3902f0e0	0.00012487499
25	0xb946cdc6	-0.00018959408
26	0x3765926c	1.3683555e-05
27	0x35fcf5b0	1.8846968e-06
28	0x3777a460	1.4760619e-05
29	0x379e9cc0	1.890806e-05
30	0x362e9c03	2.6018831e-06
31	0xb59eace8	-1.182224e-06
32	0xb80d6254	-3.3708595e-05
33	0xb827fcfb	-4.005151e-05
34	0x36681618	3.4583554e-06
35	0xb784f00e	-1.584741e-05
36	0xb73f2e7d	-1.1395311e-05
37	0x3822ebf0	3.8843544e-05
38	0x37f631ca	2.934867e-05
39	0xb90b22bc	-0.00013269013
40	0xb680cf00	-3.8387952e-06
41	0xb68b2bc6	-4.1476187e-06
42	0x383628ff	4.3430362e-05
43	0xb760fd5a	-1.3410428e-05
44	0xb83febb4	-4.5757464e-05
45	0xb7ecd566	-2.8232764e-05
46	0xb668d4e3	-3.469461e-06
47	0xb858d506	-5.1696807e-05
48	0x38c4c33b	9.382373e-05
49	0xb95287c6	-0.0002007774
50	0x350a4ec4	5.1523625e-07
51	0xb81041aa	-3.439343e-05
52	0x38555829	5.0865263e-05
53	0xb94346cd	-0.00018623025
54	0xb738287f	-1.0976683e-05
55	0xb8245212	-3.917708e-05
56	0xb79dcd20	-1.8811377e-05
57	0xb6b270b2	-5.317933e-06
58	0xb7979ec8	-1.8074541e-05
59	0xb7fa1d9e	-2.9816114e-05
60	0x378f8575	1.7109074e-05
61	0xb70ca96e	-8.384099e-06
62	0x3826b24a	3.974353e-05
63	0xb93b33fc	-0.00017853075
64	0x36249f6a	2.4530696e-06
65	0xb765f86f	-1.3707307e-05
66	0x38a3c332	7.808804e-05
67	0xb93749e8	-0.00017479772
68	0xb6362622	-2.714231e-06
69	0xb7ea5d1b	-2.793833e-05
70	0x378a6b9a	1.6500988e-05
71	0xb85c2b23	-5.249226e-05
72	0x3830667d	4.205712e-05
73	0xb74fd09d	-1.2386733e-05
74	0x37da6685	2.6035364e-05
75	0x385ae965	5.2192616e-05
76	0xb792460d	-1.7437176e-05
77	0x3827eaea	4.0034683e-05
78	0x38724e45	5.777019e-05
79	0x388f76d0	6.840902e-05
80	0xb7b0780d	-2.1036738e-05
81	0xb5fa0e50	-1.8630617e-06
82	0x37d95b6c	2.5910987e-05
83	0x38912e08	6.922713e-05
84	0xb6924719	-4.359416e-06
85	0xb59091f8	-1.0771319e-06
86	0xb7eefca4	-2.8489456e-05
87	0x36538fdc	3.1525187e-06
88	0x36b68590	5.4395714e-06
89	0xb806ed06	-3.2168835e-05
90	0x37f4c23c	2.9177514e-05
91	0xb931e53c	-0.00016965432
92	0x37755078	1.4621874e-05
93	0x351c7990	5.8291425e-07
94	0x379e19ea	1.8847135e-05
95	0xb7a6b324	-1.9872161e-05
96	0x36af1ed6	5.218996e-06
97	0xb7b620a4	-2.171129e-05
98	0x38887ff5	6.508819e-05
99	0x35f1ec4c	1.8024671e-06
100	0x382ba09c	4.0919156e-05
101	0x37a6a949	1.9867572e-05
102	0x37acb6b8	2.0589083e-05
103	0xb78d50c3	-1.6846117e-05
104	0x388d380a	6.733842e-05
105	0xb6d3e6b7	-6.3151488e-06
106	0xb75f0d3e	-1.3294919e-05
107	0xb74bb4a7	-1.2141804e-05
108	0x38bf40eb	9.1196816e-05
109	0xb6de0d29	-6.6176476e-06
110	0xb765926e	-1.3683557e-05
111	0xb87f5f9f	-6.088579e-05
112	0x360caff0	2.0964035e-06
113	0xb7c9533d	-2.3999828e-05
114	0x37038a5c	7.840423e-06
115	0x37ff5da0	3.0441966e-05
116	0x38123318	3.4856697e-05
117	0x380c0b2c	3.3389006e-05
118	0xb6c03114	-5.7277593e-06
119	0x3824d42c	3.9298247e-05
120	0x36459e88	2.9447565e-06
121	0x37c1dc98	2.3110115e-05
122	0x37bd88d5	2.2594273e-05
123	0x38c3f6e5	9.344312e-05
124	0xb7b8eadc	-2.2043874e-05
125	0xb6b4d7aa	-5.3895246e-06
126	0x35bfd124	1.4291477e-06
127	0x3737a543	1.0946128e-05
128	0x354435ba	7.309387e-07
129	0x374ba614	1.2138411e-05
130	0x35174c7c	5.6363183e-07
131	0x3606658b	2.0026662e-06
132	0x36bb898c	5.589047e-06
133	0xb6933b56	-4.387849e-06
134	0xb67d004a	-3.7700106e-06
135	0x36036069	1.957664e-06
136	0x36530b1a	3.1447912e-06
137	0xb67b5fe0	-3.7457721e-06
138	0xb5f3e607	-1.8171858e-06
139	0x350cee15	5.250052e-07
140	0xb7902de0	-1.71875e-05
141	0xb7ac2980	-2.0523323e-05
142	0xb68ead3c	-4.252097e-06
143	0xb7f28d06	-2.8914317e-05
144	0xb7bdd23c	-2.2628454e-05
145	0xb7cc816e	-2.4378965e-05
146	0x37a9bcc3	2.0234269e-05
147	0xb9195f1d	-0.0001462665
148	0x3800fb3f	3.075157e-05
149	0xb77270c3	-1.4450578e-05
150	0xb601b7b8	-1.9329436e-06
151	0xb889cb50	-6.570539e-05
152	0x379beec4	1.8588624e-05
153	0x383b84b2	4.4707856e-05
154	0xb81fefe3	-3.8131966e-05
155	0xb89ec394	-7.5704564e-05
156	0x37e0cc3b	2.6797983e-05
157	0xb88f7178	-6.8399066e-05
158	0x37c2b24c	2.3209628e-05
159	0x384b51a8	4.847502e-05
160	0xb8cb4f6f	-9.69459e-05
161	0x39b84e74	0.00035153667
162	0xb81daa2e	-3.759021e-05
163	0x38bd54b2	9.027998e-05
164	0xb8aedfc0	-8.338643e-05
165	0x397f90a8	0.00024372584
166	0xb78afd8e	-1.6568953e-05
167	0xb3e04e00	-1.0445001e-07
168	0x36664dfa	3.431806e-06
169	0x38692911	5.5589775e-05
170	0xb795b174	-1.7844817e-05
171	0x38126b6c	3.4909157e-05
172	0x36785f20	3.701025e-06
173	0xb68d978e	-4.2197707e-06
174	0xb6c12736	-5.756413e-06
175	0xb76444e3	-1.3605898e-05
176	0xb7a39268	-1.949929e-05
177	0xb6d87240	-6.450602e-06
178	0x3764b6c2	1.3632411e-05
179	0xb5d39a28	-1.576559e-06
180	0xb666bf15	-3.4383895e-06
181	0xb79f0de5	-1.8960747e-05
182	0x3839f2d9	4.4333607e-05
183	0xb7d3c8a4	-2.524659e-05
184	0x389ff970	7.628172e-05
185	0xb8cab596	-9.6659336e-05
186	0x38a18c0b	7.703163e-05
187	0x3751631f	1.2480449e-05
188	0x384dc822	4.9062197e-05
189	0x3846382e	4.72592e-05
190	0x3789aa55	1.641099e-05
191	0xb8367b94	-4.3507272e-05
192	0xb6eee1c8	-7.119237e-06
193	0x3a050c8f	0.0005075419
194	0x374afed3	1.2099469e-05
195	0x3841f65d	4.624423e-05
196	0xb817eea4	-3.6223457e-05
197	0xb8c84e11	-9.551284e-05
198	0x3810a3f0	3.4484954e-05
199	0xb8d56f42	-0.00010177355
200	0x37e54ad2	2.7333768e-05
201	0x38277f33	3.9934366e-05
202	0xb751b20e	-1.2498827e-05
203	0x399f5bc8	0.00030395226
204	0xb8109d56	-3.4478806e-05
205	0x37306b12	1.0515347e-05
206	0xb8a90b80	-8.06069e-05
207	0x39086798	0.00013008562
208	0xb6f5a01b	-7.3202077e-06
209	0x384e445e	4.91779e-05
210	0xb4a57bc0	-3.0823685e-07
211	0x38392e7d	4.4150733e-05
212	0xb7e3f5ce	-2.717497e-05
213	0x3802a93d	3.115203e-05
214	0xb82f5404	-4.1801497e-05
215	0xb89958c8	-7.312145e-05
216	0xb5b6ab38	-1.3609888e-06
217	0xb8ebfceb	-0.00011252783
218	0x37ca8266	2.4140998e-05
219	0xb79a2752	-1.837654e-05
220	0x3811b38b	3.4737906e-05
221	0xb9529b85	-0.00020085096
222	0x371188b4	8.674502e-06
223	0xb89b11dd	-7.394303e-05

exp_avg_sq f4 [16, 14]
0	0x3383a232	6.129666e-08
1	0x33a3084c	7.591788e-08
2	0x3380df08	6.0010336e-08
3	0x33ae30b1	8.111363e-08
4	0x31193380	2.2293705e-09
5	0x30f289b8	1.764696e-09
6	0x337142c7	5.617292e-08
7	0x35338403	6.68748e-07
8	0x30c3a338	1.4234507e-09
9	0x32a1e367	1.8846277e-08
10	0x33a54e2d	7.697631e-08
11	0x34892f6d	2.5552745e-07
12	0x30b933b8	1.3475221e-09
13	0x31985436	4.433356e-09
14	0x3571ea4a	9.012043e-07
15	0x348d4b5a	2.6318122e-07
16	0x35696ec8	8.696047e-07
17	0x348d6b6b	2.6341453e-07
18	0x329a062f	1.7930772e-08
19	0x32402688	1.1184632e-08
20	0x34e86404	4.3286138e-07
21	0x36b4bb68	5.386235e-06
22	0x3296f529	1.7573784e-08
23	0x348356f3	2.4463915e-07
24	0x3505b5d8	4.981098e-07
25	0x36a1aaf0	4.8180736e-06
26	0x32836128	1.5294589e-08
27	0x3455bef7	1.9906643e-07
28	0x345d7d88	2.0627897e-07
29	0x3493187f	2.7398707e-07
30	0x347efefe	2.3748359e-07
31	0x348d98f6	2.637459e-07
32	0x324b84ac	1.1846321e-08
33	0x3230fe32	1.0302346e-08
34	0x34bb9272	3.4938017e-07
35	0x3582c084	9.741784e-07
36	0x3209356b	7.986595e-09
37	0x32ef0acc	2.7828172e-08
38	0x34cb4251	3.7859948e-07
39	0x35aec6ee	1.3021906e-06
40	0x31f8ff7f	7.2467965e-09
41	0x333b649d	4.3630838e-08
42	0x351ae930	5.7708803e-07
43	0x351fc67c	5.952095e-07
44	0x35108f5b	5.385279e-07
45	0x351e3073	5.893009e-07
46	0x32af994e	2.0442396e-08
47	0x329d2414	1.8293612e-08
48	0x3521ecc3	6.032171e-07
49	0x3662ec03	3.3814001e-06
50	0x3283f9ae	1.5363948e-08
51	0x33c983dc	9.383777e-08
52	0x352d3258	6.452078e-07
53	0x368960cf	4.094188e-06
54	0x32648476	1.3301465e-08
55	0x34046b96	1.2332598e-07
56	0x33ecdfa1	1.1030284e-07
57	0x344946ae	1.8745297e-07
58	0x33ed967b	1.1063545e-07
59	0x34598a62	2.0260043e-07
60	0x32449c9d	1.1444311e-08
61	0x321091b8	8.415036e-09
62	0x34161199	1.397624e-07
63	0x35a7026e	1.2443177e-06
64	0x3218f265	8.902679e-09
65	0x33391ea8	4.310155e-08
66	0x341fe37c	1.4890787e-07
67	0x35930570	1.0953936e-06
68	0x320e8d59	8.297627e-09
69	0x331bcd64	3.627555e-08
70	0x34280460	1.5647811e-07
71	0x33d13724	9.742351e-08
72	0x342300e8	1.5180888e-07
73	0x33bdcbde	8.8380816e-08
74	0x32251722	9.609524e-09
75	0x31e9f7aa	6.8093486e-09
76	0x341945c3	1.4274615e-07
77	0x3533081d	6.66945e-07
78	0x32159872	8.7076035e-09
79	0x331d20fd	3.6584414e-08
80	0x340bfb49	1.3036801e-07
81	0x351057d3	5.377198e-07
82	0x32074d06	7.875547e-09
83	0x33098f83	3.202832e-08
84	0x33d07c6b	9.708386e-08
85	0x33d35cba	9.84232e-08
86	0x33b78e10	8.5474426e-08
87	0x33d77962	1.0033797e-07
88	0x31aeb492	5.084595e-09
89	0x318c62ad	4.0857544e-09
90	0x3424adec	1.5336963e-07
91	0x351e2ac4	5.892182e-07
92	0x31265fcd	2.4210636e-09
93	0x32cd6cda	2.3914641e-08
94	0x341575dc	1.3919583e-07
95	0x34added5	3.2385893e-07
96	0x312e85e9	2.5396452e-09
97	0x31afa7ee	5.1122617e-09
98	0x350e9617	5.311753e-07
99	0x342fc6de	1.6370493e-07
100	0x350cbb80	5.242691e-07
101	0x343432be	1.6782266e-07
102	0x32a33220	1.8998492e-08
103	0x320fbb15	8.366233e-09
104	0x35387682	6.8717793e-07
105	0x355d5157	8.244728e-07
106	0x3204459d	7.6992395e-09
107	0x32b32a46	2.0857566e-08
108	0x353e7a5e	7.0958583e-07
109	0x3565685a	8.5461e-07
110	0x31f9fc05	7.275505e-09
111	0x32db6369	2.5540162e-08
112	0x33cf878f	9.6638466e-08
113	0x3328604a	3.9203123e-08
114	0x33c42118	9.132981e-08
115	0x33228e70	3.784811e-08
116	0x319d390f	4.575788e-09
117	0x31b46f8f	5.2513722e-09
118	0x33d05b11	9.70232e-08
119	0x33d3b715	9.8587556e-08
120	0x31bbfd8d	5.4712417e-09
121	0x318f4f31	4.1708508e-09
122	0x33d01c5a	9.690912e-08
123	0x35c284b5	1.4492749e-06
124	0x31e786a0	6.73829e-09
125	0x3394e9e5	6.934332e-08
126	0x3447c85b	1.8606208e-07
127	0x3418339f	1.4174883e-07
128	0x344ba1a4	1.8964653e-07
129	0x342a4c4e	1.5860243e-07
130	0x31cac50b	5.901375e-09
131	0x31757c7e	3.5722958e-09
132	0x3441987b	1.8029998e-07
133	0x352770f0	6.2376694e-07
134	0x313bf455	2.7350968e-09
135	0x323efae7	1.1116504e-08
136	0x34583984	2.0137492e-07
137	0x34f435a8	4.5487582e-07
138	0x314c3ad9	2.9719358e-09
139	0x32150fd3	8.6765395e-09
140	0x33a24b68	7.557429e-08
141	0x33e3389b	1.0580808e-07
142	0x339b4ad9	7.231365e-08
143	0x33de1507	1.03415054e-07
144	0x31853ecd	3.877949e-09
145	0x318b5610	4.0552166e-09
146	0x33d43594	9.881765e-08
147	0x350abc6f	5.1683213e-07
148	0x313e7341	2.7714153e-09
149	0x32bac2ea	2.1741887e-08
150	0x3418a300	1.4215402e-07
151	0x35631dca	8.460744e-07
152	0x31858146	3.885506e-09
153	0x330ee7bc	3.3272713e-08
154	0x344769f7	1.8571869e-07
155	0x33f65e5a	1.147243e-07
156	0x3452334e	1.9576439e-07
157	0x33dfe885	1.0426542e-07
158	0x323fa153	1.1154344e-08
159	0x3200896c	7.481827e-09
160	0x33e9e50c	1.08915714e-07
161	0x354ac9b0	7.554436e-07
162	0x32428d82	1.1324461e-08
163	0x33444e1e	4.5705853e-08
164	0x3414fdca	1.3875902e-07
165	0x3492cec1	2.7345052e-07
166	0x3224641a	9.568817e-09
167	0x32098025	8.003586e-09
168	0x31eee642	6.952889e-09
169	0x3318c10b	3.556583e-08
170	0x32020334	7.567724e-09
171	0x3318617c	3.547892e-08
172	0x315e88f4	3.23831e-09
173	0x310131de	1.8800317e-09
174	0x32a2b022	1.8939378e-08
175	0x33822d70	6.061862e-08
176	0x30bebd65	1.3878149e-09
177	0x30ae86ae	1.2698445e-09
178	0x3378bfc9	5.7916427e-08
179	0x33a4c758	7.6731055e-08
180	0x310ee288	2.0792488e-09
181	0x30e88c04	1.6920016e-09
182	0x346621b7	2.1432685e-07
183	0x3401458f	1.2039366e-07
184	0x34613196	2.0972797e-07
185	0x33f3acb9	1.1346987e-07
186	0x3247260e	1.1591977e-08
187	0x322d0b7b	1.0072536e-08
188	0x344db358	1.9157358e-07
189	0x344e6cd8	1.9224842e-07
190	0x32149285	8.6480485e-09
191	0x31cc4fd5	5.9462573e-09
192	0x34999b5b	2.8611507e-07
193	0x354cd8e2	7.631153e-07
194	0x3242808d	1.1321515e-08
195	0x3348831e	4.668538e-08
196	0x348bd471	2.604534e-07
197	0x33c2ba34	9.067699e-08
198	0x348a2b5b	2.5736048e-07
199	0x33b3089d	8.336904e-08
200	0x3237bf02	1.0695432e-08
201	0x32043740	7.695974e-09
202	0x344ee857	1.926977e-07
203	0x35e9bd56	1.7414957e-06
204	0x3262e778	1.3207561e-08
205	0x33df0d18	1.03866284e-07
206	0x3484860a	2.4684442e-07
207	0x34c4885e	3.6607065e-07
208	0x3233a1b2	1.0455937e-08
209	0x327cff3f	1.4726367e-08
210	0x34077c43	1.2618061e-07
211	0x3405f4e8	1.2475687e-07
212	0x340ab984	1.2919742e-07
213	0x3405d1f0	1.2462965e-07
214	0x319a2365	4.486014e-09
215	0x31a69d3a	4.8491104e-09
216	0x343043ed	1.6415989e-07
217	0x34c711ae	3.7079502e-07
218	0x316b3e09	3.4232264e-09
219	0x320bb4ef	8.132004e-09
220	0x34885367	2.5392657e-07
221	0x34e3477c	4.2334057e-07
222	0x31d03424	6.0595244e-09
223	0x32218019	9.400559e-09

exp_avg f4 [16]
0	0x35f7eee2	1.8472458e-06
1	0x39ced1a7	0.00039447585
2	0x3a032d9e	0.0005004051
3	0x39a93e66	0.00032280682
4	0x391aa98e	0.00014749749
5	0xb9a3a15e	-0.0003121001
6	0x39635553	0.00021680193
7	0x38a45d59	7.837517e-05
8	0xb8eeb5da	-0.00011382597
9	0xb74fa33b	-1.23761665e-05
10	0x37c1c72c	2.310014e-05
11	0xba027c34	-0.0004977614
12	0x38aef8de	8.343322e-05
13	0xba13a4c5	-0.00056321576
14	0xba0c05c0	-0.0005341433
15	0x39b2e0fa	0.00034118426

exp_avg_sq f4 [16]
0	0x33bc48dc	8.767685e-08
1	0x36529faa	3.1385375e-06
2	0x35b2affe	1.3313254e-06
3	0x35f96f0f	1.8584268e-06
4	0x35695e8a	8.6936836e-07
5	0x3578faa2	9.275192e-07
6	0x34945e52	2.7635775e-07
7	0x34750029	2.2817461e-07
8	0x35061e89	4.9963324e-07
9	0x3420ec5e	1.4987151e-07
10	0x34eeb923	4.446566e-07
11	0x3550750f	7.765638e-07
12	0x3339968b	4.3210587e-08
13	0x35d0de2b	1.5561867e-06
14	0x35e49b66	1.7032551e-06
15	0x353e9580	7.0998067e-07

exp_avg f4 [8, 16]
0	0xb81c9db7	-3.734018e-05
1	0xb87c581a	-6.0163533e-05
2	0xb9ccb06e	-0.00039041362
3	0xb997abda	-0.00028929004
4	0xb926b690	-0.00015899003
5	0xb99f3253	-0.00030364338
6	0xb93d1936	-0.00018033836
7	0x377cfa5e	1.5078664e-05
8	0xb6a27914	-4.8420716e-06
9	0xb5e947d2	-1.7380755e-06
10	0xb9826de4	-0.00024877407
11	0xba121aca	-0.000557345
12	0xb85d6eb6	-5.2793614e-05
13	0xba1da0b4	-0.00060130213
14	0xb944357a	-0.00018711938
15	0xb95bd554	-0.00020964938
16	0x38872bc1	6.4454514e-05
17	0xb82c2520	-4.104257e-05
18	0xb89ddf7d	-7.527971e-05
19	0xb9202a22	-0.00015274485
20	0x38f4a9ee	0.000116664785
21	0xb888f4d0	-6.530585e-05
22	0xb8a8fefd	-8.0583595e-05
23	0x37f4d43e	2.91859e-05
24	0x38836c63	6.2667554e-05
25	0x37359001	1.0821969e-05
26	0x3859717e	5.184253e-05
27	0xb8241f18	-3.9129605e-05
28	0xb851ec35	-5.0049468e-05
29	0x3987ab32	0.00025876757
30	0x38344c70	4.2986532e-05
31	0xb91333c6	-0.000140383
32	0x24db9f6c	9.524618e-17
33	0xb2d6f22e	-2.502301e-08
34	0xb013811f	-5.366178e-10
35	0x302bc706	6.2492267e-10
36	0xb1e06214	-6.530408e-09
37	0xb2921b77	-1.7009127e-08
38	0xa8fa2e11	-2.7775554e-14
39	0xa206581f	-1.8207037e-18
40	0x2e9cdf4d	7.133725e-11
41	0x0a975719	1.4573534e-32
42	0xb2207e5c	-9.3419565e-09
43	0x1902ddf3	6.765665e-24
44	0x09008f7e	1.547491e-33
45	0x2fe1bf41	4.1063156e-10
46	0xb16cc8ef	-3.4456737e-09
47	0xb2898f45	-1.601405e-08
48	0xaf3b5188	-1.7036517e-10
49	0xaee4cede	-1.04049866e-10
50	0xb0e0e66b	-1.6363634e-09
51	0xb140fa69	-2.808202e-09
52	0xb125dc4b	-2.4135882e-09
53	0xadb6a559	-2.0764434e-11
54	0xb1105a80	-2.1006201e-09
55	0x00000004	6e-45
56	0xada08302	-1.8248073e-11
57	0x00000004	6e-45
58	0xb0233b73	-5.9383537e-10
59	0xb03ee1e7	-6.9442624e-10
60	0xb1191c00	-2.2280346e-09
61	0xad31fa89	-1.0116915e-11
62	0x8caf3f8e	-2.700127e-31
63	0x98a9404e	-4.3750407e-24
64	0xb71f3d50	-9.491414e-06
65	0xb8221b6f	-3.864936e-05
66	0x3905aa22	0.00012747248
67	0x38734ad2	5.8005397e-05
68	0x37c3bcf0	2.3333792e-05
69	0x38f79a77	0.00011806649
70	0x38221d29	3.8650967e-05
71	0x33e9a270	1.0879455e-07
72	0x38438049	4.6611098e-05
73	0x3594097f	1.1029623e-06
74	0x3898ead6	7.2916664e-05
75	0x3907d3e3	0.00012953537
76	0x37ce6af1	2.4606912e-05
77	0x399e0d8d	0.00030146205
78	0x389aea36	7.3869174e-05
79	0x38f1451f	0.0001150465
80	0x37508f98	1.2431199e-05
81	0x38228b5a	3.875359e-05
82	0x3901f3b9	0.00012393192
83	0x39525ee7	0.00020062515
84	0x3887ab42	6.469201e-05
85	0x392968ee	0.00016156185
86	0x38c54c08	9.407854e-05
87	0xb7078a0a	-8.078767e-06
88	0xb51be5e4	-5.8076535e-07
89	0x35c75038	1.4850002e-06
90	0x38bd302b	9.021194e-05
91	0x39aa3037	0.0003246085
92	0x37bd8a45	2.2594942e-05
93	0x380fea44	3.4312034e-05
94	0x390b13b4	0.00013263413
95	0x38b1e0ea	8.481911e-05
96	0xb4e663ce	-4.2913456e-07
97	0xb894b2b9	-7.0904796e-05
98	0x34f60bdc	4.58297e-07
99	0xb6096540	-2.0473526e-06
100	0xb696352a	-4.4765375e-06
101	0xb7e2a95a	-2.702016e-05
102	0xb7326016	-1.06319985e-05
103	0x37f34c5c	2.9003415e-05
104	0x37d9fa30	2.5984918e-05
105	0x374aa316	1.207811e-05
106	0xb80efabc	-3.4088953e-05
107	0xb6e4f58c	-6.823515e-06
108	0xb59bf889	-1.1620733e-06
109	0xb64f5a1a	-3.089785e-06
110	0x37c4c05c	2.3454595e-05
111	0xb5fc8d14	-1.8816522e-06
112	0xb9069b7a	-0.00012837155
113	0xb938afd4	-0.00017613109
114	0x39f34e12	0.0004640674
115	0x399907d3	0.00029188264
116	0xb8d3b750	-0.00010095409
117	0x39f5a8a6	0.00046855694
118	0x39808481	0.00024512786
119	0xb6c1b722	-5.7731677e-06
120	0x380d5f5b	3.3705826e-05
121	0x3670b113	3.5865858e-06
122	0x397ff7a0	0.00024410943
123	0x3a258899	0.0006314605
124	0x37bb94bb	2.2361395e-05
125	0x3a13e00d	0.0005640991
126	0x39996ee8	0.00029265066
127	0x399ef417	0.0003031797

exp_avg_sq f4 [8, 16]
0	0x340c9670	1.3093245e-07
1	0x3682c5b9	3.89732e-06
2	0x3576b834	9.191019e-07
3	0x36134503	2.1944877e-06
4	0x3549c8cd	7.517054e-07
5	0x366d4fc4	3.5362182e-06
6	0x34f266d2	4.5150824e-07
7	0x350e3d7c	5.2988594e-07
8	0x35f66c79	1.8359998e-06
9	0x351b638f	5.7886876e-07
10	0x35aea98d	1.3013356e-06
11	0x364e15c4	3.0709061e-06
12	0x340a4295	1.2876474e-07
13	0x368208a7	3.875309e-06
14	0x360c519f	2.0909135e-06
15	0x3457eee6	2.0110346e-07
16	0x34218141	1.5041316e-07
17	0x36f97785	7.434692e-06
18	0x3517c2d5	5.65354e-07
19	0x35e524c7	1.7072533e-06
20	0x355f8bfa	8.3277666e-07
21	0x3613854c	2.1982296e-06
22	0x34a6e6d4	3.108786e-07
23	0x3470838e	2.2399601e-07
24	0x359f796f	1.1881765e-06
25	0x34a3d1e4	3.0513831e-07
26	0x35b576a6	1.3520082e-06
27	0x363979d0	2.7638052e-06
28	0x3496e07c	2.810301e-07
29	0x3640d926	2.8736627e-06
30	0x3590c232	1.0785354e-06
31	0x352e4d35	6.49324e-07
32	0x339df172	7.354801e-08
33	0x36f7a861	7.3807755e-06
34	0x3335a2d5	4.229044e-08
35	0x33b35138	8.350111e-08
36	0x33801124	5.963582e-08
37	0x34b97f29	3.4551456e-07
38	0x32e4e924	2.6648713e-08
39	0x3337ca57	4.2792035e-08
40	0x33008138	2.9919846e-08
41	0x348e4ae0	2.650404e-07
42	0x350b7e88	5.196566e-07
43	0x351e3e60	5.8950354e-07
44	0x33fb4de2	1.1702265e-07
45	0x33b80547	8.5691276e-08
46	0x32d6dbe3	2.5012872e-08
47	0x354a25a2	7.5305627e-07
48	0x32848c5b	1.5430649e-08
49	0x31c0469f	5.595964e-09
50	0x3233f461	1.0474737e-08
51	0x327235af	1.409846e-08
52	0x324ba0f0	1.1852748e-08
53	0x324501a0	1.1467279e-08
54	0x318e9bc3	4.150452e-09
55	0x31945241	4.316718e-09
56	0x341f33e7	1.4826911e-07
57	0x32cadff7	2.3617742e-08
58	0x31e7a1f6	6.7413977e-09
59	0x3195e3ff	4.362391e-09
60	0x3123424e	2.3757312e-09
61	0x308cedea	1.025396e-09
62	0x339a1a8c	7.176013e-08
63	0x312e8896	2.5397973e-09
64	0x31928587	4.2643395e-09
65	0x33c16e38	9.0073115e-08
66	0x338587e0	6.2180106e-08
67	0x3401249e	1.2027382e-07
68	0x338a6994	6.44533e-08
69	0x33533bde	4.9181715e-08
70	0x325b44a7	1.27630875e-08
71	0x2ea0306f	7.284561e-11
72	0x33675969	5.3865197e-08
73	0x313c8933	2.743559e-09
74	0x33c4dcbe	9.167114e-08
75	0x3256d7a8	1.2505474e-08
76	0x32e25873	2.6350085e-08
77	0x350c1dda	5.2197504e-07
78	0x32062b08	7.809611e-09
79	0x33078742	3.1555153e-08
80	0x32b2e03e	2.08239e-08
81	0x36e47485	6.808494e-06
82	0x34e99330	4.3506725e-07
83	0x3504b551	4.943768e-07
84	0x342a918b	1.5885432e-07
85	0x35a9af67	1.264253e-06
86	0x33f5ad1d	1.1440191e-07
87	0x31d4dfe5	6.195466e-09
88	0x33270d20	3.8894655e-08
89	0x341252bc	1.3627408e-07
90	0x351e0d3e	5.8878857e-07
91	0x35a6561a	1.2393023e-06
92	0x33708589	5.6000804e-08
93	0x33737062	5.6680058e-08
94	0x34e058cf	4.1787868e-07
95	0x34ffab55	4.7622112e-07
96	0x2e780763	5.6395232e-11
97	0x33d65d2a	9.982098e-08
98	0x31956c74	4.3488004e-09
99	0x32393884	1.0781267e-08
100	0x3215c4d6	8.717697e-09
101	0x33b096be	8.2230585e-08
102	0x31225fb5	2.3628506e-09
103	0x34fca4eb	4.705865e-07
104	0x3548cdc9	7.480526e-07
105	0x3502d4c1	4.873837e-07
106	0x3298d725	1.7792965e-08
107	0x328fa178	1.6720819e-08
108	0x2f91f500	2.654943e-10
109	0x32d3be30	2.465012e-08
110	0x3538c34c	6.8829536e-07
111	0x33007397	2.990745e-08
112	0x34c743a3	3.711585e-07
113	0x3773942c	1.4518428e-05
114	0x35ea27a3	1.7445894e-06
115	0x366a9b69	3.4959178e-06
116	0x35d1b5f3	1.5624668e-06
117	0x36913bc8	4.328296e-06
118	0x35134f57	5.487722e-07
119	0x32ce65f7	2.4027925e-08
120	0x35830d6e	9.764169e-07
121	0x34c2d759	3.6292002e-07
122	0x363c6d26	2.8077716e-06
123	0x368d0f82	4.203933e-06
124	0x352cad3b	6.4327077e-07
125	0x3684ff16	3.9636025e-06
126	0x359b3841	1.1564772e-06
127	0x35f015a2	1.7887689e-06

exp_avg f4 [8]
0	0xb9d6adf0	-0.00040946854
1	0xb94c903d	-0.00019508689
2	0xb1f462bb	-7.112559e-09
3	0xb0e60b2b	-1.6737877e-09
4	0x38e29f96	0.00010806245
5	0x39833a56	0.0002502973
6	0xb79b9680	-1.8547522e-05
7	0x3a1260f8	0.00055839075

exp_avg_sq f4 [8]
0	0x368f71f1	4.2749966e-06
1	0x365ae64a	3.2618577e-06
2	0x34dfe0d9	4.1700585e-07
3	0x33d6ce50	1.00026796e-07
4	0x340ce51b	1.3121864e-07
5	0x35991ccc	1.1407769e-06
6	0x3436c889	1.7023025e-07
7	0x36faf231	7.4787754e-06

exp_avg f4 [2, 8]
0	0xb998c37a	-0.0002913734
1	0xb97591d0	-0.0002341934
2	0xb1078e6f	-1.972605e-09
3	0xafe5d34a	-4.1804987e-10
4	0xb8a2bda8	-7.760088e-05
5	0xb939b6c4	-0.0001771106
6	0x38a4bee4	7.8556855e-05
7	0xba04d53a	-0.00050671736
8	0x3ade8822	0.0016977827
9	0x3a06bcc3	0.0005139822
10	0xb1988bf6	-4.439694e-09
11	0xaf601f64	-2.0383834e-10
12	0x39531ff1	0.00020134427
13	0x39319bb8	0.00016938045
14	0xb8a0afb9	-7.6621254e-05
15	0x3a1fc93d	0.00060953555

exp_avg_sq f4 [2, 8]
0	0x37a4abf9	1.9630404e-05
1	0x382554fc	3.9418213e-05
2	0x3694bf5b	4.4330204e-06
3	0x354735e5	7.4211704e-07
4	0x352abe4b	6.360685e-07
5	0x3603cad3	1.963858e-06
6	0x36821645	3.8768944e-06
7	0x37ba9c3e	2.2245684e-05
8	0x382b67ea	4.0866355e-05
9	0x38a227dc	7.732186e-05
10	0x369cc498	4.672049e-06
11	0x3519d017	5.729975e-07
12	0x3528db2e	6.2903825e-07
13	0x35a74463	1.2462373e-06
14	0x3714a176	8.8590805e-06
15	0x37e6695f	2.7467204e-05

exp_avg f4 [2]
0	0xb9f4ab52	-0.0004666695
1	0x3a046d9f	0.0005051735

exp_avg_sq f4 [2]
0	0x37e1f165	2.6934498e-05
1	0x383452cf	4.2992466e-05

fc1.weight f4 [32, 20]
0	0xbed8fcb3	-0.42380294
1	0x3cbd24f0	0.023088902
2	0x3f0f6d78	0.5602641
3	0xbec170f5	-0.37781492
4	0xbe0aceab	-0.135554
5	0x3e8fda81	0.28096393
6	0xbe973460	-0.29532146
7	0x3eadf0d7	0.3397281
8	0x3db882d8	0.090093315
9	0xbe0e3402	-0.13887027
10	0xbe2c08c2	-0.16800216
11	0xbea6dc99	-0.32590178
12	0xbdaf7179	-0.08566565
13	0xbc9de3c1	-0.01927364
14	0x3d456136	0.04818841
15	0xbd7cfeb7	-0.061766353
16	0xbb7b77d6	-0.0038370988
17	0x3cc9d2bd	0.02463662
18	0x3d3f705d	0.046738017
19	0xbcda4163	-0.026642507
20	0xbe45a622	-0.19301656
21	0x3d8a7d22	0.067621484
22	0xbfa37424	-1.2769818
23	0x3f0664d2	0.5249759
24	0xbe8d020f	-0.27540633
25	0x3d520a0b	0.05127911
26	0xbdb6d3f9	-0.08927149
27	0x3e2b1178	0.16705883
28	0xbcfc76bc	-0.030818336
29	0x3e830c24	0.255952
30	0xbe43e9b3	-0.19132118
31	0x3cce201c	0.025161795
32	0xbe16bcf9	-0.14720525
33	0xbdc63edd	-0.09679959
34	0xbbd22a97	-0.0064137685
35	0x3c043326	0.008068835
36	0xbaf62de0	-0.0018781982
37	0x3a5a7408	0.000833333
38	0xbb8cae7f	-0.0042932625
39	0x3b571cb4	0.0032823505
40	0xbd97ae5b	-0.074063025
41	0xbebdc484	-0.37063992
42	0x3f2a69d2	0.6656772
43	0xbf8388d4	-1.0276132
44	0x3e3bfdcc	0.18358535
45	0x3e668617	0.22512089
46	0xbec30044	-0.3808614
47	0xbcb470e3	-0.022026485
48	0xbe825f7e	-0.2546348
49	0xbe0c3be6	-0.13694724
50	0xbdd91c54	-0.10601106
51	0x3ebc554d	0.3678383
52	0xbe8c132e	-0.27358383
53	0x3dbaa428	0.091133416
54	0xbc53f718	-0.01293733
55	0xbc31341e	-0.010815648
56	0xbc508bcb	-0.012728642
57	0x3c01578e	0.00789441
58	0xb9884c36	-0.00025996723
59	0x3c8e5dbf	0.017378686
60	0x3e8cc340	0.27492714
61	0x3dddb618	0.10825747
62	0x3e12d785	0.14340027
63	0xbf9e2a06	-1.2356575
64	0xbdc7485d	-0.09730599
65	0xbe5b05ac	-0.21388882
66	0x3bd06978	0.006360229
67	0xbcd6d10f	-0.026222734
68	0x3dc96980	0.09834576
69	0x3d8fc057	0.07019108
70	0x3d23dee3	0.040007483
71	0x3e5de18e	0.21668074
72	0xbe68fda5	-0.22753008
73	0xbd380020	-0.044921994
74	0x3c75cfce	0.015003158
75	0xbc2d48f4	-0.010576475
76	0xbba2c8ed	-0.0049678
77	0x3a2a321e	0.00064924534
78	0x398820ec	0.0002596447
79	0x3c02e11f	0.007988243
80	0x3ef0a738	0.47002578
81	0x3d48b2f4	0.048998788
82	0x3f25b10d	0.64723283
83	0xbee7681b	-0.45196614
84	0x3e503d3c	0.20335859
85	0xbf1ff5e6	-0.62484586
86	0x3d3b0627	0.045660164
87	0xbdc0f2d8	-0.09421319
88	0xbedd1b3e	-0.43184847
89	0xbeb6283e	-0.35577577
90	0x3e4a34f1	0.19746758
91	0xbf478d66	-0.7795013
92	0x3e13b7a6	0.14425525
93	0xbf11dc3a	-0.56976664
94	0x3da62c9c	0.08113977
95	0x39d4dd8c	0.00040600856
96	0xbd1ec2ca	-0.038759984
97	0xbdeb7c0d	-0.1149827
98	0x3d7e3c65	0.062069315
99	0x392d73a8	0.00016541651
100	0xbeeb6afa	-0.45980054
101	0x3d9816d4	0.07426229
102	0xbd682e10	-0.056684554
103	0xbf25640b	-0.6460578
104	0x3d9e47ec	0.07728562
105	0x3c5e3abf	0.013563811
106	0xbec4777b	-0.38372406
107	0xbe318801	-0.17337038
108	0xbe815902	-0.2526322
109	0xbd576bad	-0.052592922
110	0xbe9b09f9	-0.30281046
111	0xbe059540	-0.13045216
112	0x3e590d74	0.21196538
113	0xbeaf37f8	-0.34222388
114	0x3cba69d4	0.02275554
115	0xbd43e0f1	-0.047821943
116	0x3c93c220	0.018036902
117	0x3cedb569	0.029017167
118	0xbd1937c0	-0.037406683
119	0xbccad760	-0.024760902
120	0x3d74b53f	0.059743162
121	0xbdf48332	-0.11939086
122	0xbf82bad1	-1.0213262
123	0xbfb0b943	-1.3806537
124	0xbe4660a9	-0.1937281
125	0xbd8925cc	-0.06696662
126	0xbc5233d6	-0.012829741
127	0xbd813fc1	-0.06310988
128	0x3c98fcd9	0.018675255
129	0xbe0d8c01	-0.13822939
130	0xbde03183	-0.109469436
131	0xbdc52714	-0.09626594
132	0x3d87e162	0.06634785
133	0xbbb56695	-0.0055359104
134	0xbc4977fe	-0.012296675
135	0xbc7c6b6e	-0.015406473
136	0xbb94736d	-0.0045303614
137	0xba3068cb	-0.00067294826
138	0x3b03df83	0.0020122237
139	0xbc0e887c	-0.008699533
140	0xbdbaab97	-0.091147594
141	0xbe2b77e4	-0.16744953
142	0x4038fa6d	2.8902848
143	0x3f434082	0.76270306
144	0x3eab5c05	0.33468643
145	0x3a556daa	0.00081416464
146	0xbcc731c4	-0.024315722
147	0x3aeeabcb	0.0018209157
148	0x3e070005	0.13183601
149	0x3d8f008a	0.06982525
150	0x3dcadd99	0.09905548
151	0x3e683e4a	0.22680011
152	0xbd8f5c4f	-0.07000028
153	0x3d9d6fb9	0.07687325
154	0x3d1d868a	0.038458385
155	0x3c318e04	0.010837082
156	0xb757a7c0	-1.2854056e-05
157	0xbb88bb39	-0.0041727093
158	0x3c061e90	0.008185998
159	0xba69cbf8	-0.00089186383
160	0xbe3351e9	-0.17511715
161	0x3e7af8a9	0.24508919
162	0x3d229ee3	0.039702307
163	0x3f02d03b	0.51098984
164	0x3d536527	0.05161014
165	0x3df2cd1d	0.118555285
166	0xbeb8e6b6	-0.36113518
167	0x3d90f36e	0.070776805
168	0xbdc73814	-0.09727493
169	0xbccc0b84	-0.024907835
170	0xbc674ec6	-0.014117902
171	0xbf1e075a	-0.6172997
172	0x3e427e95	0.189936
173	0x3deae7dc	0.11470005
174	0xbbd74292	-0.006569215
175	0x3d96adeb	0.07357391
176	0xbbba6d53	-0.005689302
177	0x3c15921f	0.009129076
178	0xbbab532f	-0.005228422
179	0xbca343f7	-0.01992987
180	0x3edc3805	0.4301149
181	0xbc0b360c	-0.0084967725
182	0xbeb71046	-0.35754603
183	0xbf8ded0b	-1.1087965
184	0xbe5cab9d	-0.2154984
185	0xbea75a77	-0.32686207
186	0x3e2e4ff6	0.1702269
187	0x3dc8889c	0.09791681
188	0xbcbcbf48	-0.023040429
189	0x3b8c1423	0.0042748614
190	0x3e02780a	0.12741104
191	0xbc000168	-0.007812835
192	0xbe078f16	-0.13238177
193	0x3d84876f	0.064711444
194	0x3bdf465b	0.006813807
195	0xbcac6c46	-0.021047723
196	0xbb582493	-0.0032980784
197	0x392bb5cc	0.00016375555
198	0x3b89ba5e	0.004203125
199	0xbabb56e9	-0.0014292869
200	0xbddd3458	-0.108009994
201	0x3d286b1b	0.04111777
202	0x3f3f7dec	0.74801517
203	0xbe8c1cd8	-0.27365756
204	0x3cf769d3	0.030201828
205	0x3e1f4548	0.15553772
206	0xbdb7dae8	-0.089773
207	0x3e54be05	0.20775612
208	0x3e5a0cfe	0.21294019
209	0x3e67c759	0.22634639
210	0xbeabaf56	-0.33532208
211	0xbe932346	-0.2873785
212	0x3ccf8f4b	0.025336882
213	0x3e289425	0.16462763
214	0xbd9aba6d	-0.07555089
215	0xbc6f4e7b	-0.014606114
216	0x3c215f3b	0.009849365
217	0x3daaeeb5	0.08346311
218	0xbd944679	-0.07240004
219	0xbccd5d3f	-0.025068877
220	0x3eadc7bc	0.33941448
221	0xbd81df59	-0.06341428
222	0x4000dd2f	2.0135
223	0xbec963a2	-0.39333826
224	0x3e3646b3	0.17800407
225	0xbe46900c	-0.19390887
226	0xbd368c12	-0.044567175
227	0xbc843d47	-0.0161425
228	0x3e040ec8	0.12896264
229	0x3b88a8cc	0.004170513
230	0x3d64f2dc	0.05589567
231	0x3e2e53d8	0.17024171
232	0xbe06b254	-0.13153964
233	0x3df97f04	0.121824294
234	0x3c85021f	0.016236363
235	0x3b50a650	0.0031837411
236	0xbb47842b	-0.0030443768
237	0x3b20c23a	0.002452983
238	0x3c5baaee	0.013407452
239	0x3c3f3b49	0.0116718495
240	0xbd83fc3e	-0.06444596
241	0x3db9e494	0.09076801
242	0xbf7fb152	-0.99879944
243	0x3f0028f0	0.50062466
244	0xbe10753e	-0.14107224
245	0xbb379998	-0.0028015133
246	0xbc61c1ab	-0.013779084
247	0x3d374ce3	0.04475106
248	0x3e4a4918	0.19754446
249	0x3e521402	0.20515445
250	0xbcf44bcd	-0.0298213
251	0x3c9c9979	0.01911615
252	0x3bbb9348	0.0057243444
253	0x3dfd2940	0.123613834
254	0xbdd03561	-0.10166431
255	0xb9faa4a6	-0.00047806388

fc1.bias f4 [32]
0	0x3e9e2ee8	0.30895162
1	0xbf2928f5	-0.6607812
2	0xbeb5f6eb	-0.35539946
3	0xbe9ea130	-0.3098235
4	0x3e3fbdd5	0.18724759
5	0x3f8da84e	1.1066988
6	0xbf7d53a2	-0.9895574
7	0xbf01caad	-0.50699884
8	0xbfa67472	-1.3004286
9	0xbf03888e	-0.5138024
10	0x3f5c5ac5	0.86076003
11	0xbe51b9c1	-0.20481016
12	0xbe51cc5a	-0.2048811
13	0xbf0b1c68	-0.5434022
14	0xbf9b63c8	-1.2139826
15	0xbefd7e11	-0.49510244
16	0x3f1ae190	0.6050043
17	0xbfb825e3	-1.4386562
18	0x3fec9ca6	1.8485305
19	0xbf2ab5ce	-0.6668366
20	0xbf8d72be	-1.1050642
21	0xbe9d7f56	-0.30761212
22	0x3ef01d46	0.46897334
23	0xbf393955	-0.72353107
24	0x3e0df0f7	0.13861452
25	0xbed42688	-0.41435647
26	0xbf30211d	-0.68800527
27	0x3f216b45	0.63054305
28	0xbf6ac0af	-0.9170026
29	0xbeb97916	-0.36225194
30	0x3e359b71	0.17735077
31	0xbeb969f1	-0.3621364

fc2.weight f4 [16, 32]
0	0xbdb942a7	-0.09045916
1	0x3f17864e	0.5918931
2	0x3e3265f0	0.17421699
3	0x3ef9ae75	0.48765913
4	0x3cf0c324	0.029389925
5	0x3e806a14	0.2508093
6	0x3f823155	1.0171305
7	0x3f645b99	0.89202267
8	0x3c89c1be	0.016816016
9	0x3ead36f3	0.33830985
10	0xbe7f6e2b	-0.2494437
11	0x3efa6020	0.48901463
12	0x3e054c5d	0.13017412
13	0x3ee6c13b	0.45069298
14	0x3f83ad1b	1.0287203
15	0x3f17d785	0.5931323
16	0x3d892d63	0.0669811
17	0x3f97e45b	1.1866564
18	0x3e6ce2d8	0.23133409
19	0x3eb6e9ac	0.35725152
20	0x3f542c01	0.82879645
21	0x3ed34d28	0.41269803
22	0x3d9d9e6e	0.07696234
23	0x3f46a7ff	0.7760009
24	0x3d85c086	0.065308616
25	0x3ed54f9f	0.4166231
26	0x3f8f2e21	1.1185952
27	0xbe436d67	-0.19084702
28	0x3f470601	0.77743536
29	0xbd149e01	-0.036283497
30	0xbd86a806	-0.06575017
31	0x3f198c2b	0.59979504
32	0xbdbc1139	-0.091829725
33	0x3f3cc1f1	0.7373343
34	0x3ef93470	0.4867282
35	0x3f201ed7	0.6254706
36	0xbe68ba8b	-0.2272741
37	0x3de4eb2e	0.111776695
38	0x3f8bb1a5	1.0913588
39	0x3f9b518f	1.2134265
40	0x3e8aa164	0.27076256
41	0x3f13b032	0.5769073
42	0xbd89e906	-0.06733899
43	0x3f025f0e	0.5092629
44	0x3d0e640e	0.03476339
45	0x3f00657f	0.5015487
46	0x3f4f709f	0.8103122
47	0x3f42f7ff	0.7615966
48	0xbd6e89fc	-0.05823706
49	0x3fb0bdb3	1.3807892
50	0xbccbc7af	-0.02487549
51	0x3e340a3d	0.1758203
52	0x3f761e1c	0.96139693
53	0x3f1430be	0.57886875
54	0x3ea2daf4	0.31807673
55	0x3f53b38c	0.8269584
56	0x3dced954	0.10100046
57	0x3ee2505e	0.4420194
58	0x3fac78ea	1.34744
59	0xbde07ac7	-0.10960918
60	0x3f391cf1	0.72309786
61	0x3d1ad7bb	0.037803393
62	0xbd3f67eb	-0.046729963
63	0x3f3edc5a	0.7455498
64	0x3d48b9ee	0.04900544
65	0x3d9934e8	0.07480794
66	0xbe68b068	-0.22723544
67	0x3d857fa6	0.06518488
68	0xbe062f7b	-0.1310405
69	0xbdaf930a	-0.08572967
70	0x3d91dd9f	0.07122349
71	0x3b47849a	0.0030444027
72	0xb8c3f56e	-9.3440394e-05
73	0x3d1a6108	0.037690192
74	0xbbefc91a	-0.0073176743
75	0x3ce36b58	0.027761146
76	0x3d8a2a14	0.06746307
77	0xbd1b499b	-0.037911993
78	0xbb834b5c	-0.0040067863
79	0xbde0102f	-0.10940587
80	0xbd1f725a	-0.038927414
81	0xbdd490f9	-0.10379214
82	0xbdb99e8e	-0.09063445
83	0xbe4fbb56	-0.20286307
84	0xbe38f873	-0.18063526
85	0xbcb4fbb1	-0.022092672
86	0xbe295def	-0.16539739
87	0xbe1be5f8	-0.15224445
88	0xbd4b82e6	-0.04968538
89	0xbe1afd56	-0.15135702
90	0x3da291c9	0.079379626
91	0xbdebb5fd	-0.11509321
92	0xbde7cf00	-0.11318779
93	0xbdb63523	-0.08896854
94	0xbe45ec93	-0.19328527
95	0x3c9968db	0.018726757
96	0x3d7a6f33	0.061141204
97	0xbdbac620	-0.091198206
98	0xbded88e2	-0.11598374
99	0x3d994b66	0.07485084
100	0xbd515597	-0.051107015
101	0xbc647415	-0.013943692
102	0xbdf1c318	-0.11804789
103	0xbd31c526	-0.043400906
104	0x9497a919	-1.5313801e-26
105	0xbde0b927	-0.10972815
106	0xa3a5db7f	-1.7982296e-17
107	0xbbcf3224	-0.006323116
108	0xbceb66d0	-0.028735548
109	0xbc6a94ab	-0.014317672
110	0x3b8d317b	0.004308877
111	0x3da1af7d	0.078948
112	0xb49f8c05	-2.9717935e-07
113	0xbd9453a8	-0.07242519
114	0xbdcbd629	-0.09952957
115	0x3d86f029	0.06588776
116	0xbb039e63	-0.002008342
117	0x38363a79	4.344664e-05
118	0xbc709117	-0.01468303
119	0x3c66b34b	0.014080833
120	0xbb9d1a1f	-0.0047943736
121	0x3bbd4523	0.005776064
122	0x3c7337eb	0.014844875
123	0xbcdadaa6	-0.026715588
124	0x3ccf17a0	0.02527982
125	0x3c9a4ec6	0.01883639
126	0xbd715979	-0.05892322
127	0xbe06e4f6	-0.13173279
128	0xbd2d89b8	-0.042367667
129	0x3d2149dd	0.039377082
130	0x3d1476b3	0.036246013
131	0xbdd57807	-0.10423284
132	0xbbb9177b	-0.005648551
133	0xbcba82be	-0.02276742
134	0x3a97ddd5	0.0011586497
135	0x3b8e28f1	0.0043383767
136	0x2ed663e8	9.74934e-11
137	0xbb9165ed	-0.0044371993
138	0xbe1d4427	-0.1535803
139	0xbc9c9221	-0.019112648
140	0xbd4b2393	-0.049594473
141	0xbc1117d8	-0.008855782
142	0x2df1b219	2.747762e-11
143	0xbe46024f	-0.19336818
144	0xbc826d49	-0.015921252
145	0xba65520b	-0.0008747882
146	0xbdd99e1a	-0.106258586
147	0xbd1bce04	-0.03803827
148	0x3cf51b60	0.02992028
149	0x3c73d08f	0.014881267
150	0x3d188b51	0.037242237
151	0xbd26c6bd	-0.040716875
152	0xbd666a7f	-0.056253906
153	0xbe232cfc	-0.15935129
154	0xbd0aec5e	-0.033916824
155	0xbd984882	-0.07435705
156	0x3cc44b1e	0.0239616
157	0x3cfac90f	0.03061345
158	0x3c73cbbb	0.014880116
159	0xbe03f18c	-0.12885112
160	0xbf3f6dc8	-0.7477689
161	0x3f575158	0.84108496
162	0x3d80af9c	0.06283495
163	0x3e196537	0.14980017
164	0xbea0d1dd	-0.31410113
165	0xbf0e9c0d	-0.55706865
166	0x3f708435	0.9395173
167	0x3f120147	0.570332
168	0x3e4002b5	0.18751033
169	0x3d00b28e	0.031420283
170	0xbec79ce2	-0.3898688
171	0x3d58bc07	0.05291369
172	0x3eacdb68	0.33761144
173	0x3f35a5fd	0.70956403
174	0x3f7aaa22	0.9791585
175	0x3ebaaf03	0.36461648
176	0xbe28eda5	-0.16496904
177	0x3f84fc92	1.0389578
178	0xbe9b9cdb	-0.3039311
179	0x3ed0bd12	0.4076925
180	0x3f297685	0.6619647
181	0x3ede470d	0.43413582
182	0xbf0e7ece	-0.5566224
183	0x3f0f418e	0.55959404
184	0xbf29fdfa	-0.6640316
185	0x3f0c3c78	0.5477977
186	0x3f2bb279	0.670692
187	0xbf9c46d9	-1.2209121
188	0xbe360c2a	-0.17778078
189	0x3e672440	0.22572422
190	0x3d57b7f5	0.05266567
191	0x3e36a3b0	0.1783588
192	0x3e54b9f2	0.20774058
193	0x3f836d18	1.0267668
194	0x3f1e358a	0.61800444
195	0xbd85d5cf	-0.065349214
196	0x3d8146d0	0.063123345
197	0xbed6249c	-0.41824806
198	0x3f92c087	1.1465005
199	0x3ec96ac0	0.39339256
200	0x3f45b6dd	0.7723215
201	0x3ecb6fe5	0.39733806
202	0xbf10a94c	-0.56508327
203	0x3ecc5dc4	0.39915287
204	0x3e84b10f	0.25916335
205	0x3f373b1a	0.71574557
206	0x3f8e2223	1.1104168
207	0x3f001a6d	0.5004032
208	0xbef5aa15	-0.47981325
209	0x3f9b4e5a	1.2133286
210	0xbf6f14fb	-0.9339139
211	0x3eeb6990	0.45978975
212	0x3f7124c7	0.9419674
213	0x3ea1d583	0.3160821
214	0xbe08f766	-0.13375625
215	0x3eb071c3	0.34461793
216	0xbf04ab3a	-0.5182377
217	0x3eac70b4	0.33679736
218	0x3ede0840	0.4336567
219	0xbeab49b4	-0.3345467
220	0x3edd94cb	0.43277583
221	0x3ebc332d	0.36757794
222	0xbe905c83	-0.2819558
223	0x3e5262ab	0.20545451
224	0xbe3ce3b7	-0.18446241
225	0x3f557f9a	0.8339783
226	0x3eb5e083	0.3552285
227	0x3e3dfcc9	0.18553461
228	0xbea6de8d	-0.32591668
229	0xbdb7a626	-0.08967237
230	0x3f673c9b	0.9032685
231	0x3ea69c12	0.32540947
232	0x3ee88286	0.4541208
233	0x3ea4e076	0.322025
234	0xbeff4d83	-0.49863824
235	0x3ebbb9f7	0.36665317
236	0x3eb1f94c	0.3476051
237	0x3f1bff69	0.609366
238	0x3f93f393	1.1558708
239	0x3f06d2b2	0.52665246
240	0xbe527385	-0.2055188
241	0x3fbccc61	1.4749871
242	0xbee9e04a	-0.4567893
243	0x3f0dfdb4	0.55465245
244	0x3f83d833	1.0300354
245	0x3ea11147	0.31458494
246	0xbe03f0e8	-0.12884867
247	0x3f240fe9	0.64086777
248	0xbe9bb898	-0.3041427
249	0x3ec7d247	0.39027616
250	0x3ebe8990	0.37214327
251	0xbe96898c	-0.29401815
252	0x3ec75b04	0.38936627
253	0x3e24909b	0.16070788
254	0xbd741fe6	-0.059600733
255	0x3ea3e971	0.3201404

fc2.bias f4 [16]
0	0x3e94e68a	0.29082137
1	0x3e82b88f	0.25531432
2	0x3d2143f9	0.039371464
3	0xbd520e27	-0.051283028
4	0xbd856943	-0.06514218
5	0xbf18ce91	-0.59690195
6	0xbf96fc70	-1.1795788
7	0xbf284a24	-0.6573813
8	0xbe85e5b6	-0.26151818
9	0xbe66539f	-0.22492836
10	0x3c915d89	0.017744796
11	0x3e9299c3	0.28632936
12	0x3d83aae9	0.06429083
13	0xbd60f3e0	-0.054920077
14	0x3e19206e	0.14953777
15	0xbdead90f	-0.11467182

fc3.weight f4 [1, 16]
0	0xbf16219a	-0.5864502
1	0xbf257ffb	-0.6464841
2	0x3dff527e	0.12466906
3	0xbdabb541	-0.08384181
4	0x3bc52616	0.006016503
5	0xbf7b3e76	-0.9814218
6	0xbfa24c12	-1.2679465
7	0xbf5094fb	-0.81477326
8	0xbf7bdbae	-0.9838208
9	0x3de76301	0.1129818
10	0x3dcbe6f1	0.09956158
11	0xbf0f6a5d	-0.5602167
12	0x3e0d6e58	0.13811624
13	0x3e1d5fb9	0.15368547
14	0xbf4b70b4	-0.79468846
15	0xbf1cc2b6	-0.61234605
