DRL-course/MADDPG/model_dir/episode-12000.pt (torch_old, 71203 bytes, 99 tensors)

fc1.weight f4 [16, 14]
0	0xbf47328d	-0.7781151
1	0x3ed123d7	0.40847656
2	0xbf33ef67	-0.70287174
3	0x3f34a722	0.70567524
4	0xbf0d884d	-0.55286103
5	0xbd81fde0	-0.06347251
6	0xbe4e62fb	-0.20154946
7	0x3e804bbe	0.25057787
8	0xbe16c6e0	-0.14724302
9	0x3f07226e	0.5278691
10	0x3c311084	0.01080716
11	0x3d8850db	0.06656047
12	0xbe503852	-0.20333984
13	0x3f3b9d99	0.7328735
14	0x3f1f9eb1	0.6235152
15	0x3f9f7111	1.245638
16	0x3f26311e	0.64918697
17	0x3f8acc4a	1.0843594
18	0x3de89077	0.113556795
19	0x3f17b45c	0.5925958
20	0xbbd4ab23	-0.0064901276
21	0x3e2100ff	0.15723036
22	0x3db9bac4	0.09068826
23	0x3e4c7c90	0.19969392
24	0xbe266e31	-0.16252972
25	0x3e80ffa1	0.2519503
26	0x3e2a60a2	0.16638425
27	0x3ee75c41	0.45187572
28	0xbed1e5c3	-0.40995607
29	0x3f59e236	0.85110795
30	0xbdedd204	-0.11612323
31	0x3ee187d5	0.44048944
32	0xbdc26032	-0.09491004
33	0xbe56c632	-0.20974043
34	0xbe8e30d5	-0.2777163
35	0xbe70a3ad	-0.23499937
36	0xbe5b7373	-0.21430759
37	0xbf0f0da5	-0.55880195
38	0x3e49d9e0	0.19712019
39	0xbea7e880	-0.3279457
40	0x3da11087	0.078644805
41	0xbda49cdb	-0.0803773
42	0xbecd641c	-0.4011544
43	0x3e27b62c	0.16378087
44	0xbf0c63a4	-0.5483954
45	0x3e728b0c	0.23685855
46	0x3dedf836	0.11619608
47	0x3db9ef59	0.09078855
48	0xbf01e6d6	-0.5074285
49	0x3cdb15eb	0.02674385
50	0xbedaaa20	-0.4270792
51	0xbcbe5876	-0.02323554
52	0xbe547ad2	-0.20749977
53	0x3db667ca	0.08906515
54	0xbe8362ec	-0.2566141
55	0x3eb81efd	0.35961142
56	0xbe703551	-0.23457839
57	0x3ec0f4fb	0.37686905
58	0xbe5079f1	-0.20359017
59	0x3ea13a0e	0.31489605
60	0xbe6acc74	-0.22929555
61	0xbd057520	-0.032582402
62	0x3ed34007	0.41259786
63	0x3e0e875c	0.13918823
64	0x3eea72d3	0.4579073
65	0x3e8e0fd9	0.27746466
66	0xbf68f029	-0.90991455
67	0x3ef34154	0.4751078
68	0xbe77b9fe	-0.24192044
69	0x3eebf335	0.4608399
70	0xbccd4cf6	-0.025061112
71	0x3ecc5e02	0.39915472
72	0x3d737e58	0.059446663
73	0x3e9d93d6	0.30776852
74	0x3da32ff8	0.07968134
75	0xbf08acc0	-0.53388596
76	0x3f8e830d	1.1133744
77	0x3e92779f	0.2860689
78	0xbf0b08e9	-0.5431047
79	0x3d819266	0.063267514
80	0x3f9510f1	1.1645795
81	0x3e170ee9	0.14751782
82	0x3cc39d6b	0.023878774
83	0xbdc95a33	-0.09831657
84	0xbe9800a8	-0.29688
85	0x3e4ca225	0.19983728
86	0xbea1450d	-0.31497994
87	0x3dd66695	0.10468785
88	0x3e51d396	0.2049087
89	0xbec24d97	-0.3794982
90	0x3f15c3eb	0.5850207
91	0xbe7a74fd	-0.2445869
92	0xbc23d951	-0.010000543
93	0x3f80be63	1.0058101
94	0xbf48d7fb	-0.7845456
95	0x3d87b704	0.06626704
96	0xbeb893fb	-0.360504
97	0xbf74a7a7	-0.9556832
98	0x3f3108bc	0.6915395
99	0xbf32e132	-0.6987487
100	0x3f5c4bb2	0.86053
101	0xbf5c4d66	-0.860556
102	0xbdde0edf	-0.1084268
103	0xbe5e679f	-0.21719216
104	0x3dccfb3b	0.10008856
105	0xbe3a79f8	-0.1821059
106	0x3ca646a0	0.020297348
107	0xbed8a9a7	-0.42316934
108	0x3d866a94	0.06563297
109	0xbe2de6e2	-0.16982606
110	0x3e2f0583	0.17091946
111	0xbec48115	-0.38379732
112	0x3f6b6dfa	0.91964686
113	0xbf30c6c4	-0.6905329
114	0x3f82110b	1.0161451
115	0xbf56a624	-0.8384726
116	0x3f13566a	0.5755373
117	0xbef54815	-0.47906557
118	0xbec4f3b8	-0.38467193
119	0xbe5a59cb	-0.21323316
120	0xbd9694dd	-0.07352612
121	0xbf03fb45	-0.5155528
122	0xbde523f3	-0.111884974
123	0x3e9482a4	0.2900592
124	0x3f8165bb	1.0109171
125	0x3f103b86	0.56340826
126	0x3eae1ff1	0.34008744
127	0xbf6a6a73	-0.9156868
128	0x3eedb8f1	0.46430162
129	0xbf12c8e7	-0.573378
130	0x3ec96448	0.3933432
131	0x3e46e8ab	0.19424693
132	0x3e126c20	0.14299059
133	0x3c8567dc	0.016284876
134	0xbe87bbe8	-0.2651055
135	0xbeec8a20	-0.4619913
136	0x3db42e82	0.08797933
137	0xbd124a90	-0.03571564
138	0xbe9923dd	-0.29910174
139	0xbf0cdfb0	-0.5502882
140	0x3dc0c83f	0.09413194
141	0x3db997e5	0.09062175
142	0x3e16e02e	0.14733955
143	0x3d6748e0	0.056465983
144	0xbf074f7e	-0.5285567
145	0xbdaf9528	-0.08573371
146	0x3f56cd0b	0.8390662
147	0x3e1de448	0.15419114
148	0x3fa63ce0	1.2987328
149	0x3e8fc832	0.28082424
150	0x3e8c7e7e	0.27440256
151	0x3e57d1fe	0.210762
152	0x3ccaaf4f	0.024741797
153	0xbd116087	-0.035492446
154	0xbf0d0bf6	-0.55096376
155	0x3eb0efb3	0.34557876
156	0xbeda5048	-0.42639375
157	0x3eae56c8	0.34050584
158	0xbe3dfe5f	-0.18554066
159	0x3c6b655a	0.014367426
160	0xbc44b186	-0.0120052155
161	0xbd80c5dc	-0.06287739
162	0x3e7d4141	0.24731924
163	0x3ce470ac	0.027885757
164	0x3e4599fb	0.1929702
165	0xbf9b70f5	-1.2143847
166	0x3e1304f8	0.14357364
167	0xbef0b618	-0.47013927
168	0xbfb7cbdc	-1.4359088
169	0xbf94f571	-1.1637403
170	0xbfb99292	-1.4497855
171	0xbf858c66	-1.0433471
172	0xbf03b9d8	-0.5145545
173	0xbf0221f5	-0.50833064
174	0xbf53c5ca	-0.8272368
175	0x3da277af	0.07932984
176	0xbf4a9a86	-0.79142034
177	0xbf22e2c7	-0.63627285
178	0xbf0c2453	-0.54742926
179	0x3e13c281	0.14429666
180	0xbf5191a3	-0.8186285
181	0xbf30146a	-0.6878115
182	0xbeac46a6	-0.3364765
183	0x3f14acca	0.58076155
184	0xbe1768f1	-0.14786126
185	0x3ef35109	0.47522762
186	0x3d6adf50	0.057341874
187	0xbd93784b	-0.072006784
188	0x3ef86415	0.48513857
189	0xbfb4e0e0	-1.4131126
190	0xbdb1ed93	-0.08687892
191	0xbf64573b	-0.89195603
192	0xbe88f71a	-0.26751024
193	0x3de95296	0.11392705
194	0xbe0091db	-0.1255564
195	0x3ce53f63	0.027984327
196	0x3f52a658	0.8228507
197	0xbd5c5de6	-0.053800486
198	0x3f1f1d1f	0.6215381
199	0x3d446339	0.04794619
200	0x3e9dc977	0.30817768
201	0xbdf0d0ae	-0.117585525
202	0xbdb2bf9c	-0.08727953
203	0xbd2073eb	-0.039173048
204	0x3e982f13	0.29723415
205	0x3e2566b1	0.16152455
206	0x3ef0af4c	0.4700874
207	0xbf81d33c	-1.0142589
208	0x3de1c992	0.110247746
209	0xbf98eecc	-1.1947875
210	0x3f081a27	0.53164905
211	0x3f21077f	0.62902063
212	0x3f055635	0.52084666
213	0x3f896315	1.0733362
214	0x3eac572d	0.3366026
215	0xbf1616f7	-0.5862879
216	0x3e95c7a1	0.29253867
217	0x3d6a913e	0.05726742
218	0x3dd82e84	0.10555747
219	0x3e344ca0	0.17607355
220	0xbe33ef59	-0.17571773
221	0xbdd26dba	-0.10274835
222	0xbc6b6021	-0.014366181
223	0xbedc2a31	-0.4300094

fc1.bias f4 [16]
0	0xbeff7cf0	-0.49900007
1	0xbee5e4d1	-0.44901136
2	0x3f1c528b	0.6106345
3	0x3f35b628	0.70981073
4	0x3e6eaab0	0.233073
5	0x3f195710	0.5989847
6	0x3dd95350	0.10611594
7	0xbfa1e08c	-1.2646651
8	0xbed5ec94	-0.41782057
9	0xbf0d1830	-0.5511503
10	0x3edfe192	0.43726784
11	0x3f32c72f	0.6983518
12	0xbf4818c2	-0.7816278
13	0x3f529afc	0.8226774
14	0x3df83a04	0.121204406
15	0x3de16318	0.11005229

fc2.weight f4 [8, 16]
0	0xbec7e500	-0.390419
1	0xbeb1e4f4	-0.3474499
2	0xbc8ac401	-0.016939165
3	0x3d96aa56	0.07356708
4	0x3e40e3b3	0.1883686
5	0x3ec3bbb0	0.38229132
6	0x3df1c75f	0.11805605
7	0x3efb7f70	0.49120665
8	0x3e6e6ee9	0.23284496
9	0x3f17df4b	0.59325093
10	0xbd3908f6	-0.04517456
11	0x3f348f4a	0.7053114
12	0x3fb4949b	1.4107851
13	0x3f2d7189	0.67751366
14	0x3f0b9ecc	0.5453918
15	0xbf2d1911	-0.67616373
16	0xbd815c56	-0.0631644
17	0x3f7291e4	0.9475386
18	0x3d363abd	0.04448961
19	0xbc78b247	-0.015179223
20	0xbdf823d3	-0.12116208
21	0x3f91d876	1.1394184
22	0xbe30a92c	-0.17252034
23	0x3ebff4fa	0.3749159
24	0x3e4e8d57	0.20171104
25	0xbc690bdb	-0.014224018
26	0x3f21de24	0.63229585
27	0x3c80994b	0.015698096
28	0xbe969eee	-0.2941813
29	0xbe5c715d	-0.2152762
30	0x3d97e801	0.07417298
31	0x3ce2e34c	0.027696274
32	0x3e229ae9	0.15879406
33	0x3ea87b21	0.3290644
34	0xbf0c5cfd	-0.5482939
35	0xbef13446	-0.47110194
36	0xbeb9c0a7	-0.36279795
37	0xbe7d3595	-0.24727471
38	0xbf0ff27a	-0.56229365
39	0x3e824d0c	0.25449407
40	0xbf7573d1	-0.95879847
41	0x3f0192e0	0.5061474
42	0x3cdf8054	0.027282871
43	0x3c177662	0.009244533
44	0xbda6af91	-0.081389554
45	0x3e011316	0.12604937
46	0xbf92b1aa	-1.1460469
47	0x3eee54c1	0.46549037
48	0xbe45ef52	-0.19329575
49	0xbe4d414f	-0.20044445
50	0x3dd6fe79	0.104977556
51	0xbbde0fea	-0.0067767994
52	0x3d46c5b6	0.048528396
53	0xbd2aedfe	-0.041730873
54	0x3dc1750c	0.09446153
55	0xbec4356b	-0.38322005
56	0xbe4692b2	-0.19391897
57	0xbe630033	-0.22168045
58	0xbdb86f18	-0.090055645
59	0xbe600218	-0.21875799
60	0xbba3c415	-0.00499774
61	0xbe56e63e	-0.20986268
62	0xbdfacc76	-0.12246029
63	0xbe71b856	-0.23605475
64	0xbd82eee4	-0.06393221
65	0xbd54c54d	-0.051945973
66	0xbe2ab1da	-0.16669407
67	0x3e8c01ef	0.27345225
68	0xbea68520	-0.3252344
69	0x3d6841bf	0.056703325
70	0xbed6a6b6	-0.41924065
71	0xbe5bb02d	-0.21453924
72	0xbe8c52af	-0.27406833
73	0xbec0e8cb	-0.37677607
74	0x3ef48edb	0.4776524
75	0xbfe1d9e8	-1.7644625
76	0xbdcf907a	-0.101349786
77	0x3f68f41c	0.9099748
78	0xbeeb4fd2	-0.45959336
79	0x3d42f839	0.047600005
80	0xbef7a49f	-0.48367783
81	0x3e7afc8e	0.24510404
82	0x3f2dfc3b	0.67963
83	0xbd998a48	-0.07497078
84	0xbee78b68	-0.45223546
85	0x3e558f10	0.20855355
86	0xbf0902c8	-0.5351987
87	0xbfc95354	-1.5728555
88	0xbda8a9a2	-0.0823548
89	0xbdf57ba2	-0.11986472
90	0xbe3331ca	-0.17499462
91	0x3e4821a6	0.19544086
92	0xbeb55840	-0.35418892
93	0xbfd2f2c2	-1.6480334
94	0x3ef86845	0.4851705
95	0x3e827a3f	0.2548389
96	0xbd6b603d	-0.057464827
97	0xbdb0883e	-0.08619736
98	0xbf57df1b	-0.84324807
99	0xbf306c87	-0.689156
100	0xbe12e74a	-0.14346042
101	0xbdc4e2d0	-0.096135736
102	0xbf2c7d3b	-0.67378587
103	0x3f1040d6	0.5634893
104	0x3f41a50e	0.7564248
105	0x3e1609f2	0.14652231
106	0x3f1f81c4	0.6230738
107	0xbfbd95f9	-1.4811393
108	0x3eed90b9	0.46399477
109	0xbfab9d72	-1.3407423
110	0x3f285f02	0.6576997
111	0x3f3be202	0.73391736
112	0x3f2c58f0	0.6732321
113	0x3e8d0941	0.27546123
114	0x3f0a2723	0.5396597
115	0x3ef059ad	0.46943417
116	0x3f3c5201	0.7356263
117	0xbd94afce	-0.072600946
118	0x3f1977ea	0.599486
119	0xbf895002	-1.0727541
120	0xbe45d0df	-0.19317959
121	0xbe9336de	-0.28752798
122	0x3dac6dc8	0.084193766
123	0x3d2d696f	0.042336877
124	0x3f45f7a8	0.7733102
125	0x3ccde816	0.025135081
126	0xbe99be70	-0.30028105
127	0x3e16e00a	0.14733902

fc2.bias f4 [8]
0	0x3ebbf374	0.36709177
1	0x3f17fa2d	0.5936611
2	0xbf73e2ec	-0.9526813
3	0xbdaf0d1a	-0.08547421
4	0x3d899096	0.06717031
5	0x3f2db030	0.67846966
6	0x3ef3df1a	0.4763115
7	0x3ee50e61	0.44737533

fc3.weight f4 [2, 8]
0	0xbda933b3	-0.08261814
1	0x3f42ed73	0.7614357
2	0x3ee9d2bb	0.45668587
3	0x3df29dca	0.11846502
4	0xbe3e38da	-0.18576375
5	0xbf1cbad8	-0.612226
6	0x3f017c68	0.50580454
7	0xbedae46a	-0.4275239
8	0xbf27d477	-0.6555857
9	0x3ea386e8	0.31938863
10	0xbef6bea6	-0.48192328
11	0x3c981a59	0.018567251
12	0x3f217a73	0.6307747
13	0x3f2b2913	0.6685955
14	0xbe8dd133	-0.2769867
15	0x3f12533e	0.5715827

fc3.bias f4 [2]
0	0x3d814852	0.06312622
1	0x3c33c59b	0.010972406

exp_avg f4 [16, 14]
0	0x36a3bd96	4.8798493e-06
1	0xb8063aaf	-3.2002743e-05
2	0x35b9bc60	1.3838398e-06
3	0xb76320c6	-1.3537885e-05
4	0xb71510ca	-8.885001e-06
5	0x37ac0a07	2.0508667e-05
6	0xb7288783	-1.0045132e-05
7	0x3709872a	8.197307e-06
8	0x37ee3820	2.8397946e-05
9	0x36d3aa74	6.3081334e-06
10	0xb7f5560f	-2.924635e-05
11	0x37172be0	9.010517e-06
12	0x36ec843e	7.048743e-06
13	0x37011b51	7.695359e-06
14	0x37c7d09a	2.3819786e-05
15	0x382c92a4	4.1144565e-05
16	0x382209f8	3.8633094e-05
17	0x3849d9d4	4.8125003e-05
18	0x373e6ac3	1.134974e-05
19	0x39006838	0.00012245856
20	0x36d35324	6.297969e-06
21	0xb7b8403a	-2.1964417e-05
22	0x381f7f87	3.8027323e-05
23	0xb858c497	-5.16815e-05
24	0x381bd587	3.7153743e-05
25	0xb888c807	-6.522243e-05
26	0x376dc85a	1.4172949e-05
27	0xb7d909e1	-2.5873016e-05
28	0xb8cfd617	-9.9104065e-05
29	0x347a4ba0	2.3310577e-07
30	0x37276c82	9.97924e-06
31	0xb8c39cb9	-9.3275165e-05
32	0xb8377322	-4.3737826e-05
33	0x3461cd80	2.1029518e-07
34	0xb8b1c2b8	-8.476287e-05
35	0xb8cb673c	-9.699023e-05
36	0x375c5b8e	1.3134339e-05
37	0xb8597fe4	-5.185594e-05
38	0xb67c77e0	-3.7620703e-06
39	0xb84120c4	-4.60453e-05
40	0x362e5a30	2.5980517e-06
41	0xb7c36e06	-2.3297045e-05
42	0xb806502e	-3.2022763e-05
43	0xb74af698	-1.2097553e-05
44	0xb6b92b9e	-5.5185074e-06
45	0xb7fb4e8d	-2.995811e-05
46	0xb7a17657	-1.9247802e-05
47	0xb656a192	-3.1982531e-06
48	0x37cb3bdf	2.4227365e-05
49	0xb8592f6a	-5.178099e-05
50	0xb64769de	-2.9714934e-06
51	0xb8114d35	-3.46426e-05
52	0xb7fbee6c	-3.0032556e-05
53	0xb85619c1	-5.104556e-05
54	0x367250a7	3.6107756e-06
55	0x369732c1	4.506059e-06
56	0xb7cd14cf	-2.4447594e-05
57	0x374ea434	1.2316788e-05
58	0xb7e62f62	-2.7440201e-05
59	0x3804618a	3.1562093e-05
60	0xb793e99c	-1.7632548e-05
61	0x36cf32a9	6.1749784e-06
62	0xb7a6e5ca	-1.9895746e-05
63	0x389f378f	7.5920594e-05
64	0xb6c079dc	-5.736232e-06
65	0x37238daa	9.748541e-06
66	0x37277eac	9.983469e-06
67	0xb831c0ac	-4.2379528e-05
68	0xb7aa6c3d	-2.0315982e-05
69	0x378cf573	1.6803597e-05
70	0x391eff6f	0.0001516321
71	0xb83e98e3	-4.5441917e-05
72	0x3946b4df	0.00018950131
73	0xb81c2fe6	-3.7237907e-05
74	0x378acb68	1.65456e-05
75	0xb685c03b	-3.9860874e-06
76	0x37d05d84	2.4839079e-05
77	0xb98258f7	-0.00024861816
78	0xb7a71582	-1.9917967e-05
79	0xb891abaf	-6.946117e-05
80	0x38bc83bf	8.989078e-05
81	0xb95f1ba1	-0.0002127723
82	0xb692d64f	-4.376088e-06
83	0xb878fb0f	-5.9361624e-05
84	0xb73975c8	-1.1054282e-05
85	0xb6542968	-3.1614563e-06
86	0xb7aa5738	-2.0306194e-05
87	0x374edd41	1.23300715e-05
88	0xb729cd8a	-1.0121041e-05
89	0x3685eae8	3.9910556e-06
90	0xb7524021	-1.2531907e-05
91	0x38c30a90	9.300292e-05
92	0xb6f4551b	-7.2816742e-06
93	0x36dc35ec	6.5627883e-06
94	0x34d91300	4.0433224e-07
95	0xb8149155	-3.54213e-05
96	0x36c38138	5.826496e-06
97	0x36b08c9f	5.261579e-06
98	0x382f1eb6	4.1751853e-05
99	0x381ee35e	3.7881888e-05
100	0x37def945	2.6580537e-05
101	0x38a16b05	7.697012e-05
102	0x382479ed	3.92142e-05
103	0x370cd04f	8.393151e-06
104	0x37aa8eab	2.0332014e-05
105	0x37e42bb6	2.7200073e-05
106	0x383735c4	4.3680673e-05
107	0xb77d0c49	-1.50828355e-05
108	0x38818443	6.175835e-05
109	0xb79db531	-1.8800232e-05
110	0x37fc400a	3.0070561e-05
111	0xb63a2bf2	-2.774174e-06
112	0x37f77f3d	2.9503944e-05
113	0x38499291	4.8058635e-05
114	0x36c30aee	5.8127252e-06
115	0x3899b665	7.329582e-05
116	0x37afcf01	2.095802e-05
117	0x379663f1	1.7927932e-05
118	0x37a33265	1.9454581e-05
119	0xb5643a60	-8.5021566e-07
120	0x37f4792e	2.9143495e-05
121	0x36c85f6c	5.971573e-06
122	0x3744940a	1.1716978e-05
123	0x382ce004	4.1216626e-05
124	0xb7086e4d	-8.131913e-06
125	0x378adb93	1.655313e-05
126	0xb751b73c	-1.2500033e-05
127	0x383a11ef	4.4362558e-05
128	0xb7e85036	-2.7693906e-05
129	0x38c45662	9.362098e-05
130	0xb72b242e	-1.0200818e-05
131	0x37b0f88a	2.109657e-05
132	0xb7f8230e	-2.9580227e-05
133	0x37c8c65b	2.3934224e-05
134	0x381baa04	3.711322e-05
135	0x3815fba6	3.5758734e-05
136	0xb7d06c7c	-2.484605e-05
137	0x36c76ae8	5.9431077e-06
138	0x369ed382	4.7333897e-06
139	0x380037e3	3.0569627e-05
140	0x38f58446	0.00011707148
141	0xb75cc0a2	-1.3157873e-05
142	0x38faee31	0.000119652956
143	0x37c2f61d	2.3241208e-05
144	0x383d451c	4.5125475e-05
145	0x35eec84e	1.7790678e-06
146	0x38df5750	0.00010649732
147	0xb9602182	-0.00021374787
148	0x36b17542	5.2886617e-06
149	0xb8242cc4	-3.914234e-05
150	0x386f28dc	5.7020094e-05
151	0xb8a5300a	-7.876761e-05
152	0x36145e84	2.2108734e-06
153	0xb815848b	-3.564781e-05
154	0xb888e348	-6.52732e-05
155	0xb7e7f332	-2.7650593e-05
156	0xb846a454	-4.735992e-05
157	0xb8e5082a	-0.000109210916
158	0x37a80796	2.0030693e-05
159	0x382da5b4	4.1400737e-05
160	0xb8bd3a90	-9.0231304e-05
161	0x399f63f9	0.0003040133
162	0xb698636e	-4.541528e-06
163	0x3861c2d5	5.382563e-05
164	0x38a58103	7.8918434e-05
165	0x38b67fec	8.7022636e-05
166	0x37ca5589	2.4120107e-05
167	0x35cfbcf0	1.547769e-06
168	0x38986663	7.266996e-05
169	0x36ea4123	6.9813264e-06
170	0x383f5576	4.561754e-05
171	0x37e40701	2.718298e-05
172	0x38d91454	0.00010351153
173	0x38469592	4.7346177e-05
174	0x3915b10c	0.00014275702
175	0xb61f6138	-2.3749435e-06
176	0xb57650b8	-9.17596e-07
177	0x382e37fc	4.1536972e-05
178	0x385743fe	5.1323317e-05
179	0x38399c82	4.4253196e-05
180	0x368efad8	4.261132e-06
181	0x37bd7452	2.2584722e-05
182	0x385ef75d	5.31593e-05
183	0xb8390e74	-4.4120898e-05
184	0xb890c0e8	-6.902387e-05
185	0x3899eed0	7.340091e-05
186	0x384cc6a6	4.8822396e-05
187	0x38351c46	4.3180095e-05
188	0x391d450e	0.00014998412
189	0x39389f96	0.00017607058
190	0x37aded2f	2.0733654e-05
191	0x3797e75f	1.8108343e-05
192	0xb8bf9ea1	-9.137137e-05
193	0x39494bf2	0.00019197146
194	0xb7c51224	-2.3492677e-05
195	0x38339512	4.281576e-05
196	0xb8606a6e	-5.3504882e-05
197	0x378ee79c	1.703557e-05
198	0xb837b2a4	-4.3796972e-05
199	0xb751e2cd	-1.2510177e-05
200	0x3717baa0	9.043753e-06
201	0x37aeaa53	2.082173e-05
202	0xb800d82b	-3.07189e-05
203	0x39320604	0.00016977644
204	0x37b190d0	2.1167478e-05
205	0x376c5d36	1.40883985e-05
206	0xb4aef680	-3.2589378e-07
207	0x38d40420	0.00010109716
208	0xb7139282	-8.795994e-06
209	0x37d13a80	2.4941983e-05
210	0x388f7f67	6.842502e-05
211	0x37de494e	2.6498597e-05
212	0x37eeade2	2.8452781e-05
213	0x38917e70	6.9376896e-05
214	0x3735e581	1.0841876e-05
215	0xb5e9c679	-1.7417616e-06
216	0x386459ec	5.4443182e-05
217	0xb91dd6cf	-0.00015052709
218	0x3734ee6b	1.0784347e-05
219	0xb8457c6d	-4.708434e-05
220	0x3604bb68	1.9778618e-06
221	0xb877cda2	-5.90809e-05
222	0xb7190bb6	-9.122237e-06
223	0xb819f829	-3.670916e-05

exp_avg_sq f4 [16, 14]
0	0x33530764	4.9133988e-08
1	0x33813e7f	6.0183986e-08
2	0x334dd44e	4.7923372e-08
3	0x338a2b5e	6.434014e-08
4	0x312c05e0	2.5032634e-09
5	0x30d53507	1.5512861e-09
6	0x3340d148	4.4893824e-08
7	0x350d966f	5.2745503e-07
8	0x30b2b05d	1.300133e-09
9	0x3280e39a	1.5004662e-08
10	0x33848e02	6.17256e-08
11	0x345e53b8	2.0705818e-07
12	0x30a779ee	1.2185504e-09
13	0x31831eec	3.816117e-09
14	0x353e13b2	7.0809176e-07
15	0x346f36ec	2.227859e-07
16	0x3537ca94	6.84676e-07
17	0x346afcf7	2.1884976e-07
18	0x3290f236	1.6873951e-08
19	0x3263824d	1.3242766e-08
20	0x34bc8929	3.5117526e-07
21	0x368d7ccc	4.2166557e-06
22	0x328c8368	1.6357902e-08
23	0x344f3188	1.9296397e-07
24	0x34da60b7	4.0676034e-07
25	0x367db97d	3.7807906e-06
26	0x326fcb38	1.39578376e-08
27	0x3429f78a	1.5829406e-07
28	0x343ac608	1.7394643e-07
29	0x3475f7a2	2.2907491e-07
30	0x345cf297	2.057735e-07
31	0x3469b2ca	2.1764859e-07
32	0x326a0a7e	1.3622978e-08
33	0x3245fd50	1.1524506e-08
34	0x349ecdf1	2.9579635e-07
35	0x355157c3	7.798628e-07
36	0x32117f77	8.469093e-09
37	0x32d459b2	2.4720837e-08
38	0x34dc6b1c	4.1056126e-07
39	0x359c8155	1.1660546e-06
40	0x32211f82	9.3785975e-09
41	0x333206d4	4.1450065e-08
42	0x34f2a608	4.5196816e-07
43	0x34fb089d	4.675866e-07
44	0x34e2ee20	4.226904e-07
45	0x34f839dd	4.62357e-07
46	0x32935ac2	1.7154324e-08
47	0x3282a44f	1.520871e-08
48	0x3501a757	4.8299756e-07
49	0x36328241	2.6599885e-06
50	0x325842ca	1.2588041e-08
51	0x33a05e93	7.4677835e-08
52	0x3508dc55	5.0984573e-07
53	0x3656c6de	3.200424e-06
54	0x323eafff	1.10994725e-08
55	0x33d015e3	9.689736e-08
56	0x33ba8f77	8.687396e-08
57	0x341f06c7	1.4810495e-07
58	0x33bba9a0	8.738721e-08
59	0x342b7ca4	1.597096e-07
60	0x3227a7bd	9.758819e-09
61	0x31ee37fb	6.933076e-09
62	0x33f5edfd	1.1451991e-07
63	0x3583abad	9.810225e-07
64	0x32009f41	7.486791e-09
65	0x3312bec3	3.416677e-08
66	0x33fd61b5	1.17990034e-07
67	0x3567aad9	8.630282e-07
68	0x31f047a8	6.9930657e-09
69	0x32f7067d	2.8757535e-08
70	0x340caedf	1.3102134e-07
71	0x33b78186	8.545162e-08
72	0x340b70a8	1.2986368e-07
73	0x33a6dafa	7.769809e-08
74	0x32411be8	1.1240424e-08
75	0x321157f3	8.460108e-09
76	0x3414ada1	1.384674e-07
77	0x35142c17	5.5198456e-07
78	0x322818aa	9.784495e-09
79	0x3309d219	3.208888e-08
80	0x3408bcf6	1.273473e-07
81	0x34f57012	4.5716348e-07
82	0x3224dc1b	9.596103e-09
83	0x32f35e7d	2.8331891e-08
84	0x33a580ac	7.7068165e-08
85	0x33a7c3b5	7.8121424e-08
86	0x3391e1ce	6.793162e-08
87	0x33ab168a	7.966908e-08
88	0x31a23ed9	4.7219655e-09
89	0x31826da6	3.7959635e-09
90	0x340901b5	1.275974e-07
91	0x34fe3c0e	4.7354882e-07
92	0x3124aadb	2.396226e-09
93	0x32a54d7f	1.924377e-08
94	0x33ecc62e	1.1025655e-07
95	0x3489a8f9	2.5641182e-07
96	0x31306e3d	2.5674034e-09
97	0x31a6b528	4.851831e-09
98	0x34e04fa6	4.1781203e-07
99	0x340df74a	1.3221612e-07
100	0x34dda9c3	4.1287976e-07
101	0x34125b2e	1.363048e-07
102	0x32970d25	1.7584691e-08
103	0x3216b02b	8.771205e-09
104	0x3510d66b	5.39562e-07
105	0x352d7832	6.462243e-07
106	0x3201e730	7.561354e-09
107	0x32999b1c	1.788208e-08
108	0x351619d8	5.591696e-07
109	0x3534460d	6.715716e-07
110	0x31eea48a	6.9454176e-09
111	0x32c03b35	2.2378666e-08
112	0x33a7f0cc	7.820344e-08
113	0x330a6cc3	3.2229547e-08
114	0x339fc3e8	7.4396496e-08
115	0x33062968	3.1236965e-08
116	0x31ad74e2	5.0482507e-09
117	0x31b4ee08	5.2657505e-09
118	0x33aae66a	7.958154e-08
119	0x33c3a290	9.109965e-08
120	0x31abb73c	4.9975863e-09
121	0x31b002e8	5.1226046e-09
122	0x33a6a8a1	7.760651e-08
123	0x35988106	1.1362433e-06
124	0x31ed73d2	6.910775e-09
125	0x336b2f4a	5.475821e-08
126	0x341c3d42	1.4550918e-07
127	0x33f04988	1.1189246e-07
128	0x341f4d86	1.4836232e-07
129	0x34060bdf	1.2484041e-07
130	0x31afcbd4	5.116343e-09
131	0x315905fa	3.1581053e-09
132	0x3417ce4c	1.4138021e-07
133	0x3502b2f1	4.868917e-07
134	0x3126bb3c	2.426261e-09
135	0x321ea6e2	9.234755e-09
136	0x34297ae0	1.5784053e-07
137	0x34beaf43	3.5517778e-07
138	0x31318cb2	2.5836866e-09
139	0x31fa0c52	7.2773583e-09
140	0x3389107a	6.382557e-08
141	0x33c15bcb	9.00396e-08
142	0x338501c8	6.193619e-08
143	0x33ba15c5	8.66526e-08
144	0x31d922f7	6.3195063e-09
145	0x31ac477a	5.013985e-09
146	0x33cf6cdb	9.658989e-08
147	0x34ecfb68	4.4141348e-07
148	0x31931228	4.280327e-09
149	0x32a6e8b5	1.9430766e-08
150	0x34059a77	1.2442784e-07
151	0x3537a971	6.841938e-07
152	0x31acca34	5.0288467e-09
153	0x32f2b019	2.8252588e-08
154	0x34274fbb	1.5582093e-07
155	0x33e7cb14	1.07937154e-07
156	0x34334668	1.6696288e-07
157	0x33ca5470	9.421717e-08
158	0x32890bd7	1.5954283e-08
159	0x32170d12	8.792329e-09
160	0x345f64ee	2.0805211e-07
161	0x35611aaa	8.3857833e-07
162	0x325051a4	1.2125756e-08
163	0x334ed450	4.815621e-08
164	0x340b5473	1.2976106e-07
165	0x34798b69	2.3240649e-07
166	0x3229c7da	9.882536e-09
167	0x32258094	9.633499e-09
168	0x322df6df	1.0126057e-08
169	0x3307f6ee	3.1656718e-08
170	0x322ec6f8	1.0173373e-08
171	0x33098778	3.2021006e-08
172	0x31fc155d	7.336594e-09
173	0x31816c8c	3.7667345e-09
174	0x329d4323	1.8307736e-08
175	0x336381ca	5.29706e-08
176	0x3138c8cb	2.6889662e-09
177	0x315640e6	3.117799e-09
178	0x3351535d	4.8737423e-08
179	0x338bb509	6.505622e-08
180	0x316197ef	3.2828174e-09
181	0x31545dfe	3.0903489e-09
182	0x34467822	1.8483891e-07
183	0x34047284	1.2335119e-07
184	0x345032ed	1.9390036e-07
185	0x33ef3a33	1.1139891e-07
186	0x3296fbaa	1.7576742e-08
187	0x3263e8fd	1.3266114e-08
188	0x343fe987	1.7873218e-07
189	0x3436d7fe	1.7028648e-07
190	0x3253c4d1	1.2326567e-08
191	0x3219d9c3	8.955285e-09
192	0x35067793	5.0092893e-07
193	0x358b1da3	1.0364932e-06
194	0x328002cc	1.4902433e-08
195	0x335d5de3	5.154096e-08
196	0x3466ab71	2.1482789e-07
197	0x33a5e81a	7.72563e-08
198	0x3462c160	2.111824e-07
199	0x3395d3d5	6.976885e-08
200	0x322e618e	1.0150314e-08
201	0x320c684d	8.172788e-09
202	0x345d9d0c	2.0639362e-07
203	0x35bf301c	1.4244611e-06
204	0x325dc1ad	1.290793e-08
205	0x33b34bd4	8.34913e-08
206	0x346991a5	2.1752801e-07
207	0x34a6cf0a	3.107055e-07
208	0x32226847	9.453351e-09
209	0x327d63df	1.4749246e-08
210	0x33e985b8	1.0874231e-07
211	0x33eba207	1.0972513e-07
212	0x33f859b6	1.1564718e-07
213	0x33ee3057	1.10915316e-07
214	0x31b36e11	5.2220988e-09
215	0x31cbe06e	5.9335923e-09
216	0x342fdba7	1.6378054e-07
217	0x34ae2dc1	3.2443316e-07
218	0x31820a48	3.784667e-09
219	0x32164b2e	8.748243e-09
220	0x3484a84a	2.4709362e-07
221	0x34d0159e	3.8758748e-07
222	0x31d1baff	6.1039596e-09
223	0x3261d6fe	1.3145607e-08

exp_avg f4 [16]
0	0x378dadd5	1.6889457e-05
1	0x39d61b7a	0.00040837732
2	0x3951720a	0.00019974276
3	0x390798fb	0.00012931593
4	0xb6cd6168	-6.1208157e-06
5	0x3a0efe1d	0.0005454736
6	0x37298104	1.0103224e-05
7	0x355dec80	8.267307e-07
8	0xb71688b6	-8.972527e-06
9	0xb91c1df3	-0.00014888476
10	0x3a10c8cc	0.0005523085
11	0xba134915	-0.0005618495
12	0xb9089e60	-0.0001302897
13	0xb9e94a44	-0.00044496555
14	0xb9a3d578	-0.0003124883
15	0x39c8ed3c	0.00038323726

exp_avg_sq f4 [16]
0	0x339db8c5	7.3444916e-08
1	0x3631f06a	2.6514995e-06
2	0x361a8dbe	2.3030293e-06
3	0x35edf8af	1.7730252e-06
4	0x354a5018	7.5367416e-07
5	0x35a0abcd	1.197093e-06
6	0x349ba0c3	2.898797e-07
7	0x3450165d	1.9379645e-07
8	0x34f2ad99	4.5202322e-07
9	0x34043d12	1.2315675e-07
10	0x3522881c	6.054777e-07
11	0x360fd080	2.1430023e-06
12	0x33961664	6.988992e-08
13	0x36589a89	3.227646e-06
14	0x3602a8eb	1.9469833e-06
15	0x35bab2fd	1.3910172e-06

exp_avg f4 [8, 16]
0	0xb7942517	-1.7660246e-05
1	0xb84e33ed	-4.9162587e-05
2	0xba18f822	-0.00058353145
3	0xb9d2daed	-0.00040217434
4	0xb97c8c62	-0.0002408489
5	0xb9c8d91b	-0.0003830873
6	0xb9a0732f	-0.00030603397
7	0xb7cb2f0c	-2.4221394e-05
8	0xb8ad9070	-8.2761864e-05
9	0xb8c47910	-9.368558e-05
10	0xb9a5a2a2	-0.00031592423
11	0xba2db0ce	-0.0006625772
12	0xb99a4936	-0.00029427715
13	0xba67face	-0.00088493235
14	0xb9cafd90	-0.0003871736
15	0xb97a1bf0	-0.00023852265
16	0x37af8780	2.0924723e-05
17	0x36c9ebf8	6.017737e-06
18	0x3a14d946	0.0005678128
19	0x399d3c20	0.0002999017
20	0x39143d0c	0.00014137122
21	0x39f59fe4	0.0004684917
22	0x39a024ca	0.00030544988
23	0xb7ff4e68	-3.043488e-05
24	0x384e7f62	4.923286e-05
25	0x388641c3	6.401867e-05
26	0x39a8c650	0.0003219121
27	0x3a3794c3	0.0007003063
28	0x38aa9994	8.134838e-05
29	0x3a843a1a	0.0010088116
30	0x3a24f36e	0.00062923774
31	0x397c1b97	0.00024042871
32	0x2d589c18	1.2312838e-11
33	0xb47dd16b	-2.3638647e-07
34	0xb311180b	-3.378231e-08
35	0xb26c4223	-1.3752046e-08
36	0xb3ab823d	-7.986498e-08
37	0xb38a9a5f	-6.454206e-08
38	0xabb503f3	-1.286192e-12
39	0x8f064576	-6.620088e-30
40	0xb2cdf6f2	-2.3977439e-08
41	0x00000026	5.3e-44
42	0xb3c0cde9	-8.9781516e-08
43	0x2b984210	1.0818586e-12
44	0x00000004	6e-45
45	0xb41502fc	-1.3877792e-07
46	0x2fb183ec	3.2289849e-10
47	0xb3f565fb	-1.1427252e-07
48	0x9c3b3782	-6.194485e-22
49	0x9be4af1d	-3.78326e-22
50	0x2c81c843	3.688634e-12
51	0x2d96f383	1.7161167e-11
52	0x2dafa6e3	1.996931e-11
53	0x9ab68bf2	-7.549953e-23
54	0x2d3f7a45	1.0884242e-11
55	0x00000004	6e-45
56	0x9aa06caf	-6.6350037e-23
57	0x00000004	6e-45
58	0x2ba7f266	1.1933343e-12
59	0x2b8d8506	1.0055574e-12
60	0x2d559a26	1.2141876e-11
61	0x28f66ded	2.7359159e-14
62	0x800002bc	-9.81e-43
63	0x85a928d6	-1.5907684e-35
64	0xb659a972	-3.243415e-06
65	0x378a54f4	1.6490441e-05
66	0x38ab198b	8.158673e-05
67	0x387274da	5.7806123e-05
68	0x3894554b	7.073077e-05
69	0x38eb15ea	0.00011209755
70	0x38cfe6d7	9.9135264e-05
71	0xb4aaada8	-3.179132e-07
72	0x37a55b4a	1.9712043e-05
73	0x378502d8	1.585616e-05
74	0x38a22f2d	7.733549e-05
75	0x38696566	5.5645964e-05
76	0x36893837	4.0894624e-06
77	0x397db85c	0.0002419664
78	0x37ffc6c2	3.0490923e-05
79	0x38c599c8	9.422336e-05
80	0xb71a868a	-9.21044e-06
81	0xb86741a4	-5.5135824e-05
82	0x3833fd6c	4.2912943e-05
83	0x380d6aa8	3.371635e-05
84	0xb6947a8f	-4.4250114e-06
85	0xb922f3e2	-0.00015540377
86	0xb811fb78	-3.4804892e-05
87	0xb790d675	-1.7266002e-05
88	0xb869ea9f	-5.5770037e-05
89	0xb7236cee	-9.740919e-06
90	0xb846477a	-4.7273446e-05
91	0xb87237ec	-5.7749377e-05
92	0x3860b7dc	5.3576994e-05
93	0xb7611790	-1.3416531e-05
94	0xb8f0cc8e	-0.00011482193
95	0xb894ae4b	-7.0896545e-05
96	0x350f3d1c	5.3360577e-07
97	0x37ce3805	2.45832e-05
98	0xb6b223ca	-5.30898e-06
99	0xb6aedc57	-5.211255e-06
100	0x35cb21de	1.5134535e-06
101	0x3888858c	6.5098604e-05
102	0xb7432fb3	-1.1634012e-05
103	0xb81b62b9	-3.7046822e-05
104	0xb856a31e	-5.117349e-05
105	0xb82098de	-3.828934e-05
106	0x380be78b	3.3355824e-05
107	0xb80dece3	-3.3837638e-05
108	0xb828d6d8	-4.025441e-05
109	0xb80c379a	-3.3430384e-05
110	0xb7acf234	-2.0616782e-05
111	0x385fcb5a	5.335673e-05
112	0xb840336f	-4.582427e-05
113	0xb7c40c37	-2.3370709e-05
114	0x3989940e	0.00026240986
115	0x394b2d08	0.00019376364
116	0x3908d2c7	0.00013048491
117	0x393de79e	0.00018110729
118	0x38f4774c	0.000116570474
119	0x36c2cdac	5.805594e-06
120	0x37bad603	2.2272585e-05
121	0x37abb85c	2.0470638e-05
122	0x393bb88a	0.00017902456
123	0x399202b0	0.00027849292
124	0x391f5e28	0.00015198498
125	0x39b3fe12	0.00034330838
126	0x38917c1e	6.9372574e-05
127	0x390bc6e0	0.0001333016

exp_avg_sq f4 [8, 16]
0	0x33e9625b	1.0867799e-07
1	0x364f611b	3.0901926e-06
2	0x35d96bc5	1.6199125e-06
3	0x360fded9	2.1438375e-06
4	0x3539d5e9	6.922915e-07
5	0x36868049	4.0084456e-06
6	0x3502545d	4.855154e-07
7	0x34de51a4	4.1410124e-07
8	0x35c325f9	1.4539684e-06
9	0x34f3175f	4.5279282e-07
10	0x35cb0471	1.5125971e-06
11	0x3676d17e	3.6778797e-06
12	0x343e28ee	1.7710019e-07
13	0x36a42fbc	4.893138e-06
14	0x360ec280	2.1272863e-06
15	0x34ddb232	4.1294112e-07
16	0x3407079c	1.2575623e-07
17	0x36c470e4	5.8543974e-06
18	0x355dc2e5	8.2612524e-07
19	0x35cfdaff	1.5486438e-06
20	0x35456b49	7.354434e-07
21	0x36181586	2.2662293e-06
22	0x34a43f38	3.0593378e-07
23	0x343e2d11	1.7711524e-07
24	0x357e2185	9.467115e-07
25	0x348109a7	2.4035145e-07
26	0x35abd493	1.280236e-06
27	0x3636dcd5	2.7248655e-06
28	0x347dbacb	2.3630416e-07
29	0x3648acc0	2.9902876e-06
30	0x3593a335	1.0999853e-06
31	0x3526f157	6.2191015e-07
32	0x3375fb94	5.7272317e-08
33	0x36c0db09	5.747545e-06
34	0x330d733c	3.2933926e-08
35	0x338ba2d3	6.5023094e-08
36	0x33477f50	4.6449088e-08
37	0x3490765a	2.6908202e-07
38	0x32b2412c	2.0751564e-08
39	0x330f1e54	3.3322365e-08
40	0x32c822d1	2.3298897e-08
41	0x345d9bab	2.063886e-07
42	0x34d941ee	4.046737e-07
43	0x34f67355	4.5904986e-07
44	0x33c3b130	9.112625e-08
45	0x338f4e01	6.673145e-08
46	0x32a75001	1.947774e-08
47	0x351d6c06	5.864425e-07
48	0x324e6ea2	1.2015933e-08
49	0x3195b9ed	4.357608e-09
50	0x320c21b8	8.156739e-09
51	0x323c9c69	1.0978604e-08
52	0x321e9164	9.229868e-09
53	0x321968f3	8.929635e-09
54	0x315e19e8	3.2319978e-09
55	0x3166ff4e	3.361453e-09
56	0x33f7f1bf	1.1545807e-07
57	0x329dfad5	1.839127e-08
58	0x31b45fa8	5.2495643e-09
59	0x31697107	3.397021e-09
60	0x30fe439b	1.8500147e-09
61	0x305b7c2b	7.984819e-10
62	0x337000b5	5.5879998e-08
63	0x3107e90c	1.9777557e-09
64	0x3171ef61	3.5206187e-09
65	0x33ae50d1	8.117207e-08
66	0x34168b6c	1.402056e-07
67	0x340ff4e2	1.3407e-07
68	0x33a51ce0	7.6886636e-08
69	0x345cb370	2.0554376e-07
70	0x33179a5d	3.529782e-08
71	0x2ed5856b	9.7098184e-11
72	0x33483a3f	4.6619103e-08
73	0x3118357b	2.2149311e-09
74	0x3436ac5f	1.7012779e-07
75	0x334cc4c9	4.7676426e-08
76	0x32bd2497	2.2019135e-08
77	0x35871013	1.0062962e-06
78	0x326be3e3	1.3730616e-08
79	0x3393be37	6.879821e-08
80	0x328ec8d8	1.6622309e-08
81	0x36b31f48	5.3382573e-06
82	0x3548d857	7.482062e-07
83	0x350b9965	5.2004754e-07
84	0x3408ec65	1.2751987e-07
85	0x35e14b20	1.6785671e-06
86	0x33dcae3a	1.027624e-07
87	0x31aeb0e0	5.084175e-09
88	0x331461dd	3.454794e-08
89	0x33e522b4	1.0669956e-07
90	0x35279b94	6.2438744e-07
91	0x3602c6a4	1.9487134e-06
92	0x3348f0de	4.6785196e-08
93	0x343cbccc	1.7577548e-07
94	0x3570acb5	8.965829e-07
95	0x35023a75	4.851384e-07
96	0x2e4dfe49	4.6837454e-11
97	0x33b312ca	8.338755e-08
98	0x31802145	3.7290726e-09
99	0x32120910	8.500379e-09
100	0x31f66ec7	7.172136e-09
101	0x33aae6b3	7.958206e-08
102	0x31155a8d	2.1733826e-09
103	0x34c56cda	3.677331e-07
104	0x351dbf15	5.876512e-07
105	0x34cc555f	3.8060077e-07
106	0x32a42e28	1.9113102e-08
107	0x3270ffb9	1.4027983e-08
108	0x305e0a8e	8.077813e-10
109	0x32b5e663	2.1175941e-08
110	0x3512887c	5.458785e-07
111	0x32f166bd	2.8102813e-08
112	0x349f76dc	2.970254e-07
113	0x373f2b7a	1.139461e-05
114	0x3626bc61	2.4845579e-06
115	0x365a06cf	3.2488495e-06
116	0x35b503ea	1.348669e-06
117	0x36a81047	5.008685e-06
118	0x351d02cb	5.849112e-07
119	0x32a1bdac	1.882912e-08
120	0x3551be64	7.813562e-07
121	0x3497f7ed	2.8306332e-07
122	0x363ebd86	2.8422523e-06
123	0x36a5150e	4.9198343e-06
124	0x351c6926	5.826754e-07
125	0x36b15a15	5.285498e-06
126	0x35cced52	1.5268254e-06
127	0x35e759e1	1.7236999e-06

exp_avg f4 [8]
0	0xba33749a	-0.0006845683
1	0x3a3ca496	0.0007196156
2	0xb36d846f	-5.530131e-08
3	0x2d6609d3	1.3076168e-11
4	0x390624f8	0.00012793008
5	0xb83604b4	-4.339656e-05
6	0xb7948360	-1.7704151e-05
7	0x39920631	0.00027851903

exp_avg_sq f4 [8]
0	0x369b72e8	4.632737e-06
1	0x3651a30a	3.1238328e-06
2	0x34ae5698	3.247303e-07
3	0x33a7454c	7.7891485e-08
4	0x348f194c	2.6654232e-07
5	0x35bcb444	1.4059556e-06
6	0x34121d0b	1.3607875e-07
7	0x36fa4f33	7.4598006e-06

exp_avg f4 [2, 8]
0	0x3b008644	0.0019611279
1	0x3a5243e2	0.00080209796
2	0xb2916784	-1.6927295e-08
3	0x2cd6cd01	6.105006e-12
4	0x399856aa	0.0002905627
5	0x39f09ee0	0.00045894738
6	0x39400f34	0.0001831621
7	0x3a81e1ea	0.0009909247
8	0x3b3fae10	0.0029248036
9	0x3a9730d6	0.001153494
10	0xb1a539f0	-4.8087188e-09
11	0x2ca0ca15	4.569909e-12
12	0x39969a2a	0.0002872509
13	0x39df7a85	0.0004262516
14	0x38d67c04	0.00010227415
15	0x3af84466	0.0018941283

exp_avg_sq f4 [2, 8]
0	0x37d3168d	2.5163661e-05
1	0x38167718	3.58737e-05
2	0x3667a93e	3.4520194e-06
3	0x351b205f	5.7789106e-07
4	0x3521265d	6.0033e-07
5	0x35fba83c	1.874992e-06
6	0x364c978a	3.0486576e-06
7	0x37b17cb3	2.1158112e-05
8	0x38619173	5.377964e-05
9	0x3894d056	7.0959955e-05
10	0x367426f1	3.63815e-06
11	0x34ef8cc5	4.4619642e-07
12	0x35577885	8.026912e-07
13	0x35dd18c6	1.6472993e-06
14	0x36e889b0	6.9301677e-06
15	0x37f66873	2.9374123e-05

exp_avg f4 [2]
0	0x3a25d2f4	0.0006325685
1	0x3a7e6bc0	0.0009705387

exp_avg_sq f4 [2]
0	0x37bb8e38	2.2358363e-05
1	0x38194ff9	3.6552523e-05

fc1.weight f4 [32, 20]
0	0xbeec7b98	-0.46188045
1	0x3d2a35ac	0.04155509
2	0x3f0eca59	0.5577751
3	0xbec4425b	-0.38331875
4	0xbe8b61ed	-0.2722315
5	0x3eaf4b78	0.34237266
6	0xbe950f5a	-0.29113275
7	0x3eb127a9	0.3460057
8	0x3e7a75fb	0.24459068
9	0xbe147fa5	-0.14501818
10	0xbe35b6a4	-0.17745453
11	0xbea08e7c	-0.31358707
12	0xbd581261	-0.052751902
13	0x3d237614	0.03990753
14	0x3d9a642d	0.07538638
15	0xbd2c100c	-0.04200749
16	0xbb8f4839	-0.0043726233
17	0x3c361939	0.011114412
18	0x3d040e37	0.03224012
19	0xbd113ce6	-0.035458468
20	0xbe2d24ad	-0.16908522
21	0x3dc312e0	0.095250845
22	0xbfa49cf0	-1.2860394
23	0x3f072409	0.5278936
24	0xbe6e20f4	-0.23254758
25	0x3cbf7137	0.023369415
26	0xbdb1d87e	-0.08683871
27	0x3e25622a	0.16150728
28	0xbe089100	-0.13336563
29	0x3e85c352	0.2612558
30	0xbe40ca75	-0.18827231
31	0x3d0e2ec2	0.03471256
32	0xbe0d06a8	-0.1377207
33	0xbdf14f2c	-0.11782679
34	0xbc6b38e7	-0.014356828
35	0x3c87fa42	0.016598824
36	0xb97635b2	-0.00023480391
37	0xbb727467	-0.003699565
38	0xbbf86462	-0.007580326
39	0xba28b42a	-0.0006435538
40	0xbd235794	-0.039878443
41	0xbeb2d0b1	-0.34924844
42	0x3f28b082	0.6589433
43	0xbf86654d	-1.0499665
44	0x3e9ace52	0.30235535
45	0x3d81f680	0.06345844
46	0xbec098b1	-0.37616494
47	0xbc906364	-0.017625518
48	0xbe1091e1	-0.14118148
49	0xbe3f8f6b	-0.18707053
50	0xbde422b7	-0.11139434
51	0x3eb332cb	0.3499969
52	0xbe868a8f	-0.26277587
53	0x3d94afe2	0.072601095
54	0x39e34251	0.00043346224
55	0xbb0d8824	-0.0021596039
56	0xbbdfeaef	-0.006833426
57	0xbaa1e50b	-0.0012351585
58	0x3c3362d1	0.010948853
59	0x3bfb9de8	0.007678736
60	0x3e8ab075	0.2708775
61	0x3dc7196c	0.09721646
62	0x3e2055c0	0.15657711
63	0xbfa07b06	-1.2537544
64	0xbd36991d	-0.044579614
65	0xbe59cd55	-0.21269734
66	0x3c74a73d	0.014932451
67	0xbcd38531	-0.025820347
68	0x3ce2fa1a	0.027707148
69	0x3c69c476	0.014268031
70	0x3d881260	0.0664413
71	0x3e6a513d	0.22882552
72	0xbde30f4b	-0.11086901
73	0xbbd9721a	-0.0066359164
74	0xbc0a31aa	-0.008434692
75	0xbc6f0b8c	-0.014590155
76	0x3c035d8c	0.008017909
77	0x3a8b7ddf	0.0010642371
78	0x3c0b35ec	0.008496743
79	0xbc2e3009	-0.01063157
80	0x3f024b0e	0.50895774
81	0xbd0f447d	-0.034977425
82	0x3f34ca55	0.70621234
83	0xbee44254	-0.44581854
84	0x3f12385a	0.57117236
85	0xbf112510	-0.5669718
86	0xbd163040	-0.03666711
87	0xbd85418f	-0.06506645
88	0xbee393dc	-0.44448745
89	0xbf101f83	-0.56298083
90	0x3e816df7	0.2527921
91	0xbf39705f	-0.7243709
92	0xbd9c00a3	-0.07617309
93	0xbea7ed98	-0.32798457
94	0x3dabea4d	0.08394299
95	0xbc623c8e	-0.013808383
96	0xbc77af64	-0.0151175
97	0xbdc9b257	-0.09848469
98	0x3cf8521c	0.03031259
99	0xbce382e5	-0.027772376
100	0xbef844a8	-0.4848988
101	0x3d8cf32b	0.06882318
102	0xbdba1a40	-0.09087038
103	0xbf2ff45a	-0.68732226
104	0x3d0da2f6	0.03457924
105	0x3cfef94b	0.031124732
106	0xbeb9b795	-0.36272874
107	0xbe2c1a43	-0.16806893
108	0xbe4d0505	-0.20021446
109	0x3c880f16	0.016608756
110	0xbe9065de	-0.28202718
111	0xbe02cf61	-0.12774421
112	0x3e02e357	0.12782036
113	0xbe95a4b4	-0.2922722
114	0x3cc5c9c0	0.024144053
115	0xbd7e55f1	-0.06209368
116	0x3ccd4daa	0.025061447
117	0x3d3c26b8	0.045935363
118	0xbd6e6f0e	-0.05821138
119	0xbd1223af	-0.03567856
120	0x3d04df90	0.03243977
121	0xbdc29fac	-0.09503111
122	0xbf833272	-1.024977
123	0xbfb1184f	-1.3835543
124	0xbe3e2b51	-0.18571211
125	0xbda951a9	-0.082675286
126	0xbca96590	-0.020678312
127	0xbd8ac103	-0.06775095
128	0xbc8495b4	-0.016184665
129	0xbe008a36	-0.12552723
130	0xbdfb42bb	-0.12268587
131	0xbdd954ab	-0.10611852
132	0x3d3066ed	0.043066908
133	0x3c02630b	0.007958184
134	0xbc54739a	-0.012967015
135	0xbc981a54	-0.018567242
136	0xbb1e3b78	-0.0024144333
137	0xbb5cd8fc	-0.0033698669
138	0x3b63dc46	0.0034768744
139	0xbc1508b1	-0.0090963105
140	0xbdf6d5ae	-0.12052475
141	0xbe433fd0	-0.19067311
142	0x403c5511	2.942692
143	0x3f5f121d	0.87137014
144	0x3e6cad5e	0.2311301
145	0xbdbd067f	-0.09229755
146	0xbda9a1b6	-0.08282797
147	0x3d0076e0	0.031363368
148	0x3e176a0f	0.14786552
149	0x3e3ba62b	0.18325107
150	0x3dec16ea	0.11527808
151	0x3e2a5b0d	0.16636296
152	0xbd8fa260	-0.070133924
153	0x3d085989	0.033288512
154	0x3d45d9c5	0.048303384
155	0x3ce50a2a	0.027958948
156	0xbc2e2380	-0.010628581
157	0x3ba31750	0.0049771443
158	0xbb8230d3	-0.0039731055
159	0xba3d5306	-0.0007222149
160	0xbe34e093	-0.17663793
161	0x3e8129fc	0.25227344
162	0x3d20a8b2	0.03922338
163	0x3f02a03d	0.51025754
164	0x3d944fd2	0.07241787
165	0x3da4932a	0.08035882
166	0xbeb8d941	-0.36103252
167	0x3d921106	0.07132153
168	0xbded53ed	-0.11588273
169	0xbc8b7a17	-0.01702599
170	0xbc83a097	-0.016067786
171	0xbf1db7be	-0.61608493
172	0x3e4b2bc6	0.19840917
173	0x3dd862ab	0.105656944
174	0xbd10973a	-0.03530047
175	0x3db7cf9b	0.089751445
176	0xbc144054	-0.00904854
177	0xbc235ae1	-0.009970398
178	0xbb8dbf18	-0.0043257587
179	0xbd116a5a	-0.035501815
180	0x3edab9ef	0.4271998
181	0x3c891125	0.016731808
182	0xbeb29361	-0.34878066
183	0xbf9042fb	-1.1270441
184	0xbe577cae	-0.21043655
185	0xbe9456bb	-0.2897242
186	0x3e3dae5b	0.18523543
187	0x3dc11b6c	0.094290584
188	0x3ce7431a	0.028230239
189	0xbbe3bbe6	-0.0069498895
190	0x3e2813ab	0.16413753
191	0xbc2c9810	-0.010534301
192	0xbd8580a9	-0.065186806
193	0x3db873e8	0.09006482
194	0x3c2630a7	0.010143436
195	0xbccbb1c5	-0.02486504
196	0x3b030a54	0.001999517
197	0xbb899488	-0.0041986145
198	0x3b1f45d7	0.0024303102
199	0x3bc0c193	0.005882451
200	0xbe04d4ff	-0.12971877
201	0x3d1f215d	0.038850177
202	0x3f3f3e18	0.7470412
203	0xbe8a74de	-0.27042288
204	0x3c91fb6f	0.017820088
205	0x3e3880b0	0.1801784
206	0xbdade414	-0.08490768
207	0x3e55789e	0.20846793
208	0x3e754432	0.23951796
209	0x3e4f93a0	0.20271158
210	0xbeaba292	-0.3352247
211	0xbe92dd0a	-0.28684264
212	0x3d603b6c	0.05474417
213	0x3e3b4ac0	0.18290234
214	0xbcb14c83	-0.021642929
215	0xbaefefc8	-0.0018305713
216	0xbb1e8dc3	-0.0024193383
217	0x3d6e3fa4	0.05816616
218	0xbd38ae3a	-0.04508803
219	0xbc10f77e	-0.008848069
220	0x3edbe356	0.4294688
221	0xbcef833e	-0.029237386
222	0x40082290	2.1271095
223	0xbed441e9	-0.41456535
224	0x3ddd9fd4	0.108215004
225	0xbe446cad	-0.19182082
226	0xbcb788d5	-0.022404114
227	0xbc7a78b6	-0.015287569
228	0x3df71b45	0.12065748
229	0x3cbdf44f	0.023187784
230	0x3dc9812b	0.0983909
231	0x3e162847	0.14663802
232	0x3d1babe2	0.038005717
233	0xbd8878ac	-0.06663641
234	0x3d258db6	0.04041835
235	0x3bd0a9d2	0.0063679004
236	0xbb80d6b7	-0.003931846
237	0x3bb3651f	0.005474701
238	0xbc00032a	-0.007813254
239	0x3c806651	0.015673788
240	0xbdfb5c8e	-0.12273513
241	0x3d5cfdf0	0.05395311
242	0xbf81a5da	-1.0128739
243	0x3eff64a1	0.4988146
244	0xbdab5231	-0.08365286
245	0x3acf6c29	0.0015825081
246	0xbca98bac	-0.020696484
247	0x3d1f1b49	0.03884438
248	0x3e3185c9	0.17336191
249	0x3e508d5f	0.20366429
250	0xbd171452	-0.036884613
251	0x3c9f367a	0.019435156
252	0xbc6bf866	-0.0144024845
253	0x3e1cc88a	0.15310875
254	0xbda86bcb	-0.08223685
255	0xbb24f028	-0.0025167558

fc1.bias f4 [32]
0	0x3eacd7a5	0.33758274
1	0xbf263c6d	-0.6493595
2	0xbecd984f	-0.40155265
3	0xbeadfc13	-0.3398138
4	0x3e7e781b	0.24850504
5	0x3f8afab4	1.0857759
6	0xbf7c31cd	-0.9851349
7	0xbeffee5c	-0.4998654
8	0xbfa54a06	-1.2913215
9	0xbf012ab3	-0.5045578
10	0x3f62d8e4	0.886122
11	0xbe73f657	-0.2382444
12	0xbe398684	-0.1811772
13	0xbf07244e	-0.5278977
14	0xbf9d3980	-1.2283173
15	0xbf090f6f	-0.53539175
16	0x3f1b5ad5	0.60685474
17	0xbfb817fa	-1.4382317
18	0x3fec1e4a	1.8446743
19	0xbf28fcb8	-0.6601062
20	0xbf8d499a	-1.1038086
21	0xbe8f38cd	-0.27973023
22	0x3ee14f7e	0.4400596
23	0xbf34fb65	-0.706961
24	0x3dc0a332	0.09406127
25	0xbec7d1f9	-0.39027384
26	0xbf41e3f4	-0.75738454
27	0x3f24d627	0.6438927
28	0xbf6fff71	-0.9374915
29	0xbeb3901f	-0.35070893
30	0x3e28b92c	0.16476887
31	0xbe9f6808	-0.31134057

fc2.weight f4 [16, 32]
0	0xbdbb6170	-0.09149444
1	0x3f178b30	0.5919676
2	0x3e39da34	0.18149644
3	0x3efe993c	0.49726284
4	0x3cfe38ec	0.031033002
5	0x3e6535f6	0.22383866
6	0x3f828ed1	1.0199834
7	0x3f600722	0.87510884
8	0x3c91bd34	0.017790414
9	0x3eafec2d	0.34359875
10	0xbe7fced9	-0.2498125
11	0x3f002466	0.5005554
12	0x3e040959	0.12894191
13	0x3ee5ba3b	0.44868645
14	0x3f81df15	1.0146204
15	0x3f21b49c	0.63166213
16	0x3d7bf95f	0.061517116
17	0x3f95f16a	1.1714299
18	0x3e4e2f74	0.2013529
19	0x3eb84720	0.35991764
20	0x3f532398	0.82476187
21	0x3edb5296	0.42836446
22	0x3da8fbe9	0.08251173
23	0x3f46fa58	0.77725744
24	0x3d9f1a54	0.077686936
25	0x3edc74d8	0.43057895
26	0x3f95172a	1.1647694
27	0xbe414f10	-0.18877816
28	0x3f46c383	0.7764208
29	0xbd6607d4	-0.05615981
30	0xbd104675	-0.035223443
31	0x3f1e146c	0.6174991
32	0xbdba8a01	-0.091083534
33	0x3f3cc483	0.73737353
34	0x3efcd70c	0.49382818
35	0x3f22d23f	0.6360206
36	0xbe2ef0d1	-0.17084052
37	0x3daf23c9	0.08551747
38	0x3f8c15d3	1.094416
39	0x3f98d466	1.1939819
40	0x3e89b9e6	0.26899642
41	0x3f151569	0.58235794
42	0xbd8949a3	-0.06703498
43	0x3f05a21a	0.5220047
44	0x3d0b5329	0.034014855
45	0x3effb2c2	0.4994107
46	0x3f4bc23a	0.7959324
47	0x3f4f7a93	0.8104641
48	0xbd84bf0c	-0.06481752
49	0x3fae7ce2	1.3631861
50	0xbd3e30eb	-0.04643337
51	0x3e3713a6	0.17878589
52	0x3f74fc00	0.9569702
53	0x3f18862b	0.59579724
54	0x3ea5ab97	0.32357475
55	0x3f540ca1	0.8283177
56	0x3de8a217	0.11359041
57	0x3eea2972	0.45734745
58	0x3fb2ee15	1.3978907
59	0xbdd87815	-0.10569779
60	0x3f3912e0	0.72294426
61	0x3c8d359c	0.017237477
62	0xbca9cf54	-0.020728745
63	0x3f439cbd	0.7641104
64	0x3d44bd06	0.04803183
65	0x3d92ce21	0.07168222
66	0xbe64470b	-0.22292726
67	0x3d834ad8	0.0641076
68	0xbdeed7b9	-0.116622396
69	0xbda92dce	-0.0826069
70	0x3d89cce1	0.06728531
71	0x3b34ff2f	0.0027617922
72	0xb6adb9ea	-5.177445e-06
73	0x3d14f418	0.0363656
74	0xba248396	-0.00062757113
75	0x3cb60ec8	0.022223845
76	0x3d7fc063	0.062439334
77	0xbce00029	-0.027343826
78	0xbaa81330	-0.0012823101
79	0xbddd7968	-0.10814172
80	0xbc157991	-0.009123222
81	0xbdba0f6a	-0.09084971
82	0xbdac1045	-0.08401541
83	0xbe4aca12	-0.19803646
84	0xbe2d1ef0	-0.16906333
85	0xbc58f87c	-0.013242837
86	0xbe1e136b	-0.15437095
87	0xbe14da71	-0.14536454
88	0xbd38b994	-0.045098856
89	0xbe1851fe	-0.14875028
90	0x3d9a2b25	0.075277604
91	0xbddfdb02	-0.10930444
92	0xbdc1f31f	-0.094702
93	0xbda800ca	-0.082032755
94	0xbe3e2274	-0.1856783
95	0x3c974af7	0.018468363
96	0x3d650181	0.055909637
97	0xbd91c45d	-0.071175314
98	0xbddca5be	-0.107738
99	0x3d8cea39	0.06880612
100	0xbcf6565a	-0.030070473
101	0xbc4629bf	-0.012094914
102	0xbdbde659	-0.09272451
103	0xbcba721d	-0.022759492
104	0x8b2112ad	-3.1021522e-32
105	0xbdbc99fa	-0.09209056
106	0x9a91049f	-5.997806e-23
107	0xbb0269fd	-0.00198996
108	0xbc9d3068	-0.019188121
109	0xbbb9b359	-0.005667132
110	0x3abe2deb	0.0014509534
111	0x3d99c445	0.075081386
112	0xb0cbaacd	-1.4818738e-09
113	0xbd5485d8	-0.051885456
114	0xbd93505c	-0.07193062
115	0x3d711862	0.058861144
116	0xbac6d799	-0.0015170454
117	0x3700799b	7.657708e-06
118	0xbc331561	-0.01093039
119	0x3c396523	0.011315617
120	0xbb647d15	-0.0034864594
121	0x3badef8f	0.0053080986
122	0x3c305842	0.01076323
123	0xbcb498c0	-0.022045493
124	0x3c6e0b40	0.014529049
125	0x3c7223cd	0.014779043
126	0xbd4fb6f3	-0.050711583
127	0xbdfcef92	-0.12350382
128	0xbd24c288	-0.040224582
129	0x3cf84663	0.030307
130	0x3d0d23ec	0.034458086
131	0xbdbff5c9	-0.09373052
132	0xbb186fd6	-0.0023260019
133	0xbc996d1b	-0.018728783
134	0x3a834b3d	0.001001693
135	0x3b48d7f0	0.0030646287
136	0x27b3e953	4.993545e-15
137	0xbb81da5b	-0.0039627976
138	0xbdf8bfd7	-0.121459655
139	0xbc30f251	-0.01079996
140	0xbcf8f92a	-0.030392248
141	0xbb9ab630	-0.0047214255
142	0xa32577fb	-8.970075e-18
143	0xbe3d95ec	-0.18514222
144	0xbbe239cc	-0.0069038626
145	0xba478a77	-0.00076118804
146	0xbda8993c	-0.08232352
147	0xbd0c4434	-0.03424473
148	0x3ccfe200	0.02537632
149	0x3c2c6c60	0.0105238855
150	0x3cd939be	0.026516791
151	0xbcd401f0	-0.02587983
152	0xbd2df3d3	-0.042468857
153	0xbe1477cf	-0.14498828
154	0xbc81733e	-0.015802022
155	0xbd569e8d	-0.0523973
156	0x3c3c96b9	0.011510544
157	0x3ce80410	0.02832225
158	0x3c5cd62b	0.013478796
159	0xbdf5d21d	-0.120029666
160	0xbf3d9d4c	-0.7406814
161	0x3f57c61a	0.84286654
162	0x3d81076d	0.063002445
163	0x3e184c79	0.14872922
164	0xbe377156	-0.17914328
165	0xbf0eab48	-0.55730104
166	0x3f6f9514	0.9358685
167	0x3f108cc3	0.56464785
168	0x3e401dc7	0.18761359
169	0x3cfb2e6f	0.03066179
170	0xbec763eb	-0.3894342
171	0x3db76a76	0.08955853
172	0x3eac7c4f	0.3368859
173	0x3f3676e3	0.71275157
174	0x3f7a0c16	0.9767469
175	0x3eb9c641	0.36284068
176	0xbe285416	-0.16438326
177	0x3f848e3a	1.0355904
178	0xbe99a05d	-0.3000516
179	0x3ed0ca4a	0.40779334
180	0x3f293172	0.6609107
181	0x3ee6d66e	0.45085472
182	0xbf109319	-0.56474453
183	0x3f0e9299	0.5569244
184	0xbf28827a	-0.6582409
185	0x3f0d50fc	0.552017
186	0x3f35ffa9	0.7109323
187	0xbf9bbc6b	-1.2166876
188	0xbcf01188	-0.029305235
189	0x3e67b6a2	0.22628263
190	0x3d53b33c	0.051684603
191	0x3e325d6b	0.17418449
192	0x3e4f33b6	0.2023457
193	0x3f83fa78	1.0310812
194	0x3f19d5b5	0.60091716
195	0xbd8edd6e	-0.06975828
196	0xbc919146	-0.017769467
197	0xbed626c2	-0.41826445
198	0x3f9253bb	1.1431803
199	0x3eb31331	0.3497558
200	0x3f442a87	0.7662739
201	0x3eca6d80	0.39536667
202	0xbf1114bf	-0.5667228
203	0x3ea5b4a1	0.3236437
204	0x3e86525b	0.26234707
205	0x3f37db5f	0.7181911
206	0x3f8d80fd	1.1054989
207	0x3ef87823	0.48529157
208	0xbef5f385	-0.48037353
209	0x3f99ee53	1.2025856
210	0xbf6f0061	-0.93359953
211	0x3eec46df	0.4614782
212	0x3f701d4f	0.9379472
213	0x3ea7ce51	0.32774594
214	0xbe163de8	-0.14672053
215	0x3eaf803e	0.3427753
216	0xbf084dd1	-0.5324374
217	0x3eae7c55	0.34079233
218	0x3ee2b34d	0.4427742
219	0xbead745c	-0.33877838
220	0x3ebfac87	0.37436315
221	0x3ebd1d17	0.36936256
222	0xbe8ee60e	-0.27909893
223	0x3e4e6b54	0.2015813
224	0xbe511723	-0.20418982
225	0x3f56f2f0	0.83964443
226	0x3ea68289	0.32521465
227	0x3e348d5d	0.17632051
228	0xbeafb9c8	-0.34321427
229	0xbdb40598	-0.087901294
230	0x3f6732b8	0.90311766
231	0x3e545205	0.20734413
232	0x3ee70216	0.4511878
233	0x3ea48bf3	0.32138023
234	0xbf01084c	-0.50403285
235	0x3e56390b	0.20920198
236	0x3eb286cf	0.34868476
237	0x3f1d1c62	0.61371434
238	0x3f9243e2	1.1426966
239	0x3efaf834	0.4901749
240	0xbe4dda79	-0.20102872
241	0x3fba2950	1.4543858
242	0xbeeecfca	-0.46642905
243	0x3f0e7373	0.5564491
244	0x3f82e841	1.0227128
245	0x3ea4466f	0.32084987
246	0xbe0498f8	-0.12948978
247	0x3f250098	0.6445403
248	0xbea5927a	-0.32338315
249	0x3eca7ee4	0.39549935
250	0x3ec15e83	0.3776742
251	0xbe9a1d35	-0.30100408
252	0x3e81b8f0	0.2533641
253	0x3e29e2bc	0.16590399
254	0xbd4c28aa	-0.049843468
255	0x3ea399d6	0.31953305

fc2.bias f4 [16]
0	0x3e902cf2	0.2815929
1	0x3e802f95	0.25036302
2	0x3d1f441c	0.038883314
3	0xbd45ca86	-0.048288845
4	0xbd7c6325	-0.06161799
5	0xbf180972	-0.5938941
6	0xbf96e123	-1.1787456
7	0xbf290e6b	-0.66037625
8	0xbe9219d4	-0.2853533
9	0xbe62b068	-0.22137606
10	0x3c8f2c5f	0.017477212
11	0x3e8da259	0.27662924
12	0x3d81a987	0.06331163
13	0xbd5d38ad	-0.05400913
14	0x3e157441	0.14595129
15	0xbe05eb3b	-0.13078015

fc3.weight f4 [1, 16]
0	0xbf169388	-0.58818865
1	0xbf26fb60	-0.6522732
2	0x3df8ea50	0.121540666
3	0xbdab25ea	-0.08356841
4	0x3ba86597	0.0051390636
5	0xbf7b9db0	-0.9828749
6	0xbfa2498f	-1.2678698
7	0xbf50eec8	-0.8161435
8	0xbf7cc528	-0.98738337
9	0x3de1d600	0.110271454
10	0x3dc88a66	0.097920224
11	0xbf0fc1e5	-0.56155235
12	0x3e090110	0.13379312
13	0x3e177616	0.1479114
14	0xbf4cec58	-0.8004813
15	0xbf1e3375	-0.6179727
