DRL-course/MADDPG/model_dir/episode-4000.pt (torch_old, 71203 bytes, 99 tensors)

fc1.weight f4 [16, 14]
-0.19372652 0.08981639 -0.539196 0.2398177 0.043047935 0.11375329 -0.17823622 0.23905271
-0.023271842 0.35212463 0.087076835 -0.221062 0.091338396 0.09768306 0.63537794 0.73801756
0.67084414 0.85441834 -0.2577633 -0.05162216 0.024170293 0.07678341 0.17734875 0.47191995
0.14706308 -0.021031164 0.08663861 0.66156495 -0.72206515 0.48736122 -0.06182504 0.22307067
0.025000285 -0.3049287 -0.27181333 -0.15286095 -0.046729125 -0.32712156 0.18383902 -0.1611986
-0.2101135 -0.027485011 -0.20982912 0.29473272 -0.5654912 0.28842497 -0.08582199 -0.009833848
-0.16780742 -0.057057314 -0.46371472 -0.5127 -0.00086154917 0.08223669 -0.0934338 0.05917935
-0.42612028 0.11215667 -0.3022696 0.26011124 0.15189987 -0.14346111 0.047201768 0.009954451
-0.1939787 -0.3867844 -0.18050985 -0.063982084 -0.30831987 -0.7048302 0.1541971 0.22915867
0.01471425 0.096510716 0.32889158 -0.3123628 0.25457507 -0.18296331 0.07209354 0.45774415
0.029011663 -0.43890533 0.23417042 0.5643855 -0.16034278 0.24208729 -0.6954873 0.4561154
0.28166282 -0.21503133 0.46474785 -0.10661019 -0.5083112 0.58601385 -0.17760828 -0.15046613
-0.11240074 -0.8282376 0.69961834 -0.45499232 0.8157548 -0.5417505 -0.23104455 0.12567136
0.18955447 -0.24294302 -0.48981932 -0.62831885 0.2799638 -0.19938082 -0.42022133 -0.39679608
0.55243325 -0.73222166 0.5657538 -0.48216668 0.110080026 -0.5474121 0.15502226 -0.7866477
-0.21421011 -0.86223674 -0.08222122 0.36111525 -0.0744145 0.5986305 0.30360052 -0.73330134
0.4971575 -0.32903954 -0.112633824 0.50809884 0.14996423 -0.024532396 0.0011606845 -0.20184998
0.16056779 -0.065033615 -0.03037506 -0.22707833 -0.0060891183 0.036144346 0.0626213 0.03262812
-0.13057043 -0.4460783 0.2589351 -0.1183065 0.54142016 0.49092385 0.15405154 -0.00689696
0.13629742 0.40785748 -0.43317574 -0.2242668 -0.18278214 -0.20775376 -0.6069458 0.3431008
-0.48911956 0.5878441 0.18767123 0.8063694 -0.07649071 -0.48380962 0.19331266 0.45534045
-0.61113816 -0.27324367 -0.62208474 -0.063059084 0.32956722 -0.024014795 -0.21985309 -0.12982781
-0.054291356 -0.6027847 -0.28179538 0.13088204 -0.2264617 -0.2636067 -0.1384736 -0.16927396
-0.41170585 0.004908515 -0.17585471 0.21243158 0.30875826 -1.1084319 0.5560734 -0.30114177
-0.6190288 0.7015111 0.34982747 0.78584284 0.47547477 -0.5161431 0.5977037 -0.7426557
0.042711206 -0.0058597927 -0.20400104 0.11154259 -0.48308057 0.5571754 0.16015883 -0.5313482
0.0135828145 0.0039383387 0.53088355 0.39818552 0.26710632 0.49412403 0.13951771 -0.34295622
0.15553795 -0.12947345 -0.3156714 0.026111288 -0.033335593 0.089602776 -0.34392455 -0.77747023
00000000: 3f60 46be a8f1 b73d c008 0abf c592 753e
00000010: 0853 303d 7cf7 e83d 8e83 36be 3cca 743e
00000020: 97a4 bebc ae49 b43e 5755 b23d 145e 62be
00000030: a00f bb3d 0e0e c83d 21a8 223f b8ee 3c3f
00000040: 71bc 2b3f 29bb 5a3f 8df9 83be c271 53bd
00000050: c700 c63c 9f40 9d3d e99a 353e 7e9f f13e
00000060: b497 163e 8c49 acbc 956f b13d 525c 293f
00000070: 43d9 38bf 6987 f93e 413c 7dbd a36c 643e
00000080: 66cd cc3c 9d1f 9cbe 1e2b 8bbe 9587 1cbe
00000090: 0a67 3fbd 7a7c a7be 4c40 3c3e 3f11 25be
000000a0: fe27 57be 3f28 e1bc 72dd 56be 35e7 963e
000000b0: 08c4 10bf 70ac 933e 71c3 afbd 261e 21bc
000000c0: b5d5 2bbe eeb4 69bd 046c edbe 4f40 03bf
000000d0: 96d9 61ba b66b a83d 385a bfbd 0c66 723d
000000e0: 702c dabe 65b2 e53d 15c3 9abe 4d2d 853e
000000f0: a48b 1b3e 78e7 12be a456 413d fe17 233c
00000100: 5aa2 46be 9b08 c6be 93d7 38be 0a09 83bd
00000110: 1adc 9dbe c16f 34bf d8e5 1d3e 92a8 6a3e
00000120: 0a14 713c 69a7 c53d 7a64 a83e 04ee 9fbe
00000130: aa57 823e bc5a 3bbe c7a5 933d 715d ea3e
00000140: dea9 ed3c 33b8 e0be 5fca 6f3e 917b 103f
00000150: e630 24be bbe5 773e 750b 32bf f587 e93e
00000160: 1c36 903e 2c31 5cbe 6ef3 ed3e 7156 dabd
00000170: af20 02bf 0105 163f f2de 35be cb13 1abe
00000180: 5c32 e6bd 6107 54bf 301a 333f c1f4 e8be
00000190: 4ed5 503f 29b0 0abf f196 6cbe feaf 003e
000001a0: 911a 423e 0ec6 78be 99c9 fabe 81d9 20bf
000001b0: 6a57 8f3e 7c2a 4cbe 4027 d7be db28 cbbe
000001c0: 446c 0d3f e172 3bbf 3ed5 103f 8dde f6be
000001d0: a371 e13d 3323 0cbf 28be 1e3e be61 49bf
000001e0: e559 5bbe 8cbb 5cbf 9963 a8bd 19e4 b83e
000001f0: a166 98bd d93f 193f 8771 9b3e a3b9 3bbf
00000200: 6e8b fe3e df77 a8be 90ac e6bd c412 023f
00000210: 3990 193e 2af8 c8bc 1c22 983a c3b1 4ebe
00000220: e26b 243e 5830 85bd 1ed5 f8bc 3987 68be
00000230: 3a87 c7bb 180c 143d 993f 803d 10a5 053d
00000240: 41b4 05be 6064 e4be 2493 843e ae4a f2bd
00000250: 839a 0a3f 5f5a fb3e b0bf 1d3e e5ff e1bb
00000260: 8d91 0b3e b2d2 d03e 36c9 ddbe 32a6 65be
00000270: 3e2b 3bbe 67bd 54be cd60 1bbf e8aa af3e
00000280: e16d fabe f37c 163f e32c 403e 3a6e 4e3f
00000290: 29a7 9cbd e5b5 f7be c1f3 453e 6222 e93e
000002a0: 8d73 1cbf 98e6 8bbe f240 1fbf 1f25 81bd
000002b0: 09bd a83e adba c4bc 2b21 61be 95f1 04be
000002c0: 9d60 5ebd 1950 1abf 7c47 90be f105 063e
000002d0: 93e5 67be 75f7 86be 06cc 0dbe 2756 2dbe
000002e0: 1ccb d2be 9cd7 a03b 4213 34be aa87 593e
000002f0: 9015 9e3e 19e1 8dbf d45a 0e3f 412f 9abe
00000300: ac78 1ebf 3b96 333f 961c b33e ff2c 493f
00000310: 6e71 f33e f421 04bf 1c03 193f af1e 3ebf
00000320: f2f1 2e3d 8103 c0bb a6e5 50be 7170 e43d
00000330: 5656 f7be 0ca3 0e3f ad00 243e 7006 08bf
00000340: 748a 5e3c 2e0d 813b fce7 073f f9de cb3e
00000350: 29c2 883e d3fd fc3e bbdd 0e3e f597 afbe
00000360: 5745 1f3e b094 04be af9f a1be 57e7 d53c
00000370: e78a 08bd a981 b73d e116 b0be 4a08 47bf

fc1.bias f4 [16]
-0.08412482 0.034372333 0.5831332 0.90192264 0.5280902 0.51702845 0.3023144 -1.1037573
-0.21097144 -0.7585763 0.29849434 0.5503327 -0.15258367 0.13731335 -0.050843313 -0.33143082
00000000: a249 acbd 01ca 0c3d 3848 153f 67e4 663f
00000010: eb30 073f fa5b 043f f4c8 9a3e eb47 8dbf
00000020: e608 58be 0e32 42bf 40d4 983e 9be2 0c3f
00000030: e53e 1cbe df9b 0c3e 1441 50bd 4db1 a9be

fc2.weight f4 [8, 16]
-0.099949025 -0.43370813 0.006033106 -0.016788125 -0.22924922 0.2254177 0.16497009 0.5451552
0.034226358 0.48904887 0.05111954 0.36093366 -0.035316907 0.5322744 0.20418893 -0.3852166
-0.0024341661 0.74780107 -0.13090616 -0.28871018 0.0029192262 0.4759426 -0.1119162 0.3254003
0.13841352 -0.050689682 0.28462037 -0.09618937 0.111023635 0.1295405 0.16833419 0.13475668
-0.05373005 0.34555987 -0.48452985 -0.49077308 -0.3349721 -0.1252345 -0.5211281 0.16670921
-0.59633774 0.51369035 0.10848266 0.045285773 -0.081859 -0.19261931 -0.90396965 0.34958655
-0.19360949 -0.20090674 0.10848509 -0.0020895563 0.051126488 -0.04233472 0.094374396 -0.38322005
-0.19391815 -0.22168045 -0.09101142 -0.21730468 -0.0016948864 -0.20835918 -0.12242726 -0.23541798
-0.24489754 -0.91332036 -0.02524068 0.34647766 -0.03283258 0.0019241764 -0.15739742 -0.28174978
-0.35376957 -0.22762401 0.028765118 -0.3148527 0.117138244 0.40400976 -0.06069045 0.06944144
-0.44832802 0.13011298 -0.05796775 -0.058493607 0.020589923 -0.033942893 -0.17827465 -1.499119
-0.29731923 -0.03773475 0.04430599 -0.03322962 0.15780176 -0.68033224 -0.84668326 0.084394135
0.04217174 -0.6858569 -0.2556467 -0.3817301 -0.23695831 0.04814448 -0.4522699 0.52166265
0.5841162 0.10902959 0.25883067 -2.187597 -0.23833902 -2.169184 0.5542445 0.49321795
-0.059171997 0.105143905 0.3686691 0.36131543 0.36065328 0.16598657 0.17073347 -0.86995435
-0.18477225 -0.25796226 0.19877261 0.053588204 0.3291668 0.02515508 -0.2454171 -0.045858767
00000000: 13b2 ccbd fe0e debe 5cb1 c53b 4087 89bc
00000010: 4fc0 6abe e6d3 663e ebed 283e 4b8f 0b3f
00000020: f030 0c3d 9d64 fa3e b962 513d 4ccc b83e
00000030: 76a8 10bd 2343 083f e716 513e 1c3b c5be
00000040: 8886 1fbb e46f 3f3f 440c 06be d2d1 93be
00000050: 7d50 3f3b c0ae f33e 5234 e5bd de9a a63e
00000060: 46bc 0d3e fc9f 4fbd c3b9 913e effe c4bd
00000070: 5c60 e33d 44a6 043e cc5f 2c3e a8fd 093e
00000080: 0a14 5cbd 39ed b03e 4c14 f8be 9c46 fbbe
00000090: 7781 abbe 793d 00be a768 05bf d2b5 2a3e
000000a0: 97a9 18bf 3681 033f 282c de3d 937d 393d
000000b0: b1a5 a7bd ff3d 45be 8e6a 67bf 02fd b23e
000000c0: 9141 46be 7fba 4dbe 6e2d de3d f0f0 08bb
000000d0: 026a 513d 2c67 2dbd 5d47 c13d 6b35 c4be
000000e0: 7b92 46be 3300 63be 3264 babd 1e85 5ebe
000000f0: f326 deba 1c5c 55be 25bb fabd 6911 71be
00000100: 6cc6 7abe 5dcf 69bf 8bc5 cebc 8565 b13e
00000110: 757b 06bd a534 fc3a ca2c 21be 8241 90be
00000120: 4921 b5be 4516 69be d3a4 eb3c 6034 a1be
00000130: 2de6 ef3d 5eda ce3e 8d96 78bd 5037 8e3d
00000140: 408b e5be 563c 053e 976f 6dbd fe96 6fbd
00000150: 33ac a83c b407 0bbd a18d 36be 22e3 bfbf
00000160: 3a3a 98be c18f 1abd 337a 353d c81b 08bd
00000170: c996 213e 412a 2ebf 3cc0 58bf d5d6 ac3d
00000180: 46bc 2c3d 5194 2fbf 20e4 82be 2172 c3be
00000190: 33a5 72be 2533 453d ec8f e7be af8b 053f
000001a0: a488 153f e84a df3d 7485 843e 9701 0cc0
000001b0: 250f 74be e9d3 0ac0 f8e2 0d3f 1087 fc3e
000001c0: 565e 72bd b055 d73d 32c2 bc3e 56fe b83e
000001d0: 8ca7 b83e 62f8 293e c1d4 2e3e 54b5 5ebf
000001e0: f034 3dbe a113 84be 0c8b 4b3e 4e7f 5b3d
000001f0: 8d88 a83e 0712 ce3c 9f4e 7bbe 67d6 3bbd

fc2.bias f4 [8]
0.3271059 0.059212573 -0.7030884 -0.084620394 -0.09984197 0.5203542 0.30125427 0.41081002
00000000: 6d7a a73e e288 723d 9afd 33bf 754d adbd
00000010: f279 ccbd ef35 053f 003e 9a3e b155 d23e

fc3.weight f4 [2, 8]
-0.088083245 0.46794337 0.46029466 0.11849146 -0.109929554 -0.4986105 0.6962392 -0.40948007
-0.5186212 0.27232772 -0.27226847 0.019251954 0.2640716 0.18584502 -0.30998042 0.34784678
00000000: fd64 b4bd 4696 ef3e beab eb3e a7ab f23d
00000010: bf22 e1bd e049 ffbe bb3c 323f 5fa7 d1be
00000020: 5cc4 04bf 8a6e 8b3e c666 8bbe 46b6 9d3c
00000030: 6534 873e 284e 3e3e c1b5 9ebe f918 b23e

fc3.bias f4 [2]
-0.0908441 -0.108734995
00000000: 790c babd 74b0 debd

exp_avg f4 [16, 14]
3.1750253e-05 2.9154544e-06 1.9005278e-05 3.8545936e-06 -1.3336153e-05 3.055817e-07 -7.8448385e-05 0.00018816936
-6.1970145e-06 4.432498e-05 -3.3227516e-05 8.9797424e-05 4.4451753e-07 6.9791154e-06 -0.00027262914 -2.324643e-05
-0.00028849213 9.6820535e-05 2.5908583e-05 -2.5331792e-06 -0.00026749755 -7.496413e-05 6.9757814e-05 -2.7139009e-05
-0.00021739921 -0.00010575005 7.033468e-07 -4.374998e-05 -8.8856905e-06 -5.5633704e-05 -4.624055e-05 4.6104333e-07
2.4378664e-05 -1.2883156e-05 2.8408413e-05 -0.00012310348 1.9352381e-05 -3.8168433e-05 7.6230564e-05 -4.8233323e-05
1.5157476e-05 1.1550312e-05 -0.0001524862 -7.6377604e-05 -0.00015619141 -1.2816454e-06 3.580875e-05 -3.1486168e-05
0.00014127631 -0.00054112246 3.310659e-05 -0.0001404837 5.9317917e-05 -0.00032664606 3.1017342e-05 -3.412318e-05
-1.6192267e-05 -6.5956892e-06 -4.5990164e-05 1.7583643e-06 1.3562613e-05 -1.5472528e-05 -2.6690293e-05 -0.00012746596
2.664147e-06 -3.9480765e-05 3.5910198e-05 -1.5661222e-05 -6.5216964e-06 6.260643e-06 -0.00013456619 3.0973279e-06
-0.000116637544 2.1017982e-05 -3.303268e-06 -7.367057e-06 -2.5115876e-05 7.950349e-05 1.6825232e-05 -1.8521027e-05
-6.0479608e-05 -1.1749231e-05 1.01867345e-05 -5.6188248e-05 -2.8460832e-05 1.3184172e-05 -4.015436e-05 -1.4347561e-06
9.558024e-06 1.9017578e-05 -6.8950176e-05 -1.2004537e-05 1.326997e-05 -2.9611774e-05 -3.7616013e-05 -2.1400958e-05
1.7174245e-05 -3.553746e-06 0.00017728607 -1.5394558e-05 0.00024850646 -4.830802e-05 -3.1131065e-05 1.1209986e-06
0.0004911715 0.00019187722 -2.3589742e-05 0.00010507458 0.0003123427 0.0001879421 -1.76885e-05 8.8254295e-05
-3.6557394e-06 1.2822417e-05 4.9284165e-05 1.7874536e-06 1.20940795e-05 -9.671907e-06 -3.402961e-05 8.421403e-05
-1.975118e-05 6.0101873e-05 -4.2014533e-05 0.00021083017 -6.148438e-06 3.0143535e-06 0.0001327759 -6.737364e-05
0.0001650582 -4.4662313e-05 -1.8937873e-05 1.4509362e-05 0.00020863218 4.5502093e-05 -1.7953975e-05 2.049479e-05
0.00018727696 4.275143e-05 -1.34107195e-05 1.9872052e-05 -0.00011293414 3.6770518e-05 -8.518116e-05 5.4049964e-05
2.5236433e-05 -7.3686233e-06 -2.5031224e-05 -5.6509452e-06 7.829228e-06 -8.956962e-06 -3.4209777e-05 -4.0543928e-05
-1.4819841e-06 -3.744085e-05 -1.097178e-06 -1.5413385e-05 2.8930444e-05 2.043067e-06 -1.2569122e-05 -2.041833e-05
2.2480232e-05 0.00016607437 -4.1824387e-06 2.617812e-05 0.0001810813 0.00010287031 1.11580175e-05 -1.2018098e-05
7.0049878e-06 3.8315716e-06 6.6031475e-06 1.8482747e-06 -6.4637807e-06 5.7707643e-07 3.5681744e-05 -1.3243312e-05
-1.04908395e-07 -7.1558343e-06 -5.3275226e-06 5.3061813e-06 -6.6658085e-06 -2.5414272e-06 0.00017659452 -1.676639e-05
0.00011900459 3.213663e-05 -2.1323573e-05 -5.5858054e-06 0.00010986635 -4.2962965e-05 1.8962208e-05 -1.8632492e-05
0.0001846966 0.00030294395 2.5308353e-05 5.3606116e-05 0.00013014981 6.9099966e-05 0.00021588062 -2.8298597e-05
-3.760352e-05 -2.0979702e-05 4.420383e-05 0.0005444404 -5.1789113e-05 0.000104109 -2.2716962e-05 0.00029462736
-3.7108377e-05 3.0457819e-05 -2.5093052e-05 -2.4245528e-06 -4.634412e-06 -2.0155401e-05 2.2332606e-05 7.10504e-06
-1.5514774e-05 3.0335272e-05 6.1965175e-06 6.7830304e-05 -3.6570065e-05 2.1185006e-05 -3.3594383e-06 6.056135e-06
00000000: 932b 0538 20a7 4336 866d 9f37 b556 8136
00000010: 57be 5fb7 d40e a434 a884 a4b8 544f 4539
00000020: f3ef cfb6 96e9 3938 c65d 0bb8 a051 bc38
00000030: 06a6 ee34 252e ea36 aaef 8eb9 5401 c3b7
00000040: c240 97b9 210c cb38 4256 d937 b0ff 29b6
00000050: ea3e 8cb9 1036 9db8 f14a 9238 94a8 e3b7
00000060: a8f5 63b9 20c6 ddb8 a0cd 3c35 2f80 37b8
00000070: c013 15b7 3c58 69b8 6af2 41b8 5085 f734
00000080: c880 cc37 bc24 58b7 9a4e ee37 5715 01b9
00000090: ec56 a237 0b17 20b8 f9dd 9f38 234e 4ab8
000000a0: dd4c 7e37 36c8 4137 b4e4 1fb9 ea2c a0b8
000000b0: 50c7 23b9 0005 acb5 5a31 1638 0410 04b8
000000c0: 9223 1439 1dda 0dba eedb 0a38 ce4e 13b9
000000d0: 21cc 7838 b141 abb9 9e18 0238 7c1f 0fb8
000000e0: a1d4 87b7 8a50 ddb6 90e5 40b8 f000 ec35
000000f0: fb8a 6337 00cb 81b7 f8e4 dfb7 62a8 05b9
00000100: b2c9 3236 2698 25b8 489e 1638 3860 83b7
00000110: f2d4 dab6 8412 d236 561a 0db9 b0db 4f36
00000120: 4e9b f4b8 c64f b037 b6ad 5db6 8a32 f7b6
00000130: efaf d2b7 1cbb a638 e923 8d37 9a5d 9bb7
00000140: 7cab 7db8 901e 45b7 b1e7 2a37 acab 6bb8
00000150: 2cbf eeb7 9631 5d37 6a6b 28b8 d891 c0b5
00000160: 675b 2037 f087 9f37 5899 90b8 1867 49b7
00000170: 16a2 5e37 cd66 f8b7 e3c5 1db8 3586 b3b7
00000180: 6911 9037 e47c 6eb6 dee5 3939 9023 81b7
00000190: f949 8239 579e 4ab8 ba92 02b8 3875 9635
000001a0: f6c1 003a a632 4939 96e2 c5b7 7c5b dc38
000001b0: edc1 a339 5312 4539 c461 94b7 2a15 b938
000001c0: 2055 75b6 dd1f 5737 78b6 4e38 70e8 ef35
000001d0: ade7 4a37 8644 22b7 04bb 0eb8 109c b038
000001e0: 56af a5b7 e515 7c38 c338 30b8 4b12 5d39
000001f0: ae4e ceb6 334a 4a36 c239 0b39 f34a 8db8
00000200: 7913 2d39 cb53 3bb8 c6dc 9eb7 3c6d 7337
00000210: 46c4 5a39 80d9 3e38 de9b 96b7 3aec ab37
00000220: c75f 4439 0050 3338 9afe 60b7 e8b2 a637
00000230: 0ed7 ecb8 0b3a 1a38 49a3 b2b8 b5b3 6238
00000240: d4b2 d337 fe3f f7b6 25fa d1b7 409d bdb6
00000250: 475a 0337 dc45 16b7 787c 0fb8 b60d 2ab8
00000260: 96e8 c6b5 ce09 1db8 c042 93b5 fe4b 81b7
00000270: a8af f237 a01b 0936 f8df 52b7 0848 abb7
00000280: ee93 bc37 4024 2e39 e056 8cb6 1699 db37
00000290: a4e0 3d39 14bc d738 5233 3b37 56a1 49b7
000002a0: 630c eb36 f390 8036 9b90 dd36 3c12 f835
000002b0: 74e3 d8b6 64e8 1a35 fba8 1538 982f 5eb7
000002c0: 004a e1b3 261c f0b6 12c3 b2b6 c00b b236
000002d0: dcaa dfb6 638d 2ab6 3b2c 3939 8ca5 8cb7
000002e0: 1a92 f938 72ca 0638 06e0 b2b7 b46d bbb6
000002f0: 0c68 e638 2233 34b8 0811 9f37 f94c 9cb7
00000300: 1eab 4139 73d4 9e39 464d d437 21d7 6038
00000310: d378 0839 c3e9 9038 035e 6239 c662 edb7
00000320: 79b8 1db8 91fd afb7 8067 3938 c7b8 0e3a
00000330: 2338 59b8 1855 da38 4e90 beb7 3778 9a39
00000340: d1a4 1bb8 ab7f ff37 eb7e d2b7 80b5 22b6
00000350: 4c81 9bb6 6513 a9b7 e856 bb37 d467 ee36
00000360: b925 82b7 8078 fe37 aeeb cf36 1e40 8e38
00000370: cf62 19b8 74b6 b137 b672 61b6 ce35 cb36

exp_avg_sq f4 [16, 14]
1.3613399e-08 4.3531706e-08 1.12576135e-08 4.7457682e-08 9.529796e-10 7.026773e-10 4.0950066e-08 2.425928e-07
1.2262851e-09 6.016213e-09 4.8160324e-08 6.2486635e-08 1.8360407e-09 4.88847e-10 1.2423272e-06 3.327465e-07
1.2116411e-06 3.4298245e-07 2.2752703e-08 8.290653e-09 6.277099e-07 3.5908922e-06 1.3025339e-08 1.06164585e-07
7.178114e-07 3.4443588e-06 1.1725512e-08 9.9828334e-08 3.7863836e-07 5.102279e-07 4.0780037e-07 5.078109e-07
1.2154925e-08 1.34869635e-08 6.06317e-07 1.488294e-06 9.0844505e-09 2.339366e-08 5.96184e-07 1.6573989e-06
6.226366e-09 3.2536285e-08 1.0700945e-06 1.0998523e-06 1.0031071e-06 1.0952854e-06 2.9658052e-08 2.651248e-08
1.1079005e-06 4.4712915e-06 2.0429106e-08 8.3988326e-08 1.1759648e-06 4.745897e-06 1.5172317e-08 9.713497e-08
2.0776754e-07 3.4520562e-07 2.029724e-07 3.7737922e-07 1.6318285e-08 1.3971959e-08 2.2816374e-07 1.0785819e-06
1.33047156e-08 1.0977306e-08 2.4315628e-07 8.379928e-07 1.2593991e-08 8.248334e-09 2.1927511e-07 1.1928141e-07
2.041883e-07 1.11359256e-07 1.2013165e-08 4.5498965e-09 1.1838293e-07 3.1845846e-07 1.0630222e-08 8.4374685e-09
1.0897523e-07 3.0713088e-07 8.286124e-09 7.329087e-09 1.7911569e-07 1.8682016e-07 1.6221881e-07 1.8915033e-07
6.0916747e-09 5.264265e-09 2.6388173e-07 6.8103236e-07 1.5238577e-09 1.4806964e-08 2.5279746e-07 5.36677e-07
2.7239988e-09 6.4712813e-09 6.597753e-07 1.8096922e-07 6.437427e-07 1.7542361e-07 1.8986755e-08 6.459179e-09
7.9415486e-07 9.843816e-07 7.972781e-09 2.5859011e-08 8.0942226e-07 9.2997107e-07 7.210363e-09 2.5669392e-08
1.0789961e-07 3.266782e-08 1.027266e-07 3.1531215e-08 3.800663e-09 2.389178e-09 8.320858e-08 9.342674e-08
6.2189915e-09 3.04119e-09 7.4906936e-08 2.3753128e-07 5.8208527e-09 9.339806e-09 3.6617047e-07 2.911353e-07
3.740618e-07 3.2826122e-07 1.162688e-08 7.2693145e-09 3.625202e-07 1.2932463e-06 5.3716653e-09 2.2884196e-08
4.0764132e-07 9.4858154e-07 5.8681215e-09 1.7937834e-08 8.855535e-08 1.8224848e-07 8.868679e-08 1.804055e-07
3.4589207e-09 4.3666297e-09 1.5145973e-07 4.6192133e-07 2.6807776e-09 6.6836248e-09 2.4841395e-07 5.872529e-07
4.968935e-09 8.9357135e-09 2.949701e-07 1.8114291e-07 3.0117587e-07 1.6815385e-07 9.278164e-09 8.826841e-09
1.4774825e-07 3.9082192e-07 1.5355965e-08 1.3859839e-08 1.7422485e-07 4.4211896e-07 1.47230725e-08 8.505546e-09
9.18651e-09 6.6849715e-08 1.089241e-08 6.642176e-08 7.802978e-10 1.188982e-09 3.200517e-08 1.1655913e-07
1.2227802e-09 4.692932e-10 1.13162756e-07 1.4530093e-07 2.8616056e-09 8.6383606e-10 2.3914194e-07 1.2805651e-07
2.0934539e-07 1.209581e-07 7.0328023e-09 6.557895e-09 1.495332e-07 2.3285581e-07 8.485134e-09 3.5386127e-09
1.240785e-07 2.6592377e-07 9.7415205e-09 1.0666487e-08 2.7386588e-07 1.1425301e-07 2.6753716e-07 1.01614326e-07
9.4708925e-09 5.24654e-09 1.2409527e-07 7.326819e-07 1.0662979e-08 2.5625297e-08 1.226059e-07 5.2662693e-07
1.0018468e-08 1.286641e-08 1.269797e-07 1.7024198e-07 1.2787544e-07 1.7056473e-07 3.5709342e-09 3.736445e-09
1.4057694e-07 4.493948e-07 2.8971334e-09 8.405447e-09 2.9874465e-07 4.67494e-07 8.546083e-09 4.3591126e-09
00000000: 5de0 6932 9ef7 3a33 8267 4132 46d4 4b33
00000010: fdf9 8230 8526 4130 13e1 2f33 b33d 8234
00000020: 128a a830 2bb7 ce31 d6d8 4e33 6430 8633
00000030: f057 fc30 8d5f 0630 0abe a635 55a4 b234
00000040: ac9f a235 2623 b834 b971 c332 ad6e 0e32
00000050: e57f 2835 0ffb 7036 0cc6 5f32 99fc e333
00000060: a0af 4035 a225 6736 5971 4932 3561 d633
00000070: a947 cb34 98f6 0835 a8ef da34 8050 0835
00000080: edd1 5032 4bb4 6732 c9c1 2235 64c1 c735
00000090: d611 1c32 34f3 c832 7409 2035 cb73 de35
000000a0: b2ef d531 06be 0b33 2ba0 8f35 a39e 9335
000000b0: 7fa2 8635 b801 9335 bfc2 fe32 8fbd e332
000000c0: 2cb3 9435 1a08 9636 147c af32 125d b433
000000d0: d8d5 9d35 f23e 9f36 4754 8232 8498 d033
000000e0: b516 5f34 b354 b934 a1f0 5934 9b9a ca34
000000f0: 4a2c 8c32 5309 7032 2cfd 7434 cbc3 9035
00000100: c292 6432 b496 3c32 258b 8234 6df2 6035
00000110: f55c 5832 8eb4 0d32 e271 6b34 d313 0034
00000120: da3e 5b34 6624 ef33 7562 4e32 5055 9c31
00000130: b439 fe33 99f8 aa34 36a0 3632 61f4 1032
00000140: c405 ea33 bfe3 a434 c25a 0e32 55d3 fb31
00000150: f252 4034 bc98 4834 5e2e 2e34 3f19 4b34
00000160: f04e d131 f7e0 b431 a1ab 8d34 30d0 3635
00000170: fa6f d130 b761 7e32 38b8 8734 2a10 1035
00000180: 1831 3b31 fe59 de31 6a1b 3135 7150 4234
00000190: a9cd 2c35 135c 3c34 5118 a332 8aef dd31
000001a0: e82d 5535 181f 8435 a9f8 0832 9120 de32
000001b0: 1347 5935 20a3 7935 06bf f731 977f dc32
000001c0: 70b6 e733 a64e 0c33 8c9a dc33 f06c 0733
000001d0: fc96 8231 dd2e 2431 67b0 b233 e5a1 c833
000001e0: d4ae d531 2efd 5031 86dc a033 1a0c 7f34
000001f0: c300 c831 e774 2032 1696 c434 554d 9c34
00000200: aad2 c834 e13b b034 8fbf 4732 91c5 f931
00000210: 66a0 c234 9b93 ad35 ab91 b831 e192 c432
00000220: ccd9 da34 07a2 7e35 8ba0 c931 b715 9a32
00000230: d22b be33 15b0 4334 1474 be33 7cb5 4134
00000240: fab1 6d31 4809 9631 efa0 2234 fcfd f734
00000250: bd38 3831 c9a5 e531 c15d 8534 b6a3 1d35
00000260: 37bb aa31 af83 1932 625c 9e34 2f80 4234
00000270: 4cb1 a134 c78d 3434 cc65 1f32 dba4 1732
00000280: bba4 1e34 28d2 d134 20e8 8332 371c 6e32
00000290: 9012 3b34 5e5c ed34 c2f0 7c32 c91f 1232
000002a0: b3d2 1d32 058f 8f33 5321 3b32 c0a3 8e33
000002b0: 947c 5630 9669 a330 0e76 0933 0f4f fa33
000002c0: c10e a830 93ff 0030 e203 f333 0404 1c34
000002d0: e6a5 4431 0f73 6d30 6b63 8034 e87f 0934
000002e0: 6cc8 6034 b6e0 0134 2fa5 f131 db53 e131
000002f0: 5f8f 2034 eb06 7a34 04c6 1132 ef2b 7331
00000300: 703a 0534 49c4 8e34 a95b 2732 b53f 3732
00000310: d707 9334 425b f533 07a2 8f34 1137 da33
00000320: 6db5 2232 0e45 b431 0c3f 0534 84ad 4435
00000330: 4730 3732 a01e dc32 a7a5 0334 875d 0d35
00000340: b01d 2c32 120b 5d32 ea57 0834 c2cb 3634
00000350: 224e 0934 7a24 3734 8a64 7531 1e62 8031
00000360: 7ff1 1634 5a44 f134 e916 4731 8c67 1032
00000370: 2763 a034 e3fb fa34 12d2 1232 29c7 9531

exp_avg f4 [16]
0.00010003815 -0.00033958218 -0.00015443831 -0.0003338548 -0.00018749673 -0.0001349058 -7.271781e-05 0.00036864163
0.000120255376 0.00018590254 -0.00011686545 0.00011119801 -5.182501e-06 0.00018833847 0.00031589478 -7.753511e-06
00000000: 93cb d138 f309 b2b9 b8f0 21b9 3c09 afb9
00000010: c59a 44b9 8075 0db9 1480 98b8 3e46 c139
00000020: 9d31 fc38 d5ee 4239 a915 f5b8 fa32 e938
00000030: 58e5 adb6 b97c 4539 ae9e a539 1415 02b7

exp_avg_sq f4 [16]
4.7523788e-08 1.1542409e-06 4.5256974e-07 1.2409289e-06 4.1270889e-07 1.7920463e-07 1.2508468e-07 2.8898341e-07
9.7442616e-08 3.0519348e-07 1.5422053e-07 1.7905138e-07 4.0479684e-08 1.075604e-07 2.3286464e-07 1.4649106e-07
00000000: f51c 4c33 6aeb 9a35 b6f8 f234 fe8d a635
00000010: 4792 dd34 656b 4034 044f 0634 9425 9b34
00000020: a541 d133 79d9 a334 d197 2534 4541 4034
00000030: e2db 2d33 f5fb e633 5809 7a34 284b 1d34

exp_avg f4 [8, 16]
2.0311483e-05 0.000629531 9.079078e-06 0.0001308826 1.2583625e-05 0.00016834779 2.6446138e-05 0.000344047
0.00028829006 0.00020199247 0.00024789176 0.0002978111 -7.964813e-05 0.00015541425 0.00033637809 0.00015739567
0.00011517798 -4.1913416e-05 3.976825e-05 0.00014123277 9.269353e-05 -0.00025449047 1.9100153e-06 -0.00037566066
-0.00043358537 -0.00016634374 -9.613676e-05 -2.098325e-05 0.00015367476 6.0407896e-05 -0.0004968432 8.392191e-06
-6.4989313e-06 0.00054652477 7.795996e-06 -3.28265e-05 -1.1039372e-06 0.00014370761 9.2824075e-06 3.0009842e-05
8.6146356e-05 1.3996816e-05 0.00017009844 7.165969e-05 -2.7030693e-15 -4.5830315e-05 6.130485e-05 0.00010031235
4.020152e-09 -1.2567855e-10 4.388493e-07 7.0959504e-07 6.0148886e-07 3.816696e-09 2.796073e-07 3.2965979e-24
3.4182016e-10 9.562394e-23 2.1493578e-09 1.4931275e-07 2.5086277e-07 2.0279083e-09 3.5681014e-11 1.1696571e-08
5.61302e-06 3.1174204e-06 -1.7346395e-06 -1.8926141e-06 1.3605004e-05 4.8834518e-06 1.233869e-05 6.966896e-07
1.796597e-05 1.1878482e-06 1.5855609e-06 4.948405e-06 -5.874641e-06 -2.10152e-05 -2.7217345e-06 9.324225e-06
-2.1393016e-05 -0.0010884481 1.4320305e-05 -0.00011742876 -1.06414445e-05 -0.00014028265 -1.7446933e-05 5.4106267e-06
-0.000101413025 -1.537821e-05 -0.00026560752 -0.00016243462 5.0605586e-06 8.430671e-06 -7.876089e-05 -0.00024096463
-7.858081e-10 -2.8821089e-05 2.7160968e-06 1.820631e-05 9.9595145e-06 5.3202002e-05 4.7188114e-05 7.5420103e-06
1.2013756e-05 3.2464945e-05 2.3517085e-05 -4.601825e-07 -1.4310108e-06 -6.1147824e-05 0.00015759497 -5.9692775e-06
-0.00013571898 -0.0014071893 -0.00014082913 -0.00043007522 -0.00017623237 -0.00026857178 -8.526465e-05 2.7055015e-05
-7.656842e-05 8.286319e-06 -0.0003734801 -0.00071748404 -9.639865e-05 -0.00023148174 -0.00018933791 -0.00016454008
00000000: 9462 aa37 1c07 253a 5852 1837 883d 0939
00000010: 421e 5337 8486 3039 a6d8 dd37 3561 b439
00000020: a325 9739 f1cd 5339 78f7 8139 8723 9c39
00000030: c408 a7b8 b2f6 2239 e75b b039 940a 2539
00000040: b58b f138 30cc 2fb8 d5cc 2638 e217 1439
00000050: 7664 c238 226d 85b9 d02d 0036 52f4 c4b9
00000060: d852 e3b9 8f6c 2eb9 089d c9b8 3005 b0b7
00000070: c123 2139 7c5e 7d38 953e 02ba 30cc 0c37
00000080: 6511 dab6 a844 0f3a 8ccb 0237 30af 09b8
00000090: fe2a 94b5 38b0 1639 a3bb 1b37 a5bd fb37
000000a0: 79a9 b438 ded3 6a37 745c 3239 0148 9638
000000b0: d4c6 42a7 ed39 40b8 ca90 8038 c85e d238
000000c0: a221 8a31 5e2f 0aaf fd9a eb34 007b 3e35
000000d0: 0076 2135 0324 8331 ef1c 9634 d90f 7f18
000000e0: e9ea bb2f 5a34 e71a e7b3 1331 c752 2034
000000f0: 51ae 8634 575b 0b31 40ed 1c2e 10f2 4832
00000100: 7a57 bc36 e034 5136 c2d1 e8b5 ba05 feb5
00000110: 0c41 6437 88dc a336 4502 4f37 2504 3b35
00000120: a0b5 9637 276e 9f35 75cf d435 7a0a a636
00000130: c81e c5b6 cc49 b0b7 0ba7 36b6 3e6f 1c37
00000140: 2775 b3b7 42aa 8eba 3e41 7037 1644 f6b8
00000150: a888 32b7 d618 13b9 015b 92b7 ee8c b536
00000160: b4ad d4b8 7400 81b7 3d41 8bb9 3653 2ab9
00000170: decd a936 7571 0d37 6e2c a5b8 73ab 7cb9
00000180: 5400 58b0 d1c4 f1b7 3046 3636 c1b9 9837
00000190: ca17 2737 3725 5f38 daeb 4538 6011 fd36
000001a0: b08e 4937 f82a 0838 8e46 c537 000f f7b4
000001b0: 2811 c0b5 7d3c 80b8 1440 2539 b44b c8b6
000001c0: c94f 0eb9 7071 b8ba 88ab 13b9 b87b e1b9
000001d0: 04cb 38b9 18cf 8cb9 1cd0 b2b8 34f4 e237
000001e0: 5c93 a0b8 7805 0b37 a7cf c3b9 8a15 3cba
000001f0: a229 cab8 e8b9 72b9 0289 46b9 6488 2cb9

exp_avg_sq f4 [8, 16]
2.158148e-08 8.6622475e-07 5.5962992e-08 1.5977935e-07 4.734496e-08 9.3502884e-08 8.002321e-09 9.712256e-07
1.5112743e-06 1.1813439e-06 1.6615265e-07 6.9270897e-07 5.7566673e-08 8.2503584e-07 1.4937926e-06 1.1540306e-07
6.3748736e-08 9.059472e-06 1.3768194e-07 4.815833e-07 2.7876607e-07 7.890072e-07 8.9347864e-08 3.61061e-07
1.0513057e-06 6.1241064e-07 1.1529557e-06 1.949817e-06 5.3309896e-07 1.0202205e-06 6.3801895e-07 9.925035e-07
1.655764e-08 9.955378e-06 8.927052e-08 1.4932793e-07 1.2621001e-07 5.983593e-07 5.5516292e-08 7.203373e-08
3.8398223e-08 5.6067296e-07 8.2569096e-07 1.2152854e-06 2.4782727e-07 2.4580059e-08 4.2120192e-08 8.3036826e-07
3.267861e-08 1.1850981e-08 2.218232e-08 2.9855105e-08 2.5099826e-08 2.4285063e-08 8.787925e-09 9.141827e-09
3.1400046e-07 5.0017054e-08 1.427672e-08 9.238302e-09 5.030876e-09 2.171541e-09 1.5197192e-07 5.378707e-09
8.544093e-09 4.438836e-09 7.7539276e-08 7.672475e-08 5.71473e-08 5.6383442e-08 2.1460696e-08 1.4831635e-10
4.0219888e-08 5.805935e-09 8.172802e-08 2.2257034e-08 5.1257675e-08 4.5587665e-08 1.4914612e-08 5.3755805e-08
1.6093564e-08 1.0076362e-05 4.6059992e-07 5.986437e-07 2.6607768e-07 7.028921e-07 1.4062466e-07 1.1607351e-08
2.0877158e-08 2.8852816e-07 8.6077813e-07 1.3930588e-06 1.1286718e-07 3.453525e-08 1.6318431e-08 4.912221e-07
1.1728156e-10 1.4093924e-07 7.3820496e-09 2.1348708e-08 1.822742e-08 3.2334512e-08 1.7723594e-09 8.358852e-07
1.3181524e-06 9.804895e-07 1.6851335e-08 2.9138208e-08 2.0429695e-10 3.8049908e-08 1.2225795e-06 4.9077272e-08
3.335379e-07 1.605158e-05 1.4977094e-06 2.2534189e-06 1.0715527e-06 2.1083597e-06 1.9876981e-07 4.3656396e-08
5.6649424e-07 7.6831907e-07 3.0195329e-06 2.8400805e-06 1.0856862e-06 1.1665849e-06 2.3459133e-07 2.608705e-06
00000000: 2d62 b932 8386 6835 f65b 7033 d08f 2b34
00000010: 5658 4b33 c1cb c833 947a 0932 0f5b 8235
00000020: fdd6 ca35 ab8e 9e35 b167 3234 99f2 3935
00000030: 3a3f 7733 0878 5d35 537e c835 81d3 f733
00000040: 3de6 8833 23fe 1737 b9d5 1334 2746 0135
00000050: 51a9 9534 29cc 5335 82df bf33 d9d7 c134
00000060: 971a 8d35 8a64 2435 42bf 9a35 9ad9 0236
00000070: 481a 0f35 82ee 8835 5444 2b35 2936 8535
00000080: a33a 8e32 0606 2737 fdb4 bf33 f356 2034
00000090: 5884 0734 f09e 2035 cf70 6e33 f6b0 9a33
000000a0: 4beb 2433 2781 1635 0da5 5d35 e31c a335
000000b0: 1f0d 8534 1f24 d332 a4e7 3433 79e6 5e35
000000c0: 835a 0c33 2a99 4b32 708b be32 093a 0033
000000d0: 1a9b d732 6b9b d032 b4f9 1632 2e0e 1d32
000000e0: e593 a834 55d2 5633 ae45 7532 7bb6 1e32
000000f0: 0edc ac31 273a 1531 b92d 2334 9bcf b831
00000100: 52c9 1232 6a84 9831 ab83 a633 e1c3 a433
00000110: 1f72 7533 402a 7233 9258 b832 5713 232f
00000120: 3cbe 2c33 8b7d c731 7482 af33 bc2f bf32
00000130: 6926 5c33 2bcc 4333 941d 8032 22e1 6633
00000140: 1f3e 8a32 a50d 2937 5f48 f734 7bb2 2035
00000150: 70d9 8e34 61ae 3c35 9dfe 1634 ab69 4732
00000160: 5b55 b332 02e7 9a34 3910 6735 23f9 ba35
00000170: 6361 f233 e953 1433 9c2c 8c32 87dc 0335
00000180: d3f3 002f 1555 1734 32a5 fd31 4e62 b732
00000190: 8592 9c32 2ce0 0a33 5a97 f330 9861 6035
000001a0: 5feb b035 5d99 8335 7ac0 9032 994b fa32
000001b0: 7ba0 602f 516c 2333 8317 a435 08c9 5233
000001c0: 1a11 b334 81a6 8637 e704 c935 7139 1736
000001d0: 45d2 8f35 587d 0d36 6e6d 5534 b780 3b33
000001e0: 3011 1835 7c3e 4e35 2ea3 4a36 3698 3e36
000001f0: e5b7 9135 8d93 9c35 f9e3 7b34 3611 2f36

exp_avg f4 [8]
0.00043088273 -0.00024758448 0.00027778622 4.2319317e-07 1.4631911e-05 -0.00052798295 2.945033e-05 -0.0009777184
00000000: 1ae8 e139 3ace 81b9 d6a3 9139 3a33 e334
00000010: 947b 7537 5668 0aba 1a0c f737 c926 80ba

exp_avg_sq f4 [8]
8.2306184e-07 1.7349968e-06 6.9547355e-07 2.1183352e-07 1.3594679e-07 9.4022846e-07 3.1650606e-07 6.9978023e-06
00000000: 61f0 5c35 09de e835 94b0 3a35 5b74 6334
00000010: c5f8 1134 0264 7c35 43ec a934 aace ea36

exp_avg f4 [2, 8]
-0.00054290757 0.0008162436 0.00031724945 1.9756101e-07 7.50115e-05 0.0003640539 7.488982e-05 0.0012695608
-0.0010862295 -0.0029331164 0.0006203711 3.8530737e-07 -3.932257e-05 -0.00048959255 -0.0009624737 -0.0011520742
00000000: e951 0eba 2ef9 553a 8054 a639 2821 5434
00000010: 7e4f 9d38 7dde be39 2a0e 9d38 6467 a63a
00000020: d05f 8eba 8739 40bb 66a0 223a 3edc ce34
00000030: 4aee 24b8 0058 00ba 844e 7cba 3201 97ba

exp_avg_sq f4 [2, 8]
4.1474564e-06 3.3098368e-05 8.565798e-06 1.5716364e-06 1.0990483e-06 3.5652195e-06 7.936561e-06 1.6120177e-05
5.0696453e-06 4.6589616e-05 8.5226075e-06 1.2134792e-06 9.267502e-07 1.8262353e-06 1.8457695e-05 1.0188852e-05
00000000: 612a 8b36 1ad3 0a38 d3b5 0f37 04f1 d235
00000010: 0383 9335 0142 6f36 4527 0537 d139 8737
00000020: ec1b aa36 3869 4338 52fc 0e37 d4de a235
00000030: cac5 7835 f81c f535 99d5 9a37 c9f0 2a37

exp_avg f4 [2]
0.000615484 -0.002128686
00000000: 6f58 213a 6d81 0bbb

exp_avg_sq f4 [2]
4.4081677e-05 6.484813e-05
00000000: 57e4 3838 13ff 8738

fc1.weight f4 [32, 20]
-0.21360801 -0.11970583 0.3655364 -0.44330695 0.23770714 0.15062892 -0.25672188 0.1988967
0.029657166 -0.18435988 -0.1478506 -0.26910254 -0.19234921 -0.031281184 0.05321415 0.002792146
0.014628279 0.011599962 0.011195682 0.002020064 -0.16225153 0.0452616 -1.1698419 0.54430145
-0.3081003 0.12350536 -0.11409539 0.1859097 0.08127132 0.23450549 -0.19388656 -0.004183419
-0.13035358 -0.083952114 -0.013852148 0.0045189145 -0.021913948 -0.025604362 -0.012905563 0.00954829
0.18527652 -0.3105193 0.6967863 -0.8721763 0.12954456 0.1573354 -0.38845396 0.0117220115
-0.31543872 -0.0369438 -0.11843781 0.2622473 -0.22860366 0.08244803 0.062689275 -0.0038853174
-0.030537955 -0.01722673 0.041998252 -0.0032859845 0.07858875 -0.052682277 0.09475887 -1.0468879
0.016228871 -0.20001772 0.031833053 -0.05152986 0.13166289 0.17254542 -0.017873745 0.17441517
-0.20534438 -0.12103133 0.00624215 -0.05212583 -0.0060330415 -0.0016643148 0.010848087 -0.02834802
0.13133918 -0.19749029 0.19416343 -0.26478168 0.14443421 -0.35811177 0.004900407 -0.037090257
-6.857957e-05 0.05052855 0.24623199 -0.7495422 -0.3417704 0.03738499 0.1417427 0.12507297
0.022027439 -0.07499282 -0.13790278 -0.059993032 -0.2762286 0.018352821 0.004156768 -0.5701293
-0.07836821 -0.030989127 -0.50492 -0.13033888 -0.094362386 -0.1687499 -0.28750437 -0.35189575
0.0611371 -0.29089382 0.0623792 -0.019750083 0.02802788 -0.027123123 -0.056340944 0.013254276
0.047814544 -0.04564687 -1.0031673 -1.3348138 -0.20412731 -0.053599156 0.0025188748 -0.077674024
0.048595876 -0.11385282 -0.13451838 -0.02902017 0.04407035 0.05471367 -0.017231293 -0.017378436
-0.0026003113 -0.0014654747 -0.00040860358 -0.007089579 -0.12513314 -0.13543937 2.3978398 0.34918988
0.32799724 0.2867318 0.018983863 -0.023236895 0.13342242 -0.028572256 -0.07224142 0.20616746
-0.1336034 0.11695685 0.025844192 0.024793725 -0.003873086 0.016494453 -0.038139764 0.013529011
0.015254984 0.13297567 0.04433887 0.41313362 0.055563428 0.23700091 -0.35486367 0.08262742
-0.08275601 -0.050620385 -0.0032532064 -0.58309644 0.12467912 0.09508186 0.046772216 0.19207002
0.026223304 -0.023483852 -0.060763765 -0.07285706 0.38323924 -0.1914392 -0.34922358 -0.96391743
-0.13940486 -0.34756586 0.12881102 0.12908992 -0.08404273 0.08287861 0.1287135 -0.038185578
-0.16011043 0.10971879 0.010316961 -0.011931875 0.02928857 0.02343235 -0.0008154055 -0.0084419325
-0.10423563 0.00599239 0.7222736 -0.30624065 -0.038095787 0.2076394 -0.10261499 0.25373745
0.13486782 0.31651068 -0.32309613 -0.28437364 -0.026840722 0.13999268 -0.24055602 0.079071745
-0.03493866 0.19768053 -0.1506588 0.032886427 0.1805201 0.040779736 1.3597026 -0.12831824
0.2717219 -0.03885931 -0.029119724 -0.105373465 0.1025778 0.05837159 0.13980702 0.23337995
0.079698816 0.12069607 -0.0044326615 -0.013406793 -0.006095209 0.035727035 0.01583994 0.0030744872
0.07383636 0.105903134 -0.9019903 0.5072512 -0.26863575 0.06279068 -0.0613145 0.06521611
0.2837372 0.2473067 0.02910104 -0.039578058 -0.1626192 0.26570484 -0.10730163 0.037995774
00000000: 0fbc 5abe 5528 f5bd 9627 bb3e 21f9 e2be
00000010: 8069 733e 783e 1a3e 0d71 83be 94ab 4b3e
00000020: 96f3 f23c d6c8 3cbe 2666 17be cfc7 89be
00000030: 31f7 44be b320 00bd 15f7 593d 70fc 363b
00000040: 73ab 6f3c c40d 3e3c 186e 373c 0d63 043b
00000050: 4425 26be 3a64 393d 61bd 95bf 5757 0b3f
00000060: 53bf 9dbe 61f0 fc3d d8aa e9bd 1d5f 3e3e
00000070: 9471 a63d 3522 703e 338a 46be 1015 89bb
00000080: 697b 05be 16ef abbd 1ff4 62bc 6713 943b
00000090: e184 b3bc 3dc0 d1bc db71 53bc 6e70 1c3c
000000a0: 21b9 3d3e 63fc 9ebe 9660 323f f246 5fbf
000000b0: 54a7 043e 881c 213e 70e3 c6be ae0d 403c
000000c0: 2f81 a1be 6252 17bd 868f f2bd 4745 863e
000000d0: 1417 6abe 83da a83d 3c63 803d cfa0 7ebb
000000e0: bc2a fabc 121f 8dbc 5c06 2c3d ac59 57bb
000000f0: 23f3 a03d 5fc9 57bd f010 c23d 6c00 86bf
00000100: 69f2 843c 72d1 4cbe 6063 023d f910 53bd
00000110: a3d2 063e bfaf 303e f66b 92bc e499 323e
00000120: cc45 52be 46df f7bd f38a cc3b e581 55bd
00000130: d2b0 c5bb 2325 daba 2dbc 313c 1b3a e8bc
00000140: c77d 063e e53a 4abe c7d2 463e 7791 87be
00000150: 90e6 133e 6d5a b7be 9893 a03b f4eb 17bd
00000160: 60d2 8fb8 06f7 4e3d 3d24 7c3e ffe1 3fbf
00000170: 88fc aebe 0121 193d 0025 113e 2113 003e
00000180: e372 b43c d695 99bd 6336 0dbe 41bb 75bd
00000190: d66d 8dbe a858 963c 7f35 883b fef3 11bf
000001a0: 837f a0bd e9dc fdbc 7042 01bf 8e77 05be
000001b0: 1141 c1bd c6cc 2cbe c633 93be ae2b b4be
000001c0: e56a 7a3d 09f0 94be 5581 7f3d edca a1bc
000001d0: b99a e53c 5031 debc c3c5 66bd 7628 593c
000001e0: 2fd9 433d 36f8 3abd c967 80bf 2edb aabf
000001f0: c006 51be ca8a 5bbd b513 253b 8f13 9fbd
00000200: 780c 473d ab2b e9bd 30bf 09be b5bb edbc
00000210: 1c83 343d 711b 603d a428 8dbc 395d 8ebc
00000220: fc69 2abb 2c15 c0ba d839 d6b9 b34f e8bb
00000230: e722 00be 9eb0 0abe 3576 1940 04c9 b23e
00000240: 41ef a73e 83ce 923e 0c84 9b3c 4d5b bebc
00000250: e39f 083e 5d10 eabc 4ff3 93bd 901d 533e
00000260: 54cf 08be 1387 ef3d 33b7 d33c 361c cb3c
00000270: 9ad3 7dbb 601f 873c 7138 1cbd c9a8 5d3c
00000280: 0af0 793c c62a 083e ad9c 353d 4086 d33e
00000290: 7a96 633d 5eb0 723e b1b0 b5be 9138 a93d
000002a0: fc7b a9bd 5257 4fbd bf33 55bb cf45 15bf
000002b0: c457 ff3d 47ba c23d 3994 3f3d 01ae 443e
000002c0: 41d2 d63c 3561 c0bc 6de3 78bd 1536 95bd
000002d0: ef37 c43e a308 44be 6fcd b2be 4bc3 76bf
000002e0: 26c0 0ebe 27f4 b1be 09e7 033e 2630 043e
000002f0: 981e acbd 43bc a93d 79cd 033e 7b68 1cbd
00000300: fdf3 23be 3fb4 e03d 7908 293c e97d 43bc
00000310: 95ee ef3c 33f5 bf3c f0c0 55ba 0850 0abc
00000320: 7d79 d5bd d05b c43b ece6 383f 93cb 9cbe
00000330: 540a 1cbd 6c9f 543e cf27 d2bd e0e9 813e
00000340: ca1a 0a3e b00d a23e db6c a5be 6c99 91be
00000350: 13e1 dbbc 3e5a 0f3e 5154 76be 5ef0 a13d
00000360: d71b 0fbd c46c 4a3e 4d46 1abe ebb3 063d
00000370: 43da 383e a708 273d bc0a ae3f db65 03be
00000380: 221f 8b3e f12a 1fbd 7d8c eebc 0bce d7bd
00000390: 4f14 d23d 0c17 6f3d 9229 0f3e 27fb 6e3e
000003a0: 2239 a33d 802f f73d dc3f 91bb 2aa8 5bbc
000003b0: 52ba c7bb 8356 123d c3c2 813c 567d 493b
000003c0: 8437 973d bee3 d83d d6e8 66bf 37db 013f
000003d0: a08a 89be 6698 803d ea24 7bbd 0690 853d
000003e0: 0146 913e f83d 7d3e 4e65 ee3c 9a1c 22bd
000003f0: a685 26be 770a 883e f5c0 dbbd 75a1 1b3d

fc1.bias f4 [32]
0.12486095 -0.73810947 -0.34347412 -0.27225128 -0.06160117 0.85791165 -0.9557663 -0.24608797
-1.1789013 -0.5021421 0.804328 0.11684141 -0.305464 -0.61365724 -0.9762116 -0.41345617
0.5799476 -1.1618624 1.6898682 -0.6147168 -0.9949767 -0.42252803 0.3200071 -0.6774121
0.28267926 -0.4510617 -0.6582757 0.49372497 -0.55065185 -0.36458254 0.20288551 -0.44122842
00000000: 19b7 ff3d bef4 3cbf d7db afbe 8564 8bbe
00000010: 8251 7cbd 19a0 5b3f 1aad 74bf 7cfe 7bbe
00000020: 3de6 96bf 628c 00bf 71e8 4d3f 8d4a ef3d
00000030: c765 9cbe a418 1dbf 01e9 79bf 87b0 d3be
00000040: 7277 143f e8b7 94bf 9a4d d83f 155e 1dbf
00000050: cbb6 7ebf 9855 d8be f8d7 a33e e16a 2dbf
00000060: 56bb 903e 8ff1 e6be c284 28bf 85c9 fc3e
00000070: 85f7 0cbf 90aa babe 38c1 4f3e b1e8 e1be

fc2.weight f4 [16, 32]
-0.028644219 0.5828541 0.05578122 0.3140358 0.08976422 0.23199178 0.96626824 0.64999324
0.03982031 0.26246187 -0.3132336 0.37706035 0.18188733 0.44537452 0.9021469 0.3736206
0.013714177 1.0138667 0.25832972 0.3674401 0.69563556 0.31367806 -0.022695119 0.73614717
0.18689494 0.35547638 0.6890553 -0.1518591 0.59946364 0.04564647 -0.066930756 0.48415238
-0.0375255 0.7286095 0.3624538 0.43267477 -0.22935846 0.08761794 1.0381402 0.9366038
0.3017893 0.4974712 -0.13975999 0.37543145 0.084865965 0.49626714 0.66974646 0.47502798
-0.12424186 1.1878425 -0.0088651795 0.18585944 0.8210365 0.47530627 0.20341188 0.7852661
0.22804622 0.3763897 0.8695012 -0.08231114 0.46731132 0.1155048 -0.037343677 0.6255402
0.051081534 0.08174165 -0.23640898 0.06747011 -0.16671179 -0.09254542 0.080108695 0.0059618372
-0.029766083 0.040583357 -0.06773131 0.04392999 0.08188097 -0.07404545 -0.04098796 -0.112066984
-0.071054645 -0.1366499 -0.10162175 -0.21321833 -0.20712027 -0.03594276 -0.19074224 -0.16751462
-0.06069119 -0.1568707 0.09164991 -0.12756595 -0.1635465 -0.10521281 -0.21001175 0.019272579
0.07355184 -0.1520637 -0.13507657 0.08907492 -0.15206921 -0.018703947 -0.19424695 -0.16333783
7.7291157e-10 -0.15754454 1.17851205e-05 -0.06690389 -0.06599422 -0.095393114 0.039786793 0.0875828
-0.007346647 -0.14399257 -0.19435559 0.08316957 -0.003581205 0.0014615691 -0.026979676 0.022106435
-0.009243477 0.0068777213 0.028795285 -0.03971638 0.07891256 0.03106625 -0.08032653 -0.15051702
-0.04716623 0.06756222 0.040242534 -0.12980083 -0.03473992 -0.034058467 0.001565119 0.008898192
0.0013561622 -0.005604512 -0.24915777 -0.061744243 -0.13578396 -0.032221023 0.0763247 -0.2115488
-0.08816123 -0.0011664194 -0.17983659 -0.047257584 0.04203744 0.03038149 0.07498406 -0.10345479
-0.10040528 -0.19368923 -0.16235664 -0.15292466 0.107800975 0.035951644 0.018253995 -0.14918803
-0.55180645 0.8107346 0.12051623 0.13268587 -0.5387793 -0.48096326 0.920073 0.056005493
0.12619977 0.016695263 -0.36237198 0.064959325 0.34719813 0.6785934 0.79918534 0.22827348
-0.16915889 0.78685117 -0.25020343 0.3925747 0.59736997 0.40075794 -0.4590757 0.5586272
-0.5936719 0.5241564 0.62213594 -1.1629488 -0.12523311 0.22441554 0.04096129 0.1942302
0.0814156 0.8679655 0.58516824 -0.103195354 0.07441491 -0.4286087 1.0939801 0.4206233
0.67735606 0.36004817 -0.71209574 0.3629511 0.14509109 0.5479527 0.8647342 0.33357936
-0.6717381 0.86648554 -0.80016077 0.33202788 0.8609984 0.19459079 -0.1587556 0.31622124
-0.38696933 0.26590657 0.45718884 -0.48340592 0.44295812 0.22725028 -0.27479097 0.16579655
-0.1647284 0.7403203 0.35378048 0.10133413 -0.22076109 -0.079442486 0.8431769 0.20394687
0.4024702 0.26755372 -0.5670219 0.17945413 0.28453684 0.5228219 0.9146037 0.332669
-0.3509614 1.1309929 -0.39267522 0.47792792 0.89979595 0.2223629 -0.09808033 0.59677905
-0.2740382 0.3303589 0.3890584 -0.33376822 0.2247527 0.06292197 -0.17435487 0.28573346
00000000: 48a7 eabc ed35 153f d97a 643d 4dc9 a03e
00000010: 4ed6 b73d 418f 6d3e 5b5d 773f f565 263f
00000020: 9f1a 233d 6761 863e 2860 a0be 0e0e c13e
00000030: ac40 3a3e 2108 e43e 19f3 663f 334b bf3e
00000040: 6db1 603c 62c6 813f cb43 843e 1c21 bc3e
00000050: 2c15 323f 699a a03e 1deb b9bc 2474 3c3f
00000060: 6361 3f3e 0001 b63e ee65 303f f480 1bbe
00000070: 7376 193f cbf7 3a3d fe12 89bd d2e2 f73e
00000080: 57b4 19bd 2786 3a3f 8b93 b93e 8c87 dd3e
00000090: f2dc 6abe 0971 b33d c7e1 843f 44c5 6f3f
000000a0: 2184 9a3e 8cb4 fe3e 3e1d 0fbe 8d38 c03e
000000b0: 35ce ad3d ba16 fe3e 8174 2b3f de36 f33e
000000c0: 8472 febd 390b 983f 423f 11bc f051 3e3e
000000d0: 732f 523f 585b f33e 344b 503e 3307 493f
000000e0: f384 693e 27b6 c03e a197 5e3f be92 a8bd
000000f0: 6e43 ef3e c88d ec3d aff5 18bd 6723 203f
00000100: df3a 513d 2b68 a73d 3215 72be c52d 8a3d
00000110: 7fb6 2abe 7488 bdbd 0710 a43d 845b c33b
00000120: 00d8 f3bc bc3a 263d b7b6 8abd efef 333d
00000130: 36b1 a73d 24a5 97bd fee2 27bd 6083 e5bd
00000140: 1985 91bd f4ed 0bbe 101f d0bd e855 5abe
00000150: 5617 54be b738 13bd ef51 43be f488 2bbe
00000160: 5397 78bd b6a2 20be f3b2 bb3d a6a0 02be
00000170: bc78 27be d079 d7bd 520d 57be 87e1 9d3c
00000180: 59a2 963d 96b6 1bbe 8351 0abe e96c b63d
00000190: 08b8 1bbe 0539 99bc ace8 46be 0842 27be
000001a0: d174 5430 5b53 21be b5b8 4537 e804 89bd
000001b0: fa27 87bd 775d c3bd 7af7 223d 9c5e b33d
000001c0: 24bc f0bb ca72 13be 2705 47be cf54 aa3d
000001d0: a6b2 6abb 1f92 bf3a 7b04 ddbc 8e18 b53c
000001e0: f471 17bc 825e e13b 17e4 eb3c a5ad 22bd
000001f0: e99c a13d a67e fe3c 3c82 a4bd 2221 1abe
00000200: 6031 41bd 105e 8a3d 5bd5 243d 82ea 04be
00000210: 724b 0ebd e480 0bbd ae24 cd3a b9c9 113c
00000220: 41c1 b13a 0ea6 b7bb 3723 7fbe 88e7 7cbd
00000230: f30a 0bbe 31fa 03bd 2050 9c3d 40a0 58be
00000240: e08d b4bd 8ae2 98ba 1527 38be 2b91 41bd
00000250: 732f 2c3d 9ae2 f83c 3e91 993d 1be0 d3bd
00000260: 49a1 cdbd 7856 46be d240 26be 4898 1cbe
00000270: c2c6 dc3d 0842 133d 6789 953c bfc4 18be
00000280: 3043 0dbf 4e8c 4f3f 37d1 f63d cede 073e
00000290: 71ed 09bf d140 f6be e789 6b3f 0466 653d
000002a0: 833a 013e 81c4 883c d288 b9be 6509 853d
000002b0: f4c3 b13e 4cb8 2d3f 6997 4c3f 86c0 693e
000002c0: fd37 2dbe 146f 493f aa1a 80be 8dff c83e
000002d0: 3ded 183f 2530 cd3e f80b ebbe 3102 0f3f
000002e0: e2fa 17bf 1d2f 063f 4d44 1f3f 82db 94bf
000002f0: 1c3d 00be 30cd 653e 07c7 273d 48e4 463e
00000300: 39bd a63d fd32 5e3f 96cd 153f 1658 d3bd
00000310: d866 983d 9972 dbbe 8a07 8c3f f05b d73e
00000320: 3567 2d3f 3c58 b83e e84b 36bf bad4 b93e
00000330: c292 143e a146 0c3f 385f 5d3f eaca aa3e
00000340: 07f7 2bbf ffd1 5d3f 56d7 4cbf 8fff a93e
00000350: 646a 5c3f cf42 473e d490 22be c0e7 a13e
00000360: d820 c6be e824 883e a814 ea3e fb80 f7be
00000370: 68cb e23e 4cb4 683e 67b1 8cbe 92c6 293e
00000380: 90ae 28be a285 3d3f b722 b53e 4588 cf3d
00000390: 320f 62be beb2 a2bd 71da 573f 73d7 503e
000003a0: 9310 ce3e cdfc 883e 5928 11bf d3c2 373e
000003b0: d0ae 913e a8d7 053f 7823 6a3f 9753 aa3e
000003c0: 36b1 b3be 60c4 903f ba0c c9be f8b2 f43e
000003d0: 0759 663f 1ab3 633e 57de c8bd 83c6 183f
000003e0: bc4e 8cbe cd24 a93e aa32 c73e abe3 aabe
000003f0: 9225 663e 3cdd 803d 158a 32be a84b 923e

fc2.bias f4 [16]
0.25523517 0.20987423 0.04090002 -0.05807239 -0.07307456 -0.5039703 -1.1433082 -0.590461
-0.2762657 -0.23245524 0.018311135 0.27007428 0.066363834 -0.05685266 0.11406702 -0.12158689
00000000: 2fae 823e 45e9 563e c886 273d 50dd 6dbd
00000010: 1da8 95bd 3304 01bf ec57 92bf 7428 17bf
00000020: b372 8dbe bf08 6ebe 3c01 963c 2d47 8a3e
00000030: c3e9 873d 56de 68bd f89b e93d 8c02 f9bd

fc3.weight f4 [1, 16]
-0.51799846 -0.5558726 0.13146949 -0.084410034 0.008350937 -0.88805926 -1.0658225 -0.6752504
-0.9045187 0.11879859 0.10304316 -0.5010712 0.14750156 0.16634612 -0.71786445 -0.52764016
00000000: 8c9b 04bf ab4d 0ebf f09f 063e 2bdf acbd
00000010: 5ed2 083c da57 63bf df6c 88bf 36dd 2cbf
00000020: 8a8e 67bf ad4c f33d 4b08 d33d 3446 00bf
00000030: a60a 173e a356 2a3e f7c5 37bf 6d13 07bf
