DRL-course/MADDPG/model_dir/episode-20000.pt (torch_old, 71203 bytes, 99 tensors)

fc1.weight f4 [16, 14]
000000 90 dd 9d bf 62 e7 88 3f 01 04 a8 bf 87 b1 7c 3f
       -1.233324 1.0695612 -1.3126222 0.98708385
000010 65 81 ec be 73 65 2b be d3 ea df 3e c3 89 26 3e
       -0.4619247 -0.16737919 0.43733844 0.1626349
000020 7f 33 5c be f3 55 91 3e 57 d9 f5 3c 0b d2 07 3e
       -0.21504019 0.28385887 0.030010862 0.13263719
000030 f8 36 93 be 9c cd bd 3e 2a 6f 76 3f 6c 57 b2 3f
       -0.28752875 0.3707093 0.9626337 1.3932929
000040 37 28 84 3f b2 00 a5 3f f3 35 0b bd 7e 55 0b 3d
       1.0324773 1.2890837 -0.033986997 0.03401708
000050 b5 41 79 be 83 df aa 3e 79 02 f9 3e c9 fa 40 3f
       -0.24341471 0.3337365 0.486347 0.7538267
000060 8e 79 77 be c0 7c b7 3e a3 fd 9c 3e d9 a8 76 3f
       -0.24167463 0.35837364 0.3066226 0.9635139
000070 f5 e0 03 bf 67 0c 82 3f 21 f2 bf be 6a c5 5f 3f
       -0.5151513 1.0160035 -0.37489417 0.87410605
000080 be 95 ef bd c9 af e3 be 2b 75 cf bd 4b fb e0 be
       -0.11698483 -0.4447005 -0.1012977 -0.4394172
000090 d5 15 f5 3e c4 29 65 3e d4 e1 69 3e fb f0 dc bd
       0.4786822 0.22379214 0.22840053 -0.10788151
0000a0 e4 06 08 3f d8 57 23 be a9 5f a7 be b4 df 5e 3e
       0.53135514 -0.15951478 -0.3269017 0.21765023
0000b0 72 38 23 bf 67 c5 e9 3e 98 84 0c 3f 46 a0 3e bf
       -0.63758004 0.4565842 0.5488982 -0.7446331
0000c0 ad 3f 77 be a6 df cb 3d 5a 2d 07 bf ae 3c 7f 3d
       -0.24145384 0.09954767 -0.52803576 0.062313728
0000d0 9b 64 44 be 42 b9 ef 3d 49 ff 10 be 65 9c 1e bd
       -0.19179003 0.11705257 -0.14159884 -0.03872337
0000e0 b6 82 69 3e 96 3c aa 3c fa 85 3d 3e 5d 78 33 3d
       0.22803769 0.020780843 0.18508139 0.04381596
0000f0 e5 17 66 bc a3 02 9b 3d b0 af fb bd d5 38 cc 3e
       -0.014043783 0.07568862 -0.12289369 0.3988711
000100 6a 75 41 3e 95 b0 1a be f3 58 a0 bf 28 b5 8f 3e
       0.18892446 -0.15106423 -1.2527145 0.280679
000110 77 cb d5 3e 07 94 27 3d 01 d6 d8 be da 81 0b be
       0.41756794 0.040912654 -0.42350772 -0.13623753
000120 6d 0c d3 be 2b c1 c2 bd 1d 0c e2 be 26 31 54 be
       -0.41220418 -0.095095 -0.44149867 -0.20721874
000130 d4 89 c1 3f 2b 2e 94 3e 03 79 2d bd 22 7e 5a 3e
       1.5120187 0.28941473 -0.042351734 0.21337178
000140 22 c8 c4 3e 12 06 2b 3f 7c 94 2f 3e 70 01 81 3e
       0.3843394 0.6680614 0.17146486 0.2519641
000150 92 5f 32 bf 08 6b 9a bb 21 6f 2f bf c2 55 4b ba
       -0.6967708 -0.004712466 -0.68528944 -0.00077566144
000160 89 4b 45 be 84 b1 71 bd 91 f8 59 3f 78 84 d7 be
       -0.19267096 -0.059007183 0.8514491 -0.42093253
000170 97 53 f5 3e 32 2d cf bc ed 87 15 bf 17 be 32 bf
       0.47915336 -0.025290105 -0.5841053 -0.69821304
000180 21 2e 52 3c 9d f2 ae 3c 6f c8 21 3f aa 1a 99 bf
       0.012828381 0.021355921 0.6319646 -1.1961262
000190 cd 22 15 3f 5a dd a0 bf da 21 6b 3e 19 dc 70 be
       0.58256227 -1.2567551 0.22962132 -0.2352146
0001a0 2f 5e d7 be bb 63 66 be 11 b6 c1 be 99 98 6e 3e
       -0.42064044 -0.22498982 -0.37834218 0.23300399
0001b0 31 3b 07 bf 8d 9c 5c bf 33 33 3a be e3 7a 00 be
       -0.52824694 -0.8617638 -0.18183593 -0.12546878
0001c0 2e d1 bd 3f 54 68 f6 be 3f 54 c9 3f ce 7d ec be
       1.4829462 -0.4812647 1.5728835 -0.4618973
0001d0 0e b4 bf 3e 2c 01 78 be da 76 0c 3e ce 85 6b be
       0.37442058 -0.24219197 0.13717213 -0.23000261
0001e0 7b 06 10 3e 91 2d eb 3d a5 73 13 bf 98 89 f7 3e
       0.14064972 0.114833005 -0.57598335 0.48347163
0001f0 3d 17 64 be 63 b0 2a 3f 26 10 9c 3e 1e 99 a4 bf
       -0.2227449 0.66675395 0.3048107 -1.2859228
000200 f5 ad 92 3e 43 15 9a bf cd 4b 06 3f 0c a7 a1 be
       0.28648344 -1.2037739 0.5245941 -0.3157276
000210 a7 57 3b 3f ae 24 13 3e 62 19 bf bd 65 f0 8b bf
       0.7318062 0.14369461 -0.09331013 -1.0932738
000220 83 49 b6 3e c3 7b dc bd 88 08 b6 be ea 46 50 bf
       0.3560296 -0.10765793 -0.35553384 -0.81358206
000230 c2 bd f3 bd a2 66 f4 3e 1f 91 a4 bc b9 d8 cd 3e
       -0.11901428 0.47734553 -0.02008873 0.4020441
000240 ee 74 39 3e 0b 90 a2 be 70 3a a0 3f 1d 3e fb 3e
       0.18111011 -0.3175052 1.2517834 0.49070826
000250 e6 64 07 40 3b 2b 2a bf 1b dd f2 be f0 5a 95 be
       2.1155334 -0.66472214 -0.47434315 -0.29170942
000260 79 0d 54 3e a1 c3 37 be 65 06 2f bf fa f5 ef 3e
       0.20708264 -0.1794572 -0.6836913 0.46867353
000270 fc e3 43 bf e5 8b 0c 3f 14 59 80 bd 08 f4 cb bc
       -0.7651975 0.5490096 -0.0626699 -0.024896637
000280 b9 f0 dc 3d 99 d5 41 be 0e 76 47 3e e7 23 29 3d
       0.10788102 -0.18929137 0.19478628 0.041294005
000290 a2 e0 20 3f 9e c5 92 bf e1 de bf bd 77 8a e4 bd
       0.6284276 -1.1466558 -0.09368683 -0.111592226
0002a0 19 d2 c1 bf b3 73 88 bf 48 04 df bf 70 a9 79 bf
       -1.5142242 -1.0660309 -1.7423182 -0.97524166
0002b0 62 51 20 bf 55 79 85 3d ef c3 8b bf 80 55 b9 be
       -0.6262418 0.06517283 -1.0919169 -0.36198044
0002c0 32 cf d7 bd 1b 88 77 bf 1c fd 7d bf 8f 29 9d be
       -0.10537566 -0.96692055 -0.9921434 -0.3069577
0002d0 3c a6 84 be 14 30 2a bf c3 6f d9 be 93 70 00 3f
       -0.25908077 -0.6647961 -0.4246808 0.50171775
0002e0 5b 72 bc be 37 27 08 3f b7 5f 26 bd 75 a8 19 bd
       -0.36805996 0.5318484 -0.040618625 -0.03751417
0002f0 1d d6 04 3f 3f 03 c9 bf a0 6c b8 be 13 dc d5 3d
       0.5188921 -1.5704116 -0.36020374 0.104423665
000300 a7 8a f1 3d be 8d a8 bd 30 8a 5a 3e f1 4f b5 3d
       0.11794024 -0.0823016 0.21341777 0.08853138
000310 43 7a da 3e d7 8e 9f 3d 47 b6 f7 3e b4 6e de 3c
       0.42671403 0.077909164 0.48381254 0.027152397
000320 1a 7d bf 3e 23 5b bf be 5b 83 f9 bd a9 eb 44 be
       0.37400132 -0.3737422 -0.12183257 -0.19230522
000330 fd a2 c0 3e d5 d8 a7 3d 53 a6 90 3f 02 44 38 bf
       0.3762435 0.08195654 1.1300758 -0.7197877
000340 dc 6d 62 3f 7a 5c a4 bf 81 9b 85 3f cb a8 e6 3e
       0.8844888 -1.2840722 1.0438081 0.45050654
000350 08 2d 75 3f 37 ae 1a 3f 94 7f 01 be ea ce 8b be
       0.9577184 0.6042208 -0.12646323 -0.273063
000360 39 ab 7b be 4c 54 f4 3e 93 2e d4 be ca ae e7 3e
       -0.24577035 0.47720563 -0.41441783 0.4525054
000370 61 aa dd 3e c8 ce 2b 3e 5b 2c 19 be 57 c4 c7 3e
       0.4329405 0.167781 -0.14958327 0.39016983

fc1.bias f4 [16]
000000 f3 b3 80 bf 8c a0 68 bf 4e fd e5 3e 23 1c f2 3e
       -1.0054916 -0.90869975 0.4491982 0.47287092
000010 22 a1 92 3e b9 81 2a 3f f6 59 f4 be 0c 7f 71 bf
       0.2863856 0.6660419 -0.47724885 -0.94334483
000020 35 ac 04 bf ea bf 8f bf 18 f6 a1 3e 5c 99 92 3e
       -0.5182527 -1.1230443 0.31633067 0.2863263
000030 68 04 ad bf ab 20 d1 3e b5 7f f5 3c 9b a6 0e be
       -1.351697 0.40845236 0.029968122 -0.13930742

fc2.weight f4 [8, 16]
000000 3e 73 d6 be 27 d8 27 bf 9b 98 8f bd 80 08 b0 3d
       -0.41884798 -0.655642 -0.07011529 0.08595371
000010 e3 bc 95 3e a5 90 89 3e 0a 51 c5 3e 65 52 61 3f
       0.29245672 0.26868168 0.3853839 0.8801635
000020 70 8d 01 3d 90 e3 a3 3f b0 a3 0f 3e 96 de 28 3f
       0.031629026 1.2803822 0.14027286 0.6596464
000030 7d 66 be 3f 37 97 23 3f 45 f9 cb 3e 3d ca 42 bf
       1.4875027 0.6390261 0.39838615 -0.7608984
000040 ef 63 4a bf d0 03 b0 3f bc 0e 55 3c 3c 87 67 3d
       -0.79058737 1.3751163 0.013004001 0.056525454
000050 36 63 cb be 32 8b 9c 3f b0 c4 53 bf 12 4a 32 3c
       -0.3972413 1.2229979 -0.82721996 0.010881918
000060 7c c6 23 3f b8 1c 0c bf 2d 96 dd 3e b6 5a c1 bc
       0.6397474 -0.5473132 0.43278638 -0.023602825
000070 f9 6e c7 be 0e a1 25 be 0d 8a 7e 3e ee 58 df 3e
       -0.38951853 -0.16174719 0.2485735 0.43622535
000080 84 20 29 3e 34 fc a8 3e 60 46 0c bf 62 25 ef be
       0.1651631 0.33004916 -0.54794884 -0.46708208
000090 89 89 c0 be a8 e4 81 be f7 d9 10 bf 7f 40 6b 3e
       -0.3760493 -0.25369763 -0.5658259 0.22973822
0000a0 01 2e 73 bf fb 86 fb 3e d0 25 ae 3c b6 df 13 3c
       -0.9499207 0.4912642 0.021258265 0.009025505
0000b0 27 d9 d0 bd 0a 01 f4 3d 6b a1 92 bf 74 9c f0 3e
       -0.101976685 0.11914261 -1.1455511 0.46994364
0000c0 cf f3 45 be 67 27 4c be d0 cd e1 3d 11 fd 7a bc
       -0.19331287 -0.19936906 0.11025584 -0.015319125
0000d0 d2 9d 2a 3d 9d 49 32 bd 6a 34 c3 3d c5 5f c4 be
       0.041654415 -0.043527234 0.095314816 -0.38354316
0000e0 b2 92 46 be c0 18 63 be 63 b4 b0 bd 0c c6 5b be
       -0.19391897 -0.2217741 -0.08628156 -0.21462268
0000f0 d9 be 3d bb 1f c8 5a be 26 b8 fa bd ca df 71 be
       -0.0028952865 -0.21365403 -0.12242155 -0.23620525
000100 48 67 7e 3e cc 2c 60 3e ff 92 b8 be 00 32 46 3e
       0.24844086 0.21892089 -0.3604965 0.19355011
000110 12 6e 0b bf 79 f1 09 3e c7 80 bb be 94 f8 73 be
       -0.5446483 0.13471021 -0.36621687 -0.23825294
000120 fb 25 c4 be b6 e5 eb be 85 7a 98 3f 6f e3 d8 bf
       -0.38310227 -0.46073693 1.191239 -1.6944407
000130 dd 9a d5 be 33 d6 6a 3f 21 88 4a bf 95 1f a0 3e
       -0.41719714 0.9173309 -0.79113966 0.31274095
000140 30 97 08 bf f2 7f 5e 3e ca 65 39 3f 46 1f db bd
       -0.53355694 0.21728495 0.7242094 -0.10699324
000150 b0 fe 91 3c 6d 7c 69 3e 02 21 ab be ea 70 8f bf
       0.01782164 0.22801371 -0.3342362 -1.1206334
000160 d4 ab 3e 3f 65 ad ff be 0a da 52 bf af 0d 80 3e
       0.7448094 -0.49936977 -0.8236395 0.2501044
000170 a4 87 f5 be b2 8e cc bf dc 27 16 3f e7 d5 c6 3d
       -0.47955048 -1.5981047 0.5865457 0.097087674
000180 08 0e 9a be 03 1b b0 bd 9d 95 96 bf ed cd 7d bf
       -0.3008883 -0.08598902 -1.1764408 -0.9914234
000190 dc e9 e7 be 75 e7 92 be 54 30 84 3f 2f e4 5b 3f
       -0.45295608 -0.28692213 1.0327249 0.85895056
0001a0 37 33 38 3f df 8d 0f 3f 6c d2 3d be 49 49 33 bf
       0.7195315 0.56075853 -0.18537301 -0.700337
0001b0 3f e6 06 bf fe af cf be 20 d3 63 3f 3d a0 40 3f
       -0.5269508 -0.4056396 0.88994026 0.75244504
0001c0 8c 59 a5 3f 64 da c0 3e 93 e3 1e 3f 44 fe ed 3e
       1.2917953 0.3766662 0.62066 0.46483052
0001d0 1b e6 43 3f 7c 21 0b be 5f 99 fb 3e 9b 4c fa be
       0.7652299 -0.13586992 0.4914045 -0.4888657
0001e0 a3 ba d4 be 97 ff 7e 3b c5 33 95 bd 6e 73 b5 3d
       -0.41548643 0.0038909668 -0.07285265 0.08859907
0001f0 5b 88 82 3f 3c d8 23 bd 62 bf 7c be 00 23 c3 bc
       1.0197862 -0.04000114 -0.24682382 -0.0238204

fc2.bias f4 [8]
000000 56 07 06 3f ae 90 06 3f c8 8e 74 bf dc 8e b5 bd
       0.52354944 0.52564514 -0.95530367 -0.08865139
000010 c9 ab ca 3d 27 03 3c 3f a5 69 6a 3e b3 ca 99 3e
       0.09896047 0.7344231 0.22891863 0.3003746

fc3.weight f4 [2, 8]
000000 a0 11 72 be db 3d 6a 3f fb ea e9 3e 9c 9b f3 3d
       -0.23639536 0.91500634 0.45687088 0.118949145
000010 53 ec 33 bf 6c e1 3d bf 61 3f 14 3f 92 ef ff be
       -0.7028248 -0.7417209 0.5790921 -0.49987465
000020 41 22 45 bf 43 44 c6 3e 4e a6 f6 be 5d ce 91 3c
       -0.7700539 0.38723955 -0.48173755 0.017798597
000030 fa ce b2 3e 1d 42 04 3f db 8f 96 bd e6 0b 14 3f
       0.34923536 0.5166338 -0.07351657 0.57830656

fc3.bias f4 [2]
000000 59 57 99 3c bd de bb bd
       0.018718408 -0.09173343

exp_avg f4 [16, 14]
000000 9d ee 4d 38 31 2d f0 37 d0 a1 58 38 1a b9 ea 37
       4.9098035e-05 2.8631273e-05 5.1649113e-05 2.7981168e-05
000010 9b 0f f5 37 0e dc 8a 37 ef 3e 4c b7 a6 a4 0d 38
       2.9213543e-05 1.6553353e-05 -1.2174e-05 3.377036e-05
000020 2e b8 92 38 ce ac 35 b7 68 9c d1 38 51 9a 9a b7
       6.996129e-05 -1.0828675e-05 9.9950295e-05 -1.843009e-05
000030 e0 d6 31 38 ba 4a 94 b7 ef ee c7 38 2e b5 17 b8
       4.2400206e-05 -1.7677772e-05 9.533564e-05 -3.6169942e-05
000040 9a 8b c0 38 a7 36 20 37 82 66 e3 37 fc 4f 50 38
       9.181276e-05 9.549468e-06 2.7108243e-05 4.9665556e-05
000050 9a ee b7 b8 8f 0a 14 39 73 22 2c b7 c1 ad 99 37
       -8.770563e-05 0.00014118313 -1.026002e-05 1.8319932e-05
000060 31 c0 93 b8 02 8d 54 39 16 a0 ad b7 35 0b 90 38
       -7.045305e-05 0.00020270425 -2.0697753e-05 6.8685426e-05
000070 df d1 f1 37 8e a9 b2 38 6e 6d a0 37 e9 6d 19 38
       2.8827168e-05 8.5192834e-05 1.9124443e-05 3.6580404e-05
000080 e8 e1 b9 37 06 1a 67 38 d7 f4 a7 38 3a 98 04 39
       2.2158914e-05 5.5098928e-05 8.0087855e-05 0.0001264521
000090 e8 51 f1 35 7a 59 a1 37 56 f8 f3 b7 80 ff 49 37
       1.7979737e-06 1.9234361e-05 -2.9083498e-05 1.2040022e-05
0000a0 13 5c ec b7 bd 1d 5e b7 4b 38 8e b7 1e ba e4 38
       -2.8176268e-05 -1.3239155e-05 -1.6953933e-05 0.00010906554
0000b0 73 56 dd b6 8e fa 9d 38 f5 99 58 37 04 f9 49 38
       -6.5963773e-06 7.533013e-05 1.2910449e-05 4.815405e-05
0000c0 89 76 17 39 26 87 b9 b8 c4 d8 0f 38 f2 27 16 b8
       0.0001444464 -8.846661e-05 3.4295736e-05 -3.579999e-05
0000d0 24 4d 31 39 ea 6d 56 37 89 91 0a 38 f2 5b 08 b7
       0.00016908773 1.2780985e-05 3.3037304e-05 -8.127639e-06
0000e0 70 37 af b8 7f 3e 08 39 90 0d d3 b8 9f db 38 39
       -8.354976e-05 0.00012993252 -0.0001006379 0.00017629423
0000f0 75 59 c8 37 6e d8 4e 38 a3 4d 89 39 03 76 84 b8
       2.3883515e-05 4.9315793e-05 0.0002618852 -6.316232e-05
000100 91 07 dc 36 0f a4 63 b8 3c 3b 9f 39 c4 c5 05 b9
       6.5573918e-06 -5.427381e-05 0.00030370976 -0.00012757542
000110 b1 6b 43 38 38 8d 83 b8 32 cb ed 38 b0 28 b6 b8
       4.659192e-05 -6.272871e-05 0.00011338889 -8.686015e-05
000120 ac 65 e3 38 12 46 a0 b8 5c 76 c5 37 2e 8b 38 b8
       0.00010843141 -7.642446e-05 2.3539345e-05 -4.399864e-05
000130 45 f2 10 37 3b cf 75 b9 84 30 6c 38 37 63 86 b6
       8.639477e-06 -0.0002344222 5.631197e-05 -4.0050613e-06
000140 64 08 fe b8 66 b5 b1 39 72 32 07 b8 b6 88 a8 38
       -0.00012113227 0.00033895223 -3.223349e-05 8.036329e-05
000150 1b f5 03 38 23 84 44 38 5e 43 11 38 60 4c 92 35
       3.1461106e-05 4.6853103e-05 3.4633435e-05 1.0900076e-06
000160 af 05 9b 36 3e f1 90 36 11 5e 81 b8 61 fb b2 b7
       4.6200216e-06 4.3196187e-06 -6.1687206e-05 -2.1336311e-05
000170 75 95 82 b7 66 63 c5 37 c0 47 af 37 bd 18 8d 38
       -1.5566804e-05 2.3530516e-05 2.0895037e-05 6.728012e-05
000180 a0 27 6f 36 a8 d8 86 37 e3 35 ab 38 50 ed 64 b9
       3.563684e-06 1.6074933e-05 8.1639526e-05 -0.0002183218
000190 fe 1a 33 38 e0 9e 3f b9 4e c4 eb b7 1e 0d 64 b7
       4.2702064e-05 -0.00018274365 -2.8105595e-05 -1.3592913e-05
0001a0 ed ad f3 b9 a0 cd e3 39 a6 c6 40 b8 9d e1 b2 38
       -0.00046478157 0.00043450017 -4.5961373e-05 8.529725e-05
0001b0 3c e7 66 b7 49 ad 13 b8 84 42 ec b6 9e 73 34 38
       -1.3762907e-05 -3.5208916e-05 -7.0410915e-06 4.302302e-05
0001c0 55 52 bd 38 35 1f 39 b8 35 ef ba 38 b3 a9 54 b8
       9.027558e-05 -4.41365e-05 8.913727e-05 -5.0702783e-05
0001d0 36 1a e4 37 60 f4 b2 36 fd 43 73 b8 fd 58 9c b8
       2.7191923e-05 5.3332624e-06 -5.7999034e-05 -7.455235e-05
0001e0 06 c5 15 b5 54 52 9c 37 10 48 dd b5 0f 12 d3 38
       -5.579353e-07 1.8634986e-05 -1.6486756e-06 0.00010064628
0001f0 16 3e c2 37 8d 8f fe 37 e5 5d 77 b8 24 87 87 38
       2.3155513e-05 3.0346006e-05 -5.8976835e-05 6.4624735e-05
000200 f9 af 87 b8 80 82 32 38 90 cf c1 b7 d1 84 c7 37
       -6.470079e-05 4.2560045e-05 -2.3104047e-05 2.3784496e-05
000210 ab 62 83 b7 cc 9a c8 38 b8 6e 04 36 bf 26 eb 37
       -1.5662363e-05 9.565576e-05 1.973398e-06 2.8032226e-05
000220 1a 4a 6d b8 df d0 ff b7 30 36 53 37 a0 58 c4 b4
       -5.6574216e-05 -3.0495632e-05 1.2589197e-05 -3.6572328e-07
000230 46 40 bc 37 a5 e5 d9 b7 de c5 00 38 f3 a5 c8 b7
       2.2441276e-05 -2.5975352e-05 3.0701856e-05 -2.3919134e-05
000240 d8 34 03 b6 f4 f1 62 35 7d 32 97 b8 c5 37 56 38
       -1.955128e-06 8.454365e-07 -7.209645e-05 5.1073515e-05
000250 3d b4 8d b7 81 42 93 36 0a bb 40 38 cf 14 27 38
       -1.689244e-05 4.3886835e-06 4.595056e-05 3.9835282e-05
000260 2d e6 f1 37 1c 09 78 b6 7c 57 48 b8 80 07 b4 34
       2.8836623e-05 -3.6960182e-06 -4.7765192e-05 3.353307e-07
000270 bc 55 8e b8 a7 84 5e 38 dc 84 30 37 a8 40 14 b8
       -6.787057e-05 5.3052467e-05 1.0521351e-05 -3.5346166e-05
000280 4e 5c f0 38 ac 0e b5 b8 80 0a 07 37 4e 88 4f b6
       0.00011461285 -8.6334854e-05 8.049072e-06 -3.0924743e-06
000290 4f 88 b9 b8 3a e1 d2 37 ef 69 4a b7 1d b7 2a b7
       -8.846877e-05 2.513883e-05 -1.2064803e-05 -1.0175424e-05
0002a0 b7 27 8e 38 86 ba c1 37 57 79 b1 b7 cb 8d fc 37
       6.778485e-05 2.309425e-05 -2.1156548e-05 3.0106768e-05
0002b0 22 6a cc 36 82 81 70 37 59 a5 26 39 ac 24 25 b7
       6.0920293e-06 1.4335268e-05 0.0001589259 -9.843305e-06
0002c0 c7 48 49 b8 33 66 40 b7 82 2d b1 38 92 ec 7b 37
       -4.7989914e-05 -1.1467887e-05 8.448494e-05 1.5015847e-05
0002d0 64 5c 87 b7 c0 ad ea b7 18 fc 18 b8 5c 04 80 b8
       -1.6136277e-05 -2.7975882e-05 -3.6474405e-05 -6.1043276e-05
0002e0 aa 10 25 b8 49 a6 68 b8 28 37 54 b6 1b ff 6c b7
       -3.9354585e-05 -5.5467975e-05 -3.1622567e-06 -1.41260925e-05
0002f0 03 d6 36 b9 00 d6 af b4 4a 06 14 b8 ef 9e 75 36
       -0.00017436598 -3.2751996e-07 -3.5291807e-05 3.6600356e-06
000300 2b db dd b7 85 3f 16 39 fb 2d 14 38 6f f3 16 38
       -2.6447311e-05 0.00014328778 3.5328772e-05 3.5989502e-05
000310 02 eb 88 37 5f 8a a0 b7 8a a8 bf 37 fc ed 05 b5
       1.6321897e-05 -1.913792e-05 2.2847456e-05 -4.9892674e-07
000320 d7 e7 20 b7 f9 eb 9a b7 bd d9 d1 b7 d8 29 95 b7
       -9.590723e-06 -1.8468114e-05 -2.5016134e-05 -1.778167e-05
000330 56 ad 2b 38 05 56 e0 37 82 8c 8c b8 2f b5 42 b8
       4.093101e-05 2.6742937e-05 -6.701892e-05 -4.6421945e-05
000340 bf 34 de b7 06 62 e6 b7 cd 10 ae 38 c0 b7 90 35
       -2.6489024e-05 -2.7463782e-05 8.300096e-05 1.0782314e-06
000350 ab a8 de 38 5c b5 06 38 c9 0b 23 38 fe 14 25 36
       0.00010617202 3.2116994e-05 3.8873204e-05 2.4599135e-06
000360 6c ee b8 37 44 9c 02 37 60 d4 42 35 fe 12 da 37
       2.2045533e-05 7.784987e-06 7.257968e-07 2.5996469e-05
000370 70 77 82 b9 70 d6 63 b8 4d ba f5 b7 ca 6d 28 b6
       -0.0002488452 -5.4320728e-05 -2.9293029e-05 -2.5097856e-06

exp_avg_sq f4 [16, 14]
000000 bf 3c 2e 33 4c 54 46 33 c0 5e 2e 33 12 ba 5e 33
       4.056778e-08 4.6177135e-08 4.0598707e-08 5.1857633e-08
000010 85 0c 8d 32 1a ce 19 32 0d cd 08 33 01 75 61 34
       1.6420254e-08 8.952634e-09 3.185146e-08 2.0997324e-07
000020 77 50 41 32 d8 59 22 32 13 49 29 33 cd 2e d3 33
       1.1252374e-08 9.450069e-09 3.941484e-08 9.833966e-08
000030 0d 4d 53 32 1d 66 c8 31 0d f1 98 34 ab 3f f8 33
       1.2299336e-08 5.832375e-09 2.8487594e-07 1.1559981e-07
000040 e8 a6 94 34 9e 91 f7 33 2e be 8f 32 4a 99 d7 32
       2.7688588e-07 1.15283214e-07 1.6733875e-08 2.5099002e-08
000050 9c 3b 29 34 8b 41 d5 35 c5 af 9d 32 65 20 aa 33
       1.5761037e-07 1.5888812e-06 1.8357136e-08 7.9221344e-08
000060 bf cd 45 34 b0 b8 c0 35 fd 59 9c 32 44 0b 91 33
       1.8421905e-07 1.4358866e-06 1.8201712e-08 6.754138e-08
000070 2b 04 b5 33 00 83 dd 33 b4 74 ce 33 99 e0 d7 33
       8.4292274e-08 1.0314943e-07 9.613851e-08 1.0052572e-07
000080 9d a6 a9 32 e5 02 83 32 70 6f 0e 34 28 d9 a6 34
       1.9749956e-08 1.5251723e-08 1.3265321e-07 3.1077911e-07
000090 1e d0 a1 32 23 e3 99 32 5e 67 63 34 7b e5 10 35
       1.8837508e-08 1.7914834e-08 2.1178627e-07 5.397812e-07
0000a0 2e 38 b8 32 9f 33 d4 32 71 d6 3c 34 92 73 44 34
       2.1445967e-08 2.4703523e-08 1.7586878e-07 1.8295967e-07
0000b0 dd 6d 2f 34 59 e3 41 34 ed 94 7e 32 3b d6 46 32
       1.6338113e-07 1.8057234e-07 1.4818608e-08 1.1573827e-08
0000c0 ad 3d 55 34 d8 3e 87 35 f6 88 46 32 20 97 05 33
       1.9859608e-07 1.0076574e-06 1.1556258e-08 3.1103923e-08
0000d0 13 6e 59 34 0d 1d a0 35 e9 e4 30 32 e2 f8 28 33
       2.0249745e-07 1.1929384e-06 1.02965965e-08 3.9341906e-08
0000e0 48 f9 24 33 be ea 85 33 63 92 24 33 3c b8 91 33
       3.8410946e-08 6.2359945e-08 3.8317364e-08 6.785601e-08
0000f0 b9 11 07 32 c4 10 db 31 0b 84 8c 33 f4 b6 cf 34
       7.862064e-09 6.375645e-09 6.5432765e-08 3.868987e-07
000100 c5 3f e6 31 a7 82 86 32 6c c7 9f 33 37 c0 b2 34
       6.7011308e-09 1.5659067e-08 7.440289e-08 3.3294938e-07
000110 c6 ab 18 32 71 b8 60 32 8d bd a4 33 51 58 8c 33
       8.886621e-09 1.3080453e-08 7.671324e-08 6.535323e-08
000120 58 88 a0 33 03 9e 88 33 29 03 ca 32 f7 90 c7 32
       7.4753814e-08 6.361736e-08 2.3517332e-08 2.3232571e-08
000130 97 f8 01 34 81 ad bb 34 06 23 cc 32 7f 19 d3 32
       1.2104498e-07 3.4957705e-07 2.3764652e-08 2.4575227e-08
000140 9e 72 e1 33 83 b7 99 34 23 91 d9 32 5a 32 ca 32
       1.0498228e-07 2.8631993e-07 2.5328125e-08 2.3538792e-08
000150 a8 ad 08 33 fa e8 09 33 52 a7 f2 32 bc 9d 0c 33
       3.1822907e-08 3.210969e-08 2.8248596e-08 3.273975e-08
000160 9a 6a 89 31 53 ca 66 31 c1 78 82 33 59 54 50 34
       3.999344e-09 3.3584413e-09 6.075562e-08 1.9402195e-07
000170 21 f0 c2 31 fe 5e 0e 32 cb 40 4b 33 7e 4d d7 33
       5.6734426e-09 8.287087e-09 4.732355e-08 1.00258134e-07
000180 7b 01 66 31 12 0b 65 31 ab 95 57 34 3d af 09 34
       3.3470247e-09 3.3330179e-09 2.0077884e-07 1.282287e-07
000190 c5 1a 55 34 11 70 14 34 e2 c6 c9 32 cf 55 e3 32
       1.984691e-07 1.3824344e-07 2.3489921e-08 2.64653e-08
0001a0 60 3a b0 34 8b f4 b2 34 9e 37 df 32 a7 68 bb 32
       3.2825028e-07 3.3333012e-07 2.5985909e-08 2.1817256e-08
0001b0 b0 17 90 34 66 3a b8 34 c7 76 9e 32 bc 97 9a 32
       2.6839325e-07 3.431516e-07 1.8447635e-08 1.799696e-08
0001c0 c0 ce 7e 33 ef 01 f4 32 87 65 74 33 3f b8 06 33
       5.932702e-08 2.8406218e-08 5.6903016e-08 3.1366877e-08
0001d0 06 ea 7f 32 52 24 0d 32 9a 43 82 33 17 95 9e 33
       1.4896164e-08 8.2155385e-09 6.0658934e-08 7.3845676e-08
0001e0 f6 6c 0a 32 b9 3a a7 31 d2 b6 65 33 10 46 ed 34
       8.057432e-09 4.8670157e-09 5.348449e-08 4.4195667e-07
0001f0 88 88 69 32 34 a0 d0 32 d6 19 9f 33 bd 3e 93 33
       1.3593429e-08 2.4287239e-08 7.408714e-08 6.856633e-08
000200 96 70 9c 33 b5 f3 9c 33 3c 05 70 32 0a 85 69 32
       7.284795e-08 7.308646e-08 1.3971029e-08 1.3592635e-08
000210 32 27 e1 33 0d 5c 5b 34 d0 b9 1d 32 17 83 46 32
       1.04845086e-07 2.0429452e-07 9.180852e-09 1.1554923e-08
000220 2d 53 c4 33 ca c4 26 34 e3 3d 18 32 a9 1d 14 32
       9.142091e-08 1.5531546e-07 8.861636e-09 8.621478e-09
000230 6c f1 0e 33 0a dd 36 33 52 38 0b 33 ab e0 34 33
       3.3281523e-08 4.257621e-08 3.2414682e-08 4.211385e-08
000240 08 84 20 32 68 ee ff 31 01 55 86 33 d7 33 58 34
       9.343246e-09 7.4485804e-09 6.2553234e-08 2.0135427e-07
000250 64 c5 5d 32 46 85 41 32 08 46 95 33 69 11 ac 34
       1.29087745e-08 1.1264381e-08 6.951092e-08 3.2050164e-07
000260 af d1 3d 32 af 23 83 32 f1 2c b3 33 0b 2b 96 33
       1.1048924e-08 1.5266634e-08 8.343512e-08 6.992749e-08
000270 4b ca b4 33 ca d5 8b 33 ab 41 bf 32 1f 7c 85 32
       8.4187e-08 6.51158e-08 2.2265189e-08 1.5539682e-08
000280 30 ea 43 34 83 fe 14 35 9a a9 e0 32 aa 4c 02 33
       1.8245987e-07 5.550466e-07 2.6154158e-08 3.033771e-08
000290 e2 54 de 33 00 b0 3d 34 ea 66 b9 32 de 46 77 32
       1.0353121e-07 1.7666025e-07 2.1583634e-08 1.4393406e-08
0002a0 57 19 db 32 67 0f 0c 33 4c d6 d0 32 b5 c6 0b 33
       2.5506479e-08 3.26103e-08 2.4311838e-08 3.2544182e-08
0002b0 0a cf c9 32 c8 4a 4a 32 cf 2a 6b 33 4d b7 5c 33
       2.349363e-08 1.1774951e-08 5.4754135e-08 5.1389453e-08
0002c0 9a 24 70 32 5f dc 06 32 d3 cb 70 33 ab f7 59 33
       1.3978161e-08 7.849933e-09 5.606473e-08 5.0749502e-08
0002d0 f4 6e 4a 32 89 e8 e2 31 94 4a d6 33 5f 9c a1 33
       1.1783175e-08 6.603902e-09 9.978717e-08 7.5255905e-08
0002e0 ac 71 da 33 4c a5 9b 33 71 28 d9 32 b9 e1 cb 32
       1.0172093e-07 7.247817e-08 2.5280515e-08 2.3734957e-08
0002f0 57 78 3c 34 9b 92 75 34 0d 4c 04 33 aa 13 a6 32
       1.7552644e-07 2.2870738e-07 3.0802813e-08 1.9333886e-08
000300 06 12 b5 34 f5 be 39 35 f0 40 12 33 8a 0c 15 33
       3.372699e-07 6.919575e-07 3.4052334e-08 3.470317e-08
000310 da d9 ca 33 66 5b 27 33 ed 14 c4 33 b4 48 1b 33
       9.445985e-08 3.8965844e-08 9.1307676e-08 3.6154873e-08
000320 7c be 55 32 eb 54 1c 32 6d d8 e6 33 2e ae 1c 35
       1.2441543e-08 9.099703e-09 1.0749577e-07 5.8367993e-07
000330 f7 a9 73 32 9e c0 11 33 41 01 c3 33 02 b3 11 34
       1.4183107e-08 3.3935628e-08 9.080623e-08 1.35693e-07
000340 58 9b 2d 32 93 3b 35 32 b4 04 ab 33 1b bf 6b 33
       1.0105246e-08 1.0549132e-08 7.9636635e-08 5.488901e-08
000350 d5 96 9b 33 b6 1b 79 33 65 5e 43 32 0b 63 06 32
       7.245186e-08 5.8000033e-08 1.1371957e-08 7.822346e-09
000360 64 a9 f2 33 39 70 48 34 7e 05 39 32 cf 79 35 32
       1.1299815e-07 1.8667278e-07 1.0769666e-08 1.0563283e-08
000370 21 4c 07 34 0f 3c 4c 34 79 e7 1f 32 a7 33 16 32
       1.260055e-07 1.902083e-07 9.307649e-09 8.7428935e-09

exp_avg f4 [16]
000000 cd 66 11 b9 bd 06 77 39 ea 8d c7 b9 63 c6 de b9
       -0.00013866574 0.00023558266 -0.00038061972 -0.0004249095
000010 38 79 e4 b9 f2 8b 96 39 64 d9 83 b8 f3 90 19 3a
       -0.00043577864 0.00028714497 -6.287059e-05 0.0005858086
000020 a0 7b c1 39 36 e4 9e b8 89 45 8a b7 2c 3e f3 39
       0.00036903936 -7.576535e-05 -1.6483262e-05 0.00046394893
000030 77 84 fb b8 df c3 23 3a f7 e8 41 39 75 e3 ca 38
       -0.00011993286 0.00062471436 0.000184927 9.674478e-05

exp_avg_sq f4 [16]
000000 b5 da 41 34 db cd 9d 35 5c bc 17 36 63 b2 a5 35
       1.8054091e-07 1.1757323e-06 2.2610393e-06 1.2345375e-06
000010 cf 30 30 35 36 b1 61 36 48 12 58 34 be f5 38 35
       6.5636135e-07 3.3630763e-06 2.0123218e-07 6.8902943e-07
000020 e4 7c de 34 fc 17 63 34 50 fb 64 35 fc a4 1e 36
       4.1441592e-07 2.1149748e-07 8.5302327e-07 2.3639868e-06
000030 66 23 63 34 80 8c 28 36 0a ea 8a 35 b9 0b 97 35
       2.11539e-07 2.5115733e-06 1.0349916e-06 1.1253788e-06

exp_avg f4 [8, 16]
000000 88 2d 2d 37 b0 04 dd 37 80 60 95 39 fe 0a ab 39
       1.0322205e-05 2.6347436e-05 0.00028491393 0.0003262385
000010 b6 16 5e 39 53 4b df 39 d6 1c 83 37 22 82 6b b8
       0.0002118003 0.00042589995 1.5629845e-05 -5.614956e-05
000020 6d da 31 b9 20 9e b7 b8 57 f7 b1 39 06 0a 7b 39
       -0.00016961405 -8.755573e-05 0.00033944353 0.0002394096
000030 36 20 e1 38 24 83 53 39 ee 11 4d 39 08 0f 55 38
       0.00010734836 0.00020171382 0.00019557003 5.0797156e-05
000040 30 b1 76 b6 97 9d d1 38 c9 b3 93 b8 1d ea 04 39
       -3.6759993e-06 9.99525e-05 -7.042994e-05 0.00012675715
000050 8f f9 03 3a 90 73 1b 39 f8 1e 1f 39 f3 0d 5f 39
       0.00050344405 0.00014825002 0.00015174958 0.00021272134
000060 bb 25 cb 39 a5 fa 3b 38 d5 94 62 38 dc c3 39 b8
       0.0003874729 4.4817705e-05 5.402121e-05 -4.4289845e-05
000070 90 32 3d 38 aa 50 6c 39 0b 56 0b b8 dd 9f 37 39
       4.51082e-05 0.00022536764 -3.3220316e-05 0.00017511794
000080 98 e2 23 b5 a6 df 10 b7 a1 6f b3 b5 9e 64 07 b5
       -6.105197e-07 -8.635141e-06 -1.3369028e-06 -5.0437836e-07
000090 80 09 0f b5 ab 01 20 b6 f5 49 5e 31 61 ee c1 32
       -5.3285476e-07 -2.3842829e-06 3.2347292e-09 2.257656e-08
0000a0 df f0 11 b6 76 82 f9 32 e6 a5 b3 b5 7c d7 79 b4
       -2.174689e-06 2.9046742e-08 -1.3384822e-06 -2.3268325e-07
0000b0 f7 03 eb 32 79 1d be 31 3c 65 74 b3 97 40 ea b6
       2.7359404e-08 5.5330784e-09 -5.690275e-08 -6.9812627e-06
0000c0 13 f1 10 b3 50 13 05 30 c9 f7 6f b4 b2 57 ac b3
       -3.374687e-08 4.8412563e-10 -2.2348753e-07 -8.025326e-08
0000d0 1d 38 e7 b4 da e2 29 b1 26 5e aa b1 e1 7b 90 22
       -4.306793e-07 -2.4721687e-09 -4.9583546e-09 3.916244e-18
0000e0 04 00 00 80 79 a6 ef 1f 9c 95 56 b4 fa 61 e1 b1
       -6e-45 1.0149584e-19 -1.998473e-07 -6.5595005e-09
0000f0 61 89 c0 b4 8d 9f 1c b2 3a d4 83 b1 cc 83 ac 2e
       -3.5862743e-07 -9.116673e-09 -3.836729e-09 7.845066e-11
000100 88 dc 6d b5 91 78 78 38 df c1 97 b8 85 1e 37 b9
       -8.8610295e-07 5.9240094e-05 -7.2363524e-05 -0.0001746361
000110 47 2a 38 b9 54 5a 94 b9 e5 91 fb b8 fa 21 97 b7
       -0.00017563357 -0.0002829606 -0.00011995788 -1.8016424e-05
000120 94 bc 44 b8 84 df 87 b7 99 69 87 b9 d8 f5 9a b8
       -4.690567e-05 -1.6197337e-05 -0.00025827883 -7.389084e-05
000130 34 ec 69 b7 a2 2d 86 b9 26 67 c7 b6 ba 97 19 38
       -1.3942878e-05 -0.0002559247 -5.94267e-06 3.661935e-05
000140 cd 62 a4 36 f7 01 6a 38 0c 3a a3 b8 20 01 7e b9
       4.899083e-06 5.5791777e-05 -7.783258e-05 -0.00024223747
000150 0e 76 e5 b9 66 d2 4e b9 9a 4f 39 35 ee fe a9 b8
       -0.0004376624 -0.0001972407 6.9033706e-07 -8.106032e-05
000160 cc b1 55 b9 0a 9a ce 36 80 cf 07 b8 16 5a 1a b9
       -0.00020379497 6.157211e-06 -3.2379758e-05 -0.00014720144
000170 98 84 c9 b8 58 0b 53 b9 b8 3e 8a b9 ef cf 9c b8
       -9.6091244e-05 -0.00020126754 -0.0002636814 -7.47739e-05
000180 de 57 56 b4 0c 84 33 38 1d 7a 8c 36 4c 43 6e 38
       -1.9962269e-07 4.2799904e-05 4.186541e-06 5.6806297e-05
000190 84 1e 36 39 7c 5b 73 38 e4 02 ca 36 8d 1a a4 38
       0.0001736824 5.8020916e-05 6.0204056e-06 7.825075e-05
0001a0 10 91 a4 38 d0 1b bd b7 7a c6 21 b6 62 12 0e 38
       7.8471494e-05 -2.2543507e-05 -2.4106398e-06 3.387256e-05
0001b0 b8 95 b0 37 cf 44 89 38 d1 e6 55 38 5c 44 db 38
       2.1050553e-05 6.545486e-05 5.0998122e-05 0.00010455467
0001c0 86 ea b1 37 34 51 c6 38 51 f8 54 b9 2e ca 0a ba
       2.1209253e-05 9.456501e-05 -0.000203104 -0.00052944093
0001d0 c0 9b 24 ba 06 88 f7 b9 f0 89 f2 b8 48 43 5f b9
       -0.0006279312 -0.00047212857 -0.00011565152 -0.00021292001
0001e0 ea fe 1b b9 dd 30 0d b8 d5 ac 90 b9 e6 83 51 b9
       -0.00014876915 -3.3662527e-05 -0.0002759459 -0.00019980929
0001f0 db 3a af b9 42 75 e7 b9 b1 ab 39 b9 02 a7 cc b8
       -0.00033422452 -0.00044147117 -0.00017706935 -9.758586e-05

exp_avg_sq f4 [8, 16]
000000 9e 60 bf 33 e4 41 9d 35 c3 6f af 35 29 80 c4 35
       8.911705e-08 1.1716588e-06 1.3071043e-06 1.4640437e-06
000010 b0 f9 22 35 53 c0 34 36 6f 27 81 34 fb 15 64 34
       6.0713046e-07 2.6934038e-06 2.4056814e-07 2.1242151e-07
000020 63 bc 6e 35 60 77 63 34 42 0e a8 35 53 90 1e 36
       8.893605e-07 2.1184451e-07 1.2521125e-06 2.3627842e-06
000030 77 07 7f 34 14 61 6a 36 dd ad b7 35 2e 62 b5 34
       2.3751441e-07 3.4925224e-06 1.3685163e-06 3.3785312e-07
000040 c5 07 c7 33 c4 2f 17 36 c4 bb b9 35 6c 05 cb 35
       9.268073e-08 2.2528557e-06 1.3838221e-06 1.5126257e-06
000050 92 ed 50 35 b1 eb 3c 36 c6 36 3c 34 ce 33 12 34
       7.783175e-07 2.8151373e-06 1.7528791e-07 1.3616156e-07
000060 e3 98 66 35 f7 0a 25 34 b7 ff d1 35 3c 6a 2d 36
       8.5904156e-07 1.5370811e-07 1.5646136e-06 2.5840845e-06
000070 68 7b 0d 34 f1 97 7d 36 31 96 b7 35 11 a1 14 35
       1.3176543e-07 3.778838e-06 1.3678274e-06 5.536868e-07
000080 9f f1 b4 32 cd d6 0d 36 17 59 50 32 11 66 cd 32
       2.1064634e-08 2.1135668e-06 1.212745e-08 2.3911555e-08
000090 d7 d4 92 32 be a5 d4 33 15 18 03 32 37 c5 52 32
       1.7093425e-08 9.9021676e-08 7.630679e-09 1.226845e-08
0000a0 5b 35 13 32 62 0b a3 33 61 d1 1f 34 8d 3d 35 34
       8.568658e-09 7.5923495e-08 1.48842e-07 1.687933e-07
0000b0 a4 0d 10 33 f9 dc d2 32 67 15 f6 31 9c a2 67 34
       3.354002e-08 2.4547704e-08 7.1619755e-09 2.1572708e-07
0000c0 93 cf 97 31 c5 37 dc 30 a0 38 4e 31 c0 c8 8a 31
       4.418277e-09 1.6022957e-09 3.0009133e-09 4.0391512e-09
0000d0 28 7e 69 31 22 a3 61 31 d6 71 a3 30 26 e0 a9 30
       3.3977674e-09 3.283454e-09 1.1892165e-09 1.2360075e-09
0000e0 9b 56 36 33 5b 5b e8 31 7e aa 04 31 37 ae ab 30
       4.2453944e-08 6.7624746e-09 1.9305442e-09 1.2491402e-09
0000f0 ae 95 3c 30 e7 79 a1 2f 88 7f b0 32 98 e5 47 30
       6.860671e-10 2.9372346e-10 2.0547091e-08 7.272205e-10
000100 8d f3 8e 32 2f 3b ac 33 47 11 74 34 df 2a 69 34
       1.664173e-08 8.0201396e-08 2.2730556e-07 2.1715412e-07
000110 76 bd 51 34 d8 c0 20 35 b2 ce 2c 33 54 47 4f 31
       1.9533567e-07 5.988527e-07 4.023486e-08 3.016301e-09
000120 a1 7a 11 34 45 21 47 32 1d 4b fd 34 21 1b 0b 34
       1.354879e-07 1.1590889e-08 4.7179574e-07 1.2955253e-07
000130 69 1d 6c 32 42 a4 ae 35 19 71 68 33 66 eb d9 33
       1.3743695e-08 1.3011816e-06 5.411957e-08 1.0147669e-07
000140 ac bf c1 32 41 ef 07 36 35 36 37 35 00 05 06 35
       2.255532e-08 2.0255832e-06 6.8251694e-07 4.9926166e-07
000150 24 35 52 34 34 af aa 35 57 50 29 33 ab f9 58 32
       1.9577107e-07 1.2716978e-06 3.9421447e-08 1.2629623e-08
000160 0e c9 64 34 ba e5 54 33 70 05 fe 34 86 94 c4 35
       2.1307298e-07 4.956903e-08 4.7315143e-07 1.4646364e-06
000170 3c 9f de 32 93 fc b9 34 f0 e1 70 35 54 f6 b9 34
       2.5916613e-08 3.4642707e-07 8.973575e-07 3.4638163e-07
000180 ff 34 b5 2d 6b a7 2f 33 dd 48 7e 31 f1 c0 13 32
       2.0600853e-11 4.089763e-08 3.7003283e-09 8.600396e-09
000190 fd d5 bf 32 62 b4 c1 33 a9 8a 4b 31 cc 7b 2a 34
       2.2332637e-08 9.020074e-08 2.9619207e-09 1.5877521e-07
0001a0 91 01 b6 34 ec ca 2b 34 d3 c3 51 33 70 7a 98 32
       3.3901281e-07 1.5999439e-07 4.8839706e-08 1.7750807e-08
0001b0 31 3f 3e 31 8b 0c 2b 33 e1 db a2 34 97 f9 5b 33
       2.768456e-09 3.9825448e-08 3.0334834e-07 5.121691e-08
0001c0 eb 82 2a 34 90 c0 8e 36 82 ac e7 35 d3 81 01 36
       1.5880111e-07 4.254347e-06 1.7261048e-06 1.9298066e-06
0001d0 e8 39 6b 35 7c c6 43 36 09 76 94 34 38 76 c3 32
       8.7628587e-07 2.9172797e-06 2.765303e-07 2.2754747e-08
0001e0 68 35 e6 34 41 d7 f1 33 d1 d2 e1 35 da ad 3f 36
       4.2879697e-07 1.12615915e-07 1.6825162e-06 2.8562413e-06
0001f0 77 5f ce 34 8a 11 79 36 dc 2e 6c 35 96 6d 53 35
       3.843995e-07 3.71141e-06 8.798504e-07 7.8763094e-07

exp_avg f4 [8]
000000 19 e3 01 3a 64 51 bb 39 b8 23 19 b6 bd c0 0c b4
       0.00049547997 0.0003572806 -2.2819568e-06 -1.3108634e-07
000010 4b 92 91 b9 03 37 14 ba ad d5 4c 39 93 40 62 ba
       -0.00027765552 -0.00056539493 0.00019534556 -0.0008630838

exp_avg_sq f4 [8]
000000 c9 09 83 36 2e 87 99 36 84 39 00 34 ae 08 f6 32
       3.9052434e-06 4.5754923e-06 1.1941853e-07 2.8642116e-08
000010 6a 9e 4e 35 f1 d4 d6 35 27 35 14 34 c0 e3 a1 36
       7.6971503e-07 1.6006217e-06 1.3802911e-07 4.8246875e-06

exp_avg f4 [2, 8]
000000 a0 8b fe 3a be f7 53 3a 1b 92 77 35 28 ad 86 b2
       0.0019420274 0.00080859277 9.222728e-07 -1.5678395e-08
000010 cc bb b0 39 81 05 90 39 ef 48 26 39 91 db 92 3a
       0.00033709256 0.0002746992 0.00015858164 0.0011204352
000020 36 31 de ba e6 4e 14 ba 58 de 9b 35 d3 dd af 33
       -0.0016951922 -0.0005657509 1.161311e-06 8.189422e-08
000030 c5 46 ad b8 62 e0 6b b9 c4 bf 4e 39 9c 1b 76 ba
       -8.262465e-05 -0.00022494936 0.00019717129 -0.00093882694

exp_avg_sq f4 [2, 8]
000000 dc ab 17 38 55 23 ea 37 17 5d aa 35 12 29 64 34
       3.6161262e-05 2.7911427e-05 1.269308e-06 2.1249096e-07
000010 21 2f bb 35 8d 57 08 36 91 4c ef 35 18 42 82 37
       1.3946302e-06 2.031654e-06 1.7829171e-06 1.5527985e-05
000020 97 9a 39 38 03 19 28 38 c4 8c b3 35 51 2a 30 34
       4.425141e-05 4.0077615e-05 1.3377507e-06 1.6406672e-07
000030 04 7d b5 35 f6 74 f0 35 29 71 66 36 1d ca 9a 37
       1.3521935e-06 1.7915434e-06 3.4338539e-06 1.8452347e-05

exp_avg f4 [2]
000000 30 78 56 3a 73 e6 51 ba
       0.00081813615 -0.0008007057

exp_avg_sq f4 [2]
000000 80 a9 56 37 6c 92 93 37
       1.2794859e-05 1.7591949e-05

fc1.weight f4 [32, 20]
000000 b4 ad e2 be a8 42 5a 3c 7c 0a 23 3f c3 3e ad be
       -0.4427315 0.013321556 0.6368787 -0.33836946
000010 78 87 85 bf 0f c8 2f 3e fb d2 bb be 35 85 c8 3e
       -1.0431967 0.1716616 -0.36684403 0.3916413
000020 21 ab 9a 3d 9e 1c ed bd ee a8 7a 3c 83 8b b2 be
       0.075521715 -0.11577724 0.015299065 -0.34872064
000030 94 ba 2f be 5c 36 54 bd ec 48 f3 bd 1f 74 4a 3d
       -0.17161018 -0.051809654 -0.11879143 0.049427148
000040 79 2f e4 3b df 94 37 3c b5 1f 85 3d 67 9c 46 3d
       0.006963667 0.011204927 0.06500188 0.048489
000050 1e b4 ae be 87 d2 3b 3e 7a be aa bf f5 f7 04 3f
       -0.34121794 0.18342029 -1.3339379 0.5194085
000060 3c 6e 29 be 27 d2 a2 3c 64 b9 cd bd e6 78 1b 3e
       -0.16545957 0.0198756 -0.10045126 0.15182838
000070 58 59 7e bd 4e c1 8a 3e 77 a7 88 be 73 ac 9e 3c
       -0.062096924 0.27100605 -0.26690266 0.01936934
000080 64 14 5a 3d 8d bd e0 bd 65 e0 ac bc 37 b2 c1 3a
       0.053242102 -0.10973654 -0.021103093 0.0014777844
000090 ae df 61 bb 63 7e 9f 3b fd 4a 83 bc c8 d6 e5 3b
       -0.00344656 0.0048673614 -0.016026968 0.0070141293
0000a0 33 a6 ff bc f4 bf ab be 64 05 32 3f a1 05 96 bf
       -0.03120718 -0.33544886 0.69539475 -1.1720468
0000b0 c2 ef 03 3d 25 be 4a be 72 1b 9c be cb 05 da bc
       0.032211073 -0.19799097 -0.3048969 -0.02661409
0000c0 00 55 30 be b3 a3 55 be 01 c8 83 bd 63 b1 cc 3e
       -0.17219925 -0.20863228 -0.06434632 0.39979085
0000d0 9c 23 ae bd a4 fa 21 be 5c 7a c6 3c ca 40 74 3b
       -0.08502886 -0.15818268 0.024228267 0.0037270063
0000e0 ce 87 21 bc 01 ab 90 bc 94 9e 02 bb 69 89 98 bb
       -0.0098590385 -0.017659666 -0.0019930946 -0.0046550524
0000f0 09 3f 9b 3d bf 62 8c bb 8c 01 31 3e ec 5c b2 bf
       0.075803824 -0.0042842324 0.17285746 -1.3934608
000100 7d be 14 3e c0 7e 16 be 8c 0d 00 bc 14 e1 59 bd
       0.1452579 -0.14696789 -0.00781573 -0.053193167
000110 dd 36 43 3d e1 05 29 bc 24 0e b6 3d 7a 44 55 3e
       0.047659744 -0.010316343 0.08889416 0.20826903
000120 ba f9 20 3e e0 d4 e9 3c cf c3 80 3b af f0 b2 3a
       0.15720263 0.02854389 0.003929592 0.0013652052
000130 d8 a8 d5 ba 8b 2c c3 bb a4 22 84 bc 3e 98 aa 3c
       -0.001630093 -0.0059562377 -0.0161298 0.020824548
000140 50 ea db 3d b2 22 0b 3e 5d 27 14 3f d8 63 d0 be
       0.10738051 0.13587454 0.57872564 -0.40701175
000150 5a 31 81 3f 86 16 00 bf d3 00 0b 3f b1 d8 9a be
       1.0093186 -0.5003437 0.5429813 -0.30243447
000160 95 77 84 bf 18 41 6b bf b6 53 39 3e 9b 06 32 bf
       -1.0348994 -0.918962 0.1809834 -0.6954133
000170 32 5e 09 bf a6 75 be 3e 50 6f 97 3d e9 98 f3 bd
       -0.53659356 0.37199134 0.07394278 -0.118944
000180 b8 f6 83 bd 28 86 b0 bd a0 7b 78 bd b3 92 1a 3d
       -0.06443542 -0.08619338 -0.060664773 0.03773756
000190 6b b8 ec be ce 1e 2e 3c c5 c6 fc bd 03 6a 2f bf
       -0.4623445 0.010627462 -0.123426 -0.68521136
0001a0 b2 67 0c 3e 75 b9 51 bd e2 a1 ad be b9 7b 77 bd
       0.13711432 -0.051202256 -0.3391257 -0.060420725
0001b0 be f3 41 be 8f 46 09 3e 21 f2 ed be 23 f6 f8 bc
       -0.18940637 0.13405822 -0.46473792 -0.030390805
0001c0 d2 bd 51 bc 3c 13 81 be 0a bc 3a 3d 5b 44 9d bd
       -0.012801604 -0.25209987 0.045589484 -0.076790534
0001d0 2c 4d 28 bd 61 b8 d9 bc 2e db ad bd 9f 9e e2 3b
       -0.04108922 -0.026577177 -0.08489071 0.0069158818
0001e0 71 70 27 bd c7 b9 4e be d6 4d 85 bf d3 55 b4 bf
       -0.040878717 -0.20188056 -1.0414379 -1.4088691
0001f0 8f 87 85 be 48 85 13 be 08 4a a2 bd 5b da 9e bd
       -0.26079985 -0.14406312 -0.079242766 -0.07756492
000200 96 b0 18 be c1 cf a3 bd 05 b9 26 be 01 50 3b be
       -0.14911112 -0.0799861 -0.16281517 -0.18292238
000210 5e fb 81 bd f8 65 b1 3d 85 36 09 bc 70 1e d2 bc
       -0.063467726 0.08662027 -0.008374815 -0.02564928
000220 7a 1d 39 3b c7 b6 cf 3a 64 5d f6 bb 42 f0 72 bc
       0.002824633 0.0015847319 -0.0075184572 -0.01482779
000230 e9 98 27 be d4 aa 82 bd 0c ad 4a 40 a9 f4 7a 3f
       -0.16366924 -0.06380239 3.166812 0.9802957
000240 8a cd f9 3e c5 ae 31 bd bb cb 18 bd e5 66 2a 3e
       0.48789626 -0.043379564 -0.037303668 0.16640814
000250 14 10 28 3e 56 bd f4 3d 13 9d 42 3e aa 80 9c 3d
       0.16412383 0.119501755 0.19005232 0.07641728
000260 4b 55 ba bd 41 1c d3 3d bf 9b 44 3d 0a 6a ad 3a
       -0.090982996 0.103081234 0.048000094 0.0013230455
000270 02 5e 22 3b 7c 1a ae bb 0b 9f a3 bc 4d b0 9e bb
       0.0024775271 -0.005313216 -0.019973299 -0.004842794
000280 57 76 81 be c8 3b 05 3f 62 62 98 39 ec 81 e3 3e
       -0.252856 0.52044344 0.00029065 0.4443506
000290 29 18 7e 3f 9d a6 21 be a1 2d d3 be 6c 9c 93 3d
       0.99255615 -0.15786214 -0.4124575 0.072075695
0002a0 9f 89 51 be a4 4d 1a 3e 09 72 bc bd 75 99 2a bf
       -0.20462655 0.1506868 -0.09201438 -0.66640407
0002b0 c0 34 77 3e 7f 23 c7 3d 3f 32 a5 3c 01 ef ab bd
       0.24141216 0.09723567 0.02016556 -0.08395196
0002c0 db 80 87 bc 52 73 80 bd 6f 82 e9 bd 60 91 4a 3d
       -0.016540935 -0.062719956 -0.11401831 0.049455047
0002d0 fe 78 be 3e de 4c 53 bd d2 bc a4 be 5a cb 98 bf
       0.37201685 -0.05158698 -0.32175308 -1.1937058
0002e0 98 68 1d be b9 c1 ad be 36 f6 59 3e fe 1a a5 3d
       -0.1537193 -0.3393686 0.21285328 0.08061789
0002f0 eb 0e 0e bc 31 db c7 bb ec e7 80 3e 82 9d a6 bd
       -0.008670549 -0.0060991277 0.25176942 -0.08135511
000300 7d f2 30 be b1 61 12 be 6c 63 4f bc 38 43 a3 bc
       -0.17280002 -0.14295079 -0.012657981 -0.019929513
000310 60 41 88 3b 8f df 80 3b 8e ac 3f 3c f3 8d 35 3b
       0.004158184 0.0039329003 0.011698855 0.0027703017
000320 c2 c2 08 be 71 0d 45 bd ef 2f 42 3f 12 7b 84 be
       -0.13355544 -0.04810852 0.7585439 -0.25875145
000330 ea 59 c2 3c e6 05 54 3d 37 a3 d4 bd ec a6 5e 3e
       0.023724515 0.051763438 -0.10382693 0.21743363
000340 a8 8d 84 3e 19 da 2f 3e 49 c6 8a be c8 d1 90 be
       0.25889325 0.17173041 -0.27104405 -0.2828505
000350 7f 8e a6 bb 6f 7f 17 3e 9e 5c a4 3b 7d 90 24 bc
       -0.005082905 0.14794706 0.0050159236 -0.010044214
000360 fd 2d a2 3c 5e 35 d5 3c 19 be 76 bc 3f a5 b8 bc
       0.01979732 0.026026424 -0.015059971 -0.022539733
000370 6e 89 c8 3e 50 40 cf 3c 22 53 24 40 40 1f 01 bf
       0.3916735 0.025299221 2.567574 -0.5043831
000380 b1 42 9b 3e 25 0a c6 bd 56 fe 9f 3c 10 33 c2 bc
       0.3032432 -0.09669904 0.019530457 -0.02370599
000390 19 b8 6c 3d a0 ee 0f 3e 49 0b c3 3d d7 d0 f9 3d
       0.057792757 0.14055872 0.09523637 0.12198036
0003a0 f8 0c 70 3e 57 a1 e9 bc ac f1 dd 3c 0b d8 05 bc
       0.23442447 -0.028519316 0.027092777 -0.008169184
0003b0 da e0 0b 3c 10 50 d5 3a bf ec 01 bb a1 45 7b bc
       0.0085374955 0.0016274471 -0.001982495 -0.015336425
0003c0 96 06 f5 bd ff 03 ed 3d d9 2e 8a bf 21 0d 04 3f
       -0.11964147 0.11573028 -1.0795547 0.51582533
0003d0 67 33 cc bd 0f f4 49 3d 4a 76 4f bb cc ba ed 3c
       -0.09970742 0.049305018 -0.00316562 0.029019736
0003e0 8e af f4 3d 29 59 3a 3e 72 fc 09 be f5 82 0c b8
       0.11947547 0.18198074 -0.13475206 -3.3500564e-05
0003f0 86 f4 b1 3d f2 db 31 3e 03 f2 03 bc a3 61 15 3d
       0.08689217 0.17369059 -0.008053306 0.036470067

fc1.bias f4 [32]
000000 c3 c4 75 3e 71 29 11 bf 1e 61 fa be 82 6e ac be
       0.2400084 -0.5670386 -0.4890222 -0.3367806
000010 47 0e 97 3e 86 85 8d 3f c3 97 76 bf ee 26 1d bf
       0.2950308 1.1056373 -0.9632532 -0.61387527
000020 1a 6d a3 bf bd 13 f0 be 90 69 71 3f 4c 9d 99 be
       -1.276767 -0.4689006 0.943017 -0.3000282
000030 00 ba b2 bd 4a e9 fd be db e9 a0 bf 94 13 13 bf
       -0.08726883 -0.49592048 -1.2571367 -0.5745175
000040 f2 19 25 3f f4 1f be bf 4a 26 ee 3f 97 b9 26 bf
       0.64492714 -1.4853501 1.8605435 -0.6512694
000050 af 58 8e bf 43 06 48 be a1 cb 46 3e 6c 11 21 bf
       -1.1120814 -0.19533639 0.19413616 -0.6291721
000060 fc a5 f5 bd 38 81 96 be fd 99 44 bf bc 38 2f 3f
       -0.1199455 -0.2939546 -0.7679747 0.68445945
000070 3a 64 8a bf 58 e4 b8 be 8d d0 3c 3c 2f be 51 be
       -1.0811837 -0.36111712 0.011524332 -0.20482706

fc2.weight f4 [16, 32]
000000 bf da 7b bd d0 55 14 3f f8 e7 fe 3d 4d f2 06 3f
       -0.06148791 0.5794344 0.12446588 0.5271347
000010 e4 5e 14 3d 90 e3 c3 3d dc 35 84 3f 37 26 4d 3f
       0.036223307 0.095648885 1.0328937 0.80136436
000020 05 7f f1 bc a0 97 ad 3e 28 f3 33 be 7a ca 19 3f
       -0.029479513 0.33904743 -0.17573225 0.6007458
000030 5d 17 11 3e f2 a8 da 3e 82 a5 78 3f 8f 81 2d 3f
       0.14169069 0.4270702 0.97127545 0.67775816
000040 03 00 70 3d 5d e7 8f 3f d7 88 0a 3e 90 4a b2 3e
       0.05859376 1.1242481 0.13528763 0.34822512
000050 67 b8 48 3f 75 a5 f5 3e ec 5c 24 3c f9 a5 46 3f
       0.78406376 0.47977796 0.01003192 0.77597004
000060 b0 99 64 3d 09 e6 d4 3e 46 1f 8d 3f 02 10 8d bd
       0.05581063 0.41581753 1.1025169 -0.06887819
000070 66 39 54 3f 50 67 25 bd d0 2a 24 bd f7 a2 2a 3f
       0.82900083 -0.04038173 -0.04007989 0.66654915
000080 98 d0 87 bd 52 39 39 3f e9 f5 da 3e 90 30 2b 3f
       -0.06631583 0.7235309 0.4276574 0.66870975
000090 ad 75 a3 bd 13 9e af bc 44 e8 8d 3f d8 62 8e 3f
       -0.07981429 -0.02143768 1.1086507 1.1123915
0000a0 f3 04 48 3e b6 98 13 3f a6 a0 d5 3b 91 d3 1e 3f
       0.19533138 0.57654893 0.006519395 0.62041575
0000b0 ec b4 42 3d 28 91 f3 3e 96 3c 41 3f c1 d9 5d 3f
       0.04753582 0.47571683 0.7548307 0.8666039
0000c0 1c d3 53 bd 36 60 a7 3f b4 c8 ad bd 65 eb 2a 3e
       -0.051715 1.3076236 -0.08485547 0.16691358
0000d0 a7 9c 69 3f f9 80 25 3f 2d e2 7a 3e 01 c5 53 3f
       0.9125466 0.6464992 0.24500342 0.8272248
0000e0 a0 af a9 3d 3d f8 e1 3e eb fd a9 3f 8d 16 7e 3b
       0.08285451 0.44134703 1.3280615 0.0038770766
0000f0 87 7a 49 3f 45 c0 11 3d 36 52 f2 bc 18 ef 50 3f
       0.78702587 0.035583753 -0.029580217 0.8161483
000100 fb 11 27 3d dc d1 63 3d 24 bd 4b be 3c d5 6d 3d
       0.040788632 0.05562006 -0.1989637 0.058064684
000110 3d aa 6e bd e6 b3 89 bd 7c 84 44 3d c3 99 3c bc
       -0.05826782 -0.06723766 0.04797791 -0.011511269
000120 15 7a 26 a9 4e d8 f0 3c 7a 14 86 ba 6b 18 99 3a
       -3.6965294e-14 0.029400017 -0.0010229491 0.0011680251
000130 aa 73 1c 3d 07 02 7e bb 06 1f a6 b5 16 b3 ce bd
       0.038196243 -0.0038758533 -1.2376993e-06 -0.10092752
000140 b5 4a da ba 45 5d 28 bd 14 70 85 bd 16 c1 2f be
       -0.0016654345 -0.041104574 -0.06515518 -0.171635
000150 2b 8e e9 bd 59 c5 38 bc d4 bf d1 bd a4 27 e2 bd
       -0.114040695 -0.01127752 -0.102416664 -0.11042717
000160 82 9d cf bc ae 98 09 be 23 e5 3a 3d 68 19 a7 bd
       -0.02534366 -0.13437149 0.045628678 -0.08159143
000170 2b 04 06 bd 18 f8 4f bd 78 c4 15 be 6a 4e 8b 3c
       -0.03271882 -0.05077371 -0.14625728 0.017005164
000180 07 3a 9d bc 2f 53 1b bd a7 fb 8c bd cb 3b 35 3d
       -0.019192709 -0.037921127 -0.068839364 0.044246476
000190 ed d3 7c bd e6 cf 95 bd d8 e6 7b bc be 1b 58 bd
       -0.061725546 -0.07315044 -0.015374862 -0.052760832
0001a0 45 4a 15 b9 5f e6 0c bd 4b b6 5a be 1a 4b 51 bd
       -0.00014237415 -0.034399386 -0.21358602 -0.051097013
0001b0 7b 65 9c bd 10 e6 12 bd 84 44 01 36 d5 db 65 3d
       -0.07636543 -0.035863936 1.926238e-06 0.05611785
0001c0 f5 a9 81 bd 00 6b e7 bb ca 6a 5a be a5 ac 08 3d
       -0.06331245 -0.007062316 -0.213298 0.03336777
0001d0 d4 f8 b8 3b 9f b0 00 be 5f 19 23 bd 92 50 18 3b
       0.005644897 -0.12567376 -0.039819118 0.0023241383
0001e0 a1 93 14 bd c9 f2 00 bc d8 19 72 bb e9 ba 66 bd
       -0.036273602 -0.0078703845 -0.0036941674 -0.056330595
0001f0 38 86 82 bc 77 0c 02 bd c4 74 64 bd c4 97 a2 bd
       -0.015933141 -0.03175017 -0.05577542 -0.07939103
000200 66 06 f2 bc 89 08 d0 3b 46 f7 d0 3c 33 0c 4c bd
       -0.029544067 0.0063486737 0.025508534 -0.04981632
000210 5e 23 35 b7 90 91 bf bb 7c ad dc 39 9c ef c8 39
       -1.0796675e-05 -0.00584621 0.00042090926 0.00038325496
000220 72 6d 7e 01 c0 7c 04 bb 74 57 f5 bc 88 35 b7 b9
       4.6730955e-38 -0.0020215958 -0.029948927 -0.00034944364
000230 19 01 d3 ba 14 bf e0 b8 bd 5c 29 00 02 6a 12 be
       -0.001609835 -0.000107167434 3.798524e-39 -0.14298251
000240 b6 f5 38 b8 26 4b ae b9 3a f9 92 bc a0 1e 96 bc
       -4.4097855e-05 -0.00033243856 -0.017941106 -0.01832515
000250 53 ce 1b 3c 55 ab ad 3a 5f ee 63 3b b0 2a e0 ba
       0.009509641 0.0013249913 0.0034779531 -0.0017102566
000260 29 ce 01 bc 9d 44 a9 bd a7 b0 24 b9 0a 94 d3 bb
       -0.007922688 -0.0826504 -0.00015706067 -0.0064568566
000270 3e c0 10 39 da 11 92 3c 39 2e f5 3b 2e 3a a1 bd
       0.00013804526 0.017830778 0.007482317 -0.07872425
000280 e2 21 36 bf 6d 8e 52 3f 91 9f 86 3d 87 d4 14 3e
       -0.7114545 0.82248574 0.065734036 0.14534198
000290 df 03 a3 be df a4 16 bf 34 0b 6b 3f 94 dc 78 3f
       -0.3183889 -0.58845323 0.9181397 0.97211576
0002a0 71 63 23 3e 66 2a f9 3c 17 00 cb be 0b c0 bf 3e
       0.15955903 0.030415725 -0.39648506 0.37451205
0002b0 0e 40 a4 3e 9f 8d 30 3f 70 92 76 3f f6 e0 b0 3e
       0.3208012 0.68966097 0.96317196 0.34546632
0002c0 12 ea 0e be 2d 06 82 3f 14 2c a5 be 97 3a cc 3e
       -0.13956478 1.0158135 -0.3226019 0.3988845
0002d0 bd 9a 27 3f 68 7c c7 3e 3d 7b 2d bf 9d a4 0b 3f
       0.65470487 0.38962102 -0.6776617 0.54548055
0002e0 ff 3b 1c bf d3 56 09 3f 66 76 32 3f b8 59 91 bf
       -0.61029047 0.5364811 0.6971191 -1.1355505
0002f0 c8 f7 17 3f 5d 94 70 3e 30 69 16 3d dc 6f 1f 3e
       0.5936246 0.23494096 0.03672141 0.15570015
000300 54 a1 9e 3d af 63 82 3f 0f 3a 14 3f f3 cf 99 bd
       0.07745615 1.0186671 0.5790109 -0.07510366
000310 a1 32 c2 be b5 55 e3 be 98 4c 91 3f 1c 6a 9e 3e
       -0.37929252 -0.44401327 1.13515 0.3094033
000320 55 19 e5 3e 2f d1 c7 3e 53 76 15 bf a0 a1 82 3e
       0.4474589 0.39026782 -0.58383673 0.25513935
000330 57 44 85 3e 32 f7 32 3f 68 f3 8a 3f e2 6e ee 3e
       0.26028702 0.6990844 1.0855532 0.46568972
000340 a7 cc e6 be 37 5e 96 3f 3a 6e 70 bf 85 07 ec 3e
       -0.45078012 1.1747502 -0.9391819 0.46099487
000350 13 a3 6d 3f 08 39 9f 3e 28 0c 5a be 57 ee ab 3e
       0.92826957 0.310982 -0.212937 0.33580276
000360 e4 68 08 bf 89 df ab 3e 9f 47 a9 3e 14 6f ae be
       -0.5328505 0.3356898 0.33062455 -0.3406912
000370 00 e8 a3 3e a3 6c c2 3e 91 0d 5a be ff 00 44 3e
       0.3201294 0.37973508 -0.21294238 0.19141005
000380 00 ec 87 be 4e e8 50 3f 53 aa a5 3e 53 26 29 3e
       -0.2654724 0.8160447 0.3235651 0.16518526
000390 8b b1 f9 be 67 5b 82 bd 9a fa 69 3f f8 87 35 3e
       -0.48768267 -0.0636509 0.9139801 0.17727649
0003a0 94 55 06 3f 65 65 a1 3e 4b 1b 03 bf 84 b0 41 3d
       0.5247433 0.3152267 -0.5121352 0.04728748
0003b0 04 ef a3 3e 72 4c 19 3f fd d2 8d 3f 4f 3b e7 3e
       0.32018292 0.5988227 1.1080014 0.45162436
0003c0 72 ce 66 be 96 79 b3 3f 7a 9b ed be ab 01 0e 3f
       -0.2253969 1.402148 -0.46407682 0.55471295
0003d0 0f 04 81 3f 2b 7f 44 3e da 95 ab bd 22 1a 26 3f
       1.0079364 0.19189136 -0.08378191 0.64883626
0003e0 75 2c aa be 25 23 b8 3e df 05 3d 3e 43 30 89 be
       -0.33237043 0.35964313 0.18459271 -0.26794633
0003f0 ac 08 17 3e 9b 87 23 3e 8f 95 da bd 97 02 a8 3e
       0.14749402 0.15969698 -0.10673057 0.32814476

fc2.bias f4 [16]
000000 2b d3 84 3e a4 66 73 3e 5a 9c 0e 3d f4 74 92 bd
       0.25942358 0.23769623 0.034817077 -0.07151213
000010 be 52 35 bd b4 54 24 bf 4f 5c 9b bf 9a 25 36 bf
       -0.044268362 -0.64191747 -1.2137545 -0.71151125
000020 55 58 b1 be 9b 3b 4e be cc d0 82 3c 78 48 82 3e
       -0.34637704 -0.20139925 0.015968703 0.25445914
000030 b3 b9 6c 3d de 48 4e bd 64 e5 c9 3d 7d 97 24 be
       0.057794284 -0.05036246 0.09858206 -0.16073413

fc3.weight f4 [1, 16]
000000 37 20 0f bf c5 7d 22 bf c9 92 d5 3d 63 19 a5 bd
       -0.5590853 -0.6347316 0.10428388 -0.08061483
000010 20 ac 03 3b cd 0a 78 bf cf 10 a1 bf 63 7a 4e bf
       0.0020091608 -0.9689148 -1.2583255 -0.806555
000020 55 19 78 bf 70 7e c3 3d 9b ae b5 3d b3 3e 0a bf
       -0.96913654 0.095456004 0.08871194 -0.5400192
000030 d8 d2 e2 3d 06 62 f0 3d 9b ee 49 bf 0c 01 1c bf
       0.110753715 0.117374465 -0.7887971 -0.609391
