DRL-course/MADDPG/model_dir/episode-2000.pt (torch_old, 71167 bytes, 99 tensors)

fc1.weight f4 [16, 14]
-0.08629892 -0.0973977 -0.30961752 0.10409374 -0.08457797 0.24268098 0.011474925 0.07097303
0.2878553 -0.16712123 0.050125238 0.043229517 0.22439964 -0.07179945 0.5143888 0.65571123
0.60870767 0.8914329 -0.47197953 0.37074727 0.0321615 0.13585225 0.14227678 0.1841735
0.14182082 0.12333151 0.16846555 0.32038623 -0.5422539 0.5184454 -0.075657256 0.4188877
-0.1132367 -0.5715461 -0.105905786 -0.16473599 0.036552273 -0.16946632 0.30070427 -0.13362171
0.06954222 0.31027466 -0.1812294 0.3686675 -0.5617772 0.40327606 -0.09204215 -0.35000065
0.088774994 -0.10172612 -0.47645196 -0.38402432 0.1953318 -0.115594216 0.06598554 0.2688895
-0.3818239 0.15270329 -0.2834373 0.3395093 0.016553612 -0.24388264 0.2907209 0.02373077
-0.1313643 -0.37819678 0.07477936 -0.027848862 -0.21860139 -0.295585 0.003671987 0.294899
-0.13844787 0.34023085 0.293331 -0.38125914 0.4431812 -0.053261034 0.03478246 -0.16813168
0.1282564 -0.15328453 0.19634472 0.15071909 -0.079429455 0.33183777 -0.59062755 0.5256263
0.043342948 -0.15709926 0.5055985 -0.15927611 0.044553973 0.39829668 -0.07935569 -0.13455062
0.009270441 -0.51787645 0.26702356 -1.1396283 0.53564364 -1.1378505 0.12162523 -0.38704756
0.15031475 -0.05875345 0.000652174 0.23581862 0.20023213 0.070609525 0.04085514 0.3306586
0.77696854 -1.1630193 0.69504035 -0.5908588 0.20611764 -0.4459687 -0.3318659 -0.3568833
-0.3566152 -0.36631286 -0.28767776 0.2621718 -0.20302665 0.15774049 0.13348797 -0.7421587
0.45910567 -0.31958023 -0.2551959 0.37433347 0.3851416 0.13200761 0.14074598 0.20244215
0.3774983 0.053940512 0.21862838 0.10608846 -0.26878086 0.16443253 -0.22095156 0.23355165
-0.17668736 -0.52883667 0.3736546 -0.088381775 0.3001655 0.119217016 0.12829407 0.07269828
0.00017886068 0.2287105 -0.26253328 -0.036179364 -0.15542059 -0.1676484 -0.68325627 0.3914237
0.030844312 0.44785324 -0.1146089 0.91454303 0.07362674 0.026214331 -0.5316568 0.1479335
-0.4978822 -0.21367255 -0.49295694 0.004721928 0.29224294 0.024428427 0.3096288 0.007893953
0.33234507 -0.32692143 -0.1495621 0.07511784 -0.108415924 -0.35048723 -0.39518553 -0.3035786
-0.50105035 -0.14695871 -0.535174 0.4721847 0.2449865 -0.7552612 0.36001858 -0.4980502
-0.1388466 0.2081014 0.3662941 -0.0010544832 0.47024882 -0.57384855 0.70726466 -0.85279495
0.019754443 -0.31400922 -0.39587694 0.05035453 -0.38337642 0.12259738 -0.25021985 -0.05431609
-0.101157315 0.10114379 0.5899508 0.15900925 0.25803113 0.27371174 0.14300719 0.3478752
0.1505459 -0.17121421 -0.1584048 0.38890177 -0.17365383 -0.08731532 -0.23957421 -1.0250084
00000000: 7dbd b0bd 7278 c7bd 3086 9ebe 192f d53d
00000010: 3737 adbd 5d81 783e 5301 3c3c 4f5a 913d
00000020: c561 933e d421 2bbe 1f50 4d3d 6f11 313d
00000030: 05c9 653e 970b 93bd fcae 033f b1dc 273f
00000040: 44d4 1b3f f234 643f 4da7 f1be 96d2 bd3e
00000050: c7bb 033d da1c 0b3e 01b1 113e fa97 3c3e
00000060: 7a39 113e 3b95 fc3d 3c82 2c3e aa09 a43e
00000070: 27d1 0abf d6b8 043f 31f2 9abd 7378 d63e
00000080: a5e8 e7bd d850 12bf 22e5 d8bd 8db0 28be
00000090: d6b7 153d 9488 2dbe e9f5 993e 21d4 08be
000000a0: 276c 8e3d 52dc 9e3e 3394 39be fdc1 bc3e
000000b0: a1d0 0fbf 337a ce3e 9880 bcbd 4933 b3be
000000c0: aacf b53d c955 d0bd 83f1 f3be d69e c4be
000000d0: 0f05 483e a9bc ecbd 6d23 873d e2ab 893e
000000e0: 6c7e c3be 405e 1c3e b21e 91be 2ad4 ad3e
000000f0: 719b 873c 5fbc 79be 5fd9 943e 0867 c23c
00000100: 5d84 06be 02a3 c1be ec25 993d 4c23 e4bc
00000110: 0bd9 5fbe eb56 97be b8a5 703b 00fd 963e
00000120: 47c5 0dbe bd32 ae3e 7b2f 963e 6634 c3be
00000130: a5e8 e23e 3e28 5abd 0e78 0e3d b62a 2cbe
00000140: a555 033e 9ff6 1cbe 970e 493e 1b56 1a3e
00000150: e9ab a2bd a4e6 a93e 5e33 17bf 728f 063f
00000160: 6088 313d a1de 20be e76e 013f 4719 23be
00000170: 3a7e 363d 8bed cb3e 3c85 a2bd a3c7 09be
00000180: 0ce3 173c 8d93 04bf 50b7 883e 57df 91bf
00000190: f11f 093f 16a5 91bf a616 f93d 192b c6be
000001a0: 1cec 193e 75a7 70bd a8f6 2a3a 707a 713e
000001b0: a709 4d3e ba9b 903d b857 273d 164c a93e
000001c0: 69e7 463f d1dd 94bf 2aee 313f 8642 17bf
000001d0: 8110 533e 0256 e4be 54ea a9be 68b9 b6be
000001e0: 4496 b6be 5c8d bbbe 804a 93be 623b 863e
000001f0: 38e6 4fbe b986 213e 12b1 083e 1dfe 3dbf
00000200: e60f eb3e 05a0 a3be 09a9 82be a3a8 bf3e
00000210: 4831 c53e 012d 073e b71f 103e ff4c 4f3e
00000220: 7547 c13e baf0 5c3d 1ee0 5f3e e844 d93d
00000230: a59d 89be 0061 283e 2041 62be 2a28 6f3e
00000240: 88ed 34be d761 07bf a84f bf3e 8101 b5bd
00000250: 4baf 993e 0d28 f43d 855f 033e d6e2 943d
00000260: 8c8c 3b39 1633 6a3e c36a 86be d030 14bd
00000270: 9326 1fbe 06ac 2bbe e2e9 2ebf b068 c83e
00000280: 36ad fc3c 054d e53e 12b8 eabd 7e1f 6a3f
00000290: 9ec9 963d 70bf d63c a91a 08bf e17b 173e
000002a0: 6aea febe facc 5abe da64 fcbe 67ba 9a3b
000002b0: dea0 953e 201e c83c ab87 9e3e a355 013c
000002c0: 2229 aa3e 3f62 a7be cf26 19be 62d7 993d
000002d0: 2b09 debd 1073 b3be c255 cabe a76e 9bbe
000002e0: d644 00bf 587c 16be 2a01 09bf 31c2 f13e
000002f0: bedd 7a3e cc58 41bf 5b54 b83e 7000 ffbe
00000300: ce2d 0ebe 8918 553e e68a bb3e 9636 8aba
00000310: 74c4 f03e bde7 12bf 4c0f 353f c550 5abf
00000320: 12d4 a13c d1c5 a0be 62b0 cabe 8d40 4e3d
00000330: ea49 c4be 5614 fb3d d11c 80be 8c7a 5ebd
00000340: 912b cfbd 7a24 cf3d 0407 173f 52d3 223e
00000350: a81c 843e f223 8c3e 7a70 123e b31c b23e
00000360: b428 1a3e c752 2fbe de34 22be 221e c73e
00000370: 4fd2 31be 60d2 b2bd f152 75be 7a33 83bf

fc1.bias f4 [16]
-0.12771203 0.099676415 0.46634978 0.6673187 0.3739539 0.2591613 0.2028187 -0.12205935
0.05588527 -0.26190168 0.25518146 0.65358883 -0.25831994 0.33130395 0.007576847 -0.31968075
00000000: f1c6 02be 2623 cc3d 66c5 ee3e 66d5 2a3f
00000010: e376 bf3e cab0 843e b5af 4f3e 41fa f9bd
00000020: f4e7 643d fa17 86be 25a7 823e 9951 273f
00000030: 8342 84be aca0 a93e 3347 f83b 32ad a3be

fc2.weight f4 [8, 16]
-0.2863191 -0.6374177 -0.056684706 -0.05961273 -0.23531702 -0.31353515 -0.15858303 0.4200281
-0.15527238 0.39853236 -0.0529925 0.23757017 -0.0350356 0.497348 -0.04123182 -0.49538863
0.010612164 0.54709256 -0.22972696 -0.28416938 0.15134527 0.18445504 -0.21789922 -0.0440911
-0.09067275 -0.09126683 0.14323983 -0.24915114 0.18422095 -0.07477901 -0.108573094 0.09080434
0.039532688 0.38852382 -0.41696003 -0.4963744 -0.21995577 0.032275047 -0.267685 -0.2282421
-0.39213213 0.4680452 0.23538585 0.18570584 -0.08201078 -0.0015342023 -0.5999513 0.24953605
-0.19360018 -0.20091549 0.1089884 -0.0014081018 0.051746093 -0.042333998 0.09493982 -0.38322005
-0.19391656 -0.22168045 -0.09100938 -0.21697873 -0.0010558799 -0.20835003 -0.12242704 -0.23539191
-0.17269787 -0.40341473 -0.12857683 0.29846328 -0.052684005 0.07738048 0.00042165507 -0.03636307
-0.38810453 -0.2092807 0.13029902 -0.2524661 -0.071653925 0.25170323 -0.12827456 0.07162902
-0.15494908 0.07327115 0.16690823 0.19542001 0.096056454 0.034370065 0.0091411155 -0.6818949
-0.40600264 -0.10174801 0.103042044 0.14691408 0.22179249 -0.08456841 -0.33982223 0.05456701
0.037974335 -0.94420654 -0.20639604 -0.29289836 -0.14304855 0.030884888 -0.493572 0.6446707
0.6046269 0.181575 0.0058306875 -1.5217218 -0.022335235 -1.6722386 0.6417855 0.13192034
-0.031771597 0.062152117 0.36247602 0.41859663 0.30464065 0.18263373 0.328255 -0.4013835
-0.29520297 -0.22610435 0.23747158 0.07215894 0.20677494 0.14841098 -0.34979105 -0.00037416402
00000000: 6b98 92be ce2d 23bf 392e 68bd 7a2c 74bd
00000010: f2f6 70be ae87 a0be 9763 22be ec0d d73e
00000020: b9ff 1ebe 6f0c cc3e aa0e 59bd 9845 733e
00000030: 7d81 0fbd 66a4 fe3e b2e2 28bd 94a3 fdbe
00000040: a4de 2d3c 420e 0c3f 8b3d 6bbe a67e 91be
00000050: 41fa 1a3e c8e1 3c3e f920 5fbe df98 34bd
00000060: a2b2 b9bd 1bea babd 76ad 123e 7a21 7fbe
00000070: 6ba4 3c3e bd25 99bd 925b debd a0f7 b93d
00000080: 07ed 213d 98ec c63e c97b d5be c924 febe
00000090: 163c 61be d732 043d 020e 89be 4cb8 69be
000000a0: 8bc5 c8be 9fa3 ef3e fd08 713e ac29 3e3e
000000b0: 45f5 a7bd 4917 c9ba 6996 19bf 6186 7f3e
000000c0: 203f 46be cabc 4dbe 4f35 df3d 0e90 b8ba
000000d0: b6f3 533d 6a66 2dbd cf6f c23d 6b35 c4be
000000e0: 1092 46be 3300 63be 2063 babd ac2f 5ebe
000000f0: 7365 8aba b659 55be 07bb fabd 940a 71be
00000100: b6d7 30be 608c cebe a5a9 03be 2ed0 983e
00000110: 2fcb 57bd a879 9e3d 9611 dd39 71f1 14bd
00000120: a3b5 c6be ae4d 56be 1b6d 053e 3d43 81be
00000130: 4bbf 92bd 3fdf 803e 685a 03be 3cb2 923d
00000140: f9aa 1ebe 2f0f 963d fee9 2a3e 2f1c 483e
00000150: 3fb9 c43d a0c7 0c3d 9ec4 153c aa90 2ebf
00000160: 94df cfbe 4361 d0bd b507 d33d a570 163e
00000170: 921d 633e 3432 adbd 2efd adbe a881 5f3d
00000180: fa8a 1b3d 85b7 71bf 7c59 53be c6f6 95be
00000190: 527b 12be 4e02 fd3c 78b5 fcbe 2409 253f
000001a0: d4c8 1a3f ccee 393e 5a0f bf3b c8c7 c2bf
000001b0: 62f8 b6bc ea0b d6bf 0e4c 243f 2016 073e
000001c0: ef22 02bd 3893 7e3d 7596 b93e 4c52 d63e
000001d0: dcf9 9b3e 5604 3b3e 0a11 a83e 2382 cdbe
000001e0: d824 97be e687 67be c02b 733e 11c8 933d
000001f0: cfbc 533e 0cf9 173e d017 b3be 722b c4b9

fc2.bias f4 [8]
0.33475655 -0.15722413 -0.2602623 -0.084477104 -0.025572795 0.31883815 0.26703426 0.25712946
00000000: 3665 ab3e 5dff 20be 1a41 85be 5502 adbd
00000010: 0a7e d1bc c13e a33e b7b8 883e 79a6 833e

fc3.weight f4 [2, 8]
-0.38983262 0.3192548 0.42523596 0.11851353 -0.13558587 -0.40459892 0.50817025 -0.37746027
-0.33391726 0.17556646 0.017563846 0.019320425 0.101359494 0.12911965 -0.4652774 0.3576217
00000000: 2498 c7be 5d75 a33e 87b8 d93e 39b7 f23d
00000010: 06d7 0abe 9727 cfbe 7217 023f 7942 c1be
00000020: 34f7 aabe b2c7 333e 0ee2 8f3c de45 9e3c
00000030: 9195 cf3d f137 043e d738 eebe 311a b73e

fc3.bias f4 [2]
-0.14157411 -0.24919835
00000000: cef8 10be da2d 7fbe

exp_avg f4 [16, 14]
6.7190804e-06 -2.450036e-05 1.3619615e-05 -2.9236231e-05 1.3764226e-05 -2.4979793e-06 1.976942e-05 1.0674565e-05
-5.844813e-06 2.0436519e-06 5.5533983e-06 -4.711971e-06 -2.7820256e-06 -1.1697151e-05 -0.0004539466 -0.00024633147
-0.00044414127 -0.00018930601 9.102901e-05 -6.9033235e-06 -6.8578855e-05 4.97617e-05 -9.642596e-06 -3.0023186e-05
-0.00018307086 -4.9576338e-05 -9.0020785e-06 -9.256727e-05 0.0005658373 0.0003002865 0.00046386587 0.00044280838
-0.00013895678 -7.46542e-05 0.00040674012 0.0006217662 -2.210347e-05 0.00012191586 0.00054382463 0.0007220859
3.314468e-05 0.00017861456 0.00048037095 0.00034099707 0.00055402506 0.00039168354 -0.0001431221 -5.995524e-05
0.0003928839 0.0006181489 -1.4349656e-05 0.00012063825 0.00068482454 0.00052457716 5.3025084e-05 0.00017978819
0.00016786689 9.431304e-05 0.00014946907 0.00014739542 -7.5294134e-05 -2.7931543e-05 0.00029501494 0.00035745956
1.3692407e-05 3.990784e-05 0.0003490038 0.00020124424 1.9195562e-05 5.7812365e-05 -6.9258946e-05 3.2806463e-05
-0.00011251342 4.912448e-05 -1.2389783e-05 -5.9709413e-07 6.702164e-05 0.00020880651 4.6347755e-06 -8.4701173e-07
1.3767697e-05 0.00022346666 5.757721e-06 1.4834172e-05 0.0001904259 7.551347e-05 0.00018528507 0.00011588147
-7.768211e-05 -2.7116872e-05 0.0002759634 0.00019392402 1.2793371e-05 2.2578872e-05 0.00025697588 5.354159e-05
-1.941417e-05 5.3389373e-05 -0.000305965 -2.0687237e-05 -0.0002470087 -9.615731e-05 3.6194648e-05 4.9640934e-05
-0.00039507652 2.0137093e-05 5.318188e-05 3.7637103e-05 -0.0005342795 -0.0003289721 4.1275467e-05 -5.3274245e-05
5.1941697e-06 1.1590478e-05 -7.910094e-05 -2.5399633e-05 -2.2183023e-05 4.72827e-05 0.00011934189 0.000247474
4.6664743e-05 2.6876736e-05 3.934756e-07 -7.563944e-05 4.779412e-05 -2.2834867e-05 -0.0002642451 -8.997373e-06
-0.00013814644 -7.922498e-05 3.1579697e-05 2.2102788e-05 -0.0003383088 -0.00020163524 -2.4051975e-05 2.941586e-06
-0.00046089664 -0.00023367672 -3.7587615e-05 -3.0455001e-05 -5.1308485e-05 4.20797e-05 -8.0876984e-05 5.5525474e-05
-3.9791816e-05 -3.085621e-06 5.0419745e-05 0.00026678212 -7.085727e-06 2.2128732e-05 1.7839002e-06 0.00026854643
-6.4054184e-06 2.8750565e-05 0.00019893856 0.00022760646 0.00019734976 0.00028269933 1.4277648e-05 -0.00010135685
0.00028305774 -0.00018511737 -3.5788024e-05 1.657402e-05 0.0002321385 0.00019176767 -8.499322e-05 2.5951198e-05
-1.2109655e-05 2.272041e-05 -7.721055e-06 3.7229907e-05 -8.893671e-06 -9.578373e-07 7.953446e-05 5.2462157e-05
1.5031003e-05 9.878921e-06 -1.0000018e-05 1.2905939e-06 -3.5438165e-07 -3.0200254e-06 -0.00020980817 4.9858692e-05
-9.784565e-05 0.00014488725 3.3823202e-05 -2.5527972e-05 -0.00024213565 3.3036158e-06 -3.1326923e-05 -9.8385435e-06
0.00020929378 -0.00010275629 -2.0177831e-05 8.24168e-06 4.2468135e-05 3.6450743e-05 -1.6988104e-05 -4.400935e-06
-3.2181957e-05 4.7683025e-05 0.00021128454 0.00012814891 7.258516e-05 4.2769425e-06 9.122433e-05 0.0001282835
6.918961e-05 2.4930147e-05 -0.0001703135 -9.697385e-05 -0.00020966202 -7.427905e-05 9.144013e-06 2.1871238e-05
1.2258783e-05 8.201046e-05 2.297845e-05 3.4016666e-05 -0.00013628388 6.578018e-05 1.8505954e-05 8.628154e-06
00000000: 7674 e136 1f86 cdb7 cd7f 6437 5440 f5b7
00000010: e7ec 6637 f5a2 27b6 82d6 a537 e816 3337
00000020: 901e c4b6 ac25 0936 5457 ba36 861b 9eb6
00000030: d6b2 3ab6 e23e 44b7 aeff edb9 0d26 81b9
00000040: a2db e8b9 7280 46b9 d4e6 be38 19a3 e7b6
00000050: fed1 8fb8 38b7 5038 a2c6 21b7 4dda fbb7
00000060: b6f6 3fb9 30f0 4fb8 a207 17b7 ad20 c2b8
00000070: b354 143a c66f 9d39 0633 f339 bc28 e839
00000080: edb4 11b9 ab8f 9cb8 bc3f d539 06fe 223a
00000090: d76a b9b7 14ad ff38 748f 0e3a 5d4a 3d3a
000000a0: d404 0b38 7b4a 3b39 4cda fb39 dac7 b239
000000b0: fe3b 113a e05a cd39 0c13 16b9 7378 7bb8
000000c0: fcfb cd39 450b 223a 4ebf 70b7 2bff fc38
000000d0: cc85 333a c783 093a 4067 5e38 8685 3c39
000000e0: 6d05 3039 eec9 c538 ccba 1c39 288e 1a39
000000f0: 3be7 9db8 884e eab7 3cac 9a39 6969 bb39
00000100: 71b8 6537 b862 2738 7ffa b639 1705 5339
00000110: 2806 a137 8e7b 7238 1d3f 91b8 ac99 0938
00000120: 2ff5 ebb8 020b 4e38 b6dd 4fb7 ff47 20b5
00000130: f88d 8c38 12f3 5a39 6b84 9b36 345e 63b5
00000140: cffb 6637 6052 6a39 7232 c136 49e0 7837
00000150: 10ad 4739 fc5c 9e38 1549 4239 6405 f338
00000160: 44e9 a2b8 0a79 e3b7 2eaf 9039 1558 4b39
00000170: 1ca3 5637 c267 bd37 b8ba 8639 d891 6038
00000180: 9ddb a2b7 67ee 5f38 ed69 a0b9 8189 adb7
00000190: f280 81b9 10a8 c9b8 b5cf 1738 8c35 5038
000001a0: 4622 cfb9 14ec a837 9c0f 5f38 88dc 1d38
000001b0: e40e 0cba e379 acb9 321f 2d38 c972 5fb8
000001c0: 9449 ae36 b974 4237 fee2 a5b8 4c11 d5b7
000001d0: ae15 bab7 6a51 4638 3047 fa38 66bf 8139
000001e0: e3b9 4338 5a75 e137 e03e d334 9da0 9eb8
000001f0: 8c76 4838 818d bfb7 618a 8ab9 6cf3 16b7
00000200: 67db 10b9 9625 a6b8 7174 0438 6069 b937
00000210: 0a5f b1b9 0c6e 53b9 39c3 c9b7 1068 4536
00000220: 80a4 f1b9 1e07 75b9 65a7 1db8 9e79 ffb7
00000230: 1134 57b8 bc7e 3038 809c a9b8 06e4 6838
00000240: 23e6 26b8 9112 4fb6 ca79 5338 e4de 8b39
00000250: eec1 edb6 17a1 b937 586e ef35 b1cb 8c39
00000260: 20ee d6b6 5e2d f137 2a9a 5039 a5a9 6e39
00000270: acef 4e39 4337 9439 088a 6f37 8b8f d4b8
00000280: 5e67 9439 111c 42b9 191b 16b8 7008 8b37
00000290: 346a 7339 3e15 4939 633e b2b8 c6b1 d937
000002a0: 922a 4bb7 b597 be37 ae89 01b7 4f27 1c38
000002b0: 0736 15b7 0a8f 80b5 bdcb a638 d00a 5c38
000002c0: ab2d 7c37 a5bd 2537 c0c5 27b7 7838 ad35
000002d0: d841 beb4 a4ab 4ab6 f4ff 5bb9 5d1f 5138
000002e0: 7c32 cdb8 e0ec 1739 63dd 0d38 e724 d6b7
000002f0: cbe5 7db9 b0b3 5d36 0765 03b8 3910 25b7
00000300: df75 5b39 dd7e d7b8 9043 a9b7 bf45 0a37
00000310: d01f 3238 b0e2 1838 ad81 8eb7 beab 93b6
00000320: 1dfb 06b8 42ff 4738 438c 5d39 b65f 0639
00000330: dc38 9838 a882 8f36 b04f bf38 d783 0639
00000340: e419 9138 1521 d137 2f96 32b9 705e cbb8
00000350: b8d8 5bb9 43c6 9bb8 3d69 1937 2078 b737
00000360: 12ab 4d37 08fd ab38 d8c1 c037 1ead 0e38
00000370: 6de7 0eb9 77f3 8938 3c3d 9b37 a4c1 1037

exp_avg_sq f4 [16, 14]
5.329111e-09 4.3012022e-08 5.100433e-09 4.635579e-08 5.597324e-10 7.732582e-10 4.6584695e-08 6.7122535e-08
1.3300275e-09 2.3532148e-10 5.3873492e-08 5.0525376e-08 2.2344149e-09 1.495447e-10 5.2265574e-07 1.6459207e-07
5.182839e-07 1.7040604e-07 1.2079308e-08 3.891937e-09 4.22104e-07 1.4923187e-06 2.3694169e-09 3.160684e-08
4.991506e-07 1.2998544e-06 1.8808586e-09 2.7753536e-08 2.6817145e-07 4.141082e-07 2.7597164e-07 4.1625333e-07
8.752427e-09 1.1654532e-08 5.3315847e-07 1.1009923e-06 1.0235181e-08 1.5184257e-08 4.540991e-07 1.2545854e-06
6.535249e-09 2.1222279e-08 3.850191e-07 6.149324e-07 3.6537153e-07 6.0581124e-07 1.938209e-08 1.9189796e-08
6.5426315e-07 1.5420468e-06 2.1000805e-08 1.9686302e-08 6.1839467e-07 1.845597e-06 1.45431205e-08 2.9564168e-08
1.919557e-07 3.724102e-07 1.8270809e-07 4.0809823e-07 1.838263e-08 1.6382614e-08 1.7950258e-07 1.0235366e-06
1.6169285e-08 8.2601845e-09 1.9935364e-07 7.963536e-07 1.5223009e-08 6.527302e-09 1.8005467e-07 1.2072731e-07
1.683724e-07 1.0969485e-07 1.3081611e-08 4.840387e-09 7.802282e-08 2.163334e-07 1.2544435e-08 2.676939e-09
6.8918624e-08 2.1944602e-07 9.614097e-09 2.0685762e-09 1.0964468e-07 1.3723547e-07 9.938474e-08 1.399222e-07
4.609e-09 4.166469e-09 1.6236169e-07 3.8677183e-07 1.2995562e-09 6.7244805e-09 1.701746e-07 4.113394e-07
2.9091318e-09 5.11604e-09 2.441052e-07 4.8113662e-08 2.4063422e-07 4.2277463e-08 7.914366e-09 2.1758955e-09
1.8196957e-07 3.258492e-07 4.6755235e-09 1.0839741e-08 1.803191e-07 2.661781e-07 4.352976e-09 9.2022425e-09
6.703109e-08 1.6140952e-08 6.17747e-08 1.7726125e-08 3.4245253e-09 1.4825317e-09 7.2353586e-08 8.080019e-08
4.739976e-09 2.4794147e-09 6.627158e-08 1.386207e-07 4.127049e-09 3.9417065e-09 2.653082e-07 2.9796962e-07
2.7739162e-07 3.4385343e-07 1.0193168e-08 7.752985e-09 1.8352947e-07 1.1539433e-06 5.339246e-09 1.8117557e-08
2.3911045e-07 8.608561e-07 5.7279474e-09 1.5219982e-08 6.476051e-08 2.0728704e-07 6.721112e-08 2.0455565e-07
3.381863e-09 4.9001403e-09 1.5467998e-07 4.3606306e-07 3.0360843e-09 3.6077037e-09 2.82815e-07 5.4094414e-07
5.8624474e-09 4.6296575e-09 7.4955345e-08 7.4096604e-08 7.826401e-08 7.147886e-08 4.271346e-09 3.9577106e-09
7.147323e-08 2.6741543e-07 4.0139048e-09 6.7749233e-09 8.696509e-08 2.2168103e-07 4.788798e-09 4.504007e-09
1.1420267e-08 8.538673e-08 1.3605286e-08 8.4779906e-08 9.280414e-10 1.5108694e-09 3.754913e-08 1.474933e-07
1.4784137e-09 5.473337e-10 1.4059104e-07 1.7452098e-07 3.5784218e-09 7.6978557e-10 3.2678845e-08 4.945596e-08
3.057904e-08 4.795076e-08 2.8931568e-09 2.1566262e-09 5.0353847e-08 9.037394e-08 3.9331005e-09 1.309613e-09
6.339356e-08 7.95365e-08 3.4880148e-09 1.4455295e-09 2.3915143e-07 1.15226385e-07 2.3085867e-07 1.0311944e-07
9.673886e-09 4.8026734e-09 1.16260175e-07 6.3955406e-07 8.429861e-09 1.44741135e-08 1.10478375e-07 5.762648e-07
8.773622e-09 1.2956404e-08 7.759013e-08 1.6461505e-07 8.039141e-08 1.631653e-07 2.7894582e-09 2.989897e-09
1.1315201e-07 3.2447835e-07 1.9827837e-09 4.5200257e-09 3.0288956e-07 3.793925e-07 9.185499e-09 2.179265e-09
00000000: 5b1b b731 38bc 3833 e23f af31 bb18 4733
00000010: abdb 1930 358d 5430 6a14 4833 0125 9033
00000020: 2fcc b630 8e5e 812f 8862 6733 3d01 5933
00000030: 3e8c 1931 176d 242f a14c 0c35 b9ba 3034
00000040: 3320 0b35 dbf8 3634 5c85 4f32 d7b9 8531
00000050: 889d e234 ae4b c835 39d3 2231 17c0 0733
00000060: 5efd 0535 a876 ae35 6a40 0131 ac66 ee32
00000070: 34f9 8f34 9952 de34 4129 9434 6c79 df34
00000080: 955d 1632 2c39 4832 5f1e 0f35 cfc5 9335
00000090: cdd6 2f32 896e 8232 e8ca f334 3a63 a835
000000a0: a88c e031 494c b632 9fb4 ce34 d511 2535
000000b0: 4828 c434 089f 2235 ab7d a632 cfd6 a432
000000c0: 9fa0 2f35 53f8 ce35 4265 b432 a31a a932
000000d0: c2ff 2535 3bb6 f735 52d9 7932 4bf4 fd32
000000e0: 621c 4e34 abef c734 6b2e 4434 9818 db34
000000f0: d5e7 9d32 c0b9 8c32 4bbd 4034 7360 8935
00000100: a2e4 8a32 ade8 0d32 e90d 5634 01c5 5535
00000110: c0c3 8232 c146 e031 0d55 4134 45a1 0134
00000120: dac9 3434 6291 eb33 89bd 6032 7f50 a631
00000130: 808d a733 4649 6834 0283 5732 35f5 3731
00000140: 6a00 9433 dda0 6b34 3f2b 2532 c726 0e31
00000150: cd75 eb33 005b 1334 576d d533 853d 1634
00000160: 315d 9e31 a628 8f31 a455 2e34 84a5 cf34
00000170: 129c b230 280d e731 3db9 3634 0fd6 dc34
00000180: fde9 4731 2ac9 af31 900d 8334 88a5 4e33
00000190: 8430 8134 9094 3533 c0f7 0732 c286 1531
000001a0: 6a63 4334 5ff0 ae34 57a6 a031 af39 3a32
000001b0: bd9d 4134 3de7 8e34 2f91 9531 e417 1e32
000001c0: bbf2 8f33 54a6 8a32 00a9 8433 2944 9832
000001d0: e354 6b31 f2c1 cb30 ce60 9b33 6084 ad33
000001e0: 45dd a231 5362 2a31 3051 8e33 c5d7 1434
000001f0: e8cd 8d31 9e6f 8731 ae6f 8e34 a2f8 9f34
00000200: 6aec 9434 db9a b834 071e 2f32 fd31 0532
00000210: 3210 4534 31e1 9a35 8174 b731 eea0 9b32
00000220: 175f 8034 9515 6735 8fcf c431 18bd 8232
00000230: 7812 8b33 a192 5e34 b455 9033 d4a3 5b34
00000240: 5d66 6831 175e a831 1c16 2634 0d1c ea34
00000250: 5ca3 5031 65eb 7731 ccd5 9734 6635 1135
00000260: a26e c931 e612 9f31 23f7 a033 0a1f 9f33
00000270: 1812 a833 eb7f 9933 28c3 9231 64fc 8731
00000280: d37c 9933 4c91 8f34 aeea 8931 dbc8 e831
00000290: 90c1 ba33 3807 6e34 b68a a431 aac1 9a31
000002a0: de32 4432 da5d b733 aebc 6932 3f10 b633
000002b0: 1c19 7f30 fea6 cf30 b445 2133 a65e 1e34
000002c0: 0f31 cb30 2f73 1630 5ff5 1634 f663 3b34
000002d0: 43e8 7531 d898 5330 c55a 0c33 6769 5433
000002e0: 0356 0333 6bf2 4d33 f4d0 4631 c533 1431
000002f0: a444 5833 9913 c233 eb23 8731 e9fd b330
00000300: fa22 8833 a7cd aa33 ceb1 6f31 0cac c630
00000310: b964 8034 6072 f733 f3e1 7734 8372 dd33
00000320: 3332 2632 c304 a531 b5aa f933 d2ad 2b35
00000330: ecd2 1032 d3a9 7832 2140 ed33 9eb0 1a35
00000340: ccba 1632 de96 5e32 a09f a633 0ac1 3034
00000350: a5a3 ac33 8932 2f34 abb0 3f31 d376 4d31
00000360: fafd f233 f733 ae34 8041 0831 914e 9b31
00000370: d39c a234 4faf cb34 40ce 1d32 09c2 1531

exp_avg f4 [16]
-9.339072e-06 -2.6066671e-05 0.000272058 0.00021118064 7.7870136e-05 3.4366938e-05 0.00011143682 -4.1279054e-06
-4.4833465e-05 0.00014226543 0.00014701401 0.00013992738 2.6193786e-05 -2.3953988e-05 -4.5429664e-05 1.1256452e-05
00000000: 02af 1cb7 c0a9 dab7 02a3 8e39 5f70 5d39
00000010: 364e a338 3825 1038 30b3 e938 7082 8ab6
00000020: 910b 3cb8 162d 1539 c627 1a39 78b9 1239
00000030: baba db37 ccf0 c8b7 bb8b 3eb8 18da 3c37

exp_avg_sq f4 [16]
3.300358e-08 2.8941835e-07 3.7879124e-07 6.005398e-07 4.5706847e-07 1.2296373e-07 8.963895e-08 1.0837379e-07
6.372653e-08 2.8453317e-07 1.4101576e-07 7.336146e-08 5.0138176e-08 4.0535298e-08 1.7459494e-07 1.3888328e-07
00000000: d2bf 0d33 5b61 9b34 ac5c cb34 c834 2135
00000010: 0363 f534 0308 0434 897f c033 1fbb e833
00000020: 08da 8833 f1c1 9834 1e6a 1734 e48a 9d33
00000030: 8257 5733 0819 2e33 4b78 3b34 f21f 1534

exp_avg f4 [8, 16]
-3.225491e-06 -1.830401e-05 2.6380276e-05 -3.1917512e-05 -8.301302e-05 -1.5124524e-06 -7.21329e-05 -0.00029900428
0.00015431974 -0.00025793086 6.4619653e-06 -0.0001621641 -5.67651e-05 -3.458027e-05 2.9125851e-05 8.374023e-05
-4.097011e-07 -0.0013488535 -0.00028917554 -0.00018036972 1.6925816e-05 -0.00029286684 -0.000111572204 -0.00017805467
-0.00059764547 -0.00036269036 -8.7455104e-05 -0.00014653889 -7.4519553e-06 -9.544243e-05 -0.00039575578 -0.00040651934
3.3282374e-06 -0.0010595586 -9.875954e-05 -1.37999705e-05 4.802651e-05 -0.00026989722 -3.432746e-05 -4.1871266e-05
-5.355557e-05 -0.0004652336 -6.8470006e-05 -0.00016165624 1.4508621e-06 -4.4858374e-05 -4.5967292e-05 -0.00029546532
3.855788e-12 4.109388e-11 7.7268206e-11 1.0503942e-10 9.470146e-11 4.3965855e-11 5.5126344e-11 9.0665333e-13
3.9649993e-12 2.6299171e-11 5.79454e-11 5.926462e-11 3.0980225e-11 2.4042207e-11 2.607603e-11 3.435647e-11
2.3070822e-06 2.3810553e-06 9.291272e-06 1.4251795e-05 1.4185607e-05 1.3728715e-05 2.5491274e-05 7.1306926e-07
3.20123e-06 1.1355525e-06 1.7886669e-05 2.634583e-05 4.0857785e-06 2.5944578e-06 4.1705246e-07 6.1663314e-07
3.2925698e-05 0.001285649 0.00040664175 0.0003875698 0.00015978678 0.00033943576 0.0002313427 8.0603815e-05
6.394877e-05 0.00033937028 0.0003448872 0.0007688311 4.698903e-05 6.3489075e-05 0.00015682954 0.000121615245
-1.2178626e-07 9.347601e-05 -3.676315e-05 -2.9196719e-05 -1.3296394e-05 -3.0096788e-05 -1.098187e-05 -8.37082e-05
-0.00044303248 3.4481425e-05 -4.51285e-05 0.00015189596 -1.317594e-06 1.3258625e-05 -0.00026432975 -0.00014228384
4.4224245e-05 0.0011702566 0.00036813572 0.00043320426 0.00027595565 0.00035470075 0.00024787206 8.569144e-05
9.109573e-05 0.00037406024 0.0004444082 0.00079674117 7.9269e-05 0.00016712784 2.7197737e-05 2.3477915e-05
00000000: 8375 58b6 908b 99b7 364b dd37 2bdf 05b8
00000010: 4717 aeb8 78ff cab5 0e46 97b8 adc3 9cb9
00000020: e4d0 2139 e53a 87b9 dcd3 d836 980a 2ab9
00000030: 1017 6eb8 480a 11b8 4a53 f437 b29d af38
00000040: e4f4 dbb4 03cc b0ba 7c9c 97b9 a121 3db9
00000050: eafb 8d37 ec8b 99b9 dffb e9b8 30b4 3ab9
00000060: 4fab 1cba 7a27 beb9 1a68 b7b8 3ca8 19b9
00000070: cf0b fab6 4428 c8b8 717d cfb9 1a22 d5b9
00000080: af5a 5f36 e3e0 8aba 201d cfb8 6c86 67b7
00000090: 1370 4938 fe80 8db9 d4fa 0fb8 ee9e 2fb8
000000a0: dba0 60b8 99ea f3b9 8e97 8fb8 4482 29b9
000000b0: 3ebb c235 5026 3cb8 01cd 40b8 afe8 9ab9
000000c0: daa9 872c 98bb 342e 22ea a92e f0fb e62e
000000d0: 2f40 d02e 275d 412e bf72 722e 4233 7f2b
000000e0: 8a81 8b2c 7854 e72d b8d8 7e2e 0453 822e
000000f0: a240 082e 3d7a d32d 005e e52d f219 172e
00000100: 5fd3 1a36 38ca 1f36 b6e1 1b37 fe1a 6f37
00000110: b8fe 6d37 6254 6637 18d6 d537 bf69 3f35
00000120: b6d4 5636 4969 9835 540b 9637 3d01 dd37
00000130: 9218 8936 721c 2e36 41e7 df34 b586 2535
00000140: b319 0a38 3983 a83a 8832 d539 bd32 cb39
00000150: 708c 2739 4cf6 b139 9594 7239 d809 a938
00000160: 3c1c 8638 82ed b139 fad1 b439 628b 493a
00000170: 1616 4538 7025 8538 9c72 2439 b00b ff38
00000180: 5ac4 02b4 8d08 c438 2232 1ab8 7aeb f4b7
00000190: 9413 5fb7 5c78 fcb7 c63e 38b7 7f8c afb8
000001a0: d046 e8b9 26a0 1038 5c48 3db8 4346 1f39
000001b0: 2fd8 b0b5 5c71 5e37 bd95 8ab9 0732 15b9
000001c0: 6c7d 3938 4c63 993a 5702 c139 b11f e339
000001d0: 24ae 9039 21f7 b939 d3f4 8139 3eb5 b338
000001e0: a60a bf38 841d c439 75ff e839 65dc 503a
000001f0: 383d a638 0a3f 2f39 b226 e437 70f2 c437

exp_avg_sq f4 [8, 16]
4.8750897e-09 3.176854e-07 5.9541822e-08 6.0965085e-08 4.9421203e-08 2.4801066e-08 4.1241552e-09 7.693318e-07
9.197257e-07 1.3608501e-06 1.0236484e-07 2.0372457e-07 6.6175e-08 3.1591664e-08 1.2290668e-06 1.1133622e-07
4.931533e-08 3.295971e-06 1.0321171e-07 9.451736e-08 3.247357e-07 4.833277e-07 8.004563e-08 8.307383e-08
4.0297212e-07 5.51328e-07 8.6587687e-07 6.7342165e-07 6.7507193e-07 2.6152424e-08 2.1458209e-07 9.784874e-07
1.716103e-08 3.8201874e-06 7.260801e-08 5.682708e-08 1.4632887e-07 2.9960114e-07 4.599632e-08 3.377062e-08
2.0551095e-08 5.5068256e-07 4.87451e-07 7.757962e-07 3.182553e-07 1.28747155e-08 2.3658542e-08 5.1321524e-07
4.1965286e-08 1.5218818e-08 2.8486044e-08 3.8339167e-08 3.2232595e-08 3.1186424e-08 1.1285256e-08 1.1739765e-08
4.032337e-07 6.423103e-08 1.8333912e-08 1.1863646e-08 6.4605383e-09 2.7886529e-09 1.9515959e-07 6.907239e-09
1.09453335e-08 3.6344734e-09 9.8425645e-08 9.2797805e-08 7.2589025e-08 7.226173e-08 2.725545e-08 1.6096942e-10
4.2568093e-08 7.451768e-09 1.0441513e-07 2.8130115e-08 6.34621e-08 1.1292071e-08 1.9098255e-08 6.896085e-08
9.2493275e-09 3.1780285e-06 5.134866e-07 4.2914456e-07 3.113367e-07 3.6279334e-07 1.3602462e-07 2.9349232e-09
1.9285492e-08 2.70009e-07 4.4217708e-07 8.481931e-07 1.445224e-07 1.790597e-08 8.297835e-09 9.7931235e-08
1.5052495e-10 6.3788825e-08 8.035546e-09 2.4343818e-08 2.258776e-08 2.9174732e-09 1.4541569e-09 4.7492492e-07
1.0762291e-06 1.0612476e-06 3.4442846e-09 1.0676888e-08 2.4239208e-10 8.823536e-09 1.0385031e-06 1.8096735e-08
3.9013872e-07 4.4671565e-06 1.8042898e-06 2.131545e-06 1.3125706e-06 1.7704575e-06 1.8508983e-07 1.1941242e-08
5.341525e-07 7.918119e-07 2.6540313e-06 1.921852e-06 1.3770001e-06 7.640815e-07 2.0817295e-07 2.5087916e-06
00000000: be81 a731 598e aa34 edba 7f33 e9eb 8233
00000010: 3043 5433 1f0a d532 74b4 8d31 1484 4e35
00000020: 12e3 7635 74a6 b635 aad3 db33 62bf 5a34
00000030: 171c 8e33 67af 0733 6af6 a435 bc17 ef33
00000040: c7ce 5333 5a30 5d36 3da5 dd33 78f9 ca33
00000050: 5657 ae34 07be 0135 8de5 ab33 5266 b233
00000060: 1158 d834 f9fe 1335 9b6e 6835 2fc5 3435
00000070: 9736 3535 caa5 e032 e067 6634 9254 8335
00000080: 8169 9332 292f 8036 adec 9b33 0912 7433
00000090: 931e 1d34 ded8 a034 7d8d 4533 300b 1133
000000a0: 5688 b032 9ed2 1335 61d9 0235 4f40 5035
000000b0: addc aa34 992f 5d32 af39 cb32 e2c3 0935
000000c0: 523d 3433 89ba 8232 79b1 f432 5caa 2433
000000d0: 1d70 0a33 d6f1 0533 15e1 4132 08b0 4932
000000e0: 057c d834 62ef 8933 b37c 9d32 ded0 4b32
000000f0: 7ffb dd31 80a2 3f31 0f8d 5134 b754 ed31
00000100: 160a 3c32 55c2 7931 125e d333 2248 c733
00000110: 3de2 9b33 4e2e 9b33 5e1f ea32 ddfc 302f
00000120: 1dd4 3633 3905 0032 d33a e033 c7a2 f132
00000130: a948 8833 0eff 4132 820d a432 a117 9433
00000140: f9e6 1e32 1d46 5536 88d6 0935 2e65 e634
00000150: ca25 a734 f0c5 c234 2a0e 1234 b7af 4931
00000160: 3fa9 a532 c1f5 9034 5b64 ed34 63af 6335
00000170: 042e 1b34 a5cf 9932 448e 0e32 444e d233
00000180: 0281 252f 47fc 8833 b40c 0a32 9f1c d132
00000190: 0207 c232 bb7c 4831 99db c730 2ff9 fe34
000001a0: f372 9035 3170 8e35 7fb0 6c31 736d 3732
000001b0: a741 852f 5296 1732 b262 8b35 2473 9b32
000001c0: 4274 d134 95e4 9536 ed2a f235 aa0b 0f36
000001d0: 952b b035 75a0 ed35 1bbd 4634 2326 4d32
000001e0: ae62 0f35 e68c 5435 e91b 3236 2af9 0036
000001f0: 5dd1 b835 481b 4d35 2586 5f34 b65c 2836

exp_avg f4 [8]
6.665524e-05 -0.00023017467 0.00013563145 1.05491366e-10 1.4481701e-05 0.00026539215 -9.764927e-05 0.0002452501
00000000: 42c9 8b38 0b5b 71b9 4a38 0e39 5cfa e72e
00000010: 6ff6 7237 5524 8b39 0dc9 ccb8 e994 8039

exp_avg_sq f4 [8]
5.4019614e-07 7.1715465e-07 3.9547794e-07 2.7203285e-07 1.7152986e-07 4.174895e-07 3.416486e-07 7.243408e-06
00000000: ff01 1135 7e82 4035 1352 d434 e90b 9234
00000010: c52d 3834 5223 e034 d36b b734 670c f336

exp_avg f4 [2, 8]
0.00016432359 -0.0014505512 -0.0014235891 1.7627676e-10 3.1109652e-05 -0.0010306255 -0.0019971724 -0.0014192103
0.0005471132 0.00058769935 0.0016407197 2.740045e-10 8.553634e-06 0.0005684143 -0.00027498035 0.0008889261
00000000: 474e 2c39 6c20 beba b997 baba 7fd1 412f
00000010: bc7b 0238 0e16 87ba fee2 02bb cc04 baba
00000020: 256c 0f3a d60f 1a3a 6b0d d73a b5a2 962f
00000030: 9481 0f37 a301 153a 3d2b 90b9 d206 693a

exp_avg_sq f4 [2, 8]
2.9268112e-06 1.0361795e-05 7.6917395e-06 2.0182663e-06 1.3734264e-06 2.4077285e-06 9.303924e-06 1.23884565e-05
2.0918578e-06 9.004617e-06 6.4846977e-06 1.558327e-06 1.162247e-06 7.3248157e-07 2.2534501e-05 7.2555827e-06
00000000: 3c6a 4436 92d7 2d37 c50b 0137 8d71 0736
00000010: 9256 b835 7694 2136 0d18 1c37 04d8 4f37
00000020: d861 0c36 8912 1737 2197 d936 b527 d135
00000030: 81fe 9b35 c09f 4435 7908 bd37 fb74 f336

exp_avg f4 [2]
-0.0016301264 -0.00048440835
00000000: f7a9 d5ba 30f8 fdb9

exp_avg_sq f4 [2]
4.8891532e-05 7.474067e-05
00000000: e210 4d38 17be 9c38

fc1.weight f4 [32, 20]
0.10913977 -0.11560664 0.4203078 -0.28216127 0.29292905 0.10541656 -0.13420199 0.0360574
0.06944256 -0.28982124 -0.050119568 -0.08479663 -0.12949923 -0.12094518 0.2239481 -0.07203613
0.027083036 -0.017356943 0.07882528 -0.11582055 -0.0971767 0.07773355 -1.056159 0.52457297
-0.22721788 0.08077814 -0.11788214 0.21663278 0.06869348 0.24877606 -0.17583369 -0.017559968
-0.0543559 -0.13982219 -0.025314143 -4.8081274e-05 -0.038295183 -0.023652118 -0.009368599 0.02252903
0.057746183 -0.1659598 0.74726295 -0.7187893 0.35850465 0.23165303 -0.34374517 0.06995
-0.258882 -0.024336988 -0.09928335 0.11319983 -0.2440351 0.07566331 0.0059510767 0.017679619
0.015884917 -0.027987327 0.021356173 0.008253047 -0.0603198 -0.15446764 0.07590746 -0.86315495
0.09084858 -0.12325494 0.078208186 -0.08364072 0.17917788 0.17788054 -0.0155793 0.063386254
-0.2520955 -0.18873702 -0.025025986 -0.010646967 -0.019173985 -0.0059931832 0.027428383 0.006251242
0.31878787 -0.041551255 0.025694257 -0.18427904 0.20789012 -0.07560469 0.082181245 -0.033422217
-0.0069975457 0.0053625256 0.2420441 -0.55762464 -0.205524 0.22743349 0.17420004 0.2373507
0.057946924 -0.16249989 0.08471199 -0.12804757 0.041894138 -0.27198645 -0.051963776 -0.61455876
-0.09078215 -0.06188996 -0.4738634 -0.13142933 -0.16790554 -0.1603719 -0.104340285 -0.35461447
0.020246994 -0.28264248 0.14419979 -0.06836865 -0.08356448 0.006309008 -0.0493527 0.07861762
0.01870412 -0.021802593 -0.93230116 -1.2539269 -0.14787434 -0.029286344 0.006608843 -0.09617282
0.08078958 -0.10664251 -0.1303981 -0.009093904 0.017882941 0.0070396923 -0.048006352 -0.019777594
0.003507019 0.008139821 -0.04060972 -0.0070116175 0.03129369 -0.063253656 1.8805051 0.025002625
0.27219686 0.22235763 0.06201062 -0.14629844 -0.016580874 0.050997216 -0.07051888 0.17870581
-0.22128274 0.18929477 -0.0025557247 0.0025151318 -0.034810446 0.036696568 0.003370672 -0.01842045
-0.10000427 -0.1341463 -0.049893036 0.4094808 0.055671327 0.27681074 -0.23395287 0.065840095
0.13473053 -0.12342738 -0.08370638 -0.35822374 0.10647711 -0.01302411 0.19154021 0.28457588
0.289009 -0.05214805 -0.014951025 -0.09040805 0.32053232 -0.21868211 -0.25705934 -0.83026695
0.0031069093 -0.23739307 0.122850865 0.14177053 0.06751856 0.10986528 0.019683072 -0.048745506
-0.17639114 0.0953839 0.050634876 0.08611222 0.14153533 0.04698949 -0.020838803 0.0125646405
-0.14710975 0.0614146 0.64510137 -0.3071189 -0.17931527 0.2753892 -0.08237922 0.29423222
0.14873552 0.37108842 -0.27114016 -0.3029816 -0.07125989 0.18691641 -0.3374024 0.18810718
-0.010080602 0.2542335 -0.1800271 0.044916198 0.25668177 0.08648107 0.9933774 -0.08127582
0.2941339 -0.0038298718 -0.04251422 -0.11976673 0.081300355 0.094659 0.22448319 0.28815058
-0.02730906 0.19999743 -0.062219452 0.039373256 0.028217673 -0.012274511 0.011004053 0.004515629
0.1077526 0.093732975 -0.79710925 0.4958914 -0.16067898 0.055519924 -0.13707843 0.09524642
0.26424408 0.28767875 -0.014115393 -0.15872435 -0.11676189 0.16882612 -0.074718975 0.030804116
00000000: ac84 df3d 2dc3 ecbd 9532 d73e 7177 90be
00000010: ccfa 953e a3e4 d73d 3f6c 09be edb0 133d
00000020: e737 8e3d 7363 94be 2d4a 4dbd dba9 adbd
00000030: 729b 04be 1bb2 f7bd a752 653e ae87 93bd
00000040: 3edd dd3c 2630 8ebc 266f a13d 5333 edbd
00000050: 9404 c7bd c432 9f3d 3830 87bf 6a4a 063f
00000060: ceab 68be 026f a53d 316c f1bd fcd4 5d3e
00000070: 2baf 8c3d 27bf 7e3e bf0d 34be ecd9 8fbc
00000080: 4ba4 5ebd 8c2d 0fbe 9b5f cfbc e0aa 49b8
00000090: 69db 1cbd 16c2 c1bc c17e 19bc cd8e b83c
000000a0: 4387 6c3d 5ef1 29be a04c 3f3f 9302 38bf
000000b0: ec8d b73e 7436 6d3e 5eff afbe f241 8f3d
000000c0: 2e8c 84be 5d5e c7bc 1255 cbbd 50d5 e73d
000000d0: 56e4 79be 5ef5 9a3d 4001 c33b d9d4 903c
000000e0: 1621 823c ae45 e5bc 24f3 ae3c ca37 073c
000000f0: e511 77bd c42c 1ebe 5f75 9b3d b9f7 5cbf
00000100: d20e ba3d 166d fcbd 9d2b a03d d34b abbd
00000110: 687a 373e 5126 363e 5240 7fbc a7d0 813d
00000120: a912 81be 4744 41be 4c03 cdbc 9e70 2ebc
00000130: c312 9dbc 7762 c4bb 7db1 e03c 38d7 cc3b
00000140: 2a38 a33e a631 2abd c37c d23c a5b3 3cbe
00000150: 26e1 543e a2d6 9abd a44e a83d bce5 08bd
00000160: ab4b e5bb 20b8 af3b 69da 773e 7dc0 0ebf
00000170: e274 52be 53e4 683e 7f61 323e 100c 733e
00000180: c159 6d3d 5f66 26be 7b7d ad3d e71e 03be
00000190: 3099 2b3d cf41 8bbe f8d7 54bd b953 1dbf
000001a0: feeb b9bd 5480 7dbd 399e f2be 6995 06be
000001b0: 6eef 2bbe 8838 24be 5cb0 d5bd 0790 b5be
000001c0: 06dd a53c 84b6 90be 1ca9 133e dd04 8cbd
000001d0: db23 abbd ccbb ce3b 0f26 4abd 4602 a13d
000001e0: 6239 993c 5a9b b2bc 4aab 6ebf ad80 a0bf
000001f0: 5f6c 17be eae9 efbc fe8e d83b 41f6 c4bd
00000200: 0275 a53d 6367 dabd 1487 05be 99fe 14bc
00000210: 3f7f 923c 38ad e63b 4fa2 44bd 9f04 a2bc
00000220: 04d6 653b e25c 053c 6156 26bd b6c1 e5bb
00000230: d02d 003d 228b 81bd 64b4 f03f 4ed2 cc3c
00000240: 635d 8b3e b8b1 633e d9fe 7d3d 42cf 15be
00000250: 9dd4 87bc 75e2 503d 346c 90bd a8fe 363e
00000260: f197 62be 7dd6 413e f27d 27bb e9d4 243b
00000270: 6695 0ebd 244f 163d 7ee6 5c3b 7ce6 96bc
00000280: 0acf ccbd a65d 09be a45c 4cbd 78a7 d13e
00000290: 9e07 643d 23ba 8d3e 5791 6fbe 2cd7 863d
000002a0: cdf6 093e 7fc7 fcbd 406e abbd 1a69 b7be
000002b0: ac10 da3d 1463 55bc 1e23 443e eeb3 913e
000002c0: fdf8 933e 3299 55bd 25f5 74bc db27 b9bd
000002d0: d01c a43e 34ee 5fbe 489d 83be 608c 54bf
000002e0: 4a9d 4b3b 2b17 73be 3c99 fb3d 4b2c 113e
000002f0: 2c47 8a3d 0c01 e13d 653e a13c 5ea9 47bd
00000300: e19f 34be a258 c33d 8466 4f3d 9b5b b03d
00000310: a3ee 103e 0d78 403d 23b6 aabc ecdb 4d3c
00000320: f0a3 16be e08d 7b3d 5d25 253f b03e 9dbe
00000330: 6c9e 37be d0ff 8c3e 70b6 a8bd 9ba5 963e
00000340: 204e 183e 4dff bd3e e2d2 8abe 6720 9bbe
00000350: b5f0 91bd 0467 3f3e 02c0 acbe 2b9f 403e
00000360: 1c29 25bc e52a 823e 0659 38be 0cfa 373d
00000370: cb6b 833e fd1c b13d fb4d 7e3f f073 a6bd
00000380: b898 963e 96fe 7abb 6423 2ebd 4248 f5bd
00000390: cd80 a63d 94dc c13d ecde 653e 7988 933e
000003a0: 40b7 dfbc 20cc 4c3e d3d9 7ebd da45 213d
000003b0: c028 e73c 081b 49bc 584a 343c d7f7 933b
000003c0: 65ad dc3d 13f7 bf3d 5a0f 4cbf 7ae5 fd3e
000003d0: 0889 24be dc68 633d 4a5e 0cbe 8e10 c33d
000003e0: 004b 873e a14a 933e 4044 67bc a388 22be
000003f0: dc20 efbd c1e0 2c3e 4306 99bd ea58 fc3c

fc1.bias f4 [32]
0.0492024 -0.6760103 -0.32505727 -0.154126 -0.10640888 0.4583111 -0.87644917 0.008970723
-0.69558597 -0.43251628 0.7192395 0.23492615 -0.2970203 -0.5410165 -0.6733372 -0.22724937
0.5442697 -0.8029388 1.2624927 -0.55145 -0.80853 -0.41404262 0.05040115 -0.6016332
-0.05575354 -0.37842938 -0.55793095 0.28496718 -0.3463924 -0.29610607 0.105636716 -0.4144692
00000000: 7588 493d 030f 2dbf e86d a6be 35d3 1dbe
00000010: e6ec d9bd c1a7 ea3e f95e 60bf f0f9 123c
00000020: ec11 32bf c672 ddbe 1420 383f 7b90 703e
00000030: 0b13 98be 0f80 0abf d45f 2cbf 0fb4 68be
00000040: 4255 0b3f 668d 4dbf 5c99 a13f d42b 0dbf
00000050: d2fb 4ebf 65fd d3be 7071 4e3d a204 1abf
00000060: d35d 64bd 7fc1 c1be 90d4 0ebf 38e7 913e
00000070: 585a b1be 379b 97be 1058 d83d 4f35 d4be

fc2.weight f4 [16, 32]
-0.01010352 0.49441794 0.0210927 0.15420066 0.17310888 0.1905142 0.82914317 0.43281865
-0.029863847 0.16103426 -0.32762352 0.37238458 0.20788133 0.38959017 0.6596713 0.21049735
0.0042148996 0.68088186 0.24163452 0.353449 0.50860703 0.24122755 -0.03427494 0.6059784
0.22520073 0.33807585 0.3199602 -0.077440485 0.45647368 0.08944821 -0.09922483 0.33670062
-0.045369953 0.6354061 0.31187108 0.24027765 -0.13850917 0.026787281 0.8940574 0.62572306
0.20741282 0.39359167 -0.17892055 0.29029518 0.08924688 0.43674856 0.40215102 0.24007916
-0.1743277 0.81079876 -0.05051517 0.16247872 0.6247862 0.3917267 0.17909122 0.6476135
0.26930326 0.35242873 0.4174906 -0.03440269 0.23550355 0.14670229 -0.08741133 0.4702111
0.05148363 0.08311553 -0.23818366 0.067910895 -0.17446277 -0.09389641 0.081907466 0.0060932282
-0.085023776 0.041154444 -0.17119591 0.047743674 0.084391326 -0.084053926 -0.06322336 -0.11257713
-0.13336383 -0.14392993 -0.10473947 -0.21523371 -0.2125424 -0.044481114 -0.195948 -0.170567
-0.063027695 -0.15793927 0.09349492 -0.1301638 -0.17535087 -0.10859804 -0.21333088 0.019377511
0.07616372 -0.16744481 -0.13902055 0.092049845 -0.18663348 -0.01976982 -0.21336436 -0.20943634
-0.0006435529 -0.16866827 0.0004860505 -0.10384213 -0.07716616 -0.13597463 0.060226046 0.08931703
-0.043516036 -0.16388117 -0.22045732 0.08690804 -0.0039934595 0.0028003 -0.030255344 0.024068471
-0.010459688 0.007108213 0.032621242 -0.042800106 0.0977166 0.03413831 -0.08516288 -0.15435474
-0.04979235 0.073089905 0.04834883 -0.13067424 -0.08486285 0.0029240476 0.0044502304 0.086647384
0.006570766 -0.0057874983 -0.03774288 -0.12372335 -0.12015425 -0.041053858 -0.0036469896 -0.21539655
-0.033153176 -0.003990459 -0.12137063 -0.050055757 0.040812388 0.030232375 0.09069522 -0.12033685
0.011273695 -0.20083971 -0.06961146 -0.16016752 -0.019655764 0.035443168 0.02296601 -0.15269789
-0.36353883 0.7151867 0.25739038 0.0686848 -0.32915208 -0.41286805 0.82812864 -0.5079101
0.0047430387 -0.008926021 -0.2903702 -0.27233192 0.30714643 0.60631406 0.5222107 0.12075741
-0.17287976 0.43844232 -0.1899605 0.34797227 0.4680898 0.31337428 -0.3716307 0.48179343
-0.56773543 0.46897563 0.4411425 -0.92186165 -0.24567409 0.20347695 0.07806493 0.17346491
0.12714404 0.6585413 0.27229065 -0.10585454 0.04448184 -0.36730745 1.0042868 0.35350528
0.4123056 0.30858618 -0.7921257 0.19493896 0.033046998 0.3515998 0.54744625 0.19375737
-0.74977785 0.37044767 -0.5701552 0.115694985 0.7433782 0.12056881 -0.07133454 0.27414557
-0.2933551 0.1576409 0.562473 -0.2844843 0.40502712 0.1144436 -0.23720537 0.1099674
0.046926644 0.590322 0.2969838 -0.04181439 0.021518083 0.060324952 0.6810595 0.14205706
0.29614654 0.13552083 -0.5699157 0.0074029695 0.20459732 0.38691917 0.556187 0.16958867
-0.52801746 0.65050024 -0.24189498 0.3796009 0.6810028 0.09199558 -0.06888873 0.42837456
-0.32654682 0.20121513 0.29171622 -0.10798272 0.1467879 -0.07759766 -0.4175773 0.19946416
00000000: 3c89 25bc 5924 fd3e 99ca ac3c c7e6 1d3e
00000010: 7443 313e 2816 433e ba42 543f 689a dd3e
00000020: 07a5 f4bc 2ae6 243e 45be a7be 31a9 be3e
00000030: d8de 543e 5d78 c73e 38e0 283f 9e8c 573e
00000040: 241d 8a3b 464e 2e3f 0a6f 773e 44f7 b43e
00000050: 1234 023f 5b04 773e e163 0cbd 6721 1b3f
00000060: 059b 663e 4718 ad3e d3d1 a33e 1e99 9ebd
00000070: ebb6 e93e a030 b73d 6336 cbbd 0664 ac3e
00000080: d8d5 39bd f9a9 223f 91ad 9f3e 580b 763e
00000090: 59d5 0dbe 0071 db3c f2e0 643f 632f 203f
000000a0: 0764 543e d984 c93e f336 37be 92a1 943e
000000b0: 11c7 b63d 829d df3e bde6 cd3e 50d7 753e
000000c0: f682 32be 8290 4f3f ffe8 4ebd d260 263e
000000d0: fdf1 1f3f 6790 c83e b063 373e 00ca 253f
000000e0: 1ee2 893e 8a71 b43e 54c1 d53e d6e9 0cbd
000000f0: d827 713e 2039 163e b604 b3bd 82bf f03e
00000100: 80e0 523d 7a38 aa3d 6be6 73be de14 8b3d
00000110: 5ea6 32be c34c c0bd 1abf a73d b4a9 c73b
00000120: f220 aebd 9091 283d fb4d 2fbe df8e 433d
00000130: 5cd5 ac3d 7724 acbd 407b 81bd d78e e6bd
00000140: 8790 08be 5e62 13be a681 d6bd 3a66 5cbe
00000150: b7a4 59be d431 36bd 98a6 48be 1ea9 2ebe
00000160: aa14 81bd d5ba 21be 447a bf3d a949 05be
00000170: 2e8f 33be a668 debd 6973 5abe 96bd 9e3c
00000180: b9fb 9b3d a776 2bbe 675b 0ebe a184 bc3d
00000190: d91c 3fbe 51f4 a1bc 307c 5abe 7b76 56be
000001a0: 1bb4 28ba 60b7 2cbe 98d4 fe39 2fab d4bd
000001b0: 4b09 9ebd ef3c 0bbe 96af 763d d9eb b63d
000001c0: df3d 32bd 77d0 27be 90bf 61be d8fc b13d
000001d0: 91db 82bb 3d85 373b 0eda f7bc 3e2b c53c
000001e0: 1c5f 2bbc 03ec e83b da9d 053d 2a4f 2fbd
000001f0: a41f c83d 9dd4 0b3d e069 aebd 2b0f 1ebe
00000200: 10f3 4bbd 29b0 953d 6c09 463d 78cf 05be
00000210: 93cc adbd 61a1 3f3b 3dd3 913b 2f74 b13d
00000220: 954f d73b 0ea5 bdbb 4798 1abd ab62 fdbd
00000230: 6e13 f6bd 1728 28bd 5502 6fbb ea90 5cbe
00000240: a0cb 07bd 65c2 82bb 2a91 f8bd 4407 4dbd
00000250: e42a 273d e3a9 f73c 6abe b93d 2b73 f6bd
00000260: 4eb5 383c eda8 4dbe 7490 8ebd f402 24be
00000270: 2005 a1bc db2c 113d 3723 bc3c d65c 1cbe
00000280: c321 babe 7a16 373f acc8 833e 9eaa 8c3d
00000290: 9f86 a8be 7163 d3be 3d00 543f 6506 02bf
000002a0: 7e6b 9b3b 723e 12bc 67ab 94be 176f 8bbe
000002b0: 4c42 9d3e 6637 1b3f 9aaf 053f a94f f73d
000002c0: 6407 31be 837b e03e 0185 42be 6c29 b23e
000002d0: 77a9 ef3e 9872 a03e 6146 bebe a1ad f63e
000002e0: 1c57 11bf 931d f03e 6edd e13e 20ff 6bbf
000002f0: fd91 7bbe 435c 503e 82e0 9f3d c9a0 313e
00000300: 0c32 023e 2a96 283f ae69 8b3e 44ca d8bd
00000310: 9732 363d b90f bcbe 788c 803f a5fe b43e
00000320: b819 d33e 02ff 9d3e c0c8 4abf 149e 473e
00000330: 4a5c 073d e404 b43e 7025 0c3f 5568 463e
00000340: 71f1 3fbf 51ab bd3e b1f5 11bf 7ef1 ec3d
00000350: 094e 3e3f c8ec f63d d817 92bd cf5c 8c3e
00000360: a432 96be 9e6c 213e 3bfe 0f3f eda7 91be
00000370: b75f cf3e 6861 ea3d f7e5 72be 9736 e13d
00000380: 2736 403d 581f 173f 430e 983e 9145 2bbd
00000390: b146 b03c 4c17 773d ea59 2e3f 6877 113e
000003a0: 85a0 973e f9c5 0a3e ffe5 11bf 9c94 f23b
000003b0: f681 513e 451a c63e 4562 0e3f a7a8 2d3e
000003c0: 272c 07bf 2f87 263f 51b3 77be 0d5b c23e
000003d0: 3356 2e3f 2e68 bc3d 8915 8dbd e953 db3e
000003e0: 2531 a7be 570b 4e3e d45b 953e 0b26 ddbd
000003f0: 914f 163e 86eb 9ebd b1cc d5be 5540 4c3e

fc2.bias f4 [16]
0.21789314 0.14845668 0.041081328 -0.05945231 -0.054930873 -0.3898613 -0.7878781 -0.3895454
-0.26505458 -0.23390575 0.018420175 0.23297381 0.06676303 -0.05722547 0.07726292 -0.11316572
00000000: 611f 5f3e 0705 183e e544 283d 4484 73bd
00000010: 32ff 60bd e69b c7be 61b2 49bf 7f72 c7be
00000020: 3cb5 87be fd84 6fbe e8e5 963c b090 6e3e
00000030: 0ebb 883d 4165 6abd 063c 9e3d 6ec3 e7bd

fc3.weight f4 [1, 16]
-0.40697134 -0.41878888 0.1327746 -0.08451786 0.16647393 -0.6918035 -0.70014507 -0.39860505
-0.7225098 0.11993099 0.10371466 -0.40069988 0.14934523 0.16885291 -0.5899253 -0.36609975
00000000: 8c5e d0be 7f6b d6be 11f6 073e b317 adbd
00000010: 2478 2a3e 091a 31bf b53c 33bf f615 ccbe
00000020: 67f6 38bf 619e f53d 5a68 d43d 8928 cdbe
00000030: f5ed 183e c7e7 2c3e 5805 17bf 6d71 bbbe
